models/run2/12.pt (torch, 153942 bytes, 6 tensors)

0.weight f8 [32, 1, 9]
00000000: 4ca1 3a29 af9a a23f bcc2 365f e842 c73f
00000010: 6adc 125d 452f c6bf ed9d 938f 5dae ca3f
00000020: 98e3 9150 5faf b63f ed3b 621e 1dc0 d03f
00000030: e1a3 c313 0aec d03f e311 9e42 1cf4 d13f
00000040: ce78 39b4 b7f4 d13f 61a0 abcd 173b bd3f
00000050: d7fb 98fe 3647 d33f c0ea bff2 99d9 aebf
00000060: 7bc8 822d d9f0 d7bf bc04 8a6f b673 d33f
00000070: 32ed ab59 a966 c73f a16e cfd3 efe5 d33f
00000080: 8e49 a977 44c0 d5bf e0e8 5986 b521 c9bf
00000090: 6082 4ac2 a1cc cabf 1fb1 8a3c 83c8 b63f
000000a0: ed97 8b04 90eb ce3f af71 ae84 2330 d3bf
000000b0: c63c ae85 e16d 953f 613d 3381 7aa0 d33f
000000c0: c9a1 3f22 12ec abbf b986 0b5f 04c2 c53f
000000d0: 14f2 29e5 fe90 cfbf db98 4c5a 0b4d a1bf
000000e0: 43b9 2b0e 6005 c43f 69dc 1a6a dc70 c5bf
000000f0: 466f 07ab dd16 bb3f 587f 7cd7 0cfc ac3f
00000100: 66ea 7c7b 5c9c d43f 49ff 57be ecb0 c3bf
00000110: 84b2 9ec4 5539 c8bf afde 703a f752 cabf
00000120: 1277 8bae 92a2 cebf 0003 ba69 11bd c53f
00000130: 0dad 686e 4982 d2bf ccda bca7 3474 d23f
00000140: 1cbb 131c fb7a a23f 3701 b24b cf05 d3bf
00000150: 0039 4ba9 a9f2 c33f 6f52 d2ea 2f83 91bf
00000160: 6c20 7bb3 2273 c63f fa62 a7e0 c572 bebf
00000170: 35a0 cabe 9d00 d13f 4549 deea 8c34 cf3f
00000180: 202e de8b 97c9 9e3f 4a72 803b 7131 c73f
00000190: 1b51 3db1 f5e3 80bf 0d51 9348 0af8 d3bf
000001a0: 3f3c 2600 f3ec 71bf 9b56 ccc8 1c72 b53f
000001b0: c75f d21d 7a2a d23f d9cc c9fa ada7 d13f
000001c0: 7f70 0f24 3575 d13f a56b a7aa 46aa aebf
000001d0: a7c6 528a 1b70 d4bf c40e 7997 623c a5bf
000001e0: 0b84 9f27 8f49 d43f d645 5f3f d487 98bf
000001f0: d194 e392 83da b0bf 0a6b 6e99 fc5f a13f
00000200: 56e5 13e5 7c76 c2bf 45c8 a578 88a9 94bf
00000210: a589 2ad1 387f ce3f c02d b9a9 795c c2bf
00000220: 0daf fac1 61f1 d3bf e02c 98ca c164 d03f
00000230: e1d7 af1a 0c7a b73f 1063 5f84 88b1 c5bf
00000240: 7e9c 5ad8 e280 c73f 3105 3fd8 c0d9 c83f
00000250: 4c36 bce6 f6ac bdbf 1d72 50db debd d03f
00000260: 08a3 c7db c71c d4bf 9f18 1509 6060 c73f
00000270: 4bf5 5838 c8ad c7bf a7aa 8408 108b c0bf
00000280: 9866 98f4 a53a d13f ae91 7197 fcc8 d0bf
00000290: e5a2 28ff dd79 c8bf d2d0 7c3a 6793 8fbf
000002a0: 05b0 f61b 4a2a cc3f 2f53 c9f9 8f7b d1bf
000002b0: ec19 b2bc 669b cdbf d0bb 6e84 9738 c93f
000002c0: 81ae b68a a73a 44bf e6c4 193a 4614 c53f
000002d0: 18a8 6cdd 1979 c73f ccb6 6bf2 8329 93bf
000002e0: 3e6b 4287 8ec9 bbbf 6111 b6ab 0f6a b4bf
000002f0: 14d6 1658 710a d03f feac 09e6 5c2a d2bf
00000300: 9796 8b28 dcfb c13f 46da 1d78 a36d ca3f
00000310: 27e7 c9d6 ef3d d23f a49a 851e fee2 a43f
00000320: 1e4c ccd1 51cd b9bf 4b06 5169 4c01 c6bf
00000330: 0421 6ef1 db02 bf3f 54df 6d9c 2e4f c83f
00000340: a5f3 7382 d26d c8bf 7b14 d9e3 ee7b cf3f
00000350: 09af 86d2 9a08 d13f 435b 3cf4 c246 d3bf
00000360: abd9 e4a0 0f75 d2bf 0b16 7169 9fae d13f
00000370: 8cb3 d090 748f d13f b8a8 e972 3fb8 bfbf
00000380: 3089 ff1b cd96 bfbf 565e 301a f400 023f
00000390: 484c 9f64 937a d33f 170f f67e 44c9 b1bf
000003a0: b48e 7488 9455 c73f 135a 78d0 4df8 ae3f
000003b0: 8a21 84ff 5350 d4bf a305 1450 f4ce c0bf
000003c0: 77a8 f8d8 a2b5 cc3f 32fd 47c3 10d9 adbf
000003d0: aa07 0098 f8b0 c53f 5ccd 5b86 a196 d5bf
000003e0: c808 d424 bd3e bb3f dc33 a2da ddf2 d23f
000003f0: 4373 ed0a a5a3 c03f a717 7894 322d c93f
00000400: 999a 1ef1 7da3 d43f 6911 1e78 5d1f d0bf
00000410: 9f00 79a4 dcda c03f 9e45 d0fd 9376 b33f
00000420: ad18 5438 f9e4 d23f 3a4d 7f86 f3e5 d13f
00000430: fed8 888a fddd d23f f16b 1ee4 fd08 d0bf
00000440: bf6d f444 6f97 d23f bdb1 8c42 291d 6b3f
00000450: 63d7 9868 2c04 89bf 251b a943 2399 d23f
00000460: 6dc0 3aa3 5c5e d13f 0757 555a dc5f c53f
00000470: 1763 df2d caa4 c2bf 7db4 c80c ad5f bb3f
00000480: 88b8 de7d d2b2 a83f 9ab3 3be0 5a14 c2bf
00000490: 4d04 347f a037 d3bf 7024 aa45 fd83 c8bf
000004a0: 7acb 08d6 bb98 bbbf 5dce 9422 b73f c33f
000004b0: 753d b6ee 8d26 c13f 3499 ebb3 3b3e c7bf
000004c0: af4f 831f 83ab bcbf 7c1b ad5c 0de7 c2bf
000004d0: fb9c fb0d cb04 acbf ff7e 01e4 1013 c6bf
000004e0: 66dd 039d 5e6b cb3f 43d0 81c9 01b5 bd3f
000004f0: c67c d545 4ea8 a83f deb1 1166 2a67 bd3f
00000500: d71b 786c 9528 b63f 922a 5589 9291 ca3f
00000510: 2ecc 0196 6a8b cf3f 8b6c 55ac 5bac d0bf
00000520: ec3b 5fdd cc55 c0bf 9fc5 53c5 1a77 d5bf
00000530: f1e7 3e88 5a09 c8bf c848 b9e9 3b7f d03f
00000540: a9b2 cea1 d8b8 d0bf c667 b894 932c c8bf
00000550: f3df ae5c 6798 d33f 9131 589b 7957 a93f
00000560: 05e9 f729 3ad0 c2bf 7509 b2b6 a521 d03f
00000570: 9a6a 1a8b ed24 d4bf bb4a 6d57 2557 cfbf
00000580: 4942 fc97 5dc1 be3f cd00 95d8 0388 cf3f
00000590: c303 4a4b d306 bdbf 926c 758d 6774 a3bf
000005a0: ef62 f33d 8422 d8bf c5ca f583 b096 c1bf
000005b0: 3f59 2a27 3c7d d1bf a032 b9f0 05c9 c23f
000005c0: 369d a59b 1a83 cf3f 54e7 c366 187f 993f
000005d0: dd4d 41e9 f2d3 c93f 9e73 92f0 f20f cebf
000005e0: 0fbb d23a cef3 bf3f 42ad d26c c7d2 aa3f
000005f0: 82ed 87d5 c49f c83f f85f 6363 9412 d6bf
00000600: 6ffa 38f7 dbba 963f 2b54 40b5 1c24 943f
00000610: 19a4 d426 ef7a d43f f332 e613 3c59 cebf
00000620: 729d 2134 6734 cf3f 14c0 fbd4 0d21 cf3f
00000630: e5ce 1697 5238 c83f 3854 2707 13e8 c2bf
00000640: 7f85 fa9b 4881 9e3f 948b 24f3 2982 cfbf
00000650: 39ce 7741 062c d1bf 75ef 1e31 d135 ccbf
00000660: 5d22 ca36 5c72 a6bf 6f81 9ff4 5782 c2bf
00000670: 63aa 0c2c e716 d43f eb44 4510 dbf5 be3f
00000680: f278 bc25 9abd 83bf 9661 c84e f6ed c93f
00000690: 28cb fd0d 0f3f ce3f 0518 e564 79e2 b83f
000006a0: 158a c8b7 1a17 c13f 76d8 ca24 4ffa bc3f
000006b0: 7d0e 35dc 8d12 cebf fdf1 0ed8 bd71 d3bf
000006c0: 61b1 e617 5e76 c23f 4202 d2b4 b001 cabf
000006d0: 2039 b7ed 801a bcbf 536b 5c7c d512 b5bf
000006e0: 559c f33d 68cc bf3f 56d6 01fa 3364 d43f
000006f0: 80b9 85f5 0878 cebf 696a 6c5e a4ff ca3f
00000700: af5b 012e c8c5 d13f b671 9c5a b4ab bebf
00000710: 06b1 c64c 4f65 d03f 08f3 cc46 d5f3 ca3f
00000720: 4be1 2e0e 61b6 d33f bfbd 189b 7491 b23f
00000730: 6886 a8e4 79f6 d13f 7cd6 121f cc8d c83f
00000740: 5053 8139 9ec5 d3bf 5eee 7ca5 bf40 acbf
00000750: 2c22 93f3 e1b7 d1bf de68 57c3 9276 a1bf
00000760: 8975 3605 e059 b73f d8eb 1447 22c9 c9bf
00000770: ae9c 2321 011a c63f e025 43cc 7e16 a93f
00000780: b41c 26fa 6012 d0bf 6af3 0035 6a87 b33f
00000790: 7f9d 526b bd6b cfbf 0e3e ad7c 943c ca3f
000007a0: e1ad 9777 49b6 cdbf 3bd1 9f0f e9a7 a73f
000007b0: ec58 667c 99a1 c13f 89a4 186d 92d3 bcbf
000007c0: 51f1 e44c 4998 d0bf 506b e913 feb2 d13f
000007d0: eb69 f09f b0eb bf3f 7218 7d41 9564 d3bf
000007e0: cb7a 2b57 d5b9 d33f 298e 7d5a f907 d33f
000007f0: 6585 67d3 c70f 96bf a234 1396 93ad d1bf
0.03633639696392041 0.18172936104885717 -0.17331759495366167 0.20844621191575588 0.08861346928632796 0.2617256924358447 0.26440669946765466 0.2805243158875596
0.28056137657212055 0.11418293734789266 0.3012216078095071 -0.06025391662838819 -0.37407521671696714 0.3039375390290606 0.18282048109527121 0.31090923008535226
-0.339860073906629 -0.19634121952169092 -0.209369869106939 0.08899708011694372 0.2415637991136345 -0.29981315571947226 0.02092697504445764 0.3066698323936717
-0.05453545253823539 0.16998343125219664 -0.24661241712227933 -0.033790926716663804 0.1564140385812128 -0.16750674420265746 0.10581765580667221 0.056610490135652725
0.3220435338913944 -0.15383681577804456 -0.18924972630101788 -0.20565691331443278 -0.23933633349127398 0.16983239805633588 -0.2892020776950666 0.28834263210903255
0.036094519784333395 -0.2972295989238946 0.15584297910977085 -0.017102001864787327 0.17538865817755622 -0.11893879637444718 0.2656626094053565 0.2437912127321146
0.030065887367113686 0.1811963596855029 -0.00824729869024359 -0.3120141705269511 -0.0043763630113878285 0.08377246763515205 0.2838425914028417 0.275859351072723
0.2727787830497234 -0.05989285309961837 -0.3193425036252883 -0.04147632693323325 0.316989697164957 -0.023955646865777634 -0.06583425842434855 0.03393544552746704
-0.14424096284327942 -0.02017796741842683 0.23825750554267447 -0.1434471205451313 -0.3116077799156621 0.25614971909153716 0.09170604373488757 -0.1694803854323017
0.18362079204709753 0.19414530333419003 -0.11592047818359069 0.26158877770811434 -0.31425663435815965 0.18262863582112218 -0.18499090911238122 -0.12924385467461727
0.2692046059251907 -0.2622672537748042 -0.191219091023661 -0.01541786811103699 0.2200405727902536 -0.27316665070729845 -0.2313049718251955 0.19703954664643542
-0.0006173437190474946 0.164681223267997 0.1833832102941535 -0.0187130562507523 -0.10854426195366515 -0.07974336568992647 0.2506373749014028 -0.2838356253111697
0.1404986570334372 0.20647090306347787 0.28503032660920485 0.040794316507164724 -0.10078917858145117 -0.17191462652594888 0.12113737720767764 0.18991644514221184
-0.190851510713313 0.24596964002026653 0.26615019377889887 -0.30119394160412954 -0.2883948394041009 0.27628312394185234 0.27438081876862763 -0.1239051490353259
-0.12339479383038987 3.433937970259415e-05 0.30435643030540804 -0.06947734927785763 0.18229920065743033 0.06048815889169048 -0.3174028392100118 -0.13131574544972321
0.22429309458067667 -0.058296703184164037 0.16946322843437872 -0.33731878395993475 0.1064260687744848 0.29607340193689224 0.12999403985568322 0.19669182061641985
0.3224787573512145 -0.2519143746397022 0.13167913466350442 0.07602810808773205 0.29522543431120135 0.27966011175631744 0.29479921845212675 -0.250548813602733
0.29049283727519176 0.003309803567750984 -0.012214991514251932 0.2905967865703352 0.2713843912160943 0.1669879380303245 -0.1456539844500859 0.10692864954099153
0.04823930536746085 -0.14124618481528445 -0.30027019903360924 -0.19152799512474727 -0.10779928183982959 0.1503819388250233 0.1339890876374558 -0.181586706973755
-0.11199206847532993 -0.14767615342335805 -0.054724069077389324 -0.17245684750650267 0.21421415964844498 0.11604319734198136 0.048159070992136274 0.11485543243333704
0.08655675790951932 0.20756751733491235 0.24644214939653025 -0.26051990346395176 -0.12761841592006762 -0.33539456625211445 -0.18778545048354503 0.25776574921213724
-0.261282117857983 -0.1888603664563659 0.30617698718151515 0.04949550648970836 -0.1469795899318528 0.25205366937020496 -0.3147539003781873 -0.2448469807519212
0.12013802490788196 0.24633834910674182 -0.11338539684403685 -0.03799747087278961 -0.37710672426105324 -0.13741117900243274 -0.2732687361216399 0.14675974134515446
0.24618847465465316 0.024898892662327768 0.2017806662503138 -0.2348617243450492 0.12481392799484702 0.05238936618237712 0.1923757593757323 -0.3448840113246656
0.022197186435955304 0.019669006884289224 0.3200033072667466 -0.23709822627679208 0.24378671689485604 0.2431962289770132 0.1892188298930854 -0.14770734643266947
0.02979005291002101 -0.24615978595928978 -0.26831203835829204 -0.22039236925581532 -0.04384124916856955 -0.14460277027593402 0.31389788915354283 0.12093896052580859
-0.009638981129282052 0.20257452818692617 0.23629940207646283 0.09720572198156681 0.1335175893191979 0.11319441459895238 -0.23494122745806925 -0.3038172349877469
0.1442372910218053 -0.20317658261412147 -0.10977941325765928 -0.08231863294751678 0.12421275627603852 0.3186159078098617 -0.23803817737957544 0.21092657671472928
0.2776966523428496 -0.11980750286279016 0.25618345735235015 0.2105661960321401 0.3080065382487375 0.0725319746641082 0.28066871004020877 0.19182731168045908
-0.308936649472618 -0.05518149275891625 -0.276848304620702 -0.03410776743449316 0.09121513488067569 -0.20145061941897668 0.17266859167213994 0.048999750551569354
-0.2511217539653885 0.07628501695667259 -0.24547546139113405 0.20497375571947923 -0.23212545718648328 0.04620292964674141 0.13774412702759464 -0.11260333217127728
-0.25929481991967857 0.2765498346758948 0.12469009308589533 -0.3030141009843482 0.3082173682468407 0.2973616965957456 -0.02154457309541637 -0.2762192693306337

0.bias f8 [32]
00000000: 5830 92d5 8ee0 c7bf 3e7c 27eb ea59 7fbf
00000010: ebbe bb20 6d8f cf3f 25ae e7a0 8f6e cbbf
00000020: 3387 e81b 8e54 d33f 592a 28d1 c908 bb3f
00000030: 59a9 0257 a415 b5bf 80cb ce83 7203 103f
00000040: 779f defe f212 e23e f385 0bc4 d7fd d43f
00000050: 2a40 2217 f60c d23f 2dd7 524f c490 063f
00000060: f1ef cc4b 89a0 023f 7e91 cc50 2c50 bb3f
00000070: b1c5 b771 b06b d23f 0acc 68e6 08d5 d13f
00000080: 9394 e5c1 1498 d03f c1a9 3585 d46f bbbf
00000090: a3a4 3ab1 2dd4 d43f 6980 f32a 362a d43f
000000a0: 36e8 09cb 05c1 af3f 3660 2474 9270 c7bf
000000b0: 017b a924 8ec4 c73f afd5 6059 8167 d03f
000000c0: 2da9 b1c0 0bee 91bf 2d04 c50a 419f c7bf
000000d0: bd8a e3dc 926f d33f 5a0e abd0 481c 203f
000000e0: da82 2f6c 2dc1 c33f 921c 3a24 5b30 b13f
000000f0: b662 fc77 c8a9 afbf cc61 8978 e952 ca3f
-0.18654046467088636 -0.007654111529034556 0.2465645227271048 -0.21431155544938565 0.3020358345548743 0.10560284954423461 -0.0823614799907423 6.108652537654795e-05
8.618364485915343e-06 0.32799333710690276 0.2820410943904813 4.304026689665032e-05 3.5528364128428645e-05 0.10669209454187542 0.2878228292966823 0.27862761021532434
0.25928229270204745 -0.1071751427859118 0.3254503470184977 0.3150763911671733 0.062019520792958735 -0.18312292738915098 0.18568589010370576 0.25631746033044583
-0.017509635578258177 -0.18454754854067926 0.303684917175058 0.0001229132543213326 0.15433280737399607 0.06714410433242993 -0.061842217108453765 0.20565527329996625

3.weight f8 [64, 32, 9]
00000000: a206 a781 de2c b33f ab26 4d6f bd8e b5bf
00000010: 3a1b 2d09 d9c1 afbf 8788 d755 aa03 af3f
00000020: fdc7 8903 f4c7 ab3f 519b 2c58 127f b93f
00000030: a5f2 d5ab c465 9a3f 861b 8f1c e924 9f3f
00000040: ac5e cc7e dad0 b0bf 6396 7b84 fb83 9e3f
00000050: fef3 511a 7403 763f f6f4 f682 ac28 b2bf
00000060: bc25 2651 61b9 a5bf cd7a f95b 4f23 a43f
00000070: 2102 1a7e 3e41 9ebf b3c0 428c 761c 8b3f
00000080: 8e14 8642 091a a4bf 25ba 5970 6b0b afbf
00000090: 0343 4f88 3597 933f 01d0 cb57 5712 423f
000000a0: ff1d 64a3 5ea4 963f 6894 3c51 c313 8e3f
000000b0: 7d04 da95 5660 a9bf bcb3 ab67 bf6a 633f
000000c0: cf46 ffce f0cb 88bf 6c09 1949 bb96 943f
000000d0: 29bf ea72 1023 a23f 86e4 04c1 486e a93f
000000e0: d917 0bbe f241 b1bf 6b90 38de c964 aabf
000000f0: 669a bed6 0849 733f 2bae a632 3b19 98bf
00000100: 2f28 3668 7992 a23f afad 3243 4265 833f
00000110: 8f57 c9bb acda 99bf 554e b294 d734 913f
00000120: 8c5d 327c 34fc a1bf aa62 c66c cd60 a93f
00000130: 105a a69a 356c a8bf fb42 52d4 3272 a5bf
00000140: ad24 452e 362b 51bf 40ad 260c a33c 9f3f
00000150: 26f8 d948 ccb3 a4bf d147 f2d7 7814 ac3f
00000160: ef32 4bef 3c93 7dbf c1fb 968b b848 aa3f
00000170: de7c 00d4 ab1e 9bbf 8570 d9ba 7411 a9bf
00000180: db8b fc73 79b9 9ebf 381f 12d8 b3fd 95bf
00000190: 8166 c629 b780 95bf f0c1 c218 b78e 893f
000001a0: 14c0 7c2e ff0c 9abf 13c7 4ee8 3c52 933f
000001b0: 09f5 a427 41be 9bbf bce0 5653 da36 aa3f
000001c0: 6dbb 5c12 75af b8bf 928e 9c18 233d 7bbf
000001d0: dba3 70dc 93a0 553f f4c1 6c21 f048 8f3f
000001e0: 4a38 3c6e 42dd 5d3f 5ab7 0f01 5d4a 42bf
000001f0: ae17 0cdf 29d6 aebf 8508 2e26 736c b73f
00000200: 3b30 8ca7 08a0 a6bf c3a1 e3d2 df47 9a3f
00000210: ea24 8e93 2e55 a8bf bb7f eab1 04fb aa3f
00000220: aad2 3f14 0a0b a13f 69b8 be4a 68a7 a1bf
00000230: 1ed0 8624 8f9a 92bf 0c14 af35 b78e 93bf
00000240: 08cf 7b21 632c 993f 7931 a8ab 0e9e 943f
00000250: 44cd feee 4939 b8bf 3cf0 ccf5 3812 b1bf
00000260: 4c50 0237 f69a 9abf 4869 5e95 876e a0bf
00000270: cb5e 53c6 d80c ac3f f965 a18b 9132 acbf
00000280: 4327 b6e1 a8fd afbf 288c 5f2c 3661 b13f
00000290: b149 3ca3 9a85 aabf 3860 e6e1 bf97 a93f
000002a0: 5666 7d68 56a4 a8bf cc76 a45c 8633 aabf
000002b0: 5b4c 30c2 d5df a63f f81f 7eeb d366 a0bf
000002c0: 3f9e 576d 5742 ad3f 201a ebd0 1077 aebf
000002d0: f8c9 4ead f8b4 ad3f 01e3 53f0 fb37 7bbf
000002e0: e5cd 6fa0 70c2 5e3f 82ff 7885 062e 8ebf
000002f0: ba55 1fc6 fc6f a6bf 1a9e 5010 d758 7ebf
00000300: eb74 923e 94da 5dbf 39ec f5de 8d38 a8bf
00000310: 4473 b581 1e6b 54bf 4a7a 1606 d1c9 b63f
00000320: f0f6 5a42 89e0 813f e5f1 d122 f5f3 973f
00000330: 79c3 1fa3 b37b 883f ae1b 03a4 2dd1 ad3f
00000340: 1627 63d4 393f 903f e41b 0374 4eff 60bf
00000350: e175 a12c 9f1e abbf 05c4 98aa b560 723f
00000360: d2cc 5ba3 a771 af3f f667 81e5 6bed b43f
00000370: da31 6295 fd2a b7bf 316e 46d0 1e87 b0bf
00000380: fdb2 d271 ebe9 853f ba84 953c 9612 af3f
00000390: 4fc7 e289 5947 8dbf 8f3e 4d16 1c20 adbf
000003a0: f29e 4186 d9e2 aa3f 965b 4d69 b422 b73f
000003b0: 6572 cacc 103d 573f a621 7993 9c1d 80bf
000003c0: 9091 414f 513a b03f 979e a81e a936 373f
000003d0: d4a0 5d65 f97a 94bf 78f0 a57d 442b b03f
000003e0: 7f22 062e 8349 a53f b635 5421 712a 97bf
000003f0: 4610 ec04 1d23 ae3f fc2c 61c0 2729 833f
00000400: 98b1 d7fa dc06 903f 2560 de79 add4 9b3f
00000410: 5363 e813 7293 88bf 627f 9d24 e5ef a03f
00000420: 1c9c 1afe 6fa3 a53f ef50 701e 7b50 ac3f
00000430: 447f abf7 6c3e a9bf f5b4 3c60 67b3 873f
00000440: 4c9e ff66 918e b13f 560d 047d ba7e 92bf
00000450: 3de8 ccc0 7716 893f 75de 2ccf 0f06 913f
00000460: 9aed 2b65 1ce5 96bf c84f 7ead 3704 acbf
00000470: 547a 28f2 4c4c a43f 50fb 9d28 2aab 813f
00000480: e56f 7478 bc07 b23f 4f20 af52 5a10 8dbf
00000490: 0f8e 3cde 1c00 983f 0ab1 f01b 89d8 9ebf
000004a0: 26de bf45 424f 90bf f73b abc0 c2bd a3bf
000004b0: 2e29 706a df18 a0bf 3b5d 7c32 b735 753f
000004c0: 04d5 710c 2bda a33f 44e5 caa3 71ce bf3f
000004d0: 848f 23c9 052c a1bf 4fad 615e 32c0 87bf
000004e0: 08d0 7e81 1a4a 963f efa5 9c78 3b15 aabf
000004f0: 4bfb efc0 ee2b a83f a003 e6ab dd55 953f
00000500: 3e79 fac4 c0b3 aebf a59d cf24 98e2 a73f
00000510: 3b6c 505a ad2f af3f 19b8 cc48 c9ef 71bf
00000520: dc92 b19a de60 a43f 0876 23e0 3f21 a13f
00000530: f96c 0dfd 6d17 90bf dbf4 316d 17b0 9bbf
00000540: 418d bce3 8457 9cbf 05e5 f043 f9fb 95bf
00000550: d6f9 50b3 b5ff a8bf 2f6a 6d07 793f a03f
00000560: f303 7373 fcca 923f 6d92 ba6e d1fe 93bf
00000570: 7560 2e4e 4d9e abbf d46a 7010 5505 a83f
00000580: 46f1 87a0 5d6c 843f 9fa4 56f8 f2f1 7ebf
00000590: 67b9 9a9f 6858 71bf a5f5 cfae 3e40 ae3f
000005a0: 7eb3 3638 431e b83f 378d 3c55 4e66 a9bf
000005b0: 07f2 241d d17a 963f fd2c 9de3 9c2f 79bf
000005c0: 8b64 4b10 d3a8 97bf 3b4f aab6 cbbb 9cbf
000005d0: daf4 a57f 4890 a4bf 80a9 6158 044a 8d3f
000005e0: 9e37 a859 9e23 8d3f 7cc2 d135 3332 a23f
000005f0: deb7 3bdf 846d 9dbf 5636 4d27 2a74 aebf
00000600: 8882 f657 b890 aebf 0add c5d5 b4d7 573f
00000610: dd91 d905 f1d0 84bf 217a d7ab 60d2 9cbf
00000620: 3c34 91a7 1497 9dbf 5969 1b5e fda4 a73f
00000630: 2dad 8225 2346 9a3f e35f ab4d 054f b73f
00000640: f65b 78f9 5dfc a5bf e687 b809 c6fa ac3f
00000650: a22d 9699 e387 9a3f 2414 7efc 0aca 77bf
00000660: 7219 f18d 0d72 ac3f 493c ac33 c28b a43f
00000670: b01d e42a 82cd a0bf ae6d c800 0ac2 70bf
00000680: c119 1b3b 0a5f a83f dc1f 4a6b 38e5 a3bf
00000690: 9a7f 4511 35e7 a33f bb3d 291c 639a 9f3f
000006a0: 8fbe 2ca9 12d7 aa3f 0bf4 ce8c d6bc 96bf
000006b0: 1522 da22 632c a2bf e653 368c d865 ab3f
000006c0: 7b70 cd34 cd20 b83f b12c 05a0 ae95 b33f
000006d0: 9942 bb51 347c b5bf e4ff 6642 cfe8 b1bf
000006e0: 5b04 6074 da0f 923f 26dc 465f 1f01 b13f
000006f0: 56a9 f509 2a46 9cbf 9b14 6282 82f9 7e3f
00000700: 58fd 0108 6b71 aebf d5ed 53b8 5d7e b23f
00000710: c143 b141 27ab a23f 9374 4a01 ef97 763f
00000720: f7ca d957 8d40 80bf 7953 c39e 787e aa3f
00000730: a3f0 ba15 02ad 993f f45f 0c35 ae61 b33f
00000740: 66a9 373f 8c4b 95bf 26cc 9e92 c5f7 883f
00000750: 5ddd 4cd0 bde9 9b3f 90a5 4b66 f412 a23f
00000760: c198 fe7e 7eaa 89bf 0680 d8ae ab77 a63f
00000770: 64f1 74be 3541 73bf 3e6a c269 a5bc 62bf
00000780: be18 5ac7 76c3 9b3f 93e8 765d 3a91 ab3f
00000790: f1d1 0c59 f025 a33f ad9c 9509 bf60 a83f
000007a0: 97e2 dbd0 867d b33f f09a 906a 598d b0bf
000007b0: 64e3 33b3 ac3e 3abf d8fa 8cce cc41 513f
000007c0: 6f4f 71b4 e79f ad3f 851d df52 d78e b03f
000007d0: d764 6602 f093 98bf 4f45 970e 0382 a0bf
000007e0: 3aac 5e26 0324 933f 455b 784f 5ef5 ac3f
000007f0: b43f ec6f 5779 99bf 6d1b ecba f3a6 95bf
0.07490339913695235 -0.08420928923910746 -0.06202581631673927 0.060574839571715215 0.05425989669028295 0.09959520962420966 0.02577884005357824 0.030414240234474053
-0.0656868514600954 0.029800348244768304 0.00537438728963213 -0.07093313405399101 -0.042429963260541353 0.03933189389930689 -0.029545761534338525 0.013237882762354358
-0.03926114022309789 -0.06063400026765845 0.019131504482916572 0.000551502845694163 0.02211139557132746 0.01468613235153722 -0.04956312731975119 0.0023702371957967355
-0.012107735936214862 0.020106245361838956 0.03542376902384909 0.049669526636031455 -0.0674125398610096 -0.05155020558984876 0.004708323027364436 -0.02353374954843283
0.03627375981439262 0.009470479655951573 -0.02524824043424406 0.01680313916274508 -0.03512729660104261 0.04956666901415947 -0.04770057213606915 -0.041886890810138376
-0.0010479001149000064 0.030504748932498105 -0.04043424977588499 0.05484368930878215 -0.007220495249111932 0.05133606628395838 -0.026484188856667916 -0.04896130352855813
-0.03000440378594847 -0.021475610793032035 -0.0209988230941236 0.012479238932741915 -0.02544020386920927 0.018868400267542173 -0.027092950863552043 0.05119974391294721
-0.09642726610466719 -0.006650101751606423 0.0013200229602807676 0.015275836963696478 0.0018227719055548147 -0.0005581812021071373 -0.060227688291021195 0.09149856264233065
-0.04418971104868815 0.025664803740171892 -0.04752488661967809 0.05269636794878304 0.03328734872039736 -0.03448034202971046 -0.01816772137108568 -0.01909910454903145
0.024583386343649344 0.020134190775978198 -0.0946241577610652 -0.06668430329313052 -0.025981757266507352 -0.03209327410077606 0.05478551312415688 -0.05507330731843391
-0.062482144882848555 0.06788958152132862 -0.051800568033417156 0.04998588211600502 -0.048128795867069016 -0.0511743534172929 0.04467647548167327 -0.03203451394716689
0.05714677057022443 -0.05950214910767593 0.058021327167256886 -0.006645187507495321 0.0018774127836395035 -0.014736224125158296 -0.04382314604269362 -0.007408943264671142
-0.0018221328448711448 -0.04730647417724083 -0.001246242324518935 0.08901697538974776 0.008729050004486066 0.023391561746835782 0.01195469228329825 0.05823652865506489
0.015866187656491247 -0.0020748646057628817 -0.05296800060089502 0.004486760744428335 0.061413992587313296 0.08174776414071502 -0.09049973389682667 -0.06456177315561075
0.010700072680572154 0.06068868150283309 -0.014296245117609322 -0.05688560268629061 0.052511975897514676 0.09037330218175862 0.0014183677732610086 -0.00786897969295881
0.06338985619510695 0.0003542101755180464 -0.020000359355805866 0.06316021030028363 0.041576480262908604 -0.02262284055637106 0.05886164364895356 0.00935584121557164
0.0156511810400147 0.027178488314888356 -0.01199998019460372 0.03308025428736873 0.042262553947971265 0.05530152079168881 -0.04930439494432773 0.011572654365944216
0.06858166470157662 -0.01806155574832976 0.012249885150243606 0.01662468626019949 -0.022358363795303406 -0.054719676903146885 0.03964462715179154 0.008627251972709665
0.07043054524223143 -0.014191346786802365 0.023437930168382744 -0.030122892694792326 -0.01592734862057745 -0.03855713464655957 -0.03143976377767142 0.0051781803265591965
0.038773865956423875 0.12424383400766198 -0.03353899078663772 -0.011597054963394497 0.0217670575654694 -0.05094323966325109 0.047210179378444815 0.020835364930011147
-0.05996515659829747 0.04665065240242975 0.06091062285869283 -0.004379068629345916 0.039801555999280785 0.03345679865899959 -0.01571437699327036 -0.027038923301451284
-0.0276776088713977 -0.021469015857495517 -0.048825910700987116 0.031734258801140995 0.018352455660309585 -0.01952674139342252 -0.053942123216246175 0.04691568208382582
0.009972316228407007 -0.007554959394306198 -0.0042347037175843654 0.05908389934482309 0.0942117702713414 -0.049608657746171785 0.021952884105518346 -0.006148922775376817
-0.023104951734101802 -0.028060133956912408 -0.04016329343992604 0.01430133242339049 0.01422809325324775 0.035539245910404 -0.02873809444911745 -0.0594800160384749
-0.05969787668005205 0.0014552370040215611 -0.010164149275802831 -0.028146276939759688 -0.0288966395640282 0.04618064664619465 0.025658177532631377 0.09104951044298519
-0.04294103308000523 0.05660075062429808 0.02590900063436908 -0.0058079175140664276 0.05555765493095323 0.04012877350589201 -0.0328179051739953 -0.004091300081678835
0.04760009738452054 -0.038858187767857294 0.03887334667047 0.030862377733056095 0.0524221259605585 -0.022204735130561242 -0.03549489784660779 0.05351139747214244
0.09425051249621845 0.07650271803611265 -0.08392645831487257 -0.06995864268446855 0.01763860068604504 0.06642337871640844 -0.02761140523708979 0.007562169839848166
-0.059459061362754084 0.07224069357101055 0.036462046403023425 0.005515988934942889 -0.007935623401157594 0.05174614847206888 0.025074036194141624 0.07570923609853236
-0.02079600463722766 0.012191337143894709 0.02725884040702674 0.03530086277698807 -0.012532222986760268 0.04388176450106589 -0.004700860917463554 -0.002287219116692967
0.027112823407627877 0.05384237662242799 0.03739882552182284 0.047613115234349614 0.07613413428397063 -0.06465681888276342 -0.0004004642134556784 0.0010532856051239017
0.05786060407322579 0.06467958234053668 -0.0240018369164304 -0.032241912394634135 0.01869206353846329 0.05655951233000293 -0.02487694378493162 -0.02114468410857333

3.bias f8 [64]
00000000: fdb3 3579 14f5 893f 5cf2 f0f1 c031 a1bf
00000010: 5af3 6434 7dbc 98bf d61f 0fa8 455e 9a3f
00000020: a2ab 0d56 606e 80bf 62f1 c13f a0c0 8b3f
00000030: 01f8 976c 04d9 a13f b715 01f6 e5fb 94bf
00000040: e763 2b91 a42b 9bbf 7762 bf49 cd72 b03f
00000050: b340 ba31 a1b1 79bf 0cb4 428e 04c9 a13f
00000060: c29d 52da 83f1 b03f 88ca 1e2e c162 843f
00000070: dc50 12ae 0990 bb3f bdaa 8141 010a 993f
00000080: 7148 6590 6fcd b23f 65c5 02dc 461e b03f
00000090: 4f78 d071 24f2 b23f 744b 34d5 22e0 a03f
000000a0: cca9 159c 8342 713f f40a adef f567 99bf
000000b0: 7719 5139 b712 503f feac 46e7 22fe b6bf
000000c0: 2888 dd20 a0a6 b4bf 014a 60ca a573 86bf
000000d0: d0ba 9ba5 e877 703f 6067 c8dd 0c70 a23f
000000e0: 1db1 5e3b 29cb b23f 8080 c779 178f 9c3f
000000f0: ee27 3346 8a25 89bf 0f42 127a 3274 8f3f
00000100: 1ac6 822b e474 a63f 1811 c0bd 9c40 b03f
00000110: bc99 abc2 d864 a33f e359 5c07 f2d5 99bf
00000120: 8151 2213 e6f2 a5bf bcd0 3078 05f2 95bf
00000130: f3ea 4836 7277 a93f c916 0847 6fc5 9d3f
00000140: b502 ac2f e721 643f 05f7 8560 5154 b13f
00000150: d98a fb8d b3d7 9cbf 7691 907b cc58 a03f
00000160: 7b56 4297 eb77 94bf 404d 6783 ce02 94bf
00000170: 146e f05a 96ea 8c3f 2cdf f37b 146e 983f
00000180: 32dd d5c2 b4f3 90bf c448 fe1c f219 a6bf
00000190: bf53 35ce 0098 9c3f 0363 1819 1c2d 4d3f
000001a0: 5cf2 8ffd 8510 8b3f c588 94ab 7441 ad3f
000001b0: e264 26f9 840f a23f 8145 197f e49e b13f
000001c0: c737 bf80 12eb a83f 67c9 a22f fab9 a4bf
000001d0: 8404 4efc cad2 9b3f f29d e121 f66a 793f
000001e0: d340 2b73 4f6a a03f 2295 b107 d5a9 a2bf
000001f0: 6899 71c0 1415 9abf 3e39 0516 3d54 95bf
0.01267448420431982 -0.03358271554359213 -0.024156528780838606 0.02575024450541704 -0.008023026109830248 0.013550998635985582 0.03485883546453295 -0.02049216569891651
-0.026533671722834298 0.06425173807600425 -0.006272916474373047 0.03473676907137965 0.06618522720474743 0.00995398447034758 0.10766659259599315 0.024452228186798253
0.07344720149311158 0.06296198722227116 0.07400729921980197 0.032960022474205625 0.004213823414242101 -0.0248106410538282 0.0009810246749722676 -0.08981531282795527
-0.08066750337960171 -0.010962767828492483 0.00402060392091981 0.03601112563428788 0.073412491793253 0.027889601524180296 -0.012278633372620331 0.015358347273179111
0.04386055976045729 0.06348590500426032 0.03787877441736806 -0.025230199527038876 -0.042868795238208975 -0.02143105074010586 0.04973942673355749 0.029073466024803794
0.002457572494109018 0.06769283873105898 -0.028166585484437377 0.031927480777343684 -0.0199887095519302 -0.019541956682428863 0.01411931481384613 0.02385742193743494
-0.01655466498547504 -0.04316670040056317 0.027923595987278334 0.0008903872678188432 0.013215109634978343 0.057140012688493814 0.035274653829398664 0.06883075812335983
0.04866845914476375 -0.04048139411442513 0.027171298646412115 0.006205522016990527 0.032061083611212425 -0.036451966466112276 -0.025471042867502375 -0.020829157322901574

7.weight f8 [1, 128]
00000000: eae8 68e7 71d1 b1bf 158d 170a b19f a03f
00000010: a42e 76e4 6c62 953f dcd0 b4fc 569c 94bf
00000020: c562 b192 9491 893f 8e40 2b48 8bfd a0bf
00000030: ae19 02e8 a194 a33f 9e7d bf9c bb37 b43f
00000040: 4377 59fd 5756 aabf cc57 01f7 fd40 afbf
00000050: a088 cb72 bb36 b3bf a4d3 baff a2a7 a53f
00000060: 091f e663 1d50 b3bf 425f 4579 8beb a3bf
00000070: 4955 a2e4 0182 b23f 0446 e97c fb05 b4bf
00000080: f8f8 4520 dd61 bc3f ab15 d986 47b1 a4bf
00000090: acfd eeb2 af88 a23f 28ea 7eff fb84 763f
000000a0: 4e85 94f3 bd93 a63f 06d0 62b0 77b6 97bf
000000b0: f49f 3472 58c8 b8bf f6b7 20cc c2e7 ba3f
000000c0: c5f7 b6be 118a bb3f c86b e3e6 a341 aebf
000000d0: fdf1 28d6 7ec3 b93f 7fd8 ac3d 9809 97bf
000000e0: ad0c ac3f 2641 bf3f cdef fbe2 fb96 b3bf
000000f0: 02e5 f758 42bd 94bf a69a 8e61 0811 b33f
00000100: 39fe 7162 2300 a13f 6c4d 49d3 fa23 a13f
00000110: a536 72d3 255d ba3f 2032 d8c1 225e a1bf
00000120: 6b96 e942 d21b b63f 5693 a50b 88d9 a0bf
00000130: f7ea 23b4 fa31 81bf f42c 921f f404 b23f
00000140: ab20 141d ae96 c0bf 9445 8187 8f89 a5bf
00000150: 87cb 2da7 06e7 b4bf 0ae5 0b7e c6d9 6b3f
00000160: 7414 18ac 4b7f b3bf 91db 6065 b474 6a3f
00000170: 3b70 f862 c639 b4bf e204 18d5 0775 a73f
00000180: 7b38 8abe ad00 b33f 4eb3 c3fc 9868 b43f
00000190: b490 d97f 50a0 b43f 2447 e3b3 6676 60bf
000001a0: a430 510f bc16 803f e819 ce54 ce2e a7bf
000001b0: 1636 a0c0 79cd ac3f b1ec 70f2 7487 b33f
000001c0: 63c0 882d e0e7 62bf e83d 7eb7 1592 bb3f
000001d0: 7d62 2605 2407 c43f b127 793a 376b b53f
000001e0: 2542 d6de 125b b43f f059 22ea eb82 b1bf
000001f0: 7a8e 4ec6 e905 9cbf 88ae ac6c 3547 ad3f
00000200: 1695 e994 5495 933f 7b60 640d 4852 b0bf
00000210: e9e7 6db7 41f5 b53f b944 9559 2475 a43f
00000220: d578 fa9e 1e1b ae3f e701 cd10 aa94 a43f
00000230: 4c35 3571 885e a33f bffb d691 ef0a ab3f
00000240: b77b 5ccf ed30 bbbf 0c7f f40d f26a 85bf
00000250: 35d4 f3f4 9e9c adbf 8aa2 e94e 19b3 b73f
00000260: 9427 2beb 80af b93f 6519 2f99 b59c a63f
00000270: 94d0 ec09 c775 a53f 17f1 ef23 be18 af3f
00000280: 8cfe 65c8 e25b c23f 84f7 0c8b c41e b5bf
00000290: 350a 9b28 1ddf b53f 6c7f b018 1e43 b13f
000002a0: ebe8 0ec2 6ed0 b2bf 7507 e2ab f331 acbf
000002b0: 88a4 78b6 7ba3 a6bf dcfd fa72 7334 af3f
000002c0: d23a 21fe f33e b33f 5045 c06d 1a4b 903f
000002d0: 588b c268 1aa7 b53f d4cb 7eab cdd5 9ebf
000002e0: 609c fded 4934 acbf 2cd6 7db2 fbc2 b5bf
000002f0: d29e c871 df42 963f 49d7 3e0e e68a b93f
00000300: 7e26 3dd5 c90d b93f 6356 98f5 5c54 b6bf
00000310: c98d 6f9a 5f22 bdbf 097e 19e8 601d a63f
00000320: 1e8b 031a e10e b83f b0fe 0a84 1c8a b0bf
00000330: 6ecf fd26 e79b a53f bcc9 7c7d ceb4 51bf
00000340: 961b 8ae9 93f6 b93f bac2 9989 b4c8 83bf
00000350: cdc9 22a5 3d40 92bf 7566 a456 d462 a03f
00000360: 4bde 6f13 c723 b1bf c8d6 5610 bb70 aabf
00000370: 35b0 b21f 4f19 923f c162 fd80 6f6e b23f
00000380: 4c68 55cd 87e9 b1bf 1ea3 e933 9156 b6bf
00000390: f876 da6e 9cc3 863f d8b0 3a23 43e3 b3bf
000003a0: f9e2 a96f 5099 cc3f 250d 2fa9 f92d aebf
000003b0: 4839 ce44 1bc0 c2bf 2b2b f84c f0e0 a6bf
000003c0: 8c06 a160 52a1 adbf 36af 23c8 3c06 b1bf
000003d0: 45f8 b146 1413 b43f 3fc2 6798 b837 b13f
000003e0: 619b 2d4b f5b6 c4bf f517 79db e948 a8bf
000003f0: fece 839f bbaa b2bf 0c9a 57d6 40d8 61bf
-0.06960212611821573 0.03246834991639439 0.020883275455658393 -0.020127638982743487 0.012484703757011837 -0.03318438774079012 0.038243350573839194 0.07897541596275068
-0.05144000022549602 -0.061042724992759284 -0.07505389740575419 0.04229459163381158 -0.07544120491922625 -0.03890643935545636 0.07229625541579766 -0.07821628379431195
0.11086828267977811 -0.040415034495292566 0.03619908389327561 0.005497917525583186 0.04409593199148763 -0.02315699590754152 -0.0968070296117956 0.10509889110173262
0.10757552057381677 -0.05909454530202357 0.10063927391542644 -0.022497538341859965 0.12208785109037264 -0.0765225819740742 -0.020253216438480777 0.0744786489654908
0.03320417954182315 0.033477628986157665 0.10298382198581153 -0.03392132393137026 0.08636201985935947 -0.03290963308498955 -0.00839610922092991 0.07038808604027108
-0.12959839267592108 -0.04206512955773714 -0.08165017682567398 0.0033997418216783525 -0.0761611266280669 0.003229477249103004 -0.07900657573958451 0.04581474758379912
0.07422910596707936 0.07972103281981655 0.08057120438894821 -0.0020095830833292295 0.007855862824861788 -0.04527897629946037 0.056255154384512604 0.07628565710995151
-0.002307832572363154 0.10769782762348934 0.15646791697942666 0.08366723229951735 0.07951467457156321 -0.06840395418326017 -0.027366306999864844 0.05718390418618663
0.019124337757962705 -0.06375551535563943 0.08577357033018952 0.03995622247260528 0.05880065622953771 0.040196718741302644 0.03783060438090988 0.05281780867834795
-0.10621534645586804 -0.010457888651728385 -0.05783554783003134 0.09257658173158681 0.10033422223491889 0.04416434760018965 0.04191419597774018 0.060735647093652805
0.14342913422659753 -0.08250072855750373 0.08543569794986967 0.06743038275498997 -0.07349292981863058 -0.05506860230617764 -0.04421602823669796 0.060947044168184056
0.0751793380197612 0.015911496113465262 0.08458104188552562 -0.030112470237963 -0.05508643179091943 -0.08500645740226592 0.021739474601558957 0.09977567527570587
0.09786664443995538 -0.08722477909062713 -0.11380574722675542 0.0431928904843027 0.09397704014876893 -0.06460741256432345 0.042205070028017086 -0.0010807053094593474
0.10141872836730523 -0.009660158585775281 -0.017823184208006815 0.032004008842886934 -0.06695217346702369 -0.05164131712392145 0.017674671468441445 0.07199761294522046
-0.06996964228656671 -0.08725841061972203 0.011115286000229471 -0.07768649683083895 0.2234287781937139 -0.05894451322776665 -0.14648762569090423 -0.04468489589279153
-0.05787141255906389 -0.06650142561164504 0.07841612554509066 0.06725648613770206 -0.16183344050224505 -0.0474312858973888 -0.07291767734914953 -0.0021783129075061466

7.bias f8 [1]
00000000: b7a6 6c0a d015 ae3f
0.05876016738177497
