models/run2/20.pt (torch, 153942 bytes, 6 tensors)

0.weight f8 [32, 1, 9]
0	0x3fa294c1d29c2408	0.036291176757068
1	0x3fc3d58e51d1ad60	0.15495470995970617
2	0xbfc2674f55b8ed7b	-0.14377776799834038
3	0x3fcaaab60d2f5bb6	0.20833469051168912
4	0x3fba061f67b53e7f	0.1016559246247599
5	0x3fd0c1fcc60d7745	0.261840051089042
6	0x3fd0baffbaaf71c7	0.26141350966443294
7	0x3fd2015c687685b3	0.2813330669542566
8	0x3fd2015c48477c77	0.28133303698081796
9	0x3fbd35243ec23443	0.11409212619965196
10	0x3fd36c6c179155a1	0.30349256803068597
11	0xbfa088323cb60ec2	-0.03228909484007893
12	0xbfda3b1444752f35	-0.4098559063465815
13	0x3fd379f47a5d13d7	0.30431854199951885
14	0x3fc994f302148f69	0.1998580703885822
15	0x3fd3e6abcd16c251	0.3109540465184511
16	0xbfd6975e42a3f715	-0.35298878200397726
17	0xbfcadcdf049776cb	-0.20986545299722645
18	0xbfcb9770c0816f45	-0.2155590953797121
19	0x3fb6f7d8a7621138	0.08971933447361813
20	0x3fceecc50fad16f8	0.24160063996730918
21	0xbfd3ef2327b174f3	-0.31147078396118316
22	0x3f87ff56e4d061d6	0.011717490060662177
23	0x3fd3a44521130b4e	0.3069012473098852
24	0xbfb1afb1d8429e20	-0.0690871384600702
25	0x3fc5b26a08549f5b	0.16950726897016008
26	0xbfcf2b2baf02ecce	-0.24350496335487154
27	0xbf9baf8eb3960edf	-0.027036885939664464
28	0x3fc407c405d17eb6	0.1564869907770025
29	0xbfc39dae5f01580c	-0.15324954642227373
30	0x3fbe266be70dae18	0.11777376547768659
31	0x3fb166fd1e9fdd4d	0.06797773358981836
32	0x3fd49d18f89717b9	0.32208847309481886
33	0xbfc2452b5adfaec9	-0.1427358812064681
34	0xbfc627e7db428140	-0.17309282499355483
35	0xbfcdea5118565d78	-0.23371328056667173
36	0xbfcf8d0d5557a536	-0.24649206797702455
37	0x3fc625ede2ef7a42	0.17303250866730663
38	0xbfd21f883419bcb3	-0.28317456329291274
39	0x3fd2750e48b2bfbf	0.2883945188468679
40	0x3f99a82851dde0d2	0.02505553245234255
41	0xbfd3bdb2f458d3c5	-0.30845331060418985
42	0x3fc6b17aa8a21775	0.17729123338738942
43	0xbf92cbcb9b438889	-0.01835554251818697
44	0x3fc66ec85e858ec4	0.17525581946676116
45	0xbfb9e3685f7c4bcc	-0.10112621623220192
46	0x3fd1070871d6422c	0.26605425946130157
47	0x3fcf2d654c1c46a8	0.2435728665955612
48	0x3f988b8945d1639b	0.0239697884429436
49	0x3fce09ec91537688	0.23467785926816398
50	0xbfa2c635be794a65	-0.036668471814341776
51	0xbfd3a748ac8ba3bd	-0.30708519792693406
52	0xbf78a343eef241ad	-0.00601507698515073
53	0x3fb56ae346dd7b71	0.08366222839457095
54	0x3fd22d55dea1384b	0.28401705495059976
55	0x3fd1ac314925a9b3	0.2761347975089407
56	0x3fd1767b2fc44e98	0.27285651840905123
57	0xbfb2c0802db59708	-0.07324982753706533
58	0xbfd5037a6a329fe4	-0.3283372914397644
59	0xbf9bfcb5896627f1	-0.02733119631879072
60	0x3fd44dcd9a88ef1f	0.31724872676180554
61	0xbfa0ddcd7d870495	-0.03294222028080999
62	0xbfb38e91f6d63a87	-0.07639419819154557
63	0x3fa0e7b66eea6437	0.03301782707166761
64	0xbfc207967963be76	-0.14085656096675664
65	0xbfa04ac66ea9bf40	-0.031820488938022695
66	0x3fce7dbcccb3a9f1	0.23821220393376977
67	0xbfc3d42dd2b0efb7	-0.15491268909124553
68	0xbfd4bf3982e50f33	-0.32417142660800663
69	0x3fd06fa7f8e58c1c	0.2568149500495467
70	0x3fb9e4c39010ad67	0.10114691035476185
71	0xbfc413e674bb4aaf	-0.15685730647836268
72	0x3fc7825b58ea7b0d	0.18366567460631025
73	0x3fcafc5718289720	0.2108258121453952
74	0xbfc037016d179370	-0.12667863680612923
75	0x3fd0c19c15d6eb7f	0.261816998794238
76	0xbfd341029d8c0731	-0.30084290872047165
77	0x3fc978a778c88c55	0.19899457357050446
78	0xbfc7a9aaf4813a3f	-0.18486535013876623
79	0xbfc066e70e34b533	-0.1281403369297692
80	0x3fd139135ea4d51e	0.26910862200323205
81	0xbfd1a537a7f6d969	-0.2757090702320029
82	0xbfc7fa2e807e24f4	-0.18732243799266934
83	0xbf9088390e0d43ed	-0.01614464901223649
84	0x3fcc24e49ce6b083	0.21987588559330015
85	0xbfd28d30ea962a5f	-0.2898676195988283
86	0xbfcf91ed44cb9fe5	-0.24664083346510704
87	0x3fc93ef2734094e7	0.19723349216034267
88	0x3f7418896a17a35f	0.004906212592211328
89	0x3fc58edd2dab6d86	0.16842236261332405
90	0x3fc77889de1cd7c9	0.1833660444769392
91	0xbfa021e3d435d19c	-0.031508559851235435
92	0xbfbd670d953fa5b7	-0.11485371488347239
93	0xbfb0f2752a046046	-0.06619961047943076
94	0x3fd006ba68b9eef0	0.25041065432718224
95	0xbfd1186cbefc5391	-0.26711577082579036
96	0x3fc228cc2b3e120e	0.14187004195640934
97	0x3fcc359696045b9d	0.22038538289117762
98	0x3fd23e21be4f29dc	0.2850422247398947
99	0x3fa4d55b8b793bb5	0.040690289283353755
100	0xbfb8874bebc51db0	-0.09581446176627284
101	0xbfc53aa3b3b16ff0	-0.1658520343215737
102	0x3fc15795a9240281	0.13548537024327703
103	0x3fc855db98f2adff	0.19012017219698404
104	0xbfc6f7e1585d9c0f	-0.1794397050354921
105	0x3fcf2372ab24a497	0.24326928478811702
106	0x3fd10c8c1a9dafdf	0.2663908252641231
107	0xbfd3fc7eb6004bf8	-0.31228606961775496
108	0xbfd1f74fa8528ce0	-0.2807196754240078
109	0x3fd1b12127d07f0f	0.27643612754944596
110	0x3fd18bfb9306de59	0.2741688667115106
111	0xbfbc4fe82db437ea	-0.11059428325481205
112	0xbfbf89a9527ef05c	-0.12319429649409258
113	0x3f0d095dcd5470bf	5.53828955764681e-05
114	0x3fd38ffcc229e6c1	0.3056632896546994
115	0xbfb1333ee2ecc3e7	-0.06718819656522577
116	0x3fc9b16b63e647a6	0.20072691324145103
117	0x3faede2c5947d6dd	0.06028879728175494
118	0xbfd5310f56f65f37	-0.3311193799249738
119	0xbfc1977915aab965	-0.13743508871034318
120	0x3fccb8e90072c9f1	0.224393010348265
121	0xbfa5086d2ce45a4f	-0.041079913835507235
122	0x3fc452918d7612c9	0.1587697926262506
123	0xbfd626271cc44810	-0.34607866105318497
124	0x3fbd4560a8d78aa4	0.11433986780279298
125	0x3fd2f97341bef5b9	0.29647523327352193
126	0x3fc0a27df0f27dc0	0.12995886101724174
127	0x3fc968903ab13123	0.19850352159336024
128	0x3fd4a1d1330fb4d7	0.3223765371938731
129	0xbfcebb15a4da710d	-0.24008436727024965
130	0x3fc28481e20bc3ce	0.14466880357170314
131	0x3fb951628438d94a	0.09889808395459912
132	0x3fd2e75f865eb8e2	0.295371896000587
133	0x3fd2b09fae2cf21f	0.29203025826771695
134	0x3fd2e06df19e9be7	0.2949480876508787
135	0xbfd06499fa2ebcf8	-0.2561402266682786
136	0x3fd29b44ab3cad55	0.2907268211590311
137	0x3f854bd5d8bda475	0.010398550679115307
138	0xbfa3d090511cc2c6	-0.03870059003964381
139	0x3fd29d14020a1c1f	0.2908372898022566
140	0x3fd15b6851b496f6	0.2712040708450866
141	0x3fc53fd9c0e4d51c	0.1660110656609185
142	0xbfc448fe392e3f6d	-0.15847757141136345
143	0x3fb9beef154cb140	0.10056967039117115
144	0x3fa8b9b18377a7cd	0.04829172830416404
145	0xbfc097fab16d2c0c	-0.12963803923989337
146	0xbfd25b33b3e66a69	-0.28681652611127234
147	0xbfcb49db4b9ce1da	-0.2131914252475003
148	0xbfbdb6401a190af6	-0.11606217038301367
149	0x3fc33ca4cc545027	0.15028820015925357
150	0x3fc127b4832265fa	0.134024204283193
151	0xbfc865aa1fad2b05	-0.19060255572033938
152	0xbfc10dd0996a01bc	-0.13323409548685372
153	0xbfbdfcc3fbed17d5	-0.11713814640560767
154	0xbfa12388a54c0d05	-0.033474226167550504
155	0xbfc85e8d87f458dd	-0.19038552416231527
156	0x3fcb702ac529223d	0.21436056735025658
157	0x3fc0b92a71b55ebe	0.13065081169292186
158	0x3fade9bf36cf9760	0.058423972550186276
159	0x3fbbc70fb96691d5	0.10850618626006477
160	0x3fb74b1f71a5cfe7	0.09099003338434351
161	0x3fcaa5471b9983f9	0.20816887710228096
162	0x3fcf92977eecae6b	0.24666112611281518
163	0xbfcfbc9ae40c0565	-0.24794326911073053
164	0xbfbc446869fe0d73	-0.11041882121758366
165	0xbfd6134a73e5a71e	-0.3449274188811716
166	0xbfc7063bec4114c7	-0.17987774883127924
167	0x3fd07dc71e6a6ae8	0.25767686815531343
168	0xbfd0d37a70923154	-0.26290760987537465
169	0xbfc9e488f0886fbc	-0.20228683228276434
170	0x3fd394b21d5a3d78	0.30595066896872636
171	0x3fa92261278926a9	0.04909041984190072
172	0xbfc2b578d3c9cc73	-0.14616308537697228
173	0x3fd024f61834e649	0.2522559391396482
174	0xbfd4fa91620b12e1	-0.3277934510663681
175	0xbfd0638bb58dd528	-0.25607578973661527
176	0x3fc0a92ab2e87a11	0.13016256080386815
177	0x3fcf8a3d8ef46199	0.24640626411634228
178	0xbfbf4bde61e80efb	-0.12225141420645606
179	0xbfaaf782a5f3444a	-0.052669604070282164
180	0xbfda78bd91084493	-0.41361941493330184
181	0xbfc5f3fc47951c11	-0.17150834555852204
182	0xbfd1122fa261ff03	-0.26673498971648274
183	0x3fc30b5541c3c9a9	0.1487833567731063
184	0x3fcf847578a293d7	0.24622982397445867
185	0x3f9375ced4866872	0.01900408908986901
186	0x3fc9d26eb7069454	0.20173438965608403
187	0xbfcf2859a10f5ecd	-0.24341888775119572
188	0x3fbf24382c0e636d	0.1216464145239919
189	0x3faadb2fc2d3fb05	0.052453510792466
190	0x3fc89eb64ec346b6	0.19234351011123402
191	0xbfd6df50ea334fa8	-0.3573801314462295
192	0x3f8717abc41540ab	0.011275617524603673
193	0x3f7ae9bf64ecff1f	0.00657057536483288
194	0x3fd480fa59b7a97a	0.32037218820064306
195	0xbfcdc86082ae913b	-0.2326775205703003
196	0x3fcf17317a503c09	0.24289530250868577
197	0x3fcf086770aa185d	0.24244397164528922
198	0x3fc8393d5017019c	0.18924681101453877
199	0xbfc216f51830dbbc	-0.14132560425943363
200	0x3f9e92ab9a3612cb	0.02985637787562005
201	0xbfcfafbad9f6c726	-0.24755035059711722
202	0xbfd1a00f6d0f5dbc	-0.2753943028487489
203	0xbfd073605db2d943	-0.2570420184159909
204	0xbfb8e8bccdfd346c	-0.09730129269628812
205	0xbfc0e44f8c50d4af	-0.1319674906859851
206	0x3fd4171f586ee1ea	0.3139112819294768
207	0x3fbef1e980c9d7cb	0.12087878603219264
208	0xbf9321f4b23d9478	-0.018684218768062227
209	0x3fcb8602da40d416	0.21502719551941202
210	0x3fce3ac0d5a62c0d	0.2361680072029632
211	0x3fb4f72c7609623f	0.08189657098535806
212	0x3fc114d3cc412ffd	0.13344809983607311
213	0x3fbcfa0b8c881db8	0.1131903856368045
214	0xbfcc4a9eb2696ee8	-0.2210272189284901
215	0xbfd49d093bf64e29	-0.3220847211425473
216	0x3fc27eb68ad4de05	0.1444919755829092
217	0xbfcbd8327ae4422c	-0.21753531456535435
218	0xbfc0345603207174	-0.12659716751739902
219	0xbfb5c54d7f90d44b	-0.0850418507041734
220	0x3fbf40929aa2d7ed	0.1220790507821616
221	0x3fd46796b2624fcb	0.31882255001368937
222	0xbfced7ae8433e864	-0.24095708327496645
223	0x3fcbbb0a0d60b324	0.2166454854317631
224	0x3fd1cc0ccc353f37	0.27807922308146565
225	0xbfbec0a25823211e	-0.12012686397350023
226	0x3fd08647a56be2b4	0.2581957927173264
227	0x3fccc1c0782d7ea0	0.22466283672382747
228	0x3fd3b840f488919e	0.30812095527860517
229	0x3fb55fa6e4a9f2ed	0.08349078257192462
230	0x3fd1f8203a473405	0.2807694024202763
231	0x3fc88d6968e229db	0.19181554433119072
232	0xbfd455e4b1a88193	-0.31774251317440266
233	0xbfad290d47385392	-0.05695382589707444
234	0xbfd0d85ba0c11e64	-0.26320543955487197
235	0xbf900d9c44c8c9de	-0.015676919649374337
236	0x3fc1022b6ae1fd04	0.13287871092686754
237	0xbfcae4d27932d617	-0.2101080982007921
238	0x3fc60dae9169ffba	0.17229253864570443
239	0x3fa9d8650de2b37d	0.05047908586980208
240	0xbfd05966950c242e	-0.25545658641255187
241	0x3fb393f6c84bb642	0.07647650136979059
242	0xbfcf7c3cff82e2f0	-0.24597895122658242
243	0x3fca4a465cfd0229	0.20539168873257665
244	0xbfce77dac4aa02e9	-0.23803267100085826
245	0x3fa3323d0f86c5b0	0.037492664475745285
246	0x3fc19f561f045c60	0.1376750613642086
247	0xbfbcf24870412fdc	-0.1130719446238681
248	0xbfd0b3687b4822be	-0.26095020331608143
249	0x3fd1b5a3b97e54c2	0.27671139826390967
250	0x3fbf109f5dbebf3b	0.12134738959025253
251	0xbfd46403f5d3c520	-0.31860445982518293
252	0x3fd3bd5bc3ea1622	0.30843252308145186
253	0x3fd30efcecb583c6	0.297789794121908
254	0xbf7814ea9d5836ce	-0.005879322493923046
255	0xbfd3403702264570	-0.3007943650237257

0.bias f8 [32]
0	0xbfc17d5ad522acb8	-0.13663802535061165
1	0xbee4d2367c62ffbe	-9.928295082395232e-06
2	0x3fcfd6e87522570e	0.2487459728187606
3	0xbfc4a842d3b13afc	-0.1613849195150222
4	0x3fd3c4cce76a3570	0.3088867435370366
5	0x3fbb04bb02656bdd	0.10554093178272646
6	0xbf9d10917f4ba771	-0.028383515734197787
7	0xbeed3f10a4a9fd04	-1.3945745327646846e-05
8	0xbeb00c5a8fee2918	-9.565506499964533e-07
9	0x3fd53f6f52db1cff	0.3319967564716108
10	0x3fd2b87fcdb07398	0.29251093947260065
11	0xbeed1e86d66039c2	-1.3885138013616862e-05
12	0x3f0d68cc0f477f98	5.609390965210999e-05
13	0x3fbc7d92e5c60702	0.11129110440927195
14	0x3fd29d912ea2f213	0.2908671336588508
15	0x3fd225449391b370	0.28352465067910426
16	0x3fd0cebfc0b3e4db	0.26261895960449316
17	0xbfabb1fc3982112d	-0.05409229471209396
18	0x3fd50006fb49907b	0.3281266645410665
19	0x3fd4996efbd690cd	0.3218648394925026
20	0x3faefcd31bf7425f	0.06052264896755299
21	0xbfbee0b845454c84	-0.12061645213298006
22	0x3fc86e05eda10889	0.19085764029484079
23	0x3fd0e5b88f6bb85a	0.2640210533708164
24	0x3f10cecef681e21f	6.411684228336448e-05
25	0xbfc062898ebbe01d	-0.1280071207945647
26	0x3fd4065fb40f0e70	0.31288902839535293
27	0x3ef5c7b0ca424c10	2.077106604809689e-05
28	0x3fc414535a1e6f5c	0.1568702878984095
29	0x3fb069c8f7aebf7a	0.0641141514486189
30	0xbf74eb3a092d9776	-0.0051071421647516015
31	0x3fcb1d15c7ba7f2f	0.21182510616653746

3.weight f8 [64, 32, 9]
0	0x3fb7ae45cf577625	0.09250294029285351
1	0xbfc090a37c44c76d	-0.1294140202313047
2	0xbfba3db92f8a01f9	-0.10250432406065348
3	0x3fa2ad07955159e0	0.0364763612530401
4	0x3fa04f5484f01ffa	0.031855241039067964
5	0x3fb8181be8954019	0.0941178744153607
6	0x3f9a3b1f65ad7694	0.0256161599930836
7	0x3f9ef23df3dcafb5	0.030220954903753944
8	0xbfb5093034770dca	-0.08217145233998405
9	0x3fa5cbb695369ed0	0.04256983348323973
10	0x3f89adfd6786eb5b	0.012538890573400676
11	0xbfb7b2bc8e702f0b	-0.09257105329032471
12	0xbfb3181a1b89490e	-0.07458651706955186
13	0x3fa15a5bfdd0b647	0.03389251206713744
14	0xbfa161ed9c3140d1	-0.033950257603125096
15	0x3f8b82ad4f86fbbc	0.013432840337257328
16	0xbfa436743d3a3f3d	-0.039477951501906784
17	0xbfb36026fd796fea	-0.07568591774310077
18	0x3fa3107141bfee86	0.037234820629206175
19	0x3f8377b9e29d7195	0.009505703190080076
20	0x3f9c2c96ee2c8383	0.027513845717411122
21	0x3f921f2bf790263c	0.017697035775233724
22	0xbfa62ef5b8b62fe4	-0.04332702522069079
23	0x3f80a91721e46c00	0.008135014268694007
24	0xbf88e781b08b6c18	-0.012160313797201325
25	0x3f94bfb1ff98b92c	0.020262509560944483
26	0x3fab9cd556e328bc	0.053930918556561264
27	0x3fb1a3f7a392355c	0.06890819304881773
28	0xbfb8f15486c3a7eb	-0.09743240633147791
29	0xbfb0a366edfc7743	-0.0649933177014335
30	0xbfa0011cd2cf280c	-0.03125848840097953
31	0xbf2203ecf484f872	-0.0001374460937401709
32	0x3f9c3b51c8672a2e	0.02757003579771771
33	0x3f839bec1d563467	0.009574741978918234
34	0xbf99c9d8653908de	-0.025184041193150423
35	0x3f7426ed12c12146	0.004919935290736815
36	0xbf933625241c0710	-0.01876123459715645
37	0x3fa86dc35db872f4	0.04771242636727449
38	0xbfa671fbacb1539f	-0.04383837206902474
39	0xbfa2ef35b78e8f05	-0.03698127618488737
40	0x3f724d05e87941ba	0.0044679861817517545
41	0x3fa227b3b9615a4f	0.0354591525835316
42	0xbfa4b650fc21536e	-0.04045346334229448
43	0x3fac1ff22bee5e63	0.054931228506742945
44	0x3f73a4edac8a0552	0.004795959867466353
45	0x3faf1d8d27c6f45c	0.06077233419953451
46	0xbf9870a2e104d488	-0.02386717317968537
47	0xbfaac85a188c3cd4	-0.0523098139730053
48	0xbfa07b40758aacb4	-0.03219033655963113
49	0xbf9972288b53a0b3	-0.024849542144608616
50	0x3f83eb6b1078312e	0.009726368370160356
51	0x3f89795f9aa720bf	0.012438532740717155
52	0xbf9a363bb5b218f1	-0.02559750839693548
53	0x3f832c8e21a8addf	0.009362326051891521
54	0xbf71a900f51de086	-0.0043115651513902006
55	0x3fb18ce5194cb856	0.06855613582294615
56	0xbfbe8b8c1493add2	-0.11931682112088218
57	0xbfa53efad4f01835	-0.041496122830765016
58	0xbf64288c74948028	-0.0024607413548807418
59	0x3f8930e46381df52	0.01230028561279509
60	0x3f5df8a434fc7e7b	0.0018293002685324789
61	0xbf4ada4c72f1af54	-0.000819480255711972
62	0xbfb38cb2107f9bd6	-0.07636559393686979
63	0x3fbbe5cb8b56b51a	0.10897514488052132
64	0xbfb1ee06d1426253	-0.07003824814672414
65	0x3f8d07b5fe414b76	0.014174863645313823
66	0xbfb381f4039fa25e	-0.07620167816606613
67	0x3fae8003054f49de	0.05957040252510003
68	0x3f9a81c93c02d87d	0.02588571957377227
69	0xbfa1a8731552f645	-0.03448829303077309
70	0xbf92653036d2248b	-0.017964127870560048
71	0xbf8242d0f7e96c44	-0.00891650444571302
72	0x3fa41e3d90b0e487	0.03929321662185097
73	0x3f9bb7e63514d8ee	0.027068707456430134
74	0xbfc076e65847793d	-0.12862853346354966
75	0xbfb73dddacd07503	-0.09078774899576918
76	0xbfa9e3b3fbfbde33	-0.050565361509083216
77	0xbfa7101b8c2cc6b7	-0.045044766293711395
78	0x3fac08ab4a3d8c6f	0.05475363999610116
79	0xbfac25bed868e2e3	-0.05497547523231618
80	0xbfb48e73660527f5	-0.08029862633443925
81	0x3fb55dc48a44e181	0.08346203208646409
82	0xbfaee64a280a643b	-0.06035072077538258
83	0x3fac9a77e4ddcedb	0.055865999877736626
84	0xbfa52b449de18ded	-0.041345733902541905
85	0xbfa602f2060c777c	-0.04299122165524147
86	0x3faa14bf9361d1c4	0.05093954729173647
87	0xbfa073ac8508b18a	-0.03213252185773559
88	0x3fad69dc699e419d	0.05744828023228197
89	0xbfa973e0f6ea794e	-0.049712209836104124
90	0x3fb1b236747c0652	0.06912556022509733
91	0x3f7129d9202f2e0a	0.004190300128310573
92	0x3f6d44b5786a2b90	0.0035728020041622746
93	0xbf81933774f03e09	-0.008581574684312991
94	0xbfa4fa9bd405446b	-0.04097449267522609
95	0xbf5a7a80d32397de	-0.00161612110655928
96	0xbf5e49741cde2fb3	-0.0018485673822139336
97	0xbfa828fcb776eff8	-0.04718770732458205
98	0xbf917bf9d1ca1f69	-0.017074492864167654
99	0x3fbaa32970f2ec69	0.104052152705593
100	0xbf922ae49d257c67	-0.017741748897034528
101	0x3f8664c6caa5023b	0.010934403475972512
102	0xbf88016d0ff08c4b	-0.011721469925822478
103	0x3faaab2faf85e2ca	0.05208729760756155
104	0x3f795b788821a987	0.006190749003602731
105	0xbf5fc993e02a2ae3	-0.001940149698074372
106	0xbfab1fcee9759f98	-0.052977052687139536
107	0x3f8797ea03baedce	0.011520221937977217
108	0x3fb0e981f9fdbe50	0.06606304505634708
109	0x3fb4d29275ff77d2	0.08133807545479435
110	0xbfbf3d1dc1fc7e36	-0.12202630983346627
111	0xbfb79dc9fc3669cb	-0.09225141913922312
112	0xbf83c506c3d82b10	-0.009653141833970064
113	0x3faa99442b041408	0.051950578928917024
114	0xbf8d66b392192f4e	-0.01435604371649615
115	0xbfad2c878d044387	-0.05698035808939666
116	0x3fae848ec813d77e	0.05960508529999141
117	0x3fb9e70bc9ce4759	0.10118173291109879
118	0xbf83499b8a04888b	-0.009417739057031823
119	0xbf90443869f9571e	-0.015885240047587172
120	0x3fb12b86442ddd40	0.06707038082628447
121	0xbf675e6e63f20c71	-0.002852645498536748
122	0xbf9863c6a9251a50	-0.023818115304744147
123	0x3fb029de3825baa1	0.06313885565553302
124	0x3fa545c45b6e7476	0.04154790512186761
125	0xbfa27776dff6d827	-0.03606769069612908
126	0x3fb36d6d1696fe70	0.07588846017369533
127	0x3f94de85b31910dc	0.02038010507227815
128	0x3f9060046148d191	0.01599127620484492
129	0x3fa0497a92f73745	0.03181059879317031
130	0xbf872c6b44a9c40f	-0.011315191300328235
131	0x3fa3d61b1d3a0068	0.03874287349481237
132	0x3fa58129756c5286	0.042001052459601104
133	0x3fac59f59bf78bea	0.05537383583921225
134	0xbfb0be61f4881f84	-0.06540500850689851
135	0x3f929806eb2f8575	0.018158062080947574
136	0x3fb2a51f7388c9b5	0.07283207483923244
137	0xbf8dc8fdd5dc70f8	-0.014543517197630682
138	0x3f903428c350f6f6	0.01582397167316337
139	0x3f968aff89a27ddb	0.022014611030156544
140	0xbf8ab65a0b426e7a	-0.013043120831120126
141	0xbfac0bc141fc96fd	-0.054777182869925035
142	0x3fa4324313a5ae2b	0.03944596876939629
143	0x3f94237a45eaf593	0.01966658641571468
144	0x3fb5f461e686e143	0.08576022985551383
145	0xbf6e35365bdeba78	-0.0036874829956652887
146	0x3fa017f411572350	0.031432749859567566
147	0xbf987afec3e1e6ea	-0.023906689363207535
148	0xbf767741e74b16cf	-0.0054848265032824825
149	0xbf9f7416ef70b7b5	-0.03071628414561874
150	0xbfa01b782114835f	-0.0314595737820642
151	0x3f79b201c07e4ee6	0.0062732761797581246
152	0x3fa49325cd12412e	0.040185147555464304
153	0x3fc32a9b03021630	0.14973771712190986
154	0xbfb2dc310a67be55	-0.07367235664400458
155	0xbfa99f0f8943674e	-0.050041661744855234
156	0xbf665488254e540f	-0.0027258547874660153
157	0xbfb184ccd087ba9e	-0.06843261805600284
158	0x3f9b580d8fdf6b79	0.026703082948965815
159	0x3f9550db65c88a78	0.020816257560122925
160	0xbfaec23fbc1c0ab4	-0.06007575198420537
161	0x3fa9c17c7f626586	0.05030430846199878
162	0x3fb2a3a579fb10fb	0.07280954578442682
163	0x3f81e53e6190bce7	0.00873802886243742
164	0x3fa542ea3753b0e1	0.04152614522340215
165	0x3fa4371b8085fd09	0.03948293632401529
166	0xbf8b7def7a26c5e3	-0.013423796572939522
167	0xbf97069c6993b24c	-0.022486156410126676
168	0xbf9c5d57459875a0	-0.027699817297720863
169	0xbf95c2340ef909e9	-0.02124863950144543
170	0xbfb0b04e11391af4	-0.06519020004735038
171	0x3fab773462337ec0	0.05364383410210172
172	0x3f9f5810a5c91a99	0.030609378927943885
173	0xbf8a86c455467d9b	-0.01295236001243332
174	0xbfa94f0e850c3035	-0.04943127988926258
175	0x3fac469c7ed0bfc2	0.05522622154273861
176	0x3f9292bcebf986f5	0.01813788595462192
177	0xbf7ea7bedc20c0d9	-0.007484193369279712
178	0xbf703ed2da5e1cc2	-0.003966163296247051
179	0x3fb0cfbc731a283b	0.06566980180846908
180	0x3fbcca20f50f37b6	0.11245923979660585
181	0xbfb465e8ab3a0f1b	-0.07968000583974481
182	0x3f913f10736e331c	0.01684213356525098
183	0xbf895d856da31046	-0.012385408790926655
184	0xbf8ebd22f1edd5df	-0.015009186752403756
185	0xbf929b6fe1b5febc	-0.018171070243168982
186	0xbfa4875ef62821cf	-0.04009529833644231
187	0x3f8d13f1da5968ed	0.01419819781874706
188	0x3f9908143edbc305	0.0244448817601919
189	0x3faa33ca219a1761	0.051176373101994306
190	0xbfa840b347633e0b	-0.047368624176325445
191	0xbfb92def3ec1252a	-0.09835715562907824
192	0xbfb77107c4eac002	-0.09156845624488599
193	0xbf81147a1ad70803	-0.008339837974634895
194	0xbf929d4f30d093ff	-0.018178212503830334
195	0xbf9cd0d6cf1296d5	-0.028140407932957984
196	0xbf9d57e07dd7f894	-0.028655536347280533
197	0x3f9ed19207fbdc8f	0.03009632276277024
198	0x3f8001268e9d8f79	0.007814694621351969
199	0x3fbb1a43ddadef33	0.10586952364058959
200	0xbfa6925bc25136c5	-0.04408537623440404
201	0x3fb1ea7f5f5b2bb5	0.06998439863234192
202	0x3f96ae8fc27d1799	0.022150274510998356
203	0x3f755990ca758776	0.005212369527130769
204	0x3fac6ea9fb380f07	0.055531799236659345
205	0x3fa49c1942335114	0.04025343831168207
206	0xbfaceea4025d06fe	-0.05650818375444365
207	0x3f95d8bb1a362e5d	0.02133457515223679
208	0x3fae279cd0e6ccc9	0.05889596986835383
209	0xbfa0a883759986f0	-0.032535656075891484
210	0x3fa5dc6a53b024fc	0.04269726058562104
211	0x3fa3eb8a2fe69029	0.03890640101170135
212	0x3fae846b66125922	0.059604030809327094
213	0xbf96b0f260366311	-0.022159373400060526
214	0xbfa23de1d1efdc50	-0.035628373028821714
215	0x3fa74a926d6da817	0.04549081407351723
216	0x3fbcd7752e6fa4fb	0.11266262420362587
217	0x3fb77744a7088c5d	0.09166363790477434
218	0xbfbe54e182c5dceb	-0.11848267977426345
219	0xbfb87f43bcb0259e	-0.09569190365450317
220	0xbf633e5b6c8249b4	-0.002349070131523601
221	0x3faa245794b5c1e0	0.05105851831729402
222	0xbf9c4395440bcfe0	-0.02760155895062144
223	0x3f801c284f7f43f5	0.00786620609861364
224	0xbfb2d8970c847d6e	-0.07361740165332772
225	0x3fb737efdf1e5ebf	0.0906972808573938
226	0x3f97f28527f87318	0.023386078419309703
227	0xbf939d224c3c0352	-0.019154106047611315
228	0xbfa8371b1f30a061	-0.04729542499291096
229	0x3faad8f528554e35	0.05243650548314031
230	0x3f956b55f2743584	0.02091726581880017
231	0x3fb36111e216c544	0.07569991845845886
232	0xbf9572c2d7545c71	-0.020945591347381446
233	0x3f7118c2a99fd973	0.004174003983271712
234	0x3fa90102cee8a269	0.048835838086522206
235	0x3fa67b80047a90d2	0.04391098074600709
236	0xbf736f5c9a355a8e	-0.004744874694856306
237	0x3fa9c719637bf7d2	0.050347131151269445
238	0x3f6ab843ad625f5e	0.003261692220870956
239	0x3f8b74b1bf04caf2	0.013406170503548396
240	0x3f9c3843e1ff196b	0.027558384579401556
241	0x3fab9e6923ad8de3	0.053942952733247805
242	0x3fad04f762631049	0.056678515205505216
243	0x3fafa22cc76bd189	0.06178417143192678
244	0x3fb73334bbb1c248	0.09062509138471697
245	0xbfb55eec5026ee61	-0.08347966152990118
246	0xbf9e5838c04be0d7	-0.029633414017525474
247	0xbf7c7ee8c7a6ce3a	-0.00695696763652936
248	0x3faa693b31bed4d8	0.05158410055393298
249	0x3fb0902e91a7c0ee	0.06470004135167404
250	0xbf98759c4a8f47bc	-0.02388614850116942
251	0xbfa6bf53fcaf6fbd	-0.0444284673646673
252	0x3f96c8dccb3672eb	0.022250604537123058
253	0x3fb2541b734ca3ca	0.07159587445188645
254	0xbf9eb941c37cee96	-0.030003573948518346
255	0xbf8b322a7b5934bb	-0.013279277695938388

3.bias f8 [64]
0	0x3f95e377a90a9a9b	0.02137553185698469
1	0xbfa131c0f1f0f25c	-0.03358271554359213
2	0xbf98c88e82353080	-0.024202562997104327
3	0x3f99053e1104985d	0.0244340608488972
4	0xbf76b1f38a7c89d0	-0.0055408013647899185
5	0x3f89d16b286cade1	0.012606465502890298
6	0x3fa2d972ba46567a	0.036815247763269235
7	0xbf93e1b6ca600eb4	-0.01941571817589134
8	0xbf9d4ea616361992	-0.02862033377234636
9	0x3faff6e10f602e69	0.062430413367192746
10	0xbf79b1a131ba40b3	-0.006272916474373047
11	0x3fac2ec01839e0e2	0.05504417701462373
12	0x3fb406cddc718614	0.0782288230125448
13	0x3f812e393f63d709	0.00838894581509521
14	0x3fbee681e8520f18	0.12070476457489254
15	0x3f979fb0d21cac66	0.023070109199732867
16	0x3fb270fc9924ecd0	0.07203654040215501
17	0x3fb3805025679655	0.07617665208052789
18	0x3fb27178a27dc22e	0.07204393355437652
19	0x3fa02f28103927d5	0.03160977552450076
20	0x3f80b658c725615f	0.00816029889817632
21	0xbf971722bf4ff6d6	-0.022549193312434955
22	0xbf933366c046cbbf	-0.018750768170956663
23	0xbfba4b5278ef4d3d	-0.10271182491787996
24	0xbfb9846c052b68c8	-0.09967684866151949
25	0xbf89a4641d862732	-0.012520582343103468
26	0x3f7077e8a5987fc4	0.004020603920736169
27	0x3fa1b4f7c9591cd8	0.0345838006292582
28	0x3fb2289d01b59418	0.07093220988970506
29	0x3fa30ccc651f6558	0.037207019180366785
30	0xbf56bfee08c5185b	-0.0013885330727858778
31	0x3f8d28c36f534060	0.014237906298518677
32	0x3fa756a20785531f	0.04558283178145061
33	0x3fafc0d2fe89856f	0.06201800686973057
34	0x3fa2a88cafc8a56b	0.03644218107030891
35	0xbf9b7f4dedd93f25	-0.02685281528675811
36	0xbfa4ab7ce5cc0088	-0.040370848704697926
37	0xbf971ece775e59ac	-0.0225784550053391
38	0x3fa8cb03ecee597e	0.048423884079215704
39	0x3f9c600a837efe53	0.027710117603190487
40	0xbf27f7250f34f978	-0.0001828415621307302
41	0x3fb10099c22ddac8	0.06641541472150003
42	0xbf9ab93d0236177e	-0.026097253093687815
43	0x3fa02b0e2a122cd7	0.0315784860950658
44	0xbf95d5c2083196be	-0.021323234319786215
45	0xbf960635fa2adac4	-0.02150806750679625
46	0x3f91fb2649e3b8d2	0.017559622058734466
47	0x3f966ed6c4ed6505	0.021907192010393057
48	0xbf75a708a2fbf953	-0.005286248909895558
49	0xbfa480b2de63d25f	-0.04004439320298014
50	0x3fa47186d931cc7b	0.03992864037800189
51	0x3f4d2d1c19186303	0.0008903872678188432
52	0x3f9d968e790aedfc	0.028894640100345356
53	0x3faca3c263fbd18c	0.05593688459876764
54	0x3fa32987c4d55592	0.037426226403719856
55	0x3fb11d26cc09f2ac	0.06685106736581287
56	0x3fa9f445e39963af	0.050691780121901224
57	0xbfa4b9fa2fa2c967	-0.04048139411442513
58	0x3fa4409f81112280	0.03955553484462815
59	0x3f8142904a6fd24a	0.008427741309767662
60	0x3fa18bbd81aae1b9	0.034269258574059554
61	0xbfa2a9d507b19522	-0.036451966466112276
62	0xbf97afef5754a2ea	-0.02313207598232029
63	0xbf91d58091d347a7	-0.017416008854361256

7.weight f8 [1, 128]
0	0xbfb290605454c89b	-0.07251550730578275
1	0x3fa1fc9de8466f6a	0.03513043842687476
2	0x3f95626ce4762ea4	0.020883275455658393
3	0xbf949c56fcb4d0dc	-0.020127638982743487
4	0x3f89919492b162c5	0.012484703757011837
5	0xbfa1012cf01fe434	-0.033212093650896085
6	0x3fa6f5d6a0765d22	0.044844348037424334
7	0x3fb432d1b3004442	0.07890043850081077
8	0xbfbfcc0fec262792	-0.12420749202115491
9	0xbfaf0bf8c2cd04dc	-0.06063821199360017
10	0xbfb336bb72cb88a0	-0.07505389740575419
11	0x3fa8836dc0b96d19	0.047877721572797856
12	0xbfb71fda3cc97388	-0.09032978042655604
13	0xbfa3cc0ba50ef14a	-0.038666118525244444
14	0x3fbf48b2bbb859db	0.12220303614626664
15	0xbfb41e938f82ad35	-0.07859155896828869
16	0x3fc306d9fa68528d	0.1486465904896658
17	0xbfa4a207d2bf729f	-0.04029869506459715
18	0x3fa3af5a98df6791	0.03844721904870519
19	0x3f7635e7d4c3ecc5	0.0054225021269715444
20	0x3fa693bdf394854e	0.04409593199148763
21	0xbf97b677b062d006	-0.02315699590754152
22	0xbfbaab6c741dd5d6	-0.10417821726681295
23	0x3fc3e5b3e374e2c4	0.15544746977118085
24	0x3fc28fd31b628907	0.14501417958405957
25	0xbfaf52b5c17b8460	-0.061177902096240855
26	0x3fbc3893939f112a	0.11023828844105724
27	0xbf96e61dc0f3c7c4	-0.022362198736068498
28	0x3fc1ee42c7371852	0.14008364417367375
29	0xbfb385fededb5a7e	-0.07626336041298917
30	0xbf95423d2d6ab632	-0.020760494133972247
31	0x3fb312ebc626267f	0.07450746142981222
32	0x3fa1234a05e9e0a8	0.03347235986888225
33	0x3fa123da38b684fc	0.033476657317132535
34	0x3fc223eb93df24db	0.14172119827552518
35	0xbfa145010f3317ef	-0.033729584794443095
36	0x3fb96b2f7be6e880	0.0992917706961709
37	0xbfa07a23bc27188e	-0.03218185111795534
38	0xbf8157685225272e	-0.008467497832174677
39	0x3fb202c1cdd0c2dc	0.07035456919471578
40	0xbfc2e47240d007b4	-0.1475966278522357
41	0xbfa577ef0342c9f4	-0.04193064608388744
42	0xbfb80854c8fd83d1	-0.09387712389936033
43	0x3f6b0a000d459c4e	0.0033006669056479315
44	0xbfb37f4bac181474	-0.0761611266280669
45	0x3f6f48a73d9bcf7f	0.0038188234728923627
46	0xbfb439c662f8703b	-0.07900657573958451
47	0x3fa8e48fbd95f209	0.04861878575590956
48	0x3fb300adbe8a387b	0.07422910596707936
49	0x3fb4b73303324cb4	0.08092039897956022
50	0x3fb762510f11d3b8	0.09134394281302505
51	0xbf5bcf1fef8f59b9	-0.0016973316071379042
52	0x3f8016bc0f5130a4	0.007855862824861788
53	0xbfa72ece54ce184d	-0.04527897629945752
54	0x3fb0871ad249d30b	0.06456153520577972
55	0x3fb39265432759e6	0.07645256890769012
56	0x3f044a111215c7b5	3.869881244157552e-05
57	0x3fc21689a8d8720c	0.1413127970162268
58	0x3fc8a963fd52bf4b	0.19266939038561257
59	0x3fc17c7145db42b0	0.13661018286668059
60	0x3fc03ff08dcd2399	0.12695128368275446
61	0xbfb16179e8e44b09	-0.06789361892542102
62	0xbfa254ef4a0fad72	-0.035804250517538785
63	0x3fad5a076633f87d	0.05732749102206556
64	0x3fa1ac78f674d8ee	0.03451898582936673
65	0xbfb048cd57a4550e	-0.06361087217040426
66	0x3fb800f16d61be98	0.09376439018682914
67	0x3fa4627fbb051ebf	0.03981398733099927
68	0x3fb0fb34e3fec8d0	0.06633310858049701
69	0x3fa482c80605e793	0.040060282454717065
70	0x3fa48080aa9ffd15	0.04004289706062473
71	0x3faafb7502c6554a	0.05269971522208523
72	0xbfc3828dcef4018d	-0.15242169003614628
73	0xbf8551cee400cdc3	-0.0104099429446255
74	0xbfb0d63e5783f307	-0.06576909672362428
75	0x3fb7c5b3f04a33ab	0.09286045662356794
76	0x3fba361605decce7	0.10238778727834906
77	0x3fa6a48b8b8efd0a	0.044224129472690235
78	0x3fa8345d268e3a23	0.04727450462006668
79	0x3faf10b14e345591	0.06067422942775658
80	0x3fc8124d52f023b3	0.18805853414258208
81	0xbfb5231532b4b4af	-0.08256657112061093
82	0x3fb74257815faccf	0.09085604580438943
83	0x3fb13a719858be07	0.0672980305614531
84	0xbfb73ec04cb5a7fd	-0.09080125687401615
85	0xbfac1236b7cbac81	-0.05482645982359547
86	0xbfb01311bd9e8178	-0.06279097442030046
87	0x3faf1f90147d9340	0.060787680150304
88	0x3fb43d35c0324905	0.07905898992820333
89	0x3f8f8b9e8236177e	0.015403021191342733
90	0x3fb935df0542c9cc	0.09847825888099421
91	0xbf9e825b6cc06423	-0.029794147980371954
92	0xbfb19a6354822910	-0.06876202405161203
93	0xbfb540d3ec329640	-0.08302044407408804
94	0x3f985fda9147ac04	0.023803153149781778
95	0x3fc0139c2c7d78b9	0.12559845135087302
96	0x3fbfd953ff967407	0.1244099139207294
97	0xbfb65349240e6e87	-0.08720833902628487
98	0xbfc0596a197176e2	-0.12772871248574008
99	0x3fa62097110e122d	0.04321739276113976
100	0x3fc169a9e3a4254a	0.13603709807675052
101	0xbfb0766f4b13e83f	-0.06430717070534885
102	0x3fa59be726fdcf6e	0.042205070028017086
103	0xbf51b4ce7d7cc9bc	-0.0010807053094593474
104	0x3fc172a465c28882	0.13631110161538024
105	0xbf83536d12e0eb88	-0.009436466349247899
106	0xbf96cedf076ca003	-0.02227352602781708
107	0x3fa05d6398c21ebf	0.03196250190472715
108	0xbfb62f7583fd29b4	-0.08666166756044086
109	0xbfaa894fb758e3b2	-0.05182885277867601
110	0x3f93eea55aa2e278	0.019465049416540897
111	0x3fb65eb21fb71345	0.08738244318290096
112	0xbfb3d56122c41276	-0.07747466181542415
113	0xbfb64f3a98077503	-0.08714643680237448
114	0x3f86c39c6eda76f8	0.011115286000229471
115	0xbfb3e343233ab0d8	-0.07768649683083895
116	0x3fd0ab251d68bbce	0.2604458605955501
117	0xbfad9f8484d5e71a	-0.05785764810111811
118	0xbfc90cbe4b143cce	-0.19570139566392303
119	0xbfa66b5461787e29	-0.04378760995700432
120	0xbfbb23eaaa4f8585	-0.1060167947575988
121	0xbfb105d3fdb853c6	-0.0664951795991576
122	0x3fb4131446b1f845	0.07841612554509066
123	0x3fb137b89867c23f	0.06725648613770206
124	0xbfc9e4e2d6aefe92	-0.20229754908176695
125	0xbfa84042efdf7c93	-0.04736527612816945
126	0xbfb5d5dda92953cb	-0.08529458408277361
127	0xbf6072620417dc7f	-0.0020076670050417906

7.bias f8 [1]
0	0x3fad7f8910e072cf	0.05761364298834836
