models/run2/21.pt (torch, 153942 bytes, 6 tensors)

0.weight f8 [32, 1, 9]
00000000: 396b 7883 e586 a23f 2a22 6f77 5f79 c33f
00000010: d9a9 7d66 c146 c2bf 12be b2f8 f1b1 ca3f
00000020: e685 11a0 728a ba3f 2e1e 19c5 61be d03f
00000030: 1522 7fa4 42ba d03f 5c4b 5c2c c202 d23f
00000040: c75e cdc5 d2ff d13f 66d6 657f b039 bd3f
00000050: bb7e cdba 066f d33f e9d3 e58d a96a 9cbf
00000060: d8bf 1ecd 185e dabf d998 5f28 2d7d d33f
00000070: 8147 385c 9ce8 c93f ece8 e11f 17e5 d33f
00000080: e52f cfc6 87af d6bf 6035 fabb da14 cbbf
00000090: 9ffc 0576 f0b5 cbbf 27a1 422d 5e0d b73f
000000a0: 7073 17da 48eb ce3f 5392 160a e8fe d3bf
000000b0: 00ba ac3b c05a 863f b96a dad5 02a4 d33f
000000c0: 69fe 01a4 d9f8 b1bf 2dbb 4fe9 ffb0 c53f
000000d0: 42a6 2f1e d111 cfbf 0ffb 16ac 0aeb 9bbf
000000e0: 6bb0 4235 d40e c43f f788 4ff5 d65b c3bf
000000f0: 6299 c23e e89e be3f 9efc a821 19ae b13f
00000100: 01a5 99af 409c d43f 61c9 2a7b 4f29 c2bf
00000110: 7111 1501 91ee c5bf 0850 0a42 3564 cebf
00000120: 5459 d048 1494 cfbf b7c9 4e4f 6c33 c63f
00000130: c3f6 9a58 7103 d2bf fabc 9e36 8973 d23f
00000140: faeb 5a11 4365 983f cac4 157f c5d2 d3bf
00000150: e491 1fda 64b1 c63f d2fc 0322 d46b 98bf
00000160: 04a0 af66 d96e c63f fb85 be76 42c2 b9bf
00000170: a5dc 222b 5406 d13f bd11 66b1 63f6 ce3f
00000180: b6e6 9736 638b 953f 268a a56e d0e0 ce3f
00000190: 920a 2a3c 9136 a3bf d5ae 8ee7 7b9a d3bf
000001a0: 36e9 da3d f3f1 7abf d41f c634 d367 b53f
000001b0: e643 55c6 dc2d d23f f6c9 c88f 1ea7 d13f
000001c0: 1c56 cee6 1677 d13f 60b5 0421 b5a7 b2bf
000001d0: ee6a 2d31 3d2b d5bf 9b1f 2d88 3d2d 9bbf
000001e0: 4101 014e 8449 d43f 69f8 2ef3 9dce a1bf
000001f0: 6446 1792 ac1a b4bf d3c0 fa6e 37b9 a03f
00000200: 9adf 2d24 c2f0 c1bf 7588 bb35 461a a1bf
00000210: 67a7 3b85 6b7c ce3f 4ce1 eff0 1cf6 c3bf
00000220: e208 8969 93d5 d4bf 611f 6e7f ef6f d03f
00000230: 5190 47b7 7fe4 b93f 5377 aae0 5dfb c3bf
00000240: 32e0 f2f6 5b85 c73f f299 9257 cb72 cb3f
00000250: 4150 edc0 6963 c0bf c135 6c1b aec3 d03f
00000260: af40 d4d6 6022 d3bf 50e6 6dab fbaf c93f
00000270: 3105 448e 3eb5 c7bf 3089 c5b8 1333 c0bf
00000280: acec 2adf 4134 d13f a046 f193 97c1 d1bf
00000290: bd52 2e5b 58eb c7bf 2375 02ac ae48 91bf
000002a0: 75d2 19fe ba1f cc3f 1b44 dc2f 5ba3 d2bf
000002b0: 6f0f 2ad3 5ebb cfbf 08d2 4832 9246 c93f
000002c0: 00d2 8898 ebf0 7e3f 6426 29de 18a3 c53f
000002d0: 5f14 ad75 277a c73f 449b e217 f6c4 a0bf
000002e0: c64c cbad 5296 bdbf af38 6cc8 817e b0bf
000002f0: a478 75f0 e206 d03f 02af 8bef 6eed d0bf
00000300: a5fd 933d 2351 c23f 4dc3 0714 5757 cc3f
00000310: 6a53 d143 5c3e d23f a6d9 3d3f 9ac2 a43f
00000320: 4d87 9730 d488 b8bf b5ca 34aa ba1b c5bf
00000330: f8bc 7626 bb99 c13f 76d6 ccc2 2b5a c83f
00000340: 7842 5fa5 28b4 c6bf b0b6 7777 9021 cf3f
00000350: f90e 64a4 a904 d13f bdab e61a 0553 d4bf
00000360: aafd e801 73e2 d1bf 3bec 780d 9fae d13f
00000370: 3c99 ec44 568d d13f ae21 ed94 6ca7 bbbf
00000380: c299 346f 828e bfbf e99c a92f bcf8 3e3f
00000390: fd26 bbf5 3d94 d33f bf53 c00c b76d b1bf
000003a0: 38b6 2a81 ebf8 c93f 9d36 2dd2 20e1 ae3f
000003b0: f004 e1c9 b04f d5bf 1621 11e9 c7ae c1bf
000003c0: 89d0 9cb3 1db1 cc3f 838a 460e 4455 a4bf
000003d0: c1af d895 f61d c43f ba4b f490 9640 d6bf
000003e0: b94c 95c3 0a61 bd3f 49b2 3428 f6f8 d23f
000003f0: aded 664d 8ea4 c03f de0c b142 3879 c93f
00000400: 47a7 7583 f7a1 d43f 148d 4187 3a8b cebf
00000410: 8d56 5221 adc6 c23f efbb 5d8b ae3f ba3f
00000420: a264 d197 dde8 d23f c016 d628 33cf d23f
00000430: 2690 6cb9 e4e0 d23f e1ff c36a 5787 d0bf
00000440: aff2 9070 779d d23f f257 f703 a3d6 873f
00000450: 69bd 382d 574b a5bf 2de0 3f68 0ea0 d23f
00000460: 7cba 0689 a159 d13f fbad bc1b a130 c53f
00000470: 43f6 aac6 8363 c4bf 5da0 cc04 0a58 b93f
00000480: dc88 d4c3 f3d2 a83f db91 3972 0d54 c0bf
00000490: e4da 7b13 2c3a d2bf f676 f24b 7d2b cbbf
000004a0: 55b8 07b2 e1f3 bdbf 0c0a 3d12 4934 c33f
000004b0: fcc0 e045 e02a c13f 99ad 5fc8 018d c8bf
000004c0: 64a7 60d1 a857 c1bf 477e 8d2f 6091 bdbf
000004d0: a569 b64c aec8 9dbf d6d9 5949 a697 c8bf
000004e0: ebdf 9f05 f771 cb3f d0f3 2946 5cef c03f
000004f0: e460 5a95 9ca2 ae3f 9cd5 f215 f8e2 bb3f
00000500: 89b4 74e2 38bc b73f e85c b7aa 2ca2 ca3f
00000510: 1a58 59bb 4a8f cf3f f249 83d2 f299 cfbf
00000520: 9fe6 7550 1308 bcbf 9a19 6a77 622a d6bf
00000530: 4754 6e03 99de c6bf 7796 c710 137c d03f
00000540: 0bf2 1dfe 7ee0 d0bf 046c 025f 072e cabf
00000550: 3951 7281 6d90 d33f 8a0f 39da 3315 a93f
00000560: 70fe eb9e 88ac c2bf 04fe 77b1 5f22 d03f
00000570: 2ba6 7d06 d1f7 d4bf 2be2 e998 ea65 d0bf
00000580: 2d24 dbf2 00b5 c03f 537a 01b4 3d8d cf3f
00000590: fd7e 2381 734a bfbf 01d0 a4a7 f147 abbf
000005a0: c8ad ceb4 02ce dabf 82fc 677e 2223 c6bf
000005b0: 998a 8cdc 1d00 d1bf c8c7 44c1 3429 c33f
000005c0: 49ec 2fcc 2986 cf3f 1ba0 87d6 8727 933f
000005d0: 6fdc 4773 6ad1 c93f 2f9c ab92 933c cfbf
000005e0: 20e3 4d99 eb1f bf3f 2092 ae09 becd aa3f
000005f0: 1ed3 f928 b697 c83f 8725 d9d4 f7fd d6bf
00000600: 01cd 103c 4c8c 833f 73d8 281e 3ddf 733f
00000610: 6780 190c a083 d43f df8b f4b0 4891 cdbf
00000620: 12d7 ee48 cc0a cf3f 2a6d fb9b f0fe ce3f
00000630: 29bc b603 7c36 c83f d558 b2dd ee1a c2bf
00000640: 39be acff 2078 9e3f 8e01 6ef4 5aa2 cfbf
00000650: 5e6d 925f d6c1 d1bf a82d e771 929e d0bf
00000660: c366 451c d5cf babf e3af 6b5a 04ce c0bf
00000670: 4dc0 bf1a ec13 d43f a1b3 164a 03f4 be3f
00000680: 40e7 9344 b11d 94bf 99fb 13e2 c794 cb3f
00000690: 9f64 0f27 ad31 ce3f 56aa 31cb d45e b43f
000006a0: 5094 bde4 f019 c13f d0dc a4c2 f5f3 bc3f
000006b0: eb5a bda4 3512 ccbf f5e2 f1a8 34c6 d4bf
000006c0: b24e a8d8 5e7e c23f 9eb6 f797 54ce cbbf
000006d0: c6b9 41a8 2641 c0bf e6e0 d8bd 87f2 b5bf
000006e0: 16a5 6a09 6a4d bf3f b56b ed85 9961 d43f
000006f0: 3fea 0eb3 1dfc cebf 8eb4 ac52 ceca cb3f
00000700: 37dd c3b1 fdc9 d13f aeab 9ed5 f4d2 bebf
00000710: 1df0 04fa c293 d03f 0a34 f974 9105 cd3f
00000720: 280d c35d 88b8 d33f 0bfe 92bb 5bae b53f
00000730: 2d44 0960 90f4 d13f ac0f 6133 0691 c83f
00000740: bde0 d2ce a368 d4bf 609b 1ef5 5087 adbf
00000750: 28bc c1c5 15c0 d0bf b241 dbde c1e3 8bbf
00000760: 88a8 0ca5 9ec5 c13f edc6 ba3c a60b cbbf
00000770: 9950 7de4 7b07 c63f dfd1 ce0b e056 aa3f
00000780: b042 89d7 b627 d0bf 37f3 5053 1579 b33f
00000790: e05c 919a 28ed cfbf 00ff d3be 3846 ca3f
000007a0: b5a0 47eb 629e cebf c0de d862 1d76 a23f
000007b0: a9d4 a932 1da4 c13f a093 bcc2 5df8 bcbf
000007c0: ae3b f6cf 2cb3 d0bf 2fbc 68d6 98b4 d13f
000007d0: 95c3 3c60 561b bf3f c05c df28 0183 d4bf
000007e0: 9824 fc1b 97bd d33f 736f 52fb 840d d33f
000007f0: f6ac 95ae 150f 71bf 22e2 19bd f272 d3bf
0.03618542890418159 0.1521415074514761 -0.14278428558766512 0.20855545657603664 0.10367504508896949 0.2616199898515984 0.2613684278881306 0.28141836483080396
0.28123921696304105 0.11416152105615537 0.3036515068288101 -0.027750634465934985 -0.41199321776639186 0.30451516096799264 0.20241121771737983 0.3108575641014244
-0.3544635240075407 -0.2115739267214094 -0.21648984682903902 0.09004772763239953 0.24155531548504028 -0.31243325219319223 0.010915281125190468 0.3068854416284626
-0.07020340208145516 0.16946410076294552 -0.24273122762615357 -0.027263800385976696 0.15670254326448982 -0.15124022462902761 0.1196122315619497 0.06906277725009821
0.32203690670446866 -0.1418856955911663 -0.17134296944471886 -0.2374331066572497 -0.2467065196548882 0.17344430801820263 -0.2814601292883305 0.2883017571829921
0.02382378381183157 -0.3097394696297441 0.177288633828666 -0.023848833633562112 0.17525784982649395 -0.10062041663197611 0.26601127827184207 0.24189420854612634
0.021039533812632093 0.24123578455608302 -0.03752569064547119 -0.30630395520232173 -0.00657839790590691 0.0836154941408716 0.2840492188307152 0.275825157560717
0.2728936437573297 -0.07287151390183544 -0.33076410105210996 -0.02653976577428772 0.316987110305508 -0.034779487548335215 -0.0785320145289688 0.03266309003572734
-0.1401598621994225 -0.033403581675671846 0.23817199712294299 -0.15594827427390567 -0.3255356340997776 0.25683200306274584 0.1011428663692311 -0.15610860319150763
0.18375730093043924 0.2144407441712271 -0.12803384704841572 0.2619433658408888 -0.29897328357129543 0.2006830775315387 -0.1852186388642081 -0.12655874750186902
0.26881453317373416 -0.27744092414386934 -0.18686966373629402 -0.016878823517449192 0.21971833617466854 -0.2912204711329324 -0.2479055911136316 0.19746615844054838
0.007553978248826088 0.16903982970898135 0.183415348490743 -0.032752695480033484 -0.11557499640484811 -0.06443034308560656 0.2504203174811528 -0.26449178116921257
0.1431011248277915 0.22141540983241229 0.2850561773569128 0.04054719945900169 -0.09583784281087766 -0.16490872679567806 0.13750399950138337 0.1902517987415881
-0.17737300944147072 0.24321180184727131 0.26590958646578106 -0.3175671351152081 -0.2794463652280351 0.2762830382886851 0.2742515252197284 -0.1080234397496784
-0.12326827254273723 0.00047258943928914096 0.30592297551321207 -0.06808036862669463 0.2029089337060428 0.06031134191162588 -0.33298892702812477 -0.13814638977260846
0.22415515203613648 -0.03971302675497148 0.15716440502853682 -0.34769214778605895 0.11476199412327305 0.29644540716507045 0.13002184657476104 0.19901183372903736
0.32238567197656604 -0.23862392048167946 0.14668811919243688 0.10253420736783857 0.29546298814745786 0.2938964747230379 0.29497640712566164 -0.25826058794336687
0.29086099617760913 0.01163985591749037 -0.04159042765638327 0.2910190599500336 0.27109564191315605 0.16554654936167865 -0.15928694916321903 0.09899962060137697
0.048484437613540016 -0.12756507947336967 -0.2848005476256914 -0.2122646923862061 -0.11700258823813788 0.15003312483357012 0.13412097370156306 -0.1918031910312095
-0.13548765395654094 -0.11549950753168857 -0.0290858492204308 -0.19212797719565228 0.21441543364176083 0.13230470109911474 0.05983437846333731 0.10893202339032942
0.09271579292972566 0.20807417236094428 0.24656042240047854 -0.24688563612887965 -0.10949822153443244 -0.3463369527966279 -0.1786681429627228 0.25757290495526014
-0.26370215240584177 -0.20452968730100463 0.305690170681618 0.04898988760808638 -0.1458903099046327 0.2520980103581396 -0.3276255191218264 -0.2562204831406542
0.13052379472927225 0.24649783410400747 -0.12222978499221067 -0.053283263887720984 -0.41882388741461485 -0.172947227212692 -0.265632119541047 0.1496950095839209
0.2462818381316956 0.01870548483739763 0.20170336369457995 -0.24403614675176885 0.1215808152463862 0.05235093944728342 0.19212986946845317 -0.3592509821506486
0.009544940550858973 0.004851568929146055 0.3205337637100513 -0.23099621429818648 0.2425170284383787 0.24215514770808372 0.1891627329000312 -0.14144693207771888
0.02975513039126396 -0.24714219031376355 -0.27745589574052143 -0.2596784698805217 -0.1047337717076529 -0.13128714003630568 0.3137159596653916 0.12091084059529901
-0.0196445177179847 0.21547792948692004 0.2358910027240073 0.07957200966635844 0.13360415619823351 0.11309753419924395 -0.21930571121148232 -0.32459751604578396
0.14448152140595522 -0.2172342054395146 -0.1269882508817785 -0.08573196778241118 0.12227499704262743 0.31845701292848655 -0.24206897013739767 0.21712664639327212
0.2779535518634079 -0.12040643897368739 0.2590186540217035 0.2267324277076173 0.3081379809993501 0.08469174699256869 0.28055199984106843 0.19192578800914128
-0.3188867110980132 -0.057673005983182035 -0.2617239409655121 -0.013618006337680597 0.1388433748155118 -0.21129301038086315 0.1721033921882096 0.051444055024521644
-0.2524239640088508 0.07606633457266986 -0.24942500636345866 0.20526799505022808 -0.23920856941481863 0.036057394329359393 0.1378208634738816 -0.11316476826011845
-0.2609359770657943 0.27664776743307845 0.1215108857111445 -0.3204958819528194 0.30844667179969454 0.2977001623455557 -0.004164776511383686 -0.3038908812227722

0.bias f8 [32]
00000000: 4f0f 3a89 1ec2 c0bf 5d07 491c 9719 153f
00000010: 60a5 bc42 a8c9 cf3f 79ef d891 c2de c3bf
00000020: d30f 0c95 cfb5 d33f 4c58 db26 ffc4 ba3f
00000030: 8766 f2ab 1988 96bf 5c98 f5ac 21ab 403f
00000040: da83 df88 c786 2e3f 8632 4058 fb3b d53f
00000050: f459 12de 06b7 d23f ec39 cff8 7c60 3e3f
00000060: 6eb5 6abb 6e19 293f 29a3 ca70 8150 bc3f
00000070: 2b2b bafe e48d d23f 9237 28c9 2c1c d23f
00000080: e791 7f39 becd d03f d888 3db5 0a9b a8bf
00000090: d96e 2e95 d3fd d43f 2592 bbb5 958e d43f
000000a0: 08db c270 8888 ae3f f394 132b 9918 bdbf
000000b0: 203b 200a 0a68 c83f be89 a53c 25e8 d03f
000000c0: 3d8c 51af c443 5a3f bc19 dbd4 9f02 bfbf
000000d0: 6e76 7d5f b903 d43f a484 ad09 ac85 0fbf
000000e0: 3ba8 e1eb a6f8 c33f 01cc 9785 1e61 af3f
000000f0: 1794 27fa c961 563f cda7 6496 5902 cb3f
-0.13092405033614304 8.048996739609461e-05 0.24834159144055956 -0.15523559686141278 0.30797185473806826 0.10456843088772522 -0.022003556365780354 0.0005086817199469007
0.00023289857602917693 0.3317859994720397 0.2924210709255981 0.0004635148150641522 0.0001914928122536507 0.1106034183855057 0.2899105537004966 0.2829696621346268
0.26255756011076276 -0.04805787527472355 0.3279923397874263 0.321202685807551 0.059635413899220835 -0.11365659047767789 0.19067502493313615 0.26416903421900517
0.0016030712843295846 -0.12113379427601151 0.3127273018379587 -6.0123741795655995e-05 0.1560257579579359 0.06128783589146992 0.001366088145567495 0.21100921481530435

3.weight f8 [64, 32, 9]
00000000: 4dba 428d 0aa3 b73f 6953 e86d 74ba c1bf
00000010: 08bf 4572 16ff babf 8f30 81b2 1533 a23f
00000020: dd42 97f8 243e 9d3f 20f1 39c8 0586 b73f
00000030: 0f32 6220 8a19 9a3f 4a0a 3165 09d0 9e3f
00000040: 83c6 f8a0 8e70 b5bf 2ce5 7571 89e3 a53f
00000050: 8535 cca3 9342 863f 0116 9dae 9984 b8bf
00000060: 8a07 44fb 999e b3bf bf1f 25a6 f592 a13f
00000070: 1aa5 8000 94f9 a1bf 57e4 01f7 6c50 8b3f
00000080: 9631 4876 df47 a4bf 742d 607e 56c5 b3bf
00000090: 3b07 cb22 1c67 a33f 5685 8e6e 29cc 813f
000000a0: 98e3 74c8 dd53 9c3f 8cec 7c43 9c69 923f
000000b0: 4b36 af8f 28e7 a5bf d1f9 2614 d246 803f
000000c0: ae6a c1f9 4825 89bf e27b fd76 b8a5 943f
000000d0: 8125 906a b763 ac3f f895 c6e2 7aa5 b13f
000000e0: 5717 dd49 3e26 babf f8b1 ad41 7f2c b1bf
000000f0: 8412 b3e9 78e5 a0bf 2fe0 dce3 0948 673f
00000100: ed78 28be 382f 9a3f b84a 2e05 e064 833f
00000110: 2590 e9e7 57e6 99bf be67 7c49 d12f 6d3f
00000120: 35c5 541d afc5 91bf 5ada 0472 8a44 a73f
00000130: 76cc fa92 8d5a a6bf 2c91 12ba 0bb7 a2bf
00000140: e4bc 1529 f0b3 733f 835a 4d89 801b a23f
00000150: 8490 68d5 11c7 a4bf 9cfb df08 2a12 ac3f
00000160: 6132 fa2a 939c 773f 9927 e311 2149 af3f
00000170: f2fd 9dc8 da6d 9abf f7d7 e578 1830 abbf
00000180: d566 c44b 5497 a0bf 2d23 96f6 609c 99bf
00000190: b04b 91ad cd5a 893f c6cb ae84 af3b 893f
000001a0: 0a52 41ec 9057 9abf 0280 5d49 0cbc 803f
000001b0: ee72 8a0c 92d4 68bf 7765 78da 6887 b13f
000001c0: e4a6 73a1 017a bfbf 9e82 92a6 2267 a6bf
000001d0: 4977 d7fb c1c9 5dbf aac8 07f0 61b0 863f
000001e0: 0327 1709 261f 5c3f 22e6 6bde b451 4fbf
000001f0: 7cf4 2468 ccf4 b3bf 3532 34af c0fe bb3f
00000200: d6f4 5e2c a07b b3bf adba 84e8 cb8c 893f
00000210: 7808 d774 27d6 b3bf 434b 6814 36e7 ae3f
00000220: 122a 756b c2e8 983f c3c4 1b21 8fb7 a1bf
00000230: d856 6887 f07d 92bf d0ad 0ed6 5285 81bf
00000240: 3733 9b40 6438 a43f 65aa 47d8 9f05 9a3f
00000250: 55fc 5cfb dbd4 c0bf 0059 902c 0d90 b7bf
00000260: 1f91 220b 6c21 abbf 7f3c 06fb 1d29 a8bf
00000270: 0754 8774 6af9 ab3f 4295 fb65 9933 acbf
00000280: 7aee 65fd 0403 b5bf a099 5efa 2f8f b53f
00000290: f331 a8d5 5d38 b0bf 59ba eefe 0ad4 ac3f
000002a0: 618f 2e53 4fdd a4bf 176b 42c4 09bf a5bf
000002b0: 322d 0081 a621 aa3f b376 ceef ae83 a0bf
000002c0: 9f34 3b60 955e ad3f 1536 0e84 4721 a9bf
000002d0: b01c 459d 12be b13f 4c5b b3f2 f44c 713f
000002e0: d970 9da7 e7a7 6d3f 8a4d c8a6 817a 80bf
000002f0: 118f e02c 62f7 a4bf d51d fc43 7de0 5cbf
00000300: 312f ab88 1818 60bf 0b0e 64af 9236 a8bf
00000310: 25d0 33d2 f02f 93bf 62ad cc4e 629b ba3f
00000320: 69cb 89af 314d 98bf d821 247e dab6 823f
00000330: db8d 62b3 86cc 89bf 0159 a6a1 b32b aa3f
00000340: 5737 9023 f86a 713f 137b f126 87b9 60bf
00000350: 9ffc f610 cf2e abbf a7dd 2d20 5f8f 873f
00000360: a5e8 f7cb 06a6 b03f 9dd7 db50 101e b43f
00000370: dccc adb9 ef05 c0bf 1b71 8742 f505 b8bf
00000380: d151 ea75 d744 87bf e3ad 5f42 aab3 a93f
00000390: 6480 54d1 60a5 8dbf 1a7f 5cbf 9a3c adbf
000003a0: 6713 01ef a4a2 ae3f 5848 8240 53b7 b93f
000003b0: 0d44 2704 384b 8bbf c005 bc00 65df 90bf
000003c0: 5cb9 e88a b54c b13f 6052 5c84 e222 6ebf
000003d0: d24f 88c7 96d2 99bf 1689 9e78 4622 b03f
000003e0: 5c4d 674a 7936 a53f 1e62 a519 857a a3bf
000003f0: 449c 0211 d6a8 b33f d8d3 8563 096a 943f
00000400: 23c2 2876 6c36 903f 82b6 e2fd 037d a03f
00000410: 837b e30c 335e 87bf 2877 d632 6cbc a33f
00000420: 19b1 4ac0 306f a53f 7cd8 8f4f cf4b ac3f
00000430: a97f 347a 162c b1bf 2914 8b2e 0b74 923f
00000440: 64bd f0f9 574d b23f 2d1e 08ca a3a8 8dbf
00000450: a3ce c6b1 be82 903f 3f51 e14b 6d0c 973f
00000460: 62cd aa1c c72b 8abf acbf 1086 431b acbf
00000470: 734e f464 1621 a43f e2da bae5 5510 953f
00000480: 38b8 8d75 0326 b63f c1f5 f9f7 af65 6abf
00000490: 1a25 f057 5b5f a03f 6436 f67c 4df3 97bf
000004a0: 4e66 d1c2 6ade 72bf ad32 4c55 851b 9fbf
000004b0: 703e 811a 942a a0bf 602d 839f fb9b 793f
000004c0: 8608 95bd 5568 a43f 705e 6df7 f03f c33f
000004d0: f02a 8986 aef6 b4bf 8a4b 0d52 0bff aabf
000004e0: 795f 46e5 9c73 6dbf dc63 551e 883f b2bf
000004f0: 6287 25f2 f132 983f 958b fc56 8e32 953f
00000500: 2143 aad6 7bd2 aebf af5c 0390 f3b0 a93f
00000510: 621f 678a 14b6 b23f 12ba 29da 4967 823f
00000520: 3d54 3071 6d47 a53f 2956 e4d7 3b7a a43f
00000530: e2a4 4fdc ce76 8bbf a0e5 fcc2 5a3d 97bf
00000540: ef3e 65f4 b47b 9cbf f4cf ed7e 4ddb 95bf
00000550: d8f4 2343 3f22 b1bf 1a4a 4718 0614 ac3f
00000560: bed0 9e24 df1a 9f3f 27a2 921a 5ceb 89bf
00000570: 0da9 66cd ae20 a9bf 5136 a820 f4ad ac3f
00000580: c36b af73 4adf 923f 9a2d 5b52 e017 7fbf
00000590: df04 4570 469c 70bf 5be7 57b7 32dc b03f
000005a0: 9577 e503 55ed bc3f 961c ef01 e9e4 b5bf
000005b0: 54a6 c41b 91b6 903f 397d cede 5985 89bf
000005c0: 1ba0 a1bd 3f0a 8ebf 1b0a cb50 afd4 92bf
000005d0: b313 f751 6295 a4bf 63b8 1bce f8d3 8c3f
000005e0: 8c9a bc9e 37cf 993f 9e89 efb5 3609 aa3f
000005f0: 05ba 85a4 e34c abbf eceb 1b2b 2628 babf
00000600: 0b13 4c1a 4bd6 b7bf 139b 1503 b610 85bf
00000610: fbfd 0d69 74e4 94bf 3711 f6b1 7cee 9cbf
00000620: 3b54 1a33 c36f 9dbf 9ccf d397 de1f 9d3f
00000630: 46be e874 2ffa 6b3f 2055 42f6 9c33 bb3f
00000640: 506e 4620 009a a6bf 9ba4 f2e5 cf2c b23f
00000650: ae2c 50b9 ff06 963f f756 862b c1f6 763f
00000660: 74b9 d636 815f ac3f 12b7 6af1 808e a43f
00000670: a128 f3b7 b02a aebf 1a68 f3fd 3653 983f
00000680: 5984 a949 ae00 ae3f 1a55 d4a0 6584 a0bf
00000690: 5b77 206f 2005 a63f 0d46 e6fb 5f4e a43f
000006a0: 0d85 724d 88a2 ae3f 58fe b46d ffcd 96bf
000006b0: 5366 b41f 354e a2bf d898 25ac 76cc a63f
000006c0: 8a5f 7281 04f3 bc3f 21af f7e7 8f50 b73f
000006d0: 3d0a 1cb1 3c07 bfbf b974 e631 ddc8 b8bf
000006e0: 3f52 704d bf8c 72bf c465 9b1a 77e7 a83f
000006f0: ebc5 ecf7 2f61 9cbf 25eb 2871 fcdf 7f3f
00000700: dd2b 0b98 6a47 b3bf a5a5 aece e456 b73f
00000710: ddc3 be3e a6bb 923f e954 e607 3edb 97bf
00000720: 4c4a 066c 5b77 a9bf 1148 0080 846e ab3f
00000730: 4f20 5eaf add2 933f f4bb 6000 9459 b33f
00000740: 0792 c1c6 0794 95bf 70a3 4ac6 03aa 693f
00000750: 0301 c8a3 47a8 a93f d8c0 6b35 f558 a63f
00000760: a739 c342 ce8d 71bf 7610 8e54 390a aa3f
00000770: f30e 3121 eea6 6f3f 709e e329 1dc8 8d3f
00000780: 300a 043f 5824 9c3f e25e 6982 bb90 ab3f
00000790: 1def 131a 65e6 ad3f cbec c410 a5b0 af3f
000007a0: 5192 495a 502c b73f e3b5 82ca 9c17 b6bf
000007b0: 7aeb 81f4 7109 a0bf f752 bcdc 45a1 7dbf
000007c0: ada7 ea7a c2a4 a93f 1c4f 9704 e688 b03f
000007d0: 910e 118c 9a90 98bf 5530 d269 7175 a7bf
000007e0: 3287 054a 47f6 953f 5d35 5607 a262 b23f
000007f0: 6a14 8a1e cf4f 9fbf 94ac ae46 3202 8abf
0.09233156155344453 -0.1385026489885164 -0.10545482911924975 0.03554599575053984 0.028557374642164447 0.09188877237642545 0.025488050676857606 0.030090472031824946
-0.08374873571372103 0.04275159368530476 0.01086917251225362 -0.09577332032230147 -0.07663881668488962 0.03432433751237295 -0.03510725504049557 0.01333699349219068
-0.03961084669944907 -0.07722988686889726 0.037896041152193104 0.008690189062522318 0.027663674697780388 0.017980996722354578 -0.04277922395668251 0.007947579612729879
-0.01227814686005976 0.02016342378862735 0.05544827628916505 0.06893127476231331 -0.10214604667006931 -0.06708522180060317 -0.033000734832545425 0.002841967884617012
0.025570761305169155 0.00946974769411689 -0.025292752771193378 0.0035628402364524516 -0.01735566727183376 0.04544479982216805 -0.043659614745956185 -0.036552778686458204
0.004810274245172528 0.03536607433368479 -0.040581280995213326 0.054826081832280965 0.00576455581143573 0.0611048063597785 -0.025809687132548782 -0.0531013152675967
-0.0324045507897616 -0.025010600138133988 0.012380225047456367 0.012320872532518023 -0.02572466318118142 0.00817117308514526 -0.0030310490149772972 0.0684724362730743
-0.12295541946118821 -0.04375561030724849 -0.0018181223271009508 0.011078610551497132 0.0017164107742808083 -0.0009557850979426445 -0.07795407812678151 0.10935596730650661
-0.07610512812876222 0.012475579293633155 -0.07748648264444735 0.06035775183786154 0.02432540684575641 -0.03460356978565351 -0.018058546318647867 -0.008555075795661532
0.03949273384714618 0.025412080360107576 -0.1314959504470347 -0.09204180086121383 -0.05298936496663686 -0.04718869866621222 0.05463726685017183 -0.05508117074877329
-0.08207732378462565 0.08421611654794114 -0.06336008516536377 0.05630525934190151 -0.04075096025851966 -0.04247313042397687 0.051037982222704406 -0.03225466420483993
0.05736223983476773 -0.04908202635770579 0.06930652942274906 0.004223782375638429 0.0036201023585090528 -0.008046162512107786 -0.04094988630120445 -0.0017625067993679484
-0.0019646147896760437 -0.047291358861937104 -0.018737566785560617 0.10393347190681859 -0.02373197206402314 0.009137827848932398 -0.012597133969683696 0.051114667399064125
0.004252404492047854 -0.0020415916147124096 -0.053091498204133496 0.011503928346185811 0.06503336410233602 0.07858373617258825 -0.12518116537430657 -0.09384091257328857
-0.011361773763646806 0.05019886074282078 -0.014475590122458644 -0.05710300050691171 0.05983462731868521 0.10045357060360638 -0.013327062250853694 -0.01647718255026631
0.06757673875174447 -0.0036787437592329802 -0.025217395714278563 0.0630229992371237 0.04143122704740662 -0.03804412782728071 0.07679498591697703 0.01993574781359428
0.01583260985552405 0.032203793279546936 -0.011410139876202546 0.03854692574098656 0.04186394069015104 0.05526588293280185 -0.06707897647402085 0.01802079650476088
0.07149267055568981 -0.014481811144846446 0.01612375221311758 0.022508342510563436 -0.012778811991074949 -0.054895506015213286 0.03931493742325367 0.020570127626991737
0.08651754016838786 -0.0032223164451454516 0.0319775147291443 -0.023389063598690987 -0.0046066446639883695 -0.030378421145587243 -0.031574848399597566 0.006252272513118967
0.039858512298921275 0.15038883286864602 -0.08188906464162549 -0.052727082983117304 -0.0035951675765310523 -0.07128191700520808 0.02363184013791598 0.020700668391451755
-0.06019961352752135 0.050178157167175434 0.07309082392668878 0.008986069650942095 0.041560573641767885 0.039995069602963014 -0.013410202120172025 -0.022694986487498903
-0.027815654198376668 -0.021344385978821337 -0.06692881955310115 0.05484026953094574 0.030375944719438712 -0.012655944405495735 -0.04907747514092096 0.056014660822353186
0.01842991190992983 -0.007591129547744125 -0.00405528559741805 0.06585995651394454 0.11299640030980947 -0.0855241422387841 0.016321437187036672 -0.012461378204362649
-0.01466798589190437 -0.018389453226300128 -0.0402022099547489 0.014076179304051977 0.025204533637543977 0.05085154505629251 -0.05332099326448162 -0.10217512657611366
-0.09311360733051914 -0.010285779923561422 -0.02040273562624682 -0.028253506051911983 -0.02874665259749441 0.028441885010536447 0.0034151961219988395 0.10625630390343987
-0.04414368051513107 0.07099627841911842 0.021511073766345028 0.005606417246232224 0.055416143364129505 0.0401497168253241 -0.058919451193632406 0.023754939317633818
0.05859894417950135 -0.03226010883569526 0.04300786358383731 0.039660453319026436 0.05983377404596455 -0.02227019412134576 -0.03575292598743531 0.04452868319894926
0.11308315429994145 0.09107303059834894 -0.12120417903865018 -0.09681494205729536 -0.004528758311626079 0.048640939710547865 -0.027714490420469955 0.007781969167406176
-0.0753084775162018 0.09116964384033695 0.01829395063367999 -0.02329728053299088 -0.04973874753627125 0.053577557206281885 0.019358362034410267 0.07558560380196849
-0.021072503572570535 0.0031328271600909383 0.05011199831278825 0.04364744450674757 -0.0042856270849384375 0.050859252521178996 0.0038637782068081604 0.014541843262534132
0.02748239407174874 0.053838596028695354 0.058398398812611975 0.06189456777289023 0.0905199261120029 -0.08629779762369298 -0.031322060677630284 -0.007233879947098335
0.05008514166304621 0.06458890544973567 -0.02398911933802467 -0.04581789414177765 0.021447290318412367 0.07181751898879925 -0.030577884901977027 -0.012699501783421753

3.bias f8 [64]
00000000: f83a 8ac5 2195 963f 5cf2 f0f1 c031 a1bf
00000010: 6b82 1a93 64c5 98bf e71f 6d85 9d1b 993f
00000020: 2ae4 b348 0d08 78bf d67e fdc1 3450 893f
00000030: c4dc efbd 0ac7 a23f a6c7 391b cf7d 94bf
00000040: 8958 ab9c b4f9 9cbf 30a0 1a8e 1a03 b03f
00000050: b340 ba31 a1b1 79bf 3384 392c fe55 ad3f
00000060: 65a6 d4e1 7c50 b43f 00b5 4ea6 e466 813f
00000070: 1d46 a39d ab37 bf3f 6548 a28b c5b2 973f
00000080: 1874 cb71 4c76 b23f 28d9 16fa 38c1 b33f
00000090: 5fb6 891b 057b b23f 30ee f199 3738 a03f
000000a0: fa8f d914 b193 803f 14c2 579d 606d 97bf
000000b0: 2611 624c 87e7 91bf 5770 a311 7fa7 b9bf
000000c0: a71a 0f52 5e2d b9bf 2624 b470 1070 89bf
000000d0: c47f 98a5 e877 703f 896d 519b 61c2 a13f
000000e0: feb8 b2e0 253d b23f 342e 2120 7e7c a33f
000000f0: 0b3c 76c8 0425 35bf 8cd5 abd5 8e2d 8d3f
00000100: ff1e 0aff d847 a73f ccaa 1fd7 34ce af3f
00000110: 0a2f 3d69 65b5 a23f e459 fc9a 7f61 9bbf
00000120: 0374 1c24 0fdc a4bf bbf6 b8e9 9e14 97bf
00000130: b0b1 487f 3fd7 a83f 0c36 8655 3678 9c3f
00000140: ac6c 7fc8 82b7 1f3f c53f c961 4706 b13f
00000150: 714e 5de2 28d8 9abf 1ba2 4005 7822 a03f
00000160: 9285 50a2 6ebe 95bf 59cb 7761 98e1 95bf
00000170: aa6d d96e 5dbb 913f 5c98 e614 f19e 963f
00000180: 09f7 5167 1c05 6fbf 1803 2668 bba3 a4bf
00000190: c5b3 8dce d00c a53f 0363 1819 1c2d 4d3f
000001a0: e0e5 0305 f8d0 9e3f 1c5b 65ab 0097 ac3f
000001b0: 7d0a fb62 010e a33f 1fc4 dbd8 5729 b13f
000001c0: 904d 5235 e7f2 a93f 67c9 a22f fab9 a4bf
000001d0: 985f 0c0e 7ec7 a43f 8292 bbde 0fb0 803f
000001e0: f56b 7366 fa6a a13f 2295 b107 d5a9 a2bf
000001f0: 2f04 72eb bb01 98bf ff8d a102 71da 91bf
0.022053268129236664 -0.03358271554359213 -0.024190494040001214 0.024519406574910276 -0.005867053881268661 0.012360012216674415 0.03667481964651523 -0.02001117328331472
-0.028296300947510154 0.06254735917411902 -0.006272916474373047 0.05729669847347232 0.079353146681251 0.008497034383106783 0.12194321249560187 0.02314289726980014
0.07211759355728053 0.07716709237761121 0.07218963548958744 0.03167890314304278 0.008094199608599684 -0.022878179171984384 -0.017484773671200625 -0.10021204167009166
-0.09834851745027128 -0.012420776786273246 0.004020603920736169 0.0346861364457381 0.07124554382128065 0.038059178754874884 -0.0003226410558107579 0.014247051139572496
0.04547002900386409 0.06212010503789642 0.036540192696149346 -0.02673911460359503 -0.040741418035601405 -0.022539599433222018 0.04851721218833249 0.02780232331274672
0.00012099014031667865 0.06650205743176148 -0.026215208831969542 0.03151297630421742 -0.02123425355614967 -0.021368390034648275 0.017316303148943092 0.022090689564400953
-0.0037866167791084132 -0.040311676467359614 0.04111340066342665 0.0008903872678188432 0.03009402781115067 0.05583955852733011 0.03721622784862164 0.06703709644695309
0.050681329020473176 -0.04048139411442513 0.04058450623978088 0.008148311600458816 0.034019303327759966 -0.036451966466112276 -0.023444114919133504 -0.017434850488269756

7.weight f8 [1, 128]
00000000: bfaa f651 a44d b2bf 6003 cb46 9125 a23f
00000010: a42e 76e4 6c62 953f dcd0 b4fc 569c 94bf
00000020: c562 b192 9491 893f c513 bd80 dd01 a1bf
00000030: 1d50 9191 61ee a73f 4f39 5224 3d25 b43f
00000040: c976 f28a f0b2 c0bf 205f 4230 022f afbf
00000050: a088 cb72 bb36 b3bf 5417 4b24 d118 a93f
00000060: c7c5 e2d1 e0be b7bf 3fdd c820 efaa a3bf
00000070: 66ff 0672 9eac c03f e59a 78fe 0431 b4bf
00000080: 4e66 aba5 46be c33f e806 929a 0d99 a4bf
00000090: d6db b283 c313 a43f 0f99 0ba9 f2e0 753f
000000a0: 4e85 94f3 bd93 a63f 06d0 62b0 77b6 97bf
000000b0: e536 e47e 6694 babf eb1a c361 4a8c c43f
000000c0: 5e0e 1912 fd12 c33f 3803 28ce 0597 afbf
000000d0: 1f79 3aa9 8abc bc3f 6a71 c024 bae0 96bf
000000e0: 0865 53c5 513d c23f b643 6902 4b81 b3bf
000000f0: 3920 a5cb 1b12 94bf a3af e5db ef02 b33f
00000100: d106 3f3c 9a6a a13f 9f64 4b6f fc1e a13f
00000110: dc73 c08d 6ba7 c23f 3d3d b47f 7e34 a1bf
00000120: b363 39a1 930b ba3f b1cf 5fce a62b a0bf
00000130: 0de8 3b55 cc4a 7cbf 9d63 af97 42f8 b13f
00000140: 1d73 d896 a90f c3bf 66a9 9a8c 3573 a5bf
00000150: 741b aedb 3423 b8bf 1e4b 0c4a e178 6a3f
00000160: 7414 18ac 4b7f b3bf a287 c6c4 7ea0 6d3f
00000170: 3b70 f862 c639 b4bf b855 7ee8 e6f4 a83f
00000180: 7b38 8abe ad00 b33f c11e 2b5a cfba b43f
00000190: 6f53 9e3f b209 b83f 62fd 4373 a44f 57bf
000001a0: a430 510f bc16 803f 4d18 ce54 ce2e a7bf
000001b0: 458b 513b 1707 b13f 8d52 a057 fc8b b33f
000001c0: 5d47 be4f a314 563f 771c fee9 8f7f c23f
000001d0: 806c c2bc 9022 c93f 468a 275e 3208 c23f
000001e0: a41f 7138 e4da c03f 8e17 0d86 6a56 b1bf
000001f0: 7d78 40e8 1c5e a2bf c53e bd0e 294b ad3f
00000200: 9a62 7e6c e7bd a33f 1933 42d8 0d47 b0bf
00000210: 5a50 05c1 8185 b83f bcef 8bea 1c59 a43f
00000220: 027c 5797 9579 b13f 124e 6159 8173 a43f
00000230: 7081 b441 11f8 a43f e1fb c34c 67f0 aa3f
00000240: bf05 9623 1417 c4bf c4ff a3a9 fb36 85bf
00000250: c41f 92c6 2c18 b1bf af95 3747 1cbe b73f
00000260: 1a28 2e04 ca62 ba3f 105a 43c8 ed8f a63f
00000270: 032a 5e8d 57fe a83f 1b95 6589 68f5 ae3f
00000280: a09f 6d7f 61db c83f 578b eab4 e61e b5bf
00000290: 71f1 7ffa aeab b73f 8e5c 8e28 6433 b13f
000002a0: 4152 cd30 358c b8bf 59fa 7fc8 fc0a acbf
000002b0: 96b6 bee1 269a b0bf d688 5a26 a214 af3f
000002c0: 2512 5911 d298 b43f d921 f4dc a2e5 8e3f
000002d0: ee7e a86d 79f3 b93f 6c68 2a93 555f 9ebf
000002e0: 5ce7 f14b 62b8 b1bf 6794 26bd c4b1 b4bf
000002f0: 88b8 2bc6 f49d 993f c075 aae4 9270 c03f
00000300: 9b82 eb47 474c c03f fefa 0539 fa53 b6bf
00000310: 4a0c 2a0e 3176 c0bf 7b5b 0aee 651a a63f
00000320: bb09 ef56 3bf3 c13f c5d0 9033 1771 b0bf
00000330: 6ecf fd26 e79b a53f bcc9 7c7d ceb4 51bf
00000340: 4485 ae95 c6e8 c13f 632c 92c7 fd3b 83bf
00000350: c216 6ef2 df98 96bf daa6 92ba 4255 a03f
00000360: 2266 8945 ab71 b6bf 5ac2 687c 316c aabf
00000370: 3326 fa47 fe29 953f fe38 9a36 85d4 b63f
00000380: a105 4dd9 c843 b4bf ffca 3e01 1e4d b6bf
00000390: f876 da6e 9cc3 863f d8b0 3a23 43e3 b3bf
000003a0: 6fda 02c3 43eb d03f 647e 5245 d362 adbf
000003b0: afe9 e799 1195 c9bf 504c 9c9d 4417 a6bf
000003c0: d40a e2b9 8447 bcbf 16c4 f492 9804 b1bf
000003d0: 45f8 b146 1413 b43f 3fc2 6798 b837 b13f
000003e0: 13c5 61aa 9857 cabf aae9 bc61 c13c a8bf
000003f0: 2e93 da98 7145 b6bf 77f3 4613 436f 5fbf
-0.07149722100318011 0.0354428671757947 0.020883275455658393 -0.020127638982743487 0.012484703757011837 -0.03321735569492249 0.04674057867001145 0.07869321953532914
-0.1304608038380393 -0.060905521765731274 -0.07505389740575419 0.049017463379228104 -0.09275632023015766 -0.03841349864199594 0.13026791160336443 -0.07887297833131475
0.15424426163990507 -0.04023020278783723 0.039213285280702045 0.005341480152060165 0.04409593199148763 -0.02315699590754152 -0.103826909999238 0.16053132794896582
0.14901698478398634 -0.061699086585582597 0.11225191718628878 -0.022341640942714326 0.1424963201050462 -0.07619160469881944 -0.019600328735833925 0.07426356428703555
0.034016437391540706 0.03343952997756471 0.14573425694916764 -0.033603623474955026 0.10173914610039851 -0.031583035175486336 -0.0069072705989530305 0.07019439891099784
-0.14891548028472182 -0.04189460126265736 -0.09428720820697639 0.0032314682179132156 -0.0761611266280669 0.003616569132831552 -0.07900657573958451 0.04874345386557927
0.07422910596707936 0.08097549392106897 0.09389795354065965 -0.001422796817735016 0.007855862824861788 -0.04527897629945752 0.06651444624143917 0.07635476245224933
0.0013476939047660432 0.14451788831158627 0.1963673516919222 0.14087514493356162 0.1316800380320703 -0.06772485516293456 -0.03587427458863688 0.0572140532009349
0.03855822753320588 -0.0635841992354468 0.09578715288563569 0.03974237788312915 0.06826147980562783 0.03994373527589458 0.04095510413231096 0.05261538326339355
-0.1569543050537003 -0.010358778109093587 -0.06677512977523664 0.0927446054334584 0.10306990243967143 0.044066839882067055 0.048815475470366486 0.06046606709677801
0.19419497224884896 -0.08250276486300599 0.09246343246190293 0.06719041814936785 -0.09588940087753263 -0.054771327471816185 -0.06485217105247396 0.06070429533180437
0.08045685695203326 0.015086433761568084 0.10137137343599154 -0.029660546405104446 -0.06921972612499644 -0.08083753221451816 0.02501661738909225 0.12843547978711278
0.12732783328740002 -0.08721889393016721 -0.12860692206968088 0.04317015200393023 0.1402353453141368 -0.0642256260769641 0.042205070028017086 -0.0010807053094593474
0.13991625126531393 -0.00939176812450721 -0.022067546054606486 0.0319004872083732 -0.08767195174859713 -0.051606699406310866 0.020668004172455134 0.08918030341212455
-0.07915931039044334 -0.08711421518709626 0.011115286000229471 -0.07768649683083895 0.26435941738183194 -0.05739460202425731 -0.1998617173665713 -0.043146270980422785
-0.1104662851158012 -0.06647637927814318 0.07841612554509066 0.06725648613770206 -0.20579822844914783 -0.047338526898289615 -0.08699712735922269 -0.0019186167747726449

7.bias f8 [1]
00000000: f09a b72b f58a ad3f
0.05770078810365031
