models/run2/24.pt (torch, 153942 bytes, 6 tensors)

0.weight f8 [32, 1, 9]
00000000: 4e8d ca15 8f7a a23f 4699 1903 f01a c33f
00000010: 9a69 3c17 815d c1bf 4a16 9ab5 dcb1 ca3f
00000020: 549e b06e 383e be3f e96f 607f 5bbd d03f
00000030: 5461 4bef d5b6 d03f 5793 bbc8 f903 d23f
00000040: 9c49 09eb 5301 d23f a360 7a20 4039 bd3f
00000050: 256b 67e8 6c6e d33f 5a05 0dc2 d2e3 88bf
00000060: 2240 7cc4 8cd4 dabf 10a6 52f1 a87c d33f
00000070: 529d 7101 4edb cb3f be32 eb7e c0e4 d33f
00000080: d53d 77d9 c076 d7bf 0ca7 76e0 12ba ccbf
00000090: 3785 462f d217 ccbf 65da e94d d2d2 b63f
000000a0: e25e 1490 28ea ce3f ebab 5a83 ae80 d4bf
000000b0: 4dec 1826 24ac 753f 9e00 0afa 98a0 d33f
000000c0: 0b33 b341 7318 b3bf 40cc 7dcf c0af c53f
000000d0: 3bb7 d0ac 6b0a cfbf 9a76 50a2 e341 95bf
000000e0: ba03 cee0 790e c43f f35e 9ad2 c28a c1bf
000000f0: 4777 4864 9112 c13f d15a c4e5 ffaa b23f
00000100: 7add bdbc 529b d43f 3ff4 3247 a7ec c0bf
00000110: 95fd 497b 1e4f c4bf ddbb 4e61 c0dc cfbf
00000120: 9348 6d1e f5d1 cfbf b1c0 e266 3481 c63f
00000130: 0886 65f5 fcb9 d1bf bb42 90da 6f72 d23f
00000140: fe70 e5d3 fe79 8b3f 23e2 6a39 a882 d4bf
00000150: 68eb 6a28 0ead c63f a0f8 7b03 1cbc a6bf
00000160: 6dc6 24cb 316c c63f 1247 4abb 1197 b7bf
00000170: 021d c32a b804 d13f dfc0 f537 6482 cd3f
00000180: c49d 4c6c 2a02 703f 19e2 64a9 57a7 d03f
00000190: 5040 0247 ddc7 a5bf c07b 1ad3 7c9e d3bf
000001a0: aab8 a058 2e3c 7cbf 0f9f faf2 9663 b53f
000001b0: d44b c743 3c2e d23f f4d0 4565 e3a5 d13f
000001c0: 8d41 a3d6 1f7f d13f a54c 0e6e a96a b1bf
000001d0: eb74 c9c4 512d d6bf ae92 196b 9c09 99bf
000001e0: 177b 546b f049 d43f 241a 5ee9 71e0 a8bf
000001f0: 20c2 578a 73e6 b7bf 115f c709 5939 a03f
00000200: 214f 5bb3 52fd c1bf 3792 c172 164c a3bf
00000210: d47e 06c4 687b ce3f 0d17 5d90 3541 c5bf
00000220: f24f ce56 b588 d5bf 64e9 a9da 2771 d03f
00000230: 9227 68be a0e8 ba3f 313c 8449 8c3f c3bf
00000240: 98b7 06de 4687 c73f 58d5 6339 5eac cc3f
00000250: 0858 acce 86f0 c0bf ef8c d4b6 25c2 d03f
00000260: 4267 c34a 4e81 d2bf afde fc0a a053 cb3f
00000270: 5ef0 d028 ee0c c8bf f1a3 445c ce3a c0bf
00000280: 7f7a 7b77 8132 d13f 29a2 47e7 d3d1 d1bf
00000290: 4ebe 9528 f4cd c7bf e61e 55e4 98e6 90bf
000002a0: 48ae 83a3 371e cc3f 4d0a d295 a257 d3bf
000002b0: 4764 9ece 1c94 d0bf 54ad 2e04 bf3d c93f
000002c0: 9eb3 6b9d 0fc6 973f 03a5 85c1 1997 c63f
000002d0: 0549 d90f b877 c73f fa2b 0cc5 db0c a5bf
000002e0: 888e d1f0 f5c8 bdbf 8df0 7bf1 a620 aebf
000002f0: a6cc 2c72 5904 d03f ae11 a520 2f85 cfbf
00000300: c1eb cde4 62eb c33f 3b1f aacf 279f cc3f
00000310: 68d0 5b45 903d d23f 7d37 493b cdba a43f
00000320: c5bd 1b0c 844a b8bf 4dea 9142 0a6d c4bf
00000330: 444a c1c2 e371 c23f c20e 4541 6659 c83f
00000340: 04db a47f cdd7 c4bf b38c 1789 b7b6 cf3f
00000350: 9482 ae47 4f04 d13f 6919 863a 9aa3 d5bf
00000360: fbde e63f 62a8 d1bf 0914 4a96 48a7 d13f
00000370: 600d d238 4ba2 d13f 6b69 deaa 72cf b7bf
00000380: 7b20 2745 8888 bfbf 13fe 5693 5974 3ebf
00000390: fc47 26c8 378c d33f 7faa 242a e63f b2bf
000003a0: 0bec c7c3 2e97 ca3f dacd c7db bad7 ae3f
000003b0: 4504 a49e fb76 d5bf e870 0916 901c c2bf
000003c0: 0e2a b0fa 2ead cc3f 9171 4b2f e94d a3bf
000003d0: 11f7 05fa fc60 c33f 0f13 07cd 8873 d6bf
000003e0: 6e94 a223 33aa bd3f 36b2 5f00 3cf8 d23f
000003f0: 11b9 5ff6 d5a3 c03f 0d1d 690c c1a2 c93f
00000400: ffc2 b35a 62a1 d43f 7205 348a f5ea ccbf
00000410: f2f4 d1d0 3fa8 c43f a2a9 1eaa eef3 b73f
00000420: 26ca b91b f8ea d23f 6cf4 f8e8 82e2 d23f
00000430: 7019 a648 dedb d23f f61e 6f4a c4f0 d0bf
00000440: ef9b 0ddf 848e d23f fbb6 9151 a5e3 933f
00000450: 04b3 e4e3 e063 a9bf a7d4 ac8b 6ea7 d23f
00000460: 9304 bb6a 2258 d13f fc1f c634 2a2b c53f
00000470: 2121 a229 5462 c5bf b179 3b18 d524 b83f
00000480: 5d32 7b1e d8cf a83f e919 4ac5 c264 bdbf
00000490: 0cad fbc9 0f5c d1bf d259 e845 ce7a cbbf
000004a0: dafe 0e55 7185 bebf 2649 7302 c62f c33f
000004b0: 18ff 9b73 5428 c13f e8c5 4323 f40f cabf
000004c0: c7bd 1738 7c3b c2bf 6f84 dfe3 b044 bcbf
000004d0: e34c ef86 924e 89bf d054 2a7b f632 c9bf
000004e0: 135a a4d3 2c71 cb3f 30fa 940f d67d c23f
000004f0: 1329 6d4e db3b b23f 514a d0dc 14eb bb3f
00000500: 962e 4f5c 84b1 b83f 9f38 b80a e29e ca3f
00000510: 17d4 1fd8 fc84 cf3f d375 480f c809 cfbf
00000520: 9127 0599 3eae babf 8961 499f 894a d6bf
00000530: 86fa 7276 566f c6bf 8c31 0c41 017a d03f
00000540: 65dd 5a8d b8f1 d0bf ff9a f115 7ef7 cabf
00000550: e3ae 545e 8d8d d33f 4698 6be8 2de5 a83f
00000560: f8c0 3aa8 84b0 c2bf d7e5 2e9c 0c1e d03f
00000570: 060e 5ad9 43e8 d4bf 07b9 e4bf 3e57 d0bf
00000580: 55dd 5eae 570a c13f d41f 128e a589 cf3f
00000590: 670a d427 ad9e bfbf 9206 a128 36f3 acbf
000005a0: cbc0 8854 6cc0 dbbf 2760 5e8e 590a c7bf
000005b0: ea12 a650 2be5 d0bf 79d1 7b8b 09a0 c33f
000005c0: ecb6 0ecc f184 cf3f 26fa ac41 b8ef 883f
000005d0: abc6 b657 75cf c93f f872 8569 7926 d0bf
000005e0: c6a7 6323 2803 be3f df87 afed 99d3 aa3f
000005f0: 7cc4 16ae 2c97 c83f e2b5 2a0e 31dd d7bf
00000600: 9442 672a dd6c 6ebf 5ac9 bcbe 4d59 283f
00000610: b6f9 d253 ab84 d43f 3e1f 38dc 2908 ccbf
00000620: b2c5 5fc8 a4fe ce3f 8cd1 3167 74e8 ce3f
00000630: abb7 0d3e 7331 c83f 1056 14c9 fcb9 c1bf
00000640: 0d76 017e 2b9a 9e3f bfd3 44ff 7984 cfbf
00000650: b17c 98a2 60eb d1bf 367b d9f9 2b3c d1bf
00000660: 02b6 f260 ec9d bfbf e37c 5438 5fe1 c0bf
00000670: e42d 7547 0e12 d43f 2f7f fae4 61ed be3f
00000680: 0c85 e2e6 f654 9dbf 4a89 e4e5 f674 cc3f
00000690: 2ffe 34b5 ec2c ce3f 2d39 782e cf80 b03f
000006a0: 2f81 3224 f716 c13f fe01 1f98 3aed bc3f
000006b0: ccba c465 5980 cabf 2b91 d8e3 c14d d5bf
000006c0: 43ac 3736 5480 c23f 5a6b 98ee 69b7 cbbf
000006d0: 65e9 c583 0f51 c0bf dc7d aaee b215 b6bf
000006e0: 2a58 ab60 ca80 bf3f 2182 64be 345e d43f
000006f0: 9208 4485 1ef8 cfbf 6367 d311 b8d0 cb3f
00000700: 78ea 35da 8cc9 d13f 4753 73de 541e bfbf
00000710: a762 46cc 31bd d03f 9b09 0904 0bba cd3f
00000720: 9558 b390 6db8 d33f edf3 b021 b9a8 b83f
00000730: e096 3964 58f5 d13f bf35 cde3 2d8e c83f
00000740: 989c a49c 6323 d5bf ee40 d9a9 5bdf aebf
00000750: 303d 5ced 9d6b d0bf 6903 e7dd 9943 85bf
00000760: c8bb 9c19 3066 c43f 9c23 a807 4e26 cbbf
00000770: c711 0293 47ff c53f d4fe a723 5dc4 af3f
00000780: 3569 7e15 154b cebf 33a7 56c3 ea56 b33f
00000790: 3120 58a0 0b16 d1bf 4018 091c 5046 ca3f
000007a0: 7652 5594 b2f5 cfbf 2045 36bd 4025 9a3f
000007b0: 325d 21e9 4f9c c13f 50a7 8682 1d9b bdbf
000007c0: 8a7f 8721 91be d0bf bb6e 19e3 1fb5 d13f
000007d0: 1968 d219 cc3d bd3f 9b25 fe70 5866 d5bf
000007e0: 4847 5f2b a6be d33f 2d1a 74bd de0e d33f
000007f0: 84b1 fa84 1038 733f 0e49 f848 e106 d4bf
0.03609130040174567 0.14925956870428986 -0.13566602358407637 0.20855292193680192 0.11813690855398679 0.2615574592507515 0.2611594044551755 0.2814926586418571
0.2813310427929083 0.1141548232357104 0.3036148328371147 -0.012153288409197206 -0.4192230147173196 0.3044836384457037 0.21763014860628488 0.310836910194478
-0.36662312733548436 -0.22442851982241796 -0.21947696026203697 0.08915438081917555 0.24152094874511137 -0.32035410716588214 0.00529111977226211 0.30667709749105565
-0.0745918307686219 0.16942606097618018 -0.24250551164862508 -0.02075915983379293 0.1566917751006523 -0.1370471504530922 0.13337914845117835 0.07292174682184373
0.3219801753216057 -0.13222208954349132 -0.1586645223614879 -0.24892430068345464 -0.24859489427268908 0.1758180143710937 -0.27697681393155493 0.2882346758279188
0.013416281549034622 -0.32047467810801517 0.17715622876661574 -0.04440391104252339 0.17517683428882283 -0.09214888403428415 0.2659130494689209 0.23054173214359872
0.003908315386787323 0.26021377127065787 -0.04254046909147802 -0.3065483151967179 -0.006893330612042595 0.08355086738685834 0.28407198542589396 0.27575001611627603
0.2733840557166552 -0.06803378044996806 -0.3465160772082771 -0.024450725590571203 0.3170128868240893 -0.04858737920499248 -0.0933601582289687 0.031687529033375246
-0.14054330594682887 -0.037689877994840186 0.2381411511569157 -0.16605252789502636 -0.3364690158571185 0.2569064746272913 0.10511212013821439 -0.15037683095622037
0.18381582108616779 0.224010255835007 -0.13234028903451667 0.26184981207388963 -0.2891422014341637 0.2134895375872836 -0.18789460175492229 -0.12679461961059205
0.26870762508580265 -0.2784318693725561 -0.1859727094811085 -0.01650465863829611 0.21967215999699108 -0.30222382193475 -0.2590400712738909 0.19719684318747943
0.023216480239102937 0.1764862246448403 0.1833410336863112 -0.04111372738233139 -0.11634766702041521 -0.058842865922970146 0.25026546621229284 -0.24625195592865395
0.15562091991509244 0.22360704078550406 0.285007541401916 0.04048768376070109 -0.09488702102293363 -0.15957763910758374 0.1441006375267354 0.19022825419425798
-0.16283577664008686 0.24776357835717064 0.26588804245151576 -0.33811050143449123 -0.275902330783978 0.27583517719932665 0.2755306296241624 -0.09300915404893366
-0.12317706764508955 -0.00046469866660101103 0.30543322130063166 -0.0712875225914704 0.20773872909180144 0.06023963864199873 -0.3353871392465105 -0.14149666858691679
0.22403514137870711 -0.037703787825850495 0.15139734466713908 -0.3508016588423723 0.11587829227444654 0.2964010242128866 0.12999987153984496 0.20027936082826905
0.32235010965000294 -0.22592038391307373 0.16138456054969869 0.09356586125674096 0.2955913801917255 0.2950751567003127 0.2946696958028019 -0.26469523686363006
0.2899486711743852 0.019423087218846096 -0.04959013730908704 0.29146922722004337 0.2710042993822494 0.16537978722431024 -0.16706325562359672 0.09431201783761513
0.048460725518087534 -0.11481873814236788 -0.27124399876511585 -0.21468523419817004 -0.11922367407441517 0.14989543075223216 0.1340432705401262 -0.20361186715994894
-0.1424403451814966 -0.1104231411295744 -0.012356896155245106 -0.19686776174481802 0.21439133009035113 0.1444652153094963 0.07122584023196436 0.10905580893476353
0.09645869496960766 0.20797372363489772 0.24624596169420052 -0.2424860071777589 -0.1042212604126276 -0.3482994132550848 -0.17527275832795314 0.2574465880614063
-0.264753473321852 -0.2106778723857232 0.30551466190330084 0.04862349950944682 -0.14601190771418948 0.2518340611673841 -0.3266763327194159 -0.2553250192603546
0.13312812818706257 0.24638814389277164 -0.12351495954866608 -0.05654305692634155 -0.4336195779351441 -0.18000335170359102 -0.2639873778901306 0.15332145033574898
0.24624464477294994 0.012175979141486225 0.20164362700375213 -0.2523482828599266 0.11723566879268707 0.05239563967167248 0.1921134805720931 -0.37287546523552184
-0.003714019741188965 0.00018576692615963447 0.3205974882693242 -0.21899913075344019 0.2421461084737025 0.24146895445631988 0.18900909929237505 -0.13848838632900184
0.029884986463335084 -0.24623036350535973 -0.2799913013313456 -0.2692975940644148 -0.12350346915146562 -0.1318778061913469 0.3136020372228059 0.12080966797156799
-0.028644426195232817 0.22231947159986937 0.23574599121092052 0.06446547398102061 0.13351334826894276 0.11299482549566872 -0.20704190701640923 -0.3328709340151074
0.1445412888273002 -0.21653484487691338 -0.12747377332909618 -0.08626859976583695 0.12305893764582324 0.3182498797705496 -0.2497594977103899 0.2173070990600606
0.27792664823179036 -0.12155657225532678 0.26154751728749165 0.23224008271251936 0.30813159113802985 0.09632451126613235 0.28059968745797725 0.19183896659016672
-0.33028497979325655 -0.06029783676479093 -0.2565684144946827 -0.010382845005439472 0.15936852694127723 -0.2121064698588072 0.17185301473740663 0.06204501209503879
-0.2366663317632828 0.07554499882703851 -0.26697054537408166 0.20527078026697332 -0.24968559496723558 0.025532733486732018 0.1375827682811433 -0.11564812122983636
-0.26163128160805427 0.27667996575994963 0.11422420149247649 -0.3343716720051703 0.3085112975651225 0.29778259755440467 0.004692139176466607 -0.31291992307628014

0.bias f8 [32]
00000000: eeee dcde 8826 bdbf 2d8a f0ff 7a65 243f
00000010: 0d4c 1fb0 8a96 cf3f 61f4 beee 7719 c2bf
00000020: 8b85 2de5 539d d33f 06ed 7ea7 26e8 b93f
00000030: e4e0 8e6c 74db 67bf ab64 1d4a c188 2abf
00000040: 5bd3 042c 7eee 503f 7464 dea1 a12d d53f
00000050: 7b1a 574c 39b4 d23f fb7c 9fc7 ce80 33bf
00000060: d68b 4783 9961 503f 09c6 ccd7 25ba bb3f
00000070: e697 8716 d064 d23f f00c 09ad d6ff d13f
00000080: 16d1 977c 00c0 d03f 96c8 1684 a891 9ebf
00000090: e521 b745 97ec d43f f860 0f87 1876 d43f
000000a0: a0b4 6acb f3d8 ac3f c190 4032 f4cc b7bf
000000b0: 7a00 8b54 9c46 c83f 3e8c 1655 2ee7 d03f
000000c0: d646 dc23 8654 553f a73e 35a6 a3ba b9bf
000000d0: fbb2 65c4 4c05 d43f e97a eaec ceb7 253f
000000e0: 7798 bf6a 279e c33f 211b 6e76 c966 ac3f
000000f0: e7cb 5077 1892 533f 733c 84a0 d0d6 ca3f
-0.11386924210540503 0.00015561224424327902 0.24678166961402362 -0.14140223653331233 0.3064775217117918 0.10119859303715736 -0.002912261381848068 -0.000202439875517856
0.001033423628610217 0.3309101181744787 0.2922499890814049 -0.0002975945313874043 0.0009998320721187246 0.10830914038231056 0.2874031276718355 0.2812401475714088
0.26171886603630534 -0.02985251718718781 0.3269403630079338 0.3197079962678937 0.056342714863924614 -0.09297109820232931 0.18965486648631097 0.264110167592836
0.0013018903695791082 -0.10050413902103604 0.31282347850246567 0.00016569519944638976 0.15326397621464924 0.0554717022960658 0.0011944998671082842 0.20968063199731865

3.weight f8 [64, 32, 9]
00000000: 74dd f1c1 64cc b73f 5ea9 1eeb c618 c4bf
00000010: e0f7 6533 4f91 bcbf 38e6 867a c98e a03f
00000020: 1c7f cec8 3907 933f 67c3 0eaa 4816 b43f
00000030: 2f50 1b54 7b28 9a3f 6ec4 546e cfd7 9e3f
00000040: 2148 fc96 46a2 b8bf f9fe 0a77 04a9 a73f
00000050: e7ec 2e0d 6d98 793f 737c 3feb b554 babf
00000060: e676 411f a98d b4bf 1244 3597 4dba a13f
00000070: 90b9 48dd 790d a6bf b42f 055c ceef 8b3f
00000080: 7285 90d2 fc44 a4bf 4d5a cb04 6821 b7bf
00000090: 1c65 cc3d 1a79 a53f cb31 1e9e 3f93 7d3f
000000a0: 6cb1 385f a563 9f3f a058 9294 49ce 953f
000000b0: 36e1 aeaa d32d a4bf 70a8 3a83 883e 7e3f
000000c0: 5e2d c559 14dd 88bf bea9 f667 afed 943f
000000d0: db47 9ae9 b139 b03f 7712 208f 90cc b13f
000000e0: 2f20 5b68 30d2 bebf c675 6ac4 f76e b1bf
000000f0: 5722 cc1a 7e6b a3bf 2b29 a2de 5d26 843f
00000100: 3fad 32cc 21be 8e3f 71b4 191b 74dc 833f
00000110: 0e70 71ff 70b3 99bf 3b0b 1862 2182 82bf
00000120: 9750 fd81 bd7f 87bf 7d76 47d2 aede a43f
00000130: 347b d13a 34d0 a4bf f273 e441 b6ef a0bf
00000140: 01ac 6506 9c02 803f d285 a7b3 c051 a23f
00000150: 4706 b695 0dba a4bf 9716 9c4c 852f ac3f
00000160: 21c3 15c2 cad7 873f e566 66ec 2097 b03f
00000170: 3851 5046 ac85 9fbf 96f0 b66e 9bcb aabf
00000180: c171 e423 89b4 9ebf ab00 2484 ef38 98bf
00000190: 55a6 9e1a 4062 943f f5e2 2b56 b686 893f
000001a0: eb12 2175 3646 9abf 8b39 3530 3789 71bf
000001b0: 0e62 0a28 bfd5 6d3f 613b 76b0 8585 b13f
000001c0: 13ad ad52 70c6 c0bf dfd7 0df7 0191 a8bf
000001d0: f53f fb74 87fd 51bf 4cff a2d3 d8fb 623f
000001e0: 5fa5 4676 430a 5f3f 6852 ba72 685a 4fbf
000001f0: 47c6 3b33 7058 b7bf d8d9 1aca c96a bc3f
00000200: b5c1 3c73 2121 b7bf c4e0 7fa3 8510 873f
00000210: 7346 7706 caa9 b4bf fb93 89af d758 af3f
00000220: e98e 0c64 8217 903f 248a ea81 32a3 a1bf
00000230: d935 75b1 d92c 92bf c4b4 4e2d 05a3 89bf
00000240: 0eec b512 ece9 a53f 9a38 2574 265e 963f
00000250: e090 a8e6 c4b5 c1bf 1d50 15ca 882c b8bf
00000260: 1d34 cf06 d0da aebf 4491 689c 2544 aebf
00000270: 0f6f f97b af0c ac3f dbe2 827d af17 acbf
00000280: 7408 b991 0891 b8bf 0c83 2804 a162 b63f
00000290: 4905 4d82 bec0 b1bf 807a be46 ddaa ae3f
000002a0: 87ff 1a60 8cfe a2bf a901 cc77 fbfb a3bf
000002b0: 043f 3144 eea3 aa3f a831 6199 3577 a0bf
000002c0: 6d05 c0e7 598e ad3f c727 fb6f 2aa6 a6bf
000002d0: 1059 7f95 2f7a b23f 60a5 4b29 4cd0 773f
000002e0: 3644 c8e8 c8c0 793f eeca ae65 039e 71bf
000002f0: cfe5 2d1c 6ace a3bf bb14 2757 6c29 65bf
00000300: 7ee9 4e27 2aae 5dbf 1013 ca70 7819 a8bf
00000310: b30f 0c7d 8713 a0bf 8c6d b206 0bae ba3f
00000320: ede6 4d33 5467 a3bf 41ef 4fb4 e54f 7f3f
00000330: 3d22 772f 01a5 8dbf 4f1a e8a2 7b0a a83f
00000340: 4168 893e 2fdb 75bf 3a4d d492 451a 5dbf
00000350: 0e94 b81d 691a abbf bd40 a646 ab5e 753f
00000360: c853 1e58 1498 b03f 5f67 f475 1a37 b23f
00000370: 563f 0aa7 eaf7 c0bf a12d 0f16 78c1 b8bf
00000380: aaac b9bc d549 91bf b9d7 a90a 5946 a43f
00000390: f5e1 f245 cd62 8dbf 942e 7b01 8030 adbf
000003a0: 09a1 7c57 ff53 b03f e130 711a e88f b93f
000003b0: 468b 763c 5234 96bf 5880 769f f1fa 8ebf
000003c0: 3546 33af e427 b23f f8ce fc3b dbd4 6fbf
000003d0: 256b e67b 59bb a0bf 81d9 c2cd 4f2c b03f
000003e0: a758 b45a 9847 a53f 167e 6854 dc99 a9bf
000003f0: 9c5e 7b40 ea02 b53f f0cd 45eb 3128 943f
00000400: faba 9cfd 1256 923f 9519 a733 d249 a23f
00000410: 010c a70a 1e94 83bf 67f0 3dc7 3521 a33f
00000420: 3b4e fc60 6e6e a53f d8ad a205 a365 ac3f
00000430: 4a77 4dae 0492 b4bf bfeb f7ad 14b4 943f
00000440: c4eb b8fe ae94 b13f d505 bfab f71f 88bf
00000450: 0964 0143 59f0 933f feb7 5a13 817c 9a3f
00000460: df09 2c72 4a93 88bf 8eca bbb4 d609 acbf
00000470: 4165 2e77 a925 a43f 4c7d eda2 33d8 9a3f
00000480: d035 ad6e 691c b73f f98f 5a31 0059 30bf
00000490: dc94 c035 a652 a23f 5f94 9283 4d45 94bf
000004a0: 4128 eed3 49e9 31bf 04ea ecbb a8f8 9cbf
000004b0: fd43 f02a 5c16 a0bf 1543 43c9 ebf7 7c3f
000004c0: 8ef7 c4a5 faf5 a03f 0e0b a29f e87e c33f
000004d0: edad 826e 429c b9bf a88d 3ec1 127e adbf
000004e0: f01e fe2b 3058 7cbf 064f 1bba 907d b4bf
000004f0: 2830 297e 7b71 813f cb40 497e de59 953f
00000500: 2d8d a998 0ac8 aebf 7b72 1473 4667 ab3f
00000510: 4fac 7fb8 558f b33f 1124 688f 1982 863f
00000520: e9d3 690e eb8f a63f b70d baed 4c5c a63f
00000530: 72bd 1112 cf07 87bf 223e 8ae1 4934 98bf
00000540: cc6d 6100 3854 9cbf ab17 0579 0d90 95bf
00000550: ec64 5d3c 5982 b4bf 1575 b8dc 590e af3f
00000560: 4418 0cf7 c167 9f3f 63ee 9497 e850 83bf
00000570: 61b5 1eed 105d a7bf 3062 be1f 92c4 ae3f
00000580: dce9 3acd 996f 943f c822 e5e9 1235 7ebf
00000590: acd7 0b45 3360 6ebf edc9 bdf5 02d4 af3f
000005a0: 1d45 a3af 6d6a bd3f ff5f 31a1 4061 b9bf
000005b0: 736c 1055 35f8 923f ac71 9f60 deb2 86bf
000005c0: 7d11 4495 d754 89bf 16f7 468b 68d1 96bf
000005d0: 84bb f8b2 3c78 a4bf 5c9c b3b5 d806 8d3f
000005e0: 21b7 b5e8 9413 9f3f c5d4 8a66 3677 aa3f
000005f0: 5759 cf85 92e4 b0bf fb5d b909 443f bcbf
00000600: a9e7 5f19 e6d0 b8bf 7ffa 6725 33bf 91bf
00000610: 94a6 17a8 ac00 a1bf efbb b145 22c2 9cbf
00000620: 03b2 a681 fb18 9dbf 5d3d 207a a616 8f3f
00000630: e385 a967 86d1 75bf 1451 4f63 89d1 bb3f
00000640: 7bc2 d132 59b5 a5bf 7d4f 389d f375 b33f
00000650: 08de f186 42c8 963f 66be 48b7 9279 713f
00000660: 553d 2154 4e73 ac3f f931 a6e6 eaab a43f
00000670: 1a31 6788 b3d8 b2bf 4446 f920 54e3 a03f
00000680: ce9f 339b 2b2f ae3f 8ec0 6165 83be 9dbf
00000690: d237 8815 0fbe a73f 8f2a 20c5 015a a63f
000006a0: 582f 81cb 6497 af3f 9e59 7f81 ff9c 96bf
000006b0: 239b a948 fe42 a2bf d7f1 7761 8e4f a13f
000006c0: 711d 6ecc 69ab bd3f 9506 8cbc 6f1d b73f
000006d0: 982e b7c3 a041 c0bf ebe5 7543 ee79 b9bf
000006e0: eb1e 9512 66fe 86bf 28fd 8df0 1394 a23f
000006f0: 11ca 4d43 fb32 9cbf fb9f ba05 d2af 803f
00000700: 8e16 a584 f98a b6bf 46d7 14eb 2d61 b83f
00000710: 7b08 1bef b063 793f ed6b e347 ed89 a0bf
00000720: c024 1030 d3f5 abbf 4b52 2a8a f64a ac3f
00000730: 5fa4 a91c e80d 833f 01e9 421d 1c64 b33f
00000740: 749b d7a3 b182 95bf 6352 7b20 5dda 7fbf
00000750: 0834 7644 7fa8 ac3f 63ca f790 85b1 a63f
00000760: 2f82 206a a24d 48bf 2460 5618 65f1 ab3f
00000770: d978 9b73 aec5 7e3f 414d 8bc2 88b5 933f
00000780: d4dc ab62 479e 9c3f 3a1e 1aef 69ae ab3f
00000790: ea58 d8b4 2ddd b03f 3010 ef50 6588 b03f
000007a0: 6b96 abd9 5422 b73f cb24 1645 a792 b7bf
000007b0: 12c7 2cb5 a58d a1bf 8002 cd5d 9379 82bf
000007c0: 602a 7543 db35 a53f 275e 6ad4 3f95 b03f
000007d0: 8865 b885 874e 98bf f7e3 3cdf f4e9 adbf
000007e0: 4dbc 52f3 c8ca 973f 7a59 861c 17c5 b23f
000007f0: 3663 c481 0cb3 9ebf 701e aa6b bb47 81bf
0.09296254858951675 -0.15700613480050668 -0.11159224514810218 0.032339378554251785 0.01858225143553148 0.07846502448843538 0.025545050629105667 0.030120125874593055
-0.09622613130730474 0.046211375743494494 0.0062488803695785805 -0.1028550814948959 -0.08028656972006906 0.034624504764572475 -0.04307156397077272 0.013640987570987174
-0.03958883352630495 -0.09035349003838995 0.04193956379294603 0.007220505243719487 0.030653556763512155 0.021294736569494987 -0.03941213091406086 0.007383855106732992
-0.012140425672120866 0.020437947006635808 0.06338035538854518 0.06952765936154913 -0.12039473102333952 -0.06809948487576553 -0.037929478427092427 0.0098388036315283
0.015011085552336765 0.009697825505293719 -0.02509857710934687 -0.00903726654633418 -0.011474113969292694 0.04076143566974808 -0.040650970630613875 -0.033078856986527586
0.007817477174020484 0.035779973917452815 -0.04048197224166166 0.05505005417039149 0.011642059371952453 0.06480603953823623 -0.03078335932885176 -0.05233464933869063
-0.02998556405610642 -0.023654692115997616 0.019906045555819613 0.012463974480384258 -0.02565846528911468 -0.004281249598831481 0.0036419614337541767 0.06844363744879224
-0.13105587040932018 -0.04798132077023331 -0.0010980437108862849 0.0023173556229209354 0.0018945368584389539 -0.000956822395397139 -0.09119321108644228 0.11100445923043567
-0.09034928382312198 0.0112619820138068 -0.08071577699527115 0.06122468965330793 0.01571468101168608 -0.03444822154894592 -0.017749215561073093 -0.012517967648671642
0.04280030945206913 0.02184352954764588 -0.13835965407009265 -0.09442954000161348 -0.060263157683586345 -0.05911366972239532 0.0547842825733068 -0.05486820609207196
-0.09596303517995058 0.08744245864410177 -0.06934729272054087 0.05989734161925231 -0.03709829972422001 -0.03903184735645777 0.052031942199958464 -0.03215949532804824
0.057726678409390476 -0.04423649422604075 0.07217690849151759 0.0058138823558036845 0.006287369539237855 -0.004301083822542335 -0.03868419260011146 -0.0025832286857815057
-0.0018115436225643873 -0.047069324272376645 -0.03139899636701617 0.10421818650723064 -0.03789771200440648 0.007644555361362938 -0.01447487760641863 0.04695497859579644
-0.005335983798966438 -0.001776283209726183 -0.05293587196164405 0.005217236563467673 0.06482054854707464 0.07115331058267092 -0.1325658145547048 -0.09670210398251423
-0.016883220332982653 0.039599211265268726 -0.014348605820814856 -0.05701065080719761 0.06378169904622068 0.09985209127006868 -0.021683964672443844 -0.01512707488910807
0.07092122342444258 -0.0038856775207934922 -0.03267936360790306 0.0631761433931839 0.041561852524112645 -0.050001988700611275 0.0820757300783676 0.019684581742195506
0.017906471947919812 0.03571946030165233 -0.009559855175103495 0.03736274773743347 0.04185814794450634 0.05546292728225993 -0.08035306220469099 0.020218203657332397
0.06867498129660904 -0.011779723099496412 0.019471544947325756 0.025865570837304112 -0.011999684914830886 -0.05476256328792771 0.03934983806466131 0.0262153690522358
0.09027728035035598 -0.0002494454832719924 0.03578681379466683 -0.019795619159271968 -0.0002733044856816393 -0.028292309255656192 -0.03142059349205082 0.0070723734281308475
0.0331266715388515 0.1523104457338253 -0.1000405807305282 -0.05760248764934356 -0.006920040293955529 -0.08004097503299698 0.008517231738686418 0.02085063596524676
-0.060119944701705876 0.053522302196346204 0.07640586618769983 0.010990333260467751 0.044066758641669264 0.04367294694841511 -0.011245362986499006 -0.02363696517073611
-0.02766501905749212 -0.02105732966563038 -0.08011396144629018 0.0606563646253823 0.03066924162251207 -0.009431664586933402 -0.04563191313296034 0.06009346616264499
0.019956973220112903 -0.007374833947616018 -0.0037079812394677693 0.062164394853329565 0.11490521944076133 -0.09914020476696804 0.018524964634803753 -0.011083352397627554
-0.012368854754193798 -0.022283204556280266 -0.039979836318130985 0.014173214955418505 0.030348135665398183 0.0516907692121236 -0.06598773733944562 -0.11034035909084842
-0.09693754310128945 -0.01733093181428069 -0.03320827056797984 -0.028084311965752503 -0.02841561297252505 0.01517992077063351 -0.005326771754512435 0.10866602587276858
-0.04239920373300251 0.07601854885461808 0.022248305784584615 0.004266331776804222 0.055567214746242634 0.04037412705938332 -0.07361909942773473 0.03298437979232152
0.05895363111068229 -0.029047062933785166 0.04637190950243987 0.0436554482585808 0.06170191749751436 -0.022083275107286242 -0.03566736828798003 0.03381009044457855
0.11589680901498924 0.09029291489789622 -0.12700280720161028 -0.09951676508889988 -0.011227414552777279 0.03628599463899668 -0.02753822897234143 0.008147850799403491
-0.08805808533096579 0.09523283948223335 0.006198588512861143 -0.03230229857009435 -0.05460987054545674 0.055259422651179856 0.009303868651118373 0.07574630464924682
-0.0210063701869347 -0.007776607300645641 0.055973031146187735 0.04432313341739726 -0.0007416766204678178 0.05457607194983918 0.007512742473151778 0.01924718558696026
0.027947535893841316 0.05406504672742725 0.06587491669810999 0.06458123422550055 0.09036760629859379 -0.0920815032642565 -0.034283808103635974 -0.009020949649881205
0.04142651747186643 0.06477736411977074 -0.023737065827025755 -0.0584255716807504 0.023234500743168508 0.07331985899359053 -0.029979892177922816 -0.00843759939495145

3.bias f8 [64]
00000000: fbe0 7c05 bf8e 9a3f 5cf2 f0f1 c031 a1bf
00000010: e47c 7b16 02b9 98bf 1bd0 0f5c fe42 983f
00000020: 5fa9 d295 4c79 73bf 48ac 3f81 49c7 873f
00000030: 9b67 1ad9 9443 a33f 04c3 ab1e 58f1 95bf
00000040: bb09 71bb 783a 9ebf 0ecd bf55 ca80 af3f
00000050: b340 ba31 a1b1 79bf f8f4 f9e3 0b54 b03f
00000060: 4212 aac5 3cef b43f 8e42 ff05 4cec 7e3f
00000070: f830 8ce1 aae5 bf3f f0f5 423d 5fd0 963f
00000080: 7e83 149e 993e b23f 5df6 9da8 7151 b43f
00000090: bd5e 866f 3837 b23f 55c1 0195 6c8c 9f3f
000000a0: f939 45c8 c7db 833f 395b 49ad 5b5b 96bf
000000b0: bbe0 052a 7864 90bf 4271 3d76 e97b b8bf
000000c0: b768 fd32 a9b2 b8bf cea4 7de3 3f69 8bbf
000000d0: c47f 98a5 e877 703f 6e7e 690a fb50 a13f
000000e0: a84f 1d82 fff1 b13f 9697 084a daf1 a33f
000000f0: f7bc 5ff4 e9d3 5b3f f258 639e 0fcf 8b3f
00000100: a07c 0444 6b63 a73f 2517 bc16 8d5a af3f
00000110: 9083 0c2d ca41 a23f bcdb 6857 7e51 9cbf
00000120: 5d29 28be 4f48 a4bf 9b74 21d2 2db1 97bf
00000130: 4932 069e d56e a83f 3b0c 27f2 989b 9b3f
00000140: 9370 c61d c50e 52bf 551e 20db ead1 b03f
00000150: ab68 1eaf fff3 99bf e75a d2a8 314a a03f
00000160: b9a3 3c66 4e98 96bf 3f48 82ff f603 97bf
00000170: 8171 3281 b395 923f c0d9 e619 d98e 953f
00000180: 33b3 dcf4 d5b8 51bf 4e4a 8472 22f7 a3bf
00000190: 5e8e f1f3 3a23 a63f 0363 1819 1c2d 4d3f
000001a0: fda8 9f8a 02e4 a03f c952 8afc 3930 ac3f
000001b0: 3d6c 25da 4989 a33f f90f 0b3a e2e3 b03f
000001c0: 0a86 c43e e560 aa3f 67c9 a22f fab9 a4bf
000001d0: d872 91bf e306 a63f 724a 07be 0dd5 823f
000001e0: 5fb4 2c8b 77f3 a13f 2295 b107 d5a9 a2bf
000001f0: ee16 0eef a2e7 96bf 443e cfc8 6c51 90bf
0.025935158452939238 -0.03358271554359213 -0.02414325010510944 0.02369306027317473 -0.004754351769557934 0.011610578781946171 0.03762498045143944 -0.021428467628484618
-0.02951992649128397 0.061529467551645664 -0.006272916474373047 0.06378244701223312 0.08177547288693979 0.007549569098003984 0.12459819799932237 0.02227925120745583
0.07126770123842438 0.07936773649813618 0.07115509722495524 0.030809113115937 0.009696541594760954 -0.021832878543445153 -0.01600826031196399 -0.09564074646681767
-0.0964761495100984 -0.013384341363876475 0.004020603920736169 0.033820958157545586 0.07009884764312224 0.03895456460695283 0.0016984734261276649 0.01357853128540085
0.045680381825371486 0.06123772528193986 0.03565818595803372 -0.027654623112734575 -0.039614192926893145 -0.023136821699485038 0.047720599689544736 0.026960744647805717
-0.0011021542514760049 0.0657030854200625 -0.02534484392490614 0.03181605516254198 -0.02206537722591737 -0.02247606215002684 0.018149189720689577 0.021052734571378684
-0.0010816659373162451 -0.03899486205968526 0.04323753574206245 0.0008903872678188432 0.0329895776956892 0.05505543906943939 0.03815680301587363 0.06597722928114526
0.05152050391394532 -0.04048139411442513 0.043021313795838345 0.009195430146893478 0.03506063054951691 -0.036451966466112276 -0.022367997971307334 -0.015935611492578397

7.weight f8 [1, 128]
00000000: 06b4 76fb d31a b2bf 6389 8b6f d627 a33f
00000010: a42e 76e4 6c62 953f dcd0 b4fc 569c 94bf
00000020: c562 b192 9491 893f 4a95 3078 9a07 a1bf
00000030: e923 415c 6302 aa3f 27f2 97b0 1a12 b43f
00000040: a668 7e19 12b1 c2bf 5464 6248 39c7 aebf
00000050: a088 cb72 bb36 b3bf a33b 251e c7eb a93f
00000060: f080 fcf7 0b2c babf ad69 3adf 6d85 a3bf
00000070: a5c6 a306 330b c33f 9d96 bd5a 2323 b4bf
00000080: 062a cdee 5869 c53f f087 af60 2c85 a4bf
00000090: 32c6 f827 1e82 a43f a6d9 f267 8149 753f
000000a0: 4e85 94f3 bd93 a63f 06d0 62b0 77b6 97bf
000000b0: c459 7b21 5596 babf e517 3aaa b371 c63f
000000c0: 0348 f063 6922 c43f f7ec 9709 7d33 b0bf
000000d0: 1360 fb17 b8ed bd3f bf71 2b5e 77c1 96bf
000000e0: bc8d 9761 06c1 c23f b8a3 aba5 1d6b b3bf
000000f0: cf44 5715 26e7 91bf f2ea 9b78 57f7 b23f
00000100: 346b 75e8 b685 a13f 9cf1 ab2a 701b a13f
00000110: 6d7c 1872 fdaf c33f cd48 fc6f cb10 a1bf
00000120: db03 b931 f371 bb3f 2869 ec3a 0f1b 9fbf
00000130: b9ab 07c6 df6e 6abf b6c9 0555 59ed b13f
00000140: 546e ac15 07ca c3bf 119c becf f05f a5bf
00000150: dc0a 02a4 1d84 b8bf 9d08 f8d6 7527 693f
00000160: 7414 18ac 4b7f b3bf cafa dee1 a9e4 6c3f
00000170: 3b70 f862 c639 b4bf 2031 74ea 8208 a93f
00000180: 7b38 8abe ad00 b33f b466 9362 c1c6 b43f
00000190: 92c8 5f8b 63bb b93f ecac 7090 2003 51bf
000001a0: a430 510f bc16 803f 4d18 ce54 ce2e a7bf
000001b0: a093 bac0 8526 b23f 4ead a0df 6483 b33f
000001c0: 7b9c f48f 4803 6b3f 62ad cabe 83a4 c33f
000001d0: 470e decc 80e1 c93f 70f3 452a 83fe c13f
000001e0: ce24 6833 7a12 c23f 8855 83fe 2a39 b1bf
000001f0: 3d5e e827 8a41 a3bf 2ee5 d654 fa3b ad3f
00000200: c7a9 5f52 e209 a83f e256 c7bc 683d b0bf
00000210: 0353 7df2 5dae b93f 0a8b 8240 0041 a43f
00000220: 6b97 a19f d593 b23f d84f dada df5e a43f
00000230: cb4f 693d 0e76 a53f 736b e55e 73cc aa3f
00000240: c60c a4d8 42b1 c5bf 003e 7633 dd0b 85bf
00000250: 8915 4fca f345 b2bf 91b0 6147 eec2 b73f
00000260: 44ef 8fc3 7386 ba3f dc64 9b15 5b7e a63f
00000270: b031 4183 ff95 aa3f eb51 2927 2fde ae3f
00000280: b7de c9db d3ac ca3f 5953 2c17 331a b5bf
00000290: 227e beb5 8e98 b83f e1ef d5e9 0628 b13f
000002a0: ca75 ff6b 8c83 bcbf de66 a1bf 3cef abbf
000002b0: 3c7f f781 fa68 b2bf f6e7 d12e 66fa ae3f
000002c0: 72be eb5e 8560 b53f 4693 9d78 09b6 8d3f
000002d0: 6051 2e34 63a5 bb3f 8eeb 18f2 130b 9ebf
000002e0: 5d4a 8a75 b6a8 b2bf e0dd 8871 23cb b4bf
000002f0: bdda ca5d 3176 9b3f 462e fb2e f85d c13f
00000300: 49dd 338b 89c4 c03f 949c 8c57 e951 b6bf
00000310: 317e 0bea 76d0 c0bf 9548 12ba cf11 a63f
00000320: 6370 5db9 750d c33f 3f01 2611 5358 b0bf
00000330: 6ecf fd26 e79b a53f bcc9 7c7d ceb4 51bf
00000340: 7bd9 92c9 cab0 c23f e5ef dfcb 10e2 82bf
00000350: 887d f56b 9093 97bf 9b17 fe33 6148 a03f
00000360: 9b88 7e8f e5e2 b7bf 7688 89f9 505d aabf
00000370: fbe0 b65f 704b 973f 644d d58f 2051 b83f
00000380: 8f54 650c b2e8 b5bf 3dc7 60e5 9844 b6bf
00000390: f876 da6e 9cc3 863f d8b0 3a23 43e3 b3bf
000003a0: 66d2 c5e7 f56e d13f 2373 d0aa c0d0 acbf
000003b0: fc82 522f 150b cbbf 5a1c edfa 619f a5bf
000003c0: da3a 9eab ba6d bfbf bdf3 3f38 7c00 b1bf
000003d0: 45f8 b146 1413 b43f 3fc2 6798 b837 b13f
000003e0: ba96 9394 b59a cbbf 534e c5fd 492c a8bf
000003f0: 246d 9d35 5e00 b8bf 2134 d626 ab90 5cbf
-0.07072186364412411 0.03741331206926437 0.020883275455658393 -0.020127638982743487 0.012484703757011837 -0.03326113431129814 0.05079946995881086 0.07840124904027644
-0.14602876896680533 -0.06011370667074148 -0.07505389740575419 0.050626966886390144 -0.10223460010866225 -0.03812735891297634 0.14877927612501654 -0.07866116490694215
0.16727744732118327 -0.040078532030534464 0.04005522001206109 0.005197053425197861 0.04409593199148763 -0.02315699590754152 -0.10385639254977891 0.1753449040590446
0.1573001611691894 -0.06328565105643578 0.11690855584618047 -0.022222390291845914 0.14651565327868166 -0.07585320753754743 -0.017483325054688244 0.07408663458401657
0.034223285557081345 0.03341246148008567 0.15380828925205794 -0.03333125822077108 0.10720748866971468 -0.0303766612733877 -0.003226697023128247 0.07002790761706632
-0.154602895338814 -0.04174759422249264 -0.09576592687703162 0.0030705739552568515 -0.0761611266280669 0.0035270040525284584 -0.07900657573958451 0.048893061752183664
0.07422910596707936 0.08115776688228032 0.1005155768650943 -0.0010383432397798554 0.007855862824861788 -0.04527897629945752 0.07090030627530419 0.07622366389903343
0.0032974641068395628 0.15345808807374356 0.2021943092660072 0.14057960094569522 0.14118888387773726 -0.06727856363007423 -0.03760940301088709 0.057098219734550745
0.04695040946519984 -0.06343702896932826 0.10031687898783663 0.039558418154475986 0.07256827494856359 0.03978633448164687 0.04191631793642577 0.05234108479881785
-0.16947208002247843 -0.010276535161010791 -0.07137988747770953 0.09281815760340552 0.10361407780140747 0.04393276823766154 0.05192564465741911 0.06028888085407743
0.2083992789446165 -0.08243102374792723 0.09607784211265671 0.06701701363448322 -0.11138227116267455 -0.05455961074103553 -0.0719143454839441 0.06050414392025509
0.08350404326824348 0.014507364266771138 0.10799236320446459 -0.029339133883904682 -0.07288685197480889 -0.08122464677659691 0.026818057393678475 0.13568022054674794
0.13099784180642818 -0.0871873701804467 -0.13136183193181375 0.04310464044932975 0.14884826231980516 -0.06384772461570253 0.042205070028017086 -0.0010807053094593474
0.14602026789152575 -0.009220248433841458 -0.02302385004929655 0.03180221328425078 -0.09330591920164226 -0.05149319692715519 0.022748714296285204 0.09498790275147467
-0.08558190157539712 -0.08698421096849258 0.011115286000229471 -0.07768649683083895 0.2723974955945664 -0.05628015599379512 -0.2112757187906239 -0.0422316187673963
-0.12276808442969003 -0.06641365407263229 0.07841612554509066 0.06725648613770206 -0.21565885309899163 -0.047212898471710084 -0.09375561531981141 -0.0017434760478380956

7.bias f8 [1]
00000000: ca50 b0f0 bd2d ad3f
0.05698960841269381
