models/run2/25.pt (torch, 153942 bytes, 6 tensors)

0.weight f8 [32, 1, 9]
0.03606322240378738 0.14676681157017932 -0.13052801614441853 0.20855324152761645 0.11812812869896214 0.26154842437292547 0.2612327764386796 0.28166789943912685
0.2815547181663329 0.11413700532857396 0.30362402980330017 -0.0096122153925537 -0.42485823927659905 0.304518108144339 0.2183352702181162 0.3108289994259779
-0.36691136608523967 -0.22450066604068922 -0.22009767312190517 0.08922217989034603 0.24155510910720332 -0.3206557387625501 0.004829737984891245 0.3067139791775061
-0.0757720623272799 0.16933324061312482 -0.2430242232064734 -0.020205657578707112 0.15668288541544706 -0.136760356531846 0.13343395284637463 0.07425119205983292
0.3220170739268934 -0.13190508248797442 -0.15854940492717284 -0.25172516099667824 -0.25137003204042097 0.176117479532488 -0.2750373793980954 0.2882341353800504
0.0131211377602214 -0.3205080367501046 0.177262573935032 -0.044618376432719896 0.17519613340308868 -0.0912756687552063 0.26597168298675106 0.23140823782144512
0.0037573514483836006 0.26419648610565455 -0.04690468295113622 -0.30549259814952107 -0.007020051119649744 0.083534246217534 0.28408918413901696 0.2757724428934082
0.27337647367472373 -0.0686879326536334 -0.3463808874895509 -0.024415124786237526 0.3170594942399642 -0.048433698755290244 -0.09335172825456818 0.03152617548994561
-0.14002603089447935 -0.03898573707157653 0.23813557956755887 -0.16621637647261395 -0.3365046483331865 0.25699000356893315 0.1053518039802879 -0.15035136657604503
0.18380435597982933 0.2234286034025754 -0.133517307915517 0.26185716849658147 -0.28924696857894333 0.21398420530191292 -0.18792896404480391 -0.12676351077993406
0.2687026691465328 -0.28094243561064935 -0.18528218857581213 -0.01613564606049622 0.2196849231928516 -0.3022969565315698 -0.2590310718010017 0.19725232885363783
0.023754569532919937 0.17719007029816106 0.1833412956975923 -0.04169992626487427 -0.1171183446728863 -0.05764886108064033 0.25026422868861237 -0.2448395120848249
0.15536999759357276 0.22379587839266502 0.28502587698616916 0.040482646617211175 -0.09302446240203244 -0.15953207229283942 0.14621847758397935 0.19023502040666124
-0.16281319413960063 0.2469684014907099 0.2659002477081745 -0.33835382885495174 -0.27559696845858916 0.2757222985306353 0.2762853762569588 -0.09211261720663456
-0.12328940310874786 -0.00044786874049030224 0.30573589904365306 -0.07254077056187383 0.20922217668603554 0.06022284936033257 -0.3367289044891706 -0.1420279362458803
0.22406727292485334 -0.03527910824637084 0.15143195084981764 -0.35231130988668774 0.11575113427811852 0.29647946161776856 0.12998361535459582 0.2007963852339792
0.32235777835702323 -0.22581513075610607 0.1617423754879107 0.09061732677129761 0.2956043736580428 0.29521391342338 0.2948449164237917 -0.26608337217811606
0.2900313162004643 0.02047155427542684 -0.05264498333224171 0.29148326895580073 0.27100351283609864 0.16516789190688272 -0.1673809805923259 0.09255718343414017
0.048453495275681525 -0.11482716897857743 -0.27081832210257417 -0.21740904591378532 -0.11992257818048116 0.1499166959739049 0.13403670042092397 -0.20391810709197725
-0.14428226866074836 -0.10550223300264251 -0.009404196571765106 -0.198680386321783 0.21441649783498665 0.14469892795148348 0.07070023525619652 0.10996215631033494
0.09634702896643671 0.20800348183310388 0.24630206940088664 -0.24238024243976572 -0.1028657521201617 -0.348954711813037 -0.17414058621453588 0.2574768663644356
-0.2641001484215512 -0.2122367090862301 0.305497344603707 0.0485267066465233 -0.14643528149536247 0.25185524296534556 -0.3273036950049816 -0.25571305363697233
0.13442104032569296 0.2464348912036225 -0.1238700512950395 -0.0567749403343429 -0.4378669724948264 -0.18521163120410195 -0.2626388913396273 0.1532777517444961
0.24624407432034867 0.01183376075470716 0.20163813428063446 -0.2523800386590757 0.11756896294259814 0.05240979882910301 0.1921142533896928 -0.37317383955995437
-0.0037752016754476992 -0.0013130684697784533 0.3206201995476993 -0.21942168357891823 0.24209854447096835 0.24127774041008226 0.18903075018141471 -0.13839747259673857
0.029920446724592292 -0.244168973054614 -0.2817520233815519 -0.2761362585945815 -0.12684069205091636 -0.13161079108474383 0.3136206946952714 0.12080009780544347
-0.02886480552460695 0.2247890073579755 0.2357530376646768 0.0643503472837946 0.13351438675015626 0.11300778489794022 -0.20685902485591648 -0.33626600882929325
0.14455277432681793 -0.21658490563974622 -0.12797978815893035 -0.08598613073241423 0.12331714122630393 0.3183357222795421 -0.25015119003740216 0.21802646704378198
0.27796541324837204 -0.11980657214410559 0.26237857439002704 0.23385466177369457 0.30815420533603755 0.09642599332572771 0.28062065302143974 0.19183681773314093
-0.3306137557602512 -0.06030782911089041 -0.2563731532131515 -0.01331493573867166 0.16579851726530137 -0.21200106240411679 0.1718840512965571 0.062484959780280416
-0.23641213377284803 0.07569071046411899 -0.26706235469895434 0.20529526706321627 -0.24948328263035782 0.025084726888389097 0.1375800081096434 -0.11494233179840395
-0.26142813128050574 0.2766849022195228 0.11524350570380872 -0.33441462395488014 0.3085256431533864 0.2978005158418427 0.005452378756755521 -0.31520137166315215
00000000: 8512 a0f1 e076 a23f bb82 ea3f 41c9 c23f
00000010: 2ba9 465c 24b5 c0bf d4fe ea63 dfb1 ca3f
00000020: beed 7f21 a53d be3f 7e21 409a 35bd d03f
00000030: 56a2 dcad 09b8 d03f e823 1bcc d806 d23f
00000040: f7c4 a314 fe04 d23f 604c 2631 1538 bd3f
00000050: dc3b 927b 936e d33f e566 06b6 91af 83bf
00000060: c243 c89c e030 dbbf 3643 e184 397d d33f
00000070: 8537 93fe 68f2 cb3f e9b5 cb50 9fe4 d33f
00000080: 7479 77cf 797b d7bf e198 4915 70bc ccbf
00000090: ebfc fd19 292c ccbf 1cf5 b4c8 43d7 b63f
000000a0: 0309 e61e 47eb ce3f bfa1 d0a5 9f85 d4bf
000000b0: 57fd 17eb 58c8 733f 4ac7 72ab 33a1 d33f
000000c0: 7c69 a541 cc65 b3bf 9c8f 472d b6ac c53f
000000d0: af5f 67f1 6a1b cfbf 4c98 fab9 cab0 94bf
000000e0: ace3 594e 2f0e c43f 2fc7 5805 5d81 c1bf
000000f0: 095a d31f 5d14 c13f eb03 9649 2002 b33f
00000100: 7a41 5180 ed9b d43f e123 bb07 44e2 c0bf
00000110: 2c32 7bce 584b c4bf 89e8 83d9 431c d0bf
00000120: 96b7 b354 7216 d0bf 3f49 6c7f 048b c63f
00000130: b14f 6c61 369a d1bf f014 4396 6d72 d23f
00000140: 051d 884c 41df 8a3f 7199 fc23 3483 d4bf
00000150: 0989 ed3e 8ab0 c63f 3b86 2847 38d8 a6bf
00000160: af0b adaf d36c c63f 3f61 399c d75d b7bf
00000170: 6fc5 0518 ae05 d13f 9bea bbfe c89e cd3f
00000180: c170 e4b2 bcc7 6e3f 91ae e260 98e8 d03f
00000190: 8bd7 9bfe e303 a8bf 8f39 8ed3 308d d3bf
000001a0: 6c30 9a9f 0ec1 7cbf 96ae 9917 8062 b53f
000001b0: c48f c166 842e d23f b25f d775 41a6 d13f
000001c0: 8870 7b09 007f d13f 9290 6048 8895 b1bf
000001d0: 6d88 eebd 1a2b d6bf df47 f049 4700 99bf
000001e0: 9367 a9e7 b34a d43f 8048 5b40 4dcc a8bf
000001f0: 11e2 e01b e6e5 b7bf fd00 65e9 3224 a03f
00000200: 96e6 a37b 5fec c1bf 863b 7743 f0f5 a3bf
00000210: 9ada 2007 3a7b ce3f 5237 8106 9446 c5bf
00000220: cac0 e2ca 4a89 d5bf 378f 2e33 8672 d03f
00000230: 2281 abf8 55f8 ba3f ca2f 2dad b63e c3bf
00000240: cbd9 e5b0 e686 c73f 2771 4df8 4e99 cc3f
00000250: d13a 795b 1817 c1bf 669f ba91 44c2 d03f
00000260: 7be0 a0b7 0583 d2bf 16ee d09d d563 cb3f
00000270: 7294 4569 0e0e c8bf 771f 9066 c939 c0bf
00000280: db43 15ae 6c32 d13f a067 40fb f5fa d1bf
00000290: 0c72 3ba6 53b7 c7bf 3fc6 84e0 dc85 90bf
000002a0: 14cf 44b4 a21e cc3f 73f0 7e55 d558 d3bf
000002b0: ce1e 820f f793 d0bf 2f3c be76 903f c93f
000002c0: 3109 192d 1e53 983f 31a3 8d0a 2aae c63f
000002d0: a582 8342 ba77 c73f 1d43 1b57 b159 a5bf
000002e0: 41b7 21c4 77fb bdbf 296a fcc9 2684 adbf
000002f0: 5de1 6441 5404 d03f 3c22 96b0 e656 cfbf
00000300: c9d4 3801 2ae3 c33f 188a 56e5 57a5 cc3f
00000310: 11d6 0a2d dd3d d23f 778a 8d36 24ba a43f
00000320: 60a5 be7f 73d0 b7bf d596 9404 8c6b c4bf
00000330: 15a5 a57d 49b7 c23f 12aa 9903 9f59 c83f
00000340: cdeb 1710 10d7 c4bf c124 c61b a99c cf3f
00000350: 05ea f978 8204 d13f 3523 5ad1 96a7 d5bf
00000360: 3202 9a77 61a3 d1bf c7e3 bd23 6fa5 d13f
00000370: 94bf d8db a8ae d13f 0993 7346 b194 b7bf
00000380: 7ca1 4bf2 e48f bfbf 4cf0 e297 fd59 3dbf
00000390: eec2 e64d 2d91 d33f 7a9c 302d 0892 b2bf
000003a0: 4e73 3bd3 cac7 ca3f e9f9 f280 87d5 ae3f
000003b0: 8087 1964 f78c d5bf d9af a5ae f82d c2bf
000003c0: a677 a884 3cae cc3f e3e7 4c70 1a10 a2bf
000003d0: d016 3c46 1f62 c33f 095a 7ebc 448c d6bf
000003e0: 6d0d 33c8 dda1 bd3f 4f60 e5fd 84f9 d23f
000003f0: dd5e 7b98 4da3 c03f 1a13 de29 b2b3 c93f
00000400: 7be5 e984 82a1 d43f 590c c59c 82e7 ccbf
00000410: ec88 8c62 f9b3 c43f e604 ef76 b232 b73f
00000420: 6a9d 5a9b 2eeb d23f e090 dee5 c8e4 d23f
00000430: 85a6 5b36 bdde d23f 02ec 608d 8207 d1bf
00000440: a665 7982 df8f d23f cdea 71c0 7ef6 943f
00000450: 38bf 6b83 48f4 aabf f9c3 df70 a9a7 d23f
00000460: b5db 2e1e 1f58 d13f fb6e 0bb3 3824 c53f
00000470: d9e7 ce6e bd6c c5bf 8508 dcdb d3b1 b73f
00000480: ad00 2c83 e5ce a83f a58b 7437 5065 bdbf
00000490: 40a4 255f 1655 d1bf 55f2 0643 0fd4 cbbf
000004a0: c250 56ff 3eb3 bebf b088 2a65 7830 c33f
000004b0: 60c4 6256 1d28 c13f add9 8210 fd19 cabf
000004c0: 6132 a564 d777 c2bf 01bd 66c0 3102 bbbf
000004d0: 1d60 c4e5 8142 83bf 01ea cde0 5b6e c9bf
000004e0: a549 f6f2 ff71 cb3f 5ab0 a895 7e85 c23f
000004f0: d1af 3e1e 6919 b23f 0b89 26d9 7a26 bc3f
00000500: ac44 7aea 32aa b83f 23b2 f6ab db9f ca3f
00000510: 79c8 8182 d386 cf3f 1bd8 3cd7 5006 cfbf
00000520: a10a 3cf1 6855 babf 116a c124 4655 d6bf
00000530: 3c4e 591d 3d4a c6bf 8dc1 2040 807a d03f
00000540: 3bb7 154f 04e7 d0bf 729c 448e 922a cbbf
00000550: eb9d 05bc 448d d33f f70d 0f14 7ed8 a83f
00000560: c166 802c 64be c2bf d02f f773 651e d03f
00000570: b601 7a32 8bf2 d4bf 61fd a148 9a5d d0bf
00000580: 4aec 0b6a b534 c13f 580c 28b3 2d8b cf3f
00000590: 021b 449b f2b5 bfbf 1acc efdf 9a11 adbf
000005a0: ae48 b731 0306 dcbf 9a22 6ec5 03b5 c7bf
000005b0: 8787 3d5a 13cf d0bf e037 79f9 9a9e c33f
000005c0: 9814 0503 ed84 cf3f 62f5 707b 4c3c 883f
000005d0: db4e 2e44 47cf c93f 730d 0d9b fe26 d0bf
000005e0: caf3 dce2 ff18 be3f dfff eb07 75d5 aa3f
000005f0: 6cbc b329 3397 c83f 0f7f 2887 14e2 d7bf
00000600: 7655 6bf7 2bed 6ebf c298 a588 6883 55bf
00000610: a3a3 df95 0a85 d43f 789a 807d 0216 ccbf
00000620: c4bc 74c9 15fd ce3f ce33 2862 30e2 ce3f
00000630: c5d7 fbdc 2832 c83f 5276 5325 02b7 c1bf
00000640: 28c4 a730 77a3 9e3f 22d6 fbcc ed40 cfbf
00000650: a25b 80a3 3908 d2bf 61d3 f969 37ac d1bf
00000660: 9691 14d8 503c c0bf a43c c155 9fd8 c0bf
00000670: d128 c488 5c12 d43f 2b90 6d55 c1ec be3f
00000680: 6c31 ef4e bc8e 9dbf d128 8ddd e2c5 cc3f
00000690: a8e9 59d1 272d ce3f b6f4 11ad 4379 b03f
000006a0: e096 51da ff16 c13f 8c7e 5404 14ee bc3f
000006b0: 0dbe 5145 5b7a cabf a468 abdd 6185 d5bf
000006c0: e5ce 238f b480 c23f 99d5 43df 0db9 cbbf
000006d0: ce86 5846 a461 c0bf b8c1 67e3 2f03 b6bf
000006e0: 936a 9a50 b691 bf3f feb4 15cb 9c5f d43f
000006f0: 2a08 1123 7a02 d0bf 92c7 ce90 4ae8 cb3f
00000700: 5989 d471 2fca d13f a66d 34bd a4ab bebf
00000710: ff47 0b81 cfca d03f 82e6 2a16 f3ee cd3f
00000720: f8c2 826a ccb8 d33f 147d d1b7 5faf b83f
00000730: b5ca d353 b0f5 d13f 1a91 2add 1b8e c83f
00000740: ce45 2699 c628 d5bf 33b4 72f3 aae0 aebf
00000750: 51dd 27f1 6a68 d0bf e513 5e6c dc44 8bbf
00000760: 009c b0c4 e238 c53f 8d18 dfce d922 cbbf
00000770: cee7 82ed 4b00 c63f 6a11 7f55 07fe af3f
00000780: 724a 77b7 c042 cebf e6ec 0d66 7760 b33f
00000790: 482f dbb3 8c17 d1bf 5ab1 0785 1d47 ca3f
000007a0: fde6 e575 11ef cfbf f379 7586 cfaf 993f
000007b0: df08 b5c1 389c c13f 3f08 0054 dc6c bdbf
000007c0: abaa 860e 3dbb d0bf 941b 9597 34b5 d13f
000007d0: e901 1330 9980 bd3f ab2e 4c98 0c67 d5bf
000007e0: e68d d456 e2be d33f 0173 11e5 290f d33f
000007f0: f976 21c7 3b55 763f 25a5 bc5f 422c d4bf

0.bias f8 [32]
-0.10810361968175256 0.00048101083285585116 0.24685283369586408 -0.13599896227534486 0.3077560310509125 0.10164433683828161 0.0004797895264272757 -2.8888989703725615e-05
0.0016793098617921155 0.3310086607698585 0.2930068852322712 3.768818232601128e-05 0.0015452685185638566 0.1089506591678893 0.28837507784644906 0.2817681256252697
0.2617129829316852 -0.024351872548351347 0.32700767395723707 0.32061535487187276 0.05634560414711937 -0.08680670439204552 0.18977475021410595 0.26437702320751577
0.002042473973090431 -0.09466429255179454 0.3135701969027062 0.00039361705085790184 0.15369298624727157 0.05694948632902674 0.001920780864473007 0.2105346098705909
00000000: eac2 1cc7 adac bbbf 88ac cfcb 0586 3f3f
00000010: 6407 d3a7 df98 cf3f 0a9b a1fb 6968 c1bf
00000020: e1aa 205a 46b2 d33f 6445 8bfe 5c05 ba3f
00000030: 5422 3153 8871 3f3f 0ccf 8041 d44a febe
00000040: 487a eb3b 8983 5b3f 57c1 2cf3 3e2f d53f
00000050: d9d3 64f3 9fc0 d23f 0dd9 9315 6cc2 033f
00000060: 2c9e 0c70 5351 593f 43f4 00be 30e4 bb3f
00000070: b73e 15be bc74 d23f 7f68 272d 7d08 d23f
00000080: 1a55 a8cf e7bf d03f 3c20 c480 b2ef 98bf
00000090: c6fd 4b98 b1ed d43f c649 f143 f684 d43f
000000a0: 89a4 2bbe 54d9 ac3f d0f7 6fd4 f638 b6bf
000000b0: 0459 e3fc 894a c83f 045e 1f9b 8deb d03f
000000c0: 01f8 5add 60bb 603f 18e3 9b48 eb3b b8bf
000000d0: 43a2 2cbb 8811 d43f 2025 4f5c cccb 393f
000000e0: f83e c736 36ac c33f 3f45 9daa 7b28 ad3f
000000f0: 0e74 b9bf 5678 5f3f cfff 0850 ccf2 ca3f

3.weight f8 [64, 32, 9]
0.09463892641267178 -0.1586061715801182 -0.11774286549884598 0.02735500072249796 0.012753322074464992 0.08030031127281374 0.025545109135480384 0.030120954719183492
-0.09633077853767233 0.047904041050129756 0.006262631924029935 -0.10534710994748699 -0.08439833993762849 0.03263384022630499 -0.041251277678862996 0.013641831029183227
-0.03958929323932722 -0.09030729961957276 0.04369394090903339 0.007703793769046947 0.031429932118354605 0.021619286679301363 -0.038976638692859666 0.009164774117864243
-0.012139779804049164 0.0204391348934391 0.0648731636962046 0.071211273753286 -0.12468408353869063 -0.06882637852274358 -0.04374778403996958 0.011866132574924273
0.0170338441868833 0.00969830287848004 -0.02509798971692688 -0.00886290012791477 -0.00992083659735945 0.040701230896314534 -0.040145639964630844 -0.032606567678561606
0.008144472473559643 0.03690740779880677 -0.04048057509768187 0.0550516824962241 0.012670608786070785 0.06646501799966381 -0.031172143730944922 -0.052700322377039505
-0.03065344249843707 -0.02488456355808592 0.024012215427870052 0.01246424941110603 -0.025658185013789706 -0.003881461799421192 0.006483433360852689 0.06989377935517939
-0.13396451842941354 -0.05288092742681019 -0.003203218446981342 0.004556929125789479 0.0018948291918227198 -0.0009573719319207604 -0.09117903020006117 0.1127478850579845
-0.09123194747189707 0.010715264964961817 -0.0849956197441385 0.06138599459722217 0.017429075870426698 -0.0344475458261004 -0.01774833238438777 -0.011348352042395204
0.044598995336344024 0.022544213651599088 -0.14311604934286745 -0.09812189273264266 -0.06537519193973498 -0.058070752196150016 0.05478459296891915 -0.05486675872849881
-0.09605538155241027 0.08890417062040105 -0.06933403102219997 0.060610903459709 -0.03642573268674175 -0.038263438334011426 0.053445980876773325 -0.03215799370308211
0.057729437599494185 -0.043481100864554624 0.07369344748364033 0.006838027112717492 0.006474654360491923 -0.003711890335218002 -0.03875481630993031 -0.0007958444062884707
-0.0018109782425186401 -0.04706698404470537 -0.031431806328419576 0.10558317847255644 -0.03901975771179809 0.006981437424938203 -0.018273631854319638 0.04505624752189351
-0.004000164327804018 -0.0017755965576937117 -0.05293552606596322 0.006145285451121947 0.06546681485922688 0.07035452973898232 -0.13705365507812023 -0.10059197927640295
-0.021467692133611167 0.040961036466781564 -0.01434853358944199 -0.057009972187618635 0.06370459747993315 0.10111137317984413 -0.02177090486028192 -0.016167178904280707
0.07075616612548442 -0.005187856669649999 -0.030602839745926987 0.06317678472224636 0.04156372721529315 -0.050424238574212056 0.08401862219818321 0.02051052019576704
0.017890265432918034 0.036165508865966284 -0.009998337249979432 0.03904951183853233 0.04185839115555983 0.05546466665616677 -0.0803677961918658 0.021230532460300496
0.06865742409725575 -0.011255878869101418 0.019861736591905804 0.02619256026009444 -0.010053093640586127 -0.0547618495959407 0.039350309792334705 0.027200862940423644
0.0918837373674435 0.0008394740700941133 0.036834205708296604 -0.01909052545348092 0.0008914150635894415 -0.0267569595195265 -0.03141959056655575 0.007077903489277821
0.03402705869449376 0.1544872197343677 -0.10138556275599911 -0.06324784850297521 -0.011922706461884685 -0.08474037593592439 0.009670927473453309 0.020851350188425703
-0.06011904959034851 0.0530937623296037 0.0780282400448132 0.012237612091590935 0.044237552723232904 0.04429181622010311 -0.011378488822121198 -0.02201350359007191
-0.027664303855139617 -0.021054656921098116 -0.08014861248155833 0.06280813230846631 0.03160828762481966 -0.008577112344702596 -0.04507159867756635 0.06089757533818139
0.02165870203613884 -0.007373436204239702 -0.0037063807451067584 0.06339052862641478 0.11664497210413696 -0.10054761805393427 0.01812444616586611 -0.0126700313050071
-0.012254436542336246 -0.01936637154363544 -0.03997920478831934 0.014173999224565225 0.031050883038443552 0.05310904353373587 -0.06750752233686122 -0.11673762948829092
-0.10227575113381256 -0.02294940431568277 -0.03154302448038577 -0.02808407639073707 -0.028413697425126914 0.015125896977237655 -0.00545988679638898 0.11014920591691511
-0.04284172793060412 0.07779342737194042 0.021394623360438667 0.007674796861518164 0.05556778496320603 0.04037695686424419 -0.07419912946324467 0.03547949140395216
0.059991143812229655 -0.028202092727452083 0.0468377754359276 0.0443652967042474 0.06290200476579569 -0.022081476824182742 -0.035666938351918795 0.03428772712078452
0.11775162491130431 0.09138738971678394 -0.13154247939792574 -0.10352977784651447 -0.015720731010961907 0.03716879727366487 -0.027538086059603974 0.008150967131553178
-0.08820411491552586 0.09692743490938444 0.005107551312722096 -0.035639850526900045 -0.060340362129062235 0.05271830011694344 0.01129808910214561 0.07574683292723297
-0.02100647253981262 -0.007427281611015373 0.058203467870953485 0.045304551883799254 0.00020588916702366202 0.05533684735055938 0.008238708466253604 0.021026082560703065
0.02795126615092242 0.05406651242277813 0.06766310821358373 0.06628295391571733 0.09154541246582681 -0.09416666145120924 -0.03826929011570043 -0.01133752254736546
0.043060221810557124 0.06477767062879965 -0.023736567609960037 -0.05828011655370375 0.02524894381908974 0.07471339511726878 -0.030870268049214042 -0.0074392510671111535
00000000: 47f8 deb5 413a b83f 0ab0 f0ff 344d c4bf
00000010: 93a5 a77c 6524 bebf 5ed4 f005 f302 9c3f
00000020: 3b2c cde9 691e 8a3f ad7d c6aa 8f8e b43f
00000030: 0712 3d41 7f28 9a3f 97d3 c50d 07d8 9e3f
00000040: aee2 6a47 22a9 b8bf 2a27 50e3 e086 a83f
00000050: ca3b cf74 d8a6 793f d1db f337 07f8 babf
00000060: 026a de2d 219b b5bf ef9c 07f9 61b5 a03f
00000070: 880d 1931 e31e a5bf 6df0 0591 3ff0 8b3f
00000080: ec25 783f 0c45 a4bf 7ac5 7412 611e b7bf
00000090: e8ad 795e 0d5f a63f fbe2 b064 038e 7f3f
000000a0: b9ae 2085 9517 a03f 6375 00c5 5d23 963f
000000b0: a8d8 fcf8 bef4 a3bf 1642 e428 fbc4 823f
000000c0: d889 e9a9 bddc 88bf e912 b41f ffed 943f
000000d0: c497 7614 879b b03f 537a e0eb e63a b23f
000000e0: 6f62 21cd 4beb bfbf 0b78 db04 9b9e b1bf
000000f0: 7ec2 720b 1c66 a6bf eee2 b65a 454d 883f
00000100: aecf d4ee 5171 913f 75a8 842d b4dc 833f
00000110: 1c41 1e94 49b3 99bf 71ad 9351 b626 82bf
00000120: cd7f e025 6051 84bf 5596 36af cad6 a43f
00000130: b23d 7325 f88d a4bf 1de3 a0db ceb1 a0bf
00000140: 3c3e 5697 0cae 803f a3b7 f31a 87e5 a23f
00000150: eeeb 55b4 deb9 a4bf 3776 d2ef bb2f ac3f
00000160: dc48 da52 0cf3 893f b4f8 a2f6 d903 b13f
00000170: c683 7b27 97eb 9fbf 8432 3262 89fb aabf
00000180: 0794 29b4 9d63 9fbf 4bfc a0ca 567b 99bf
00000190: e96b de7f a896 983f 0517 b83c db86 893f
000001a0: a428 09a6 2346 9abf 316c a7ef 03cc 6fbf
000001b0: 9db1 0264 5f8e 7a3f d93a 8608 8fe4 b13f
000001c0: b646 bdd4 bf25 c1bf 94b6 c27b 3513 abbf
000001d0: f166 18cf a23d 6abf 421b 0c59 49aa 723f
000001e0: 28be 435a 7d0b 5f3f 786a a091 045f 4fbf
000001f0: 6b4e ca48 8257 b7bf e867 049f 0bdd bc3f
00000200: 0500 be16 fa5a b7bf 1669 bd84 e2f1 853f
00000210: 28b5 1adf 45c2 b5bf 217b 742e fc6d af3f
00000220: 72b2 737b edd8 913f bb49 80d5 1ba3 a1bf
00000230: 1e12 996c 9e2c 92bf 20ac 1507 ce3d 87bf
00000240: 2ee0 cef4 add5 a63f a0ff 6391 d415 973f
00000250: 5bec ba6f a051 c2bf 14ee 4e30 841e b9bf
00000260: 92d3 59b7 6dbc b0bf 34bb 121b 73bb adbf
00000270: 939a 40e6 b90c ac3f c5ba c0ec 7e17 acbf
00000280: db55 5fe2 1597 b8bf 93e9 4a79 6cc2 b63f
00000290: a37d bd03 e0bf b1bf d2ea 4770 6408 af3f
000002a0: 6eaa 3ec5 64a6 a2bf fade 8df0 4397 a3bf
000002b0: e0cf ef87 455d ab3f ebf8 8436 0377 a0bf
000002c0: ca39 037d b68e ad3f 6528 6aa4 2743 a6bf
000002d0: 9d29 dfe2 92dd b23f d8af 17ed 3002 7c3f
000002e0: 2e10 b3cb 2a85 7a3f e13f 13f3 6568 6ebf
000002f0: c52e 3ad9 abd7 a3bf 34ad 4ed9 0614 4abf
00000300: 181c d314 cbab 5dbf 8600 63ea 2919 a8bf
00000310: 8033 7868 d417 a0bf dc1f 8cca 7f07 bb3f
00000320: 9d3f 8ace 65fa a3bf 20f6 b456 9198 7c3f
00000330: e316 c6ac 52b6 92bf 0e8d 2ccb 9c11 a73f
00000340: edf6 76ef 7962 70bf f116 5b49 6417 5dbf
00000350: a4ee 7f82 5d1a abbf 222e 9880 cc2b 793f
00000360: b72d cbe4 6ec2 b03f 34b9 5a24 c102 b23f
00000370: 16cc 2d63 f98a c1bf 5068 3b5d 65c0 b9bf
00000380: f2ae 896e a0fb 95bf 58f7 1150 d8f8 a43f
00000390: ff01 1994 c362 8dbf 34f2 2e3c 6930 adbf
000003a0: e6f9 c7ca f14e b03f 13a3 0f59 6fe2 b93f
000003b0: 0b57 84b1 1c4b 96bf af5d a602 218e 90bf
000003c0: 09d2 7f7b 131d b23f 473f b8ab dc3f 75bf
000003d0: f272 7ecf 5956 9fbf 6c9c 3f90 5a2c b03f
000003e0: 66d9 2d42 d747 a53f cd31 34af 34d1 a9bf
000003f0: 069f 9892 3e82 b53f deeb dbb5 b500 953f
00000400: 3bf8 cd63 d351 923f c421 a51b 4984 a23f
00000410: f639 061c 027a 84bf bfe2 8a30 4cfe a33f
00000420: 7711 278a 766e a53f ae59 be62 dd65 ac3f
00000430: 2db0 4be0 fb92 b4bf a2e7 5fea 74bd 953f
00000440: b214 206f 8893 b13f 4b52 0b7d 520d 87bf
00000450: 7b7f 6a94 a256 943f 25ca dcf6 38d2 9a3f
00000460: 3190 4763 b796 84bf b683 2ac2 be09 acbf
00000470: 0585 4a4b b925 a43f f725 0203 8bda 9b3f
00000480: 3105 074f b185 b73f 5778 a4d6 0482 4b3f
00000490: 9954 c8d9 eedb a23f e9d2 f179 778c 93bf
000004a0: d9ae cb45 bb35 4d3f bf9a 4e28 2d66 9bbf
000004b0: 41c7 df83 3a16 a0bf eecb 2b40 b8fd 7c3f
000004c0: 8339 8ba0 fe6b a13f 925c 34ba 3cc6 c33f
000004d0: 9ad5 527c 67f4 b9bf 0cd6 dcd0 0231 b0bf
000004e0: d637 ab92 ee6a 88bf 8da8 4b97 8bb1 b5bf
000004f0: b585 c3e9 59ce 833f 6e03 8c6c 0e5a 953f
00000500: 3ddc b68f ecc7 aebf 9d8c a709 1b2f ab3f
00000510: 452b 28a3 a8f9 b33f ce54 b77d 0810 893f
00000520: cc18 67f4 4da6 a63f 5ba4 4abc 6aad a63f
00000530: 3188 f3ea 9a4d 87bf bc7d f537 b58a 96bf
00000540: bd37 4c01 0854 9cbf c753 9e1b 5a8f 95bf
00000550: 0696 6d95 9e84 b4bf 5b0d 309a 3114 b03f
00000560: a927 4323 f62e a03f bfee 1d88 e090 81bf
00000570: 0be0 98e4 9f13 a7bf 0d64 f78c f72d af3f
00000580: df14 ade3 b22d 963f 0c9e b3b5 9b33 7ebf
00000590: f5b7 c602 d85c 6ebf 469c 5397 5c3a b03f
000005a0: 121b 6ee4 71dc bd3f 157b 3b1b 7dbd b9bf
000005b0: cf7a 29fe 368f 923f 3f21 c1d0 bef2 89bf
000005c0: 7422 71a1 da18 89bf c93a b031 c7d4 93bf
000005d0: 77fd 2b82 2778 a4bf d3fa fbf8 4107 8d3f
000005e0: cfec a57c cdcb 9f3f 0acf 32ca 1b31 ab3f
000005f0: 1aba ab48 2c48 b1bf e061 dd6c 84e2 bdbf
00000600: bd26 4b5e be2e babf f280 fe73 0c80 97bf
00000610: 79d0 1e45 6826 a0bf 01dc 8b76 12c2 9cbf
00000620: e624 ccf4 7a18 9dbf 021e b886 53fa 8e3f
00000630: 8086 af33 1b5d 76bf eff0 1705 bd32 bc3f
00000640: 1c6e bbd8 59ef a5bf 0aff 6722 45ea b33f
00000650: ecc2 92de 78e8 953f 75ed 6098 9b6f 7f3f
00000660: 519a 4176 6173 ac3f 97e4 7cda 49ac a43f
00000670: beb1 6fd2 b6fe b2bf b572 842e 5e2a a23f
00000680: ea41 72c1 28b7 ae3f 58cd c567 02e1 9cbf
00000690: 50ed 6df3 1efb a73f c31a d854 0cb7 a63f
000006a0: ea69 5285 581a b03f e99e 3ad3 869c 96bf
000006b0: 7e35 8adb ef42 a2bf 4da0 4635 298e a13f
000006c0: 487f 0b72 f824 be3f 67b3 19fa 2965 b73f
000006d0: 8c40 864b 62d6 c0bf 0d4f 0372 ed80 babf
000006e0: f6c3 3e66 1819 90bf d4af 71e1 c907 a33f
000006f0: 47ec 14ac f132 9cbf 071a 164a 74b1 803f
00000700: ab4f ef7c 8b94 b6bf 9c5e 0583 3cd0 b83f
00000710: ebce 9cdd a7eb 743f e70c e5f0 623f a2bf
00000720: af3c f293 eee4 aebf 0e54 ce9d e4fd aa3f
00000730: d1aa 9bd9 7323 873f dab2 32fa 2464 b33f
00000740: 2b53 4082 b882 95bf 9240 e1b9 116c 7ebf
00000750: 1800 0a4e d8cc ad3f 34d6 6681 2832 a73f
00000760: 5bec 597a 7efc 2a3f a8cf 447b 1c55 ac3f
00000770: f104 64bb 74df 803f e748 d883 dc87 953f
00000780: f100 00b8 419f 9c3f bc47 541d 9bae ab3f
00000790: 144d ec94 5e52 b13f 05ac 596f ebf7 b03f
000007a0: 00ba a328 856f b73f 5973 4e6b 4e1b b8bf
000007b0: 3ce4 f94a 0898 a3bf d701 7884 2038 87bf
000007c0: 7fa4 de48 fd0b a63f ed9b dcf8 4495 b03f
000007d0: a791 6a16 664e 98bf 29e0 3535 e4d6 adbf
000007e0: c99b d8ef dbda 993f 450f 9ac4 6a20 b33f
000007f0: ecb0 c29e 749c 9fbf 5bbd a3c0 9e78 7ebf

3.bias f8 [64]
0.027024523442832103 -0.03358271554359213 -0.024148492801423994 0.023128817335420743 -0.003929170838026905 0.010848357458579093 0.03830123771995129 -0.0217403895109326
-0.030384060973643098 0.06087046094879459 -0.006272916474373047 0.06493073252175915 0.08193334732263993 0.006905245492861101 0.12403166297213697 0.021705777788343702
0.07070590850661565 0.0793550338681051 0.07045401148995271 0.030226477994265397 0.010462609143048548 -0.02106375107877795 -0.018950834458286252 -0.09872550983007318
-0.09918498400270943 -0.014042126777685892 0.004020603920736169 0.03322602877292653 0.06927465244314332 0.03941710285498365 0.0010599807173398315 0.013189200104234475
0.045866433638110264 0.06063334437438814 0.035056033650650145 -0.028271687275720166 -0.03877904001176706 -0.02348371200688001 0.04717558462416839 0.02638699945177972
-0.00196709397948681 0.0651551410302552 -0.024708172718610002 0.032184637973760165 -0.02263131443345899 -0.02322650962659393 0.018872460309972194 0.02031888914267434
-0.001436559113299834 -0.038016218101718714 0.04278432373005965 0.0008903872678188432 0.03319898875582073 0.054694351755125936 0.03885660332586866 0.06522977276500255
0.05207495422805351 -0.04048139411442513 0.04300012345883395 0.009961180341341186 0.03582857818516627 -0.036451966466112276 -0.021583929277240052 -0.015074301992272677
00000000: f9fe 8111 51ac 9b3f 5cf2 f0f1 c031 a1bf
00000010: 0db9 51eb 61ba 98bf 4802 34a8 14af 973f
00000020: fddc fec3 0818 70bf 5fd3 ffe3 a937 863f
00000030: 2d99 ce46 389c a33f 6099 ced7 1c43 96bf
00000040: 5f4d ced0 ff1c 9fbf b591 22be 692a af3f
00000050: b340 ba31 a1b1 79bf feaf afec 4c9f b03f
00000060: 2ada 3377 95f9 b43f 0dc7 00b9 ac48 7c3f
00000070: 3042 2200 8ac0 bf3f dfd2 f016 0a3a 963f
00000080: 6a7d ab4c c819 b23f 338a 3c8b 9c50 b43f
00000090: bbaa 382b 4609 b23f 09a4 d599 b0f3 9e3f
000000a0: 4b42 cda0 6b6d 853f 51c8 0e68 bc91 95bf
000000b0: 7bc6 ebf8 d867 93bf 7d47 0034 1346 b9bf
000000c0: 6dc1 8be6 2f64 b9bf b929 365a 1ec2 8cbf
000000d0: c47f 98a5 e877 703f 2a4e e985 0003 a13f
000000e0: 8e60 afce fbbb b13f 1c98 547f 7a2e a43f
000000f0: 4ebe fba0 e15d 513f a55c dd78 f002 8b3f
00000100: df6f eb20 ce7b a73f 2c2c 456e 550b af3f
00000110: 7231 1d4c ddf2 a13f 2201 02d1 40f3 9cbf
00000120: 76db 3da9 d8da a3bf 37a1 3b3c 1d0c 98bf
00000130: c2ce 42f2 6527 a83f 2867 bd8e 3105 9b3f
00000140: 16f7 eb89 4b1d 60bf 9726 e4df 01ae b03f
00000150: 77d6 1467 194d 99bf 13d2 0f3f 817a a03f
00000160: 9cc5 6dcd a92c 97bf 6a5d fcac b0c8 97bf
00000170: d038 4e5f 4d53 933f a572 6f91 79ce 943f
00000180: 4ae3 439a 5d89 57bf fdd0 ed9a dc76 a3bf
00000190: 6a77 67ae d3e7 a53f 0363 1819 1c2d 4d3f
000001a0: f1db ee35 75ff a03f 00dd 20e8 e500 ac3f
000001b0: 2958 0941 03e5 a33f 7a4e c0fc e5b2 b03f
000001c0: ae4b b382 91a9 aa3f 67c9 a22f fab9 a4bf
000001d0: 3d95 f5b7 1c04 a63f 3d6d 5dfe 8666 843f
000001e0: 308b 2297 1f58 a23f 2295 b107 d5a9 a2bf
000001f0: 5cae 75f9 181a 96bf c7e2 8890 46df 8ebf

7.weight f8 [1, 128]
-0.07132099950132445 0.03758933993469836 0.020883275455658393 -0.020127638982743487 0.012484703757011837 -0.03327441294409671 0.05117104430991096 0.07841270091146754
-0.1482393883227474 -0.060278138500450155 -0.07505389740575419 0.05163139152665666 -0.10384757918323198 -0.03815257411567927 0.15148389075447577 -0.07872343977865091
0.1690048210466416 -0.04008732532674458 0.03981048556307707 0.005198040026931691 0.04409593199148763 -0.02315699590754152 -0.10410971033058872 0.1804713820186021
0.15883735933783164 -0.06378114013187969 0.11742387164239491 -0.022226853703176442 0.14630291336357 -0.07587324940321331 -0.017453554810624706 0.07410686582157566
0.03393116256022393 0.03340720883523249 0.15499733988757128 -0.033355410522803504 0.10790991609653967 -0.030417266408995558 -0.0026875936834726524 0.07003599728696083
-0.15654788318294668 -0.04175444459732007 -0.09588537694375551 0.003068021349125037 -0.0761611266280669 0.0036170934677930743 -0.07900657573958451 0.049058682300637646
0.07422910596707936 0.08126559678732563 0.10144246847350728 -0.0010519751522003436 0.007855862824861788 -0.04527897629945752 0.0716063506364929 0.07625930979296935
0.0031934760529807845 0.15786603539585167 0.20320245635255046 0.14070936146373553 0.1428116593099747 -0.06729104718579003 -0.038044321327853736 0.05714394823491343
0.04796798404156919 -0.06344840420241074 0.10073555219108293 0.0395518922074032 0.07302155203902147 0.039793396741855884 0.04177807053031384 0.05235377561150859
-0.17139050127908448 -0.010292168040439567 -0.0725248217823167 0.09285482290767255 0.10366480895780968 0.04394562804454697 0.05207532778936892 0.06029597941084893
0.21025446031926798 -0.08244632920141282 0.09638352048718678 0.06701255254422679 -0.11391918706685215 -0.054572056253097675 -0.07338504111669969 0.060505644388634434
0.0837885495866878 0.014509517871287575 0.10870978390468279 -0.02935007396331247 -0.07448594480734987 -0.08129066986775428 0.026748971613198315 0.1394921910783451
0.1308674504274779 -0.08719759648218528 -0.13164010763574413 0.04311084403042736 0.15075351492710623 -0.06387553059686127 0.042205070028017086 -0.0010807053094593474
0.14643451408435942 -0.009220680889674022 -0.02363257233572926 0.03179728897829117 -0.09543695560083433 -0.05152735139191069 0.022750024092902953 0.09800189221170566
-0.08690743208925802 -0.0869936186304799 0.011115286000229471 -0.07768649683083895 0.2735933189904968 -0.05632083966516852 -0.21271393552014886 -0.0422965457519674
-0.12465590436723137 -0.066440515942848 0.07841612554509066 0.06725648613770206 -0.21690685744906094 -0.047236233309138204 -0.09477747425987074 -0.0017513125858303622
00000000: 0250 60d0 1742 b2bf 4e40 65f3 e83e a33f
00000010: a42e 76e4 6c62 953f dcd0 b4fc 569c 94bf
00000020: c562 b192 9491 893f bee8 c606 5809 a1bf
00000030: 4460 a053 1733 aa3f f67a 01d2 da12 b43f
00000040: 9ca1 691e 82f9 c2bf cfdf 0bb3 c6dc aebf
00000050: a088 cb72 bb36 b3bf e4a0 1b04 6e6f aa3f
00000060: 3a5a 5c44 c195 babf cd8c 2bf4 bb88 a3bf
00000070: d0a5 54fa d263 c33f 7f26 4727 3827 b4bf
00000080: 047e a131 f3a1 c53f d863 866e 5386 a4bf
00000090: 0d06 103b 0a62 a43f 7d1a b43e 8a4a 753f
000000a0: 4e85 94f3 bd93 a63f 06d0 62b0 77b6 97bf
000000b0: 9adf 1019 efa6 babf f720 d1ad af19 c73f
000000c0: 2197 de57 c854 c43f eccf f7f6 f553 b0bf
000000d0: 2b4a 79a8 7d0f be3f fd12 fee6 a2c2 96bf
000000e0: fe5f 1aca 0dba c23f 43fb d3e4 6d6c b3bf
000000f0: fd3a 713c 58df 91bf b8db 1ce5 aaf8 b23f
00000100: 07d9 05e3 6c5f a13f 2cc2 cbea bf1a a13f
00000110: e15d e4ec f3d6 c33f f920 aeda f513 a1bf
00000120: 597a 8cf8 fb9f bb3f 6067 d731 b425 9fbf
00000130: 79e5 36df 4a04 66bf dee6 e30d e1ed b13f
00000140: 35af 43d3 c209 c4bf 162a 04ac d660 a5bf
00000150: 0e58 23ae f18b b8bf 7c18 746b 1b22 693f
00000160: 7414 18ac 4b7f b3bf 4aea d244 98a1 6d3f
00000170: 3b70 f862 c639 b4bf e8d6 2138 381e a93f
00000180: 7b38 8abe ad00 b33f 0bd2 7d78 d2cd b43f
00000190: ebeb 8434 22f8 b93f f471 feb7 4d3c 51bf
000001a0: a430 510f bc16 803f 4d18 ce54 ce2e a7bf
000001b0: e86d 2b36 cb54 b23f c08a 93e9 ba85 b33f
000001c0: bad9 a866 3429 6a3f 7951 9649 f434 c43f
000001d0: 1e23 40c0 8902 ca3f 1e28 ddac c302 c23f
000001e0: a2a6 1c07 a747 c23f e7ff f96e fc39 b1bf
000001f0: b0a4 cd97 8b7a a3bf 61a2 aab9 f841 ad3f
00000200: 9d5b 6d75 428f a83f da61 0895 273e b0bf
00000210: 2488 341e cec9 b93f 622a 0d47 2540 a43f
00000220: 8627 e959 8ab1 b23f 8fbf 34d3 cc5f a43f
00000230: 7740 3c6d ef63 a53f 95a8 2534 1dce aa3f
00000240: fb5a ebba 1ff0 c5bf 15e7 1b69 0f14 85bf
00000250: 120a b499 fc90 b2bf 3811 aa6b 55c5 b73f
00000260: 154a 38e4 c689 ba3f 05cc 8196 0a80 a63f
00000270: ca50 910b 9ea9 aa3f cbbd 4c57 1ddf ae3f
00000280: c066 743f 9ee9 ca3f c066 98df 331b b5bf
00000290: efa5 5d24 97ac b83f d953 9911 bc27 b13f
000002a0: 13cb d6ce ce29 bdbf 8eda c359 def0 abbf
000002b0: 94a1 9caf 5cc9 b2bf 39c4 be87 98fa ae3f
000002c0: 980c 4198 2a73 b53f 233c e785 2ab7 8d3f
000002d0: 0937 a086 67d4 bb3f a2fd 3a1f f20d 9ebf
000002e0: 0390 f5c8 8211 b3bf c34b 8d20 77cf b4bf
000002f0: fa0b 1f19 1564 9b3f c84b 5d4f e1da c13f
00000300: a334 d9bd 43c0 c03f 4848 2ee9 9452 b6bf
00000310: aa97 9142 95d9 c0bf 8762 6de2 9f12 a63f
00000320: 613a 2f24 e44b c33f 529c ed92 255a b0bf
00000330: 6ecf fd26 e79b a53f bcc9 7c7d ceb4 51bf
00000340: a6bd 7fbc 5dbe c23f 17ab f1d6 4ae2 82bf
00000350: 2691 3515 2333 98bf 03c5 86f8 bb47 a03f
00000360: c1a8 226b 8e6e b8bf b3cf 2702 cb61 aabf
00000370: e352 d945 c84b 973f 12d2 fee9 a616 b93f
00000380: d24a 9ac2 903f b6bf 0586 faba 3645 b6bf
00000390: f876 da6e 9cc3 863f d8b0 3a23 43e3 b3bf
000003a0: 4bf8 5d8d 8d82 d13f cdeb e3c8 15d6 acbf
000003b0: f132 3bd2 353a cbbf 7118 7a91 e4a7 a5bf
000003c0: 36b4 8208 73e9 bfbf 1c99 1ae3 3e02 b1bf
000003d0: 45f8 b146 1413 b43f 3fc2 6798 b837 b13f
000003e0: 01cc 8299 9ac3 cbbf 9479 7ffa 582f a8bf
000003f0: eaf7 5728 5643 b8bf 846b ff91 89b1 5cbf

7.bias f8 [1]
0.05649258615136678
00000000: 6221 f9a3 98ec ac3f
