models/run2/26.pt (torch, 153942 bytes, 6 tensors)

0.weight f8 [32, 1, 9]
0.03603029131206124 0.14453925292464362 -0.1260676900262979 0.2084766506582813 0.11811521477639358 0.26157867633238824 0.2611578688091518 0.2818432296556164
0.2816340756316548 0.11408311757021283 0.3035015474987565 -0.006823626629605174 -0.43018412386043275 0.3045404302890546 0.21927210976188347 0.31085648324703136
-0.36712346810153873 -0.22456612637866638 -0.2210616291874824 0.08908613979058659 0.24164394554327037 -0.32097849530901473 0.004832773206008903 0.3067948817371304
-0.07619967016044081 0.16930227174476448 -0.24329007293772137 -0.020018660979913568 0.1565946359710165 -0.13648469910369657 0.1335101643342344 0.07422203941184757
0.3220593545946001 -0.1317199909456952 -0.15843448271425453 -0.2545628742630712 -0.25412130598021004 0.17622480225590467 -0.272766631655227 0.2882461195298886
0.013005634459282302 -0.3205448760580663 0.17738791231190823 -0.04493329419955028 0.17521595568941697 -0.09099685401068884 0.26609685634078656 0.23244576870674144
0.0035873922892713413 0.2644717557787695 -0.050762819226654474 -0.3048853890443564 -0.006920425294083921 0.08355011957968089 0.284091882260581 0.2758263156781497
0.2733902542233062 -0.06923405952259737 -0.34617482147839346 -0.02486174745997364 0.31718077751697454 -0.04858795128297447 -0.09337261142225624 0.03135307373337319
-0.1398534139702428 -0.0392841485313412 0.23814576157219022 -0.16630860905496342 -0.33655784804183886 0.2570837571529716 0.10550298485781665 -0.1503184017878283
0.1837546823345359 0.22307933726366974 -0.13376765169722 0.26180474884979554 -0.28921452463760733 0.2145044597866084 -0.18792113116139314 -0.12661096407883904
0.26879611117975555 -0.2828495192911117 -0.18525196237819175 -0.0160088637960707 0.21972576707782865 -0.30233428858958283 -0.25902014034700654 0.1971758442880988
0.023923194018653688 0.17771257800402745 0.18330479105435343 -0.04222814217198403 -0.11779993847535306 -0.05710629182928578 0.2501799296569934 -0.24357853050678804
0.1554293705217877 0.2233115092559251 0.285001515884189 0.04051692183705157 -0.09140185715489822 -0.15955089290460284 0.147954678375004 0.19020508412488404
-0.16281587396721345 0.24653628164923216 0.26598742171117734 -0.3386119834401669 -0.2755831536891669 0.2756976307281139 0.2762784207880231 -0.09117295289437755
-0.12367562074181644 -0.0011807077513830313 0.30585287513016585 -0.07330523686598897 0.21091188545289757 0.06017759074509832 -0.3372528838074048 -0.14263638918977492
0.22415870848078037 -0.03391571953241366 0.1498086206148819 -0.3533823044461032 0.1149515505159875 0.2965295762357261 0.12993579424721718 0.20116003673857644
0.32233908373394904 -0.22578032407289497 0.16209889016126192 0.08731825992727114 0.29556547195663035 0.29516692046410403 0.29502713589746693 -0.26753074896066475
0.2901134007992377 0.021088931108224723 -0.055992012620363726 0.2914713769328066 0.27104979170570126 0.1651679370041599 -0.16769528212501017 0.09096229567180006
0.04836725001224295 -0.11477207945036787 -0.2704065081624765 -0.21976035939994543 -0.12052190350646719 0.15001872913672637 0.13400993392946792 -0.20412217121304405
-0.14567017789019904 -0.10088788727858279 -0.006348300975726541 -0.20094765248245697 0.2144228195259107 0.14476784576832208 0.07027285553472125 0.11061137248512384
0.09666548051948066 0.20807170664943517 0.246353268060765 -0.24215357258844555 -0.10138084092776752 -0.34971813202159635 -0.17416328889814894 0.257540938537128
-0.2638346309198596 -0.2134417113140638 0.30557678246897224 0.04837369928854894 -0.14664904081321137 0.2518612052229524 -0.3279463542022329 -0.25608483272539045
0.1350742331690181 0.24642811088888272 -0.12303506895264225 -0.05681213746210076 -0.44195540532484384 -0.19017114101598181 -0.26155342295728884 0.15443176254015564
0.2462240771612414 0.011688493347111719 0.20165626525339708 -0.2524063368075857 0.11815267044805366 0.05245843843297879 0.19218972813343166 -0.3734492846412823
-0.0038494988831497623 -0.0018367578295498052 0.3205895817669293 -0.2196717594765096 0.24213417813666172 0.24115753100638398 0.18906563382951697 -0.13830637785699149
0.030015779356455597 -0.24188170287317162 -0.28503369714433047 -0.2824001570596499 -0.13039793248691545 -0.13172793592034174 0.31367840549911336 0.12075696284401141
-0.02897480654319967 0.22693962369633677 0.23580265945099188 0.0642456770149513 0.13344311202626716 0.11302757822733818 -0.206738619987355 -0.3395254429511907
0.14455668211498665 -0.21657457454956802 -0.1284908399266719 -0.08532820831130271 0.12359717105572172 0.3184694176148481 -0.2504801180842808 0.21791209108291953
0.2780289304812544 -0.11827433073944114 0.2632984565733888 0.23441800638458407 0.30814978338270793 0.09646713848235153 0.2807225210014972 0.1917788073748255
-0.33082542538695 -0.060228007314187634 -0.25504429607397255 -0.014987480199543723 0.17182566220459528 -0.21195109383495495 0.17184235229868774 0.06247943976779237
-0.2365783721024362 0.0757381630765158 -0.2671494157840942 0.2053786157703563 -0.24927623594521162 0.025050797405976998 0.13763986815425666 -0.1145721435769499
-0.26068214249713656 0.2767390111047885 0.1161150196611069 -0.3344455918351123 0.30853045983846766 0.29785720686109535 0.0055912442815228966 -0.3170973381265199
00000000: 2d89 b3f5 8f72 a23f d759 2622 4380 c23f
00000010: 3363 df6e fc22 c0bf a649 47e6 5caf ca3f
00000020: 84e7 9f78 cc3c be3f cd6d 0b7d b4bd d03f
00000030: 2437 687e cfb6 d03f ad12 7e2f b809 d23f
00000040: cbbc 11ee 4a06 d23f b062 fd1a 8d34 bd3f
00000050: 23b9 32c1 916c d33f 41a5 6d53 17f3 7bbf
00000060: 514b cffd 2288 dbbf 33ae 1925 977d d33f
00000070: 4715 2dc6 1b11 cc3f a5ea 5297 12e5 d33f
00000080: f8c5 456e f37e d7bf adfa 4a34 95be ccbf
00000090: 245f e159 bf4b ccbf 9b6d ed68 59ce b63f
000000a0: 873f b155 30ee ce3f 9593 0463 e98a d4bf
000000b0: d093 e6ad 87cb 733f cf08 e9ff 86a2 d33f
000000c0: bf19 4e53 d281 b3bf 5e21 2464 b2ab c53f
000000d0: 76bf 5a0d 2124 cfbf c2ae df98 c57f 94bf
000000e0: c3bd 1c04 4b0b c43f f102 87a3 5478 c1bf
000000f0: 3ee3 bf6e dc16 c13f 3093 ea2f 3700 b33f
00000100: feb2 d6d6 9e9c d43f b0ab ab5e 33dc c0bf
00000110: d07f e8c4 9447 c4bf e814 ef14 c24a d0bf
00000120: 47b7 9902 8643 d0bf 5d72 37c9 888e c63f
00000130: c78d 992c 0275 d1bf 171b 25da 9f72 d23f
00000140: 54ae 54b5 b2a2 8a3f 1577 e4a7 ce83 d4bf
00000150: 21ed 0aa9 a5b4 c63f f05e 2d2a 7f01 a7bf
00000160: fd32 b6f7 796d c63f 9bc9 03e0 914b b7bf
00000170: 6b55 e31b bb07 d13f 4a32 586f c8c0 cd3f
00000180: 6854 ee91 4e63 6d3f dd45 72f1 1aed d03f
00000190: 9ecb dc90 95fd a9bf e151 be01 3e83 d3bf
000001a0: b401 0085 9758 7cbf 34ef 2b67 8a63 b53f
000001b0: de91 d7b7 8f2e d23f 4faf 4d6b 23a7 d13f
000001c0: 5cca 3bd6 397f d13f 443b 6bc5 52b9 b1bf
000001d0: 93b1 3c70 ba27 d6bf 2a49 0ca1 5b75 99bf
000001e0: 8bbc 969a b04c d43f 74e3 7a1b 85e0 a8bf
000001f0: b594 6678 44e7 b7bf 66b9 a094 820d a03f
00000200: ea39 9e77 b7e6 c1bf 6efa 624a 0d1d a4bf
00000210: d718 d170 8f7b ce3f b697 77ba 9949 c5bf
00000220: 4651 a3ed 298a d5bf 2882 536e 0f74 d03f
00000230: a23e 985d 3e02 bb3f 0036 d525 a23d c3bf
00000240: be8d 8eff 4585 c73f 02fc fa1c dd8d cc3f
00000250: 12b1 a664 4c1f c1bf d6d4 8fb4 68c1 d03f
00000260: 7e30 36a3 7d82 d2bf b997 d0d3 e174 cb3f
00000270: a262 48b4 cc0d c8bf 764e 04bf c934 c0bf
00000280: 26c7 b39a f433 d13f 7adb c2de 341a d2bf
00000290: 6c92 f717 56b6 c7bf 420c cda9 a064 90bf
000002a0: 6c09 d853 f91f cc3f 65e8 7cea 7159 d3bf
000002b0: 21ed f235 c993 d0bf 46a8 63dd 0e3d c93f
000002c0: 3534 b45f 527f 983f 22bd 4e27 49bf c63f
000002d0: e6a7 6309 8876 c73f f3f2 3253 ed9e a5bf
000002e0: b6f2 3803 2328 bebf 48f0 9a2f 093d adbf
000002f0: f282 ffad f202 d03f fd66 44cf 942d cfbf
00000300: 0f4e 9d0f 1ce5 c33f 7b8c 89b6 7895 cc3f
00000310: f01c 82ff 763d d23f 1f0f 734c a2be a43f
00000320: af21 46b3 1c66 b7bf ba53 89e5 296c c4bf
00000330: 6d96 74cc 2df0 c23f 0db6 ece3 a358 c83f
00000340: 41bb fa8a 26d7 c4bf adfe 7a39 808e cf3f
00000350: 4566 591b f005 d13f 8130 ba98 d1ab d5bf
00000360: d91a 1b86 27a3 d1bf b9f6 e3ac 07a5 d13f
00000370: 6801 78af 8bae d13f a80a f652 1c57 b7bf
00000380: b50a 669a 34a9 bfbf 4ea8 694b 3f58 53bf
00000390: a795 04f0 1793 d33f 5e07 f7ca 21c4 b2bf
000003a0: 72cf 2d21 29ff ca3f e08f 67e0 98cf ae3f
000003b0: b6ce 9b1e 8d95 d5bf fb11 65c1 e841 c2bf
000003c0: 31ef 0489 3bb1 cc3f 8d8e 6cb4 665d a1bf
000003d0: b192 19cb ed2c c33f 3631 25d0 d09d d6bf
000003e0: 6135 17fe 766d bd3f edaa 0e30 57fa d23f
000003f0: 0690 6f71 bca1 c03f c1f4 86b1 9cbf c93f
00000400: e008 b71b 34a1 d43f 3d97 fca1 5ee6 ccbf
00000410: 31f2 fa0b a8bf c43f a733 bb4e 7d5a b63f
00000420: a55a f870 8bea d23f 6f47 90cb 03e4 d23f
00000430: c32d 077f b9e1 d23f de77 5d4a 391f d1bf
00000440: a919 24cc 3791 d23f bb70 ab35 5698 953f
00000450: 4657 152e fcaa acbf 2560 e98f 77a7 d23f
00000460: 9bab bd39 e158 d13f 81ec e313 3924 c53f
00000470: 10d0 35fc 0977 c5bf ba57 1415 4e49 b73f
00000480: 1f05 009a 97c3 a83f dbb5 bbf7 b361 bdbf
00000490: b9bc 4b19 574e d1bf 843c 4a82 1b21 ccbf
000004a0: c80e 0302 86da bebf 2201 b74f d033 c33f
000004b0: c478 c8cd 3c27 c13f 0ed0 dfe0 ac20 cabf
000004c0: 723c 0505 52a5 c2bf 618e 6ce0 c9d3 b9bf
000004d0: ceed 3611 ad00 7abf 4960 cf15 a7b8 c9bf
000004e0: 74a0 b0fa 3472 cb3f 262d 8bb5 c087 c23f
000004f0: f572 51e0 66fd b13f eea7 63e3 0651 bc3f
00000500: 31b9 7ba5 11bf b83f 1b20 a4fb 17a2 ca3f
00000510: e9b6 cafe 8088 cf3f 6e3f 7065 e3fe cebf
00000520: 15ca 3944 18f4 b9bf 3d76 f628 c861 d6bf
00000530: dd9c fd8e fb4a c6bf a67a 19fd 8c7b d03f
00000540: 0098 d6a5 aae2 d0bf 561c d9d8 0e52 cbbf
00000550: cac0 c7eb 918e d33f 2e99 dc00 70c4 a83f
00000560: 5b29 2451 65c5 c2bf 1214 e475 7e1e d03f
00000570: 8306 89b4 12fd d4bf e1a8 63a3 b163 d0bf
00000580: 8b21 ffca 1c4a c13f 9c99 8ad2 f48a cf3f
00000590: efa6 69ed 397f bfbf ccc6 d400 7b16 adbf
000005a0: bd47 0a53 ff48 dcbf 2e40 a727 8757 c8bf
000005b0: cf89 7091 4abd d0bf ef6b c984 6bc4 c33f
000005c0: 9899 7243 4584 cf3f 6ea7 5205 23f0 873f
000005d0: e8fe 255c dfcf c93f 4b12 79e8 6c27 d0bf
000005e0: b86b 82df 403f be3f 2c10 f01a d5db aa3f
000005f0: 7ee8 7a4a ac99 c83f 05ee 0fd4 97e6 d7bf
00000600: d248 e4f9 fb88 6fbf 60e9 bfb3 eb17 5ebf
00000610: 5825 482a 8a84 d43f af37 6747 341e ccbf
00000620: 589f 2bb4 40fe ce3f 9ea2 6dfe 3fde ce3f
00000630: 5a32 0c7d 4d33 c83f efab dcfc 05b4 c1bf
00000640: 1dba ccda 74bc 9e3f e6a7 abc9 faf5 cebf
00000650: 268b dff9 fd3d d2bf a336 bd1b d812 d2bf
00000660: 1ca8 bf23 e1b0 c0bf 7dac 5f04 76dc c0bf
00000670: a920 4597 4e13 d43f aae7 2da6 ede9 be3f
00000680: 903b 0b5a 92ab 9dbf b79d f88a 5b0c cd3f
00000690: 586f 5313 c82e ce3f bf47 b099 6772 b03f
000006a0: 81bf 03f5 a914 c13f dd51 0818 60ef bc3f
000006b0: f43a d53d 6976 cabf 64a8 68ec c8ba d5bf
000006c0: c912 0d57 d580 c23f f2f1 6a35 b7b8 cbbf
000006d0: 4d0a a949 6372 c0bf ef91 1fc8 11d8 b5bf
000006e0: 3dfc 8f6f 10a4 bf3f e3a4 5b8d cd61 d43f
000006f0: d317 dec2 dd07 d0bf 9053 4d1c 8be4 cb3f
00000700: eb90 f0da 39cb d13f 9f70 7bfe 3947 bebf
00000710: 927a 04c5 e1d9 d03f 9bf5 81c3 6801 ce3f
00000720: 5a7c 79de b9b8 d33f 869f eb04 12b2 b83f
00000730: 44ef bc97 5bf7 d13f 32d1 de3c 358c c83f
00000740: 2739 ae67 3e2c d5bf 5e74 6f93 34d6 aebf
00000750: c5d1 aa4f a552 d0bf e6af 738a c1b1 8ebf
00000760: c021 e41f 62fe c53f 01b0 2fa4 3621 cbbf
00000770: bd64 9821 eefe c53f 623c f31c 4efd af3f
00000780: 1279 8f39 3348 cebf 2706 7985 9363 b33f
00000790: 510b fcdc f918 d1bf e705 04b3 d849 ca3f
000007a0: 37ff 86a0 48e8 cfbf f3ba 638e eaa6 993f
000007b0: 9494 2ce6 2e9e c13f e913 b299 9954 bdbf
000007c0: 5b4a 2b27 04af d0bf 943c 8e8a 17b6 d13f
000007d0: 6ed3 04c4 b6b9 bd3f 7348 ce7b 8e67 d5bf
000007e0: 2bde b48a f6be d33f f729 96ac 1710 d33f
000007f0: ef53 5435 d8e6 763f 4dbb 39a2 524b d4bf

0.bias f8 [32]
-0.10220580422741468 0.0005305647315664005 0.24695269360919858 -0.13062011804682888 0.30890537358529424 0.10196818026095494 0.0005625395291914052 -2.044919059814662e-06
0.002243999319399712 0.3311072189183127 0.29367942022954363 8.753237109421841e-05 0.001996573770990568 0.10947992876912528 0.28925121977654755 0.2822318267837898
0.261730057961844 -0.01880928851245985 0.327082837942232 0.32148031817214956 0.05638459284546015 -0.080669670507753 0.18989060434354432 0.26460389146459284
0.002660245438510231 -0.08883052995408561 0.31422749400630645 0.00036644296635875156 0.154057597240838 0.05824761468715474 0.0024921480660637036 0.2112524348393128
00000000: 6a3d 9eda 282a babf f392 d215 b362 413f
00000010: 78f5 5a57 259c cf3f 26fb 9af7 28b8 c0bf
00000020: 4ce1 460b 1bc5 d33f 4414 742f 961a ba3f
00000030: b2fc b670 ec6e 423f ea45 5e24 6e27 c1be
00000040: 61d8 0cf6 0162 623f 8950 2e55 dc30 d53f
00000050: 7039 59c4 a4cb d23f cbb1 4caf 32f2 163f
00000060: a855 9d61 1e5b 603f d1bd a169 e006 bc3f
00000070: 242d 518c 1783 d23f 484f 7b14 1610 d23f
00000080: 2ce2 d46d 2fc0 d03f 9592 16fc bd42 93bf
00000090: 41dd 02db ecee d43f 05da 362f 2293 d43f
000000a0: 6fff 89fc 70de ac3f 1222 9c7c c4a6 b4bf
000000b0: c491 bcd7 554e c83f 4e06 0f29 45ef d03f
000000c0: 7a29 0c65 f0ca 653f 7a05 0afd 98bd b6bf
000000d0: 3ab6 90a2 4d1c d43f 019d 6d8e e403 383f
000000e0: 40c4 ecca 28b8 c33f 4a7c 4da0 a1d2 ad3f
000000f0: 32d9 18ce 696a 643f 79e8 6add 510a cb3f

3.weight f8 [64, 32, 9]
0.09609324513807886 -0.16067433629712943 -0.12286991899316828 0.023647936025184987 0.008487306714999929 0.08180456817594141 0.025623872777679017 0.030200393594786303
-0.09642586957617637 0.04948930922643479 0.006014320150478005 -0.10833403241785605 -0.08775524092201767 0.03192427834387215 -0.03975303756165916 0.013721547099916284
-0.03951112839392321 -0.09024609613547999 0.04535262739804033 0.00802665872671348 0.03210287925374222 0.022069590075347572 -0.03835167208991584 0.010762552564547605
-0.012060508210854333 0.02051924563889921 0.066383771212585 0.07270418247832924 -0.1297624594683505 -0.07003543138256808 -0.04831642293971287 0.013949066846957748
0.018683649345086928 0.009777622654048537 -0.025018542535707268 -0.008661588260281024 -0.00843823851528992 0.04045851244112922 -0.039633319723024564 -0.03203927950763072
0.008637407132370746 0.03802465805207973 -0.04040039060692911 0.055132110081644696 0.013654063765146685 0.06802350248188929 -0.0317883756153052 -0.053171662490792
-0.031058385809913925 -0.025642711902196517 0.028265590467636603 0.012542894911875914 -0.025579235929094328 -0.003481782532847368 0.009191842257323763 0.07106701088629908
-0.13742182988329457 -0.05680711002634771 -0.0037755974696931467 0.006370148002300676 0.0019738683111691735 -0.0008793602237942273 -0.09115173000537515 0.11429845875923315
-0.09238539268673043 0.009966837215161253 -0.08834826947635221 0.06234858222996406 0.01878225841634057 -0.034368115955167575 -0.017668505806965634 -0.010122250525347088
0.046275569392420994 0.0229879664636591 -0.14736863282227639 -0.10090735653357949 -0.06916304040774655 -0.05725937231273468 0.05486352972127306 -0.05478647788538672
-0.09613541367409659 0.0902332921088578 -0.06947746081246264 0.06135874420384184 -0.03569778725840531 -0.0374161245064018 0.05478074445243166 -0.03207791159681234
0.057811155224230415 -0.042744714480702245 0.07510590821534747 0.007719328274619405 0.006714974706240116 -0.0030351356301295688 -0.03857278459623156 0.0008401350132290149
-0.0017317242000307541 -0.046985858948082514 -0.031450508504659726 0.10676015411228176 -0.04046038251064182 0.00609416603819824 -0.021045693052027654 0.044043259616950464
-0.003088519347278351 -0.001696051299137556 -0.05285639943599472 0.007127133972990335 0.06598051953777075 0.06928646495371096 -0.14127132840925186 -0.10361230677836086
-0.024675506813838753 0.04205623589313437 -0.014269739759682244 -0.05693034448632014 0.06364118655638643 0.10217334234741496 -0.02207446756215616 -0.01693925258267554
0.07084372786790005 -0.005938903585059871 -0.02886562708411494 0.06325612887188256 0.041644189539910614 -0.05080529428946194 0.08587399287008529 0.02117664760469868
0.017900956022343376 0.03671763721400101 -0.01011557913834811 0.04062181745579338 0.04193713996129717 0.055545172562057675 -0.08037165113815872 0.02216301301680855
0.0684545928166596 -0.010788608019860856 0.020348804668614124 0.02673181380522171 -0.00821839471259233 -0.05468256818277986 0.039429438603195574 0.02819957921510239
0.09339576643352641 0.0018300651313666273 0.03783342893112812 -0.01834748339241776 0.0021107365602165066 -0.025318075077349605 -0.031339988695241495 0.007163213768294338
0.03493881642185641 0.15637162034929875 -0.10306970642956036 -0.06778077135165807 -0.015668528536558583 -0.08806944500885375 0.010573788818926774 0.020930760671337034
-0.06003949811758723 0.052662620793399825 0.07955862967933433 0.013340285252845176 0.044444844928145814 0.04498403704498161 -0.011260777224615505 -0.020543573037411802
-0.027584922203493456 -0.02097314565341927 -0.08016639306124455 0.0648871876790578 0.03241753500408687 -0.007808761556640419 -0.04445128841760221 0.06186863342475686
0.02324292179487208 -0.007293273781585679 -0.003625829251424948 0.06463659119165097 0.11818582926636678 -0.1021993234308449 0.017906459709846317 -0.01380389966912514
-0.011639160639871117 -0.016667469883224876 -0.03989987773199884 0.014253457070223857 0.03174454101186725 0.05432938398750811 -0.06949977988199386 -0.1224064733999883
-0.10630495817146655 -0.026964601921373652 -0.030190914013442347 -0.02800501847614346 -0.02833288634425806 0.015081943953422031 -0.005751150231771651 0.11152002516001197
-0.04317281018800405 0.07945432609889246 0.020940497834200985 0.01054726767347915 0.0556470624708899 0.04045848631800944 -0.07473851116733549 0.037935404267898085
0.06088974154702147 -0.02745142475640349 0.04738061360098648 0.04520601502030293 0.06408848212569297 -0.022000997338057375 -0.035587888189816695 0.03476945338740793
0.1194309479373198 0.09218281115887399 -0.1354954639501535 -0.10653752363665062 -0.01898107590399205 0.03781870989103105 -0.027459158243613294 0.008233054985487003
-0.08833309287382222 0.09852672276390467 0.003668082223539316 -0.03967941599014555 -0.06492811317541312 0.05162801860752303 0.013015049859675824 0.07582601382448717
-0.020927917122038966 -0.00704588084446612 0.06036944754134879 0.046193567123697814 0.0010782866390684042 0.05613674196160842 0.009023288726904687 0.022794715469317658
0.02803374631341798 0.054146761927706 0.06939381205810567 0.06784943223243059 0.09248619232607969 -0.09670531658348916 -0.04139384726501577 -0.012451382974609047
0.04423648209470079 0.06485676132101964 -0.023657194913115378 -0.058110456741620006 0.027211821897013655 0.07594940377036974 -0.03169023277238848 -0.006422424179006021
00000000: 1b0c 3c21 9199 b83f 4ff1 d905 fa90 c4bf
00000010: 3be2 bc2b 6774 bfbf 1c60 621f 2a37 983f
00000020: 6526 2d06 cb61 813f 61a4 fae8 24f1 b43f
00000030: 0ed8 4efe 243d 9a3f 7a84 431b daec 9e3f
00000040: ff6a 51a4 5daf b8bf 5f22 42a9 a956 a93f
00000050: 9ce3 a9c5 78a2 783f 7c4b 4776 c7bb bbbf
00000060: ee0a d0a1 2077 b6bf d4e3 de06 6158 a03f
00000070: b1eb 7c98 825a a4bf d878 5be0 0a1a 8c3f
00000080: 8d56 8f78 cd3a a4bf da59 7e3f 5e1a b7bf
00000090: ecac eca6 7538 a73f 7cb0 d1e5 4770 803f
000000a0: 3028 01e1 c96f a03f bb60 701e 6999 963f
000000b0: 8e07 bf92 d4a2 a3bf fc29 4a5a ad0a 863f
000000c0: 31c7 b502 2eb3 88bf 8aa5 d443 ff02 953f
000000d0: e1db 57de 86fe b03f 02df 06c6 bd9c b23f
000000e0: b321 d567 0e9c c0bf 1971 598f d7ed b1bf
000000f0: c583 c520 eebc a8bf 87d6 560f 5491 8c3f
00000100: a0d9 a07b ce21 933f 280f 414c 4a06 843f
00000110: 0a13 f0f7 759e 99bf 247f 79b2 2abd 81bf
00000120: 8711 ac33 1148 81bf 4415 8f67 fab6 a43f
00000130: a5a8 1588 d14a a4bf 1c69 58d3 7367 a0bf
00000140: 1404 3f29 7db0 813f 9aef 8ccd f777 a33f
00000150: 8e05 ce28 5caf a4bf 8730 85a3 463a ac3f
00000160: cd63 a16a a9f6 8b3f 0ae3 84fe fc69 b13f
00000170: 3c47 52e3 9046 a0bf 149d f1ee 5039 abbf
00000180: 5dd0 47fd c4cd 9fbf 4eb3 0044 1542 9abf
00000190: d07b a4aa a7f1 9c3f d4a3 8cdb 16b0 893f
000001a0: cea8 1677 7131 9abf 0419 88c3 d385 6cbf
000001b0: d7e1 142f 2cd3 823f f8c4 9497 7231 b23f
000001c0: 0978 8ddc 0997 c1bf caa3 7c4f d215 adbf
000001d0: 1656 f774 00ee 6ebf 3cf0 7295 9517 7a3f
000001e0: d787 fa7a 802b 603f f260 88b3 9bd0 4cbf
000001f0: f9ce 5843 b855 b7bf 07a7 5aee a942 bd3f
00000200: 42b6 37b0 91a6 b7bf 4ec3 113f 7e69 843f
00000210: 0023 0f00 fe9d b6bf 1c63 4243 27ec af3f
00000220: f0a3 9206 a83b 933f d6eb 1a9c b298 a1bf
00000230: f8be 705a b117 92bf fa0b bf77 f9ba 84bf
00000240: 17d8 4972 6eb1 a73f 25df a650 288a 973f
00000250: bbc5 36b1 f9dc c2bf 26cf 3c84 10d5 b9bf
00000260: 9fa8 a444 abb4 b1bf 8d03 f2b6 1951 adbf
00000270: 70bf ca93 1217 ac3f 32c0 8f25 f90c acbf
00000280: 9eb9 b799 549c b8bf 9232 9e6e 8719 b73f
00000290: 70a7 ff5d 46c9 b1bf f6b6 5bcf 696a af3f
000002a0: 2dfb a0f9 fa46 a2bf e734 32ce 3428 a3bf
000002b0: 3359 bfc3 380c ac3f 79ee 761a 846c a0bf
000002c0: c068 107a 6c99 ad3f 9cfe 8a9d a2e2 a5bf
000002d0: 9973 850b 243a b33f 7c06 c967 4d9e 7f3f
000002e0: 4bb9 1b4c 2981 7b3f e28c a608 24dd 68bf
000002f0: dc82 b6e0 cfbf a3bf c938 f933 9087 4b3f
00000300: e63b 82b3 605f 5cbf 63eb 1ccf 870e a8bf
00000310: c5ae f0f2 471a a0bf 8e9c 6d2a a254 bb3f
00000320: 476e 5527 39b7 a4bf 878b 493d 32f6 783f
00000330: 653c 858d 008d 95bf 04fd 538f d68c a63f
00000340: b332 de32 184d 69bf 9234 2d37 c1c9 5bbf
00000350: 7d7f ec75 fe0f abbf e052 4075 5731 7d3f
00000360: 017b 966d 19e4 b03f 7a19 08fd c1bc b13f
00000370: cdaa b0cb 2d15 c2bf 7880 130d 5686 babf
00000380: 9653 1c3b 8944 99bf b4fb 811b 6588 a53f
00000390: 74dd b80c 7439 8dbf 2b01 705f f925 adbf
000003a0: 6235 f0ee c94a b03f 82b8 e73b 0828 ba3f
000003b0: 2538 0671 b09a 96bf 12f2 71ff 8558 91bf
000003c0: 38c1 5186 d022 b23f f038 c04a 6453 78bf
000003d0: ef1e 3871 f38e 9dbf 66bb c6bc 8d31 b03f
000003e0: f8e0 4820 6352 a53f a6b0 dfca 2603 aabf
000003f0: 4c36 f486 d6fb b53f 52b9 9ac3 54af 953f
00000400: 517e bbd2 a054 923f 8082 0a76 a7cc a23f
00000410: a86a a20c 7ab7 84bf ec13 f402 62cc a43f
00000420: 493b 3ee9 c878 a53f 1b9d 35b7 6a70 ac3f
00000430: 32f6 298d 3c93 b4bf 9c20 5aa0 e6b1 963f
00000440: b396 687d 3d86 b13f d9d5 ea74 5618 86bf
00000450: 65ef 412a 51d6 943f 7e89 39a8 955f 9b3f
00000460: 3c2f 2144 ced4 80bf a43d 0384 5aff abbf
00000470: 6ec9 996a 1830 a43f fa94 f5b9 59e0 9c3f
00000480: b7b6 6af2 c8e8 b73f ec99 e178 d9fb 5d3f
00000490: 18d3 e837 e75e a33f bf8f 89c4 aec9 92bf
000004a0: af28 e40f 894a 613f 7bce d141 fbec 99bf
000004b0: a592 0185 cb0b a0bf 96c1 e78d 2c57 7d3f
000004c0: d61f c923 80e3 a13f 341d b639 fc03 c43f
000004d0: a7c2 52ba c662 babf 41c6 40a4 145a b1bf
000004e0: 4e58 9026 690b 90bf 8203 171a b88b b6bf
000004f0: 7876 60e9 b5a7 853f a053 4192 df6e 953f
00000500: ae3e c441 7fbd aebf a600 0f54 98f6 aa3f
00000510: 565a 9650 f45d b43f d4d0 0ac7 2652 8b3f
00000520: 1f65 e286 79c1 a63f f986 e6cf 2508 a73f
00000530: 4714 42ef e30f 87bf 97cc 5ad9 5f09 95bf
00000540: 5026 e8ca 383f 9cbf 8ae5 b3fa fb79 95bf
00000550: 1bb3 6fe4 c885 b4bf c2ce 025d 729c b03f
00000560: 74a8 51f9 0799 a03f d8e6 2078 14fc 7fbf
00000570: 788e 09bc 51c2 a6bf 1a43 6ada 3ead af3f
00000580: dfcc e313 fecc 973f 4684 f645 8ddf 7dbf
00000590: e1b4 c841 eab3 6dbf 2606 4b0d 068c b03f
000005a0: 28b8 8c2f 6d41 be3f de0d cf1f bc29 babf
000005b0: 2b1d 5d2b 1256 923f d9d9 160d 3845 8cbf
000005c0: 74ba 68b2 45d6 87bf 21d9 38f8 4611 91bf
000005d0: ca58 f2bb c16d a4bf c3bc c59f ea30 8d3f
000005e0: 99eb f10a d240 a03f 4458 e09e 0fd1 ab3f
000005f0: f11f acd1 bcca b1bf 3d57 12d8 0756 bfbf
00000600: cfc4 bf3e cd36 bbbf 099b 9bcd 9b9c 9bbf
00000610: 69dc 4bf1 5dea 9ebf e367 eaf9 58ad 9cbf
00000620: cede ffd0 4b03 9dbf 1507 5240 48e3 8e3f
00000630: 8db6 8ea2 848e 77bf 244e e98c 938c bc3f
00000640: 06f4 aa1f bf1a a6bf 9fd6 1e64 1e57 b43f
00000650: 0f7d 7005 6d71 953f ca0c c24d ce99 853f
00000660: 4fa4 dc92 c57d ac3f 34bc 2987 f9b6 a43f
00000670: dc26 3725 1022 b3bf dedf 61f1 446c a33f
00000680: 7673 36b1 f02c af3f febb 3aee 391c 9cbf
00000690: 85e4 c293 4542 a83f aa7a 3028 3e25 a73f
000006a0: b9b6 c74e 1a68 b03f 9e73 2ff0 6d87 96bf
000006b0: 2b64 d15f 9338 a2bf c6bd 6542 4dcd a13f
000006c0: a964 85cf 0693 be3f db42 2eef 4a99 b73f
000006d0: 7e0c 3655 ea57 c1bf 32f5 d00b 0b46 bbbf
000006e0: 6d8d 0071 c66f 93bf 0b5a 5154 f95c a33f
000006f0: 142d 87ea 401e 9cbf 094c 45ef 7ddc 803f
00000700: 532f 0c61 ff9c b6bf 5493 0d1c 0c39 b93f
00000710: 0270 0da6 860c 6e3f 4d0d 0144 dc50 a4bf
00000720: 3fec adfa 209f b0bf b803 f4d6 fc6e aa3f
00000730: 3c62 066c a2a7 8a3f 68ed 8f69 5569 b33f
00000740: d441 73be 206e 95bf 89a2 c63c 24dc 7cbf
00000750: a440 bc85 bee8 ae3f efe9 29e8 aea6 a73f
00000760: 33cc 6e76 a9aa 513f ac7f a87d f4bd ac3f
00000770: 2c18 e04f cd7a 823f df70 d975 7f57 973f
00000780: 0fe7 66de e0b4 9c3f f6dc 53d7 1fb9 ab3f
00000790: ef96 55f9 cac3 b13f a28e 7d94 945e b13f
000007a0: 8840 5fd3 2cad b73f 3a4e 13fc adc1 b8bf
000007b0: 8889 8408 9331 a5bf 52cc 5355 1c80 89bf
000007c0: 830e c607 2aa6 a63f 945a cce4 739a b03f
000007d0: 6722 de79 9739 98bf 2692 855e a7c0 adbf
000007e0: c0f1 7274 6add 9b3f 082d 588d 6b71 b33f
000007f0: a156 b8c2 b339 a0bf c83a f55c 664e 7abf

3.bias f8 [64]
0.028084058368440044 -0.03358271554359213 -0.024152287974187923 0.02264846698372372 -0.0032360792001166106 0.009065367602927293 0.03887698388129882 -0.021764848434853802
-0.031109598905519995 0.06031796704407111 -0.006272916474373047 0.06573122553692204 0.08202351758191515 0.0063582755627148956 0.12346096367909035 0.0212188973271416
0.07023123551192301 0.0790977220867079 0.0698661130462625 0.029728163815254727 0.011107278504387369 -0.02042121989634805 -0.0214731360630397 -0.10106715865231855
-0.10145034901088909 -0.014602297768061124 0.004020603920736169 0.0327195384975946 0.06857120271242721 0.03972665148087952 0.0004761470875249538 0.012862878352433224
0.046013910621987904 0.060120305974528276 0.03454406607984207 -0.028792592224754106 -0.03807877768591609 -0.023763840444955386 0.046712385023558047 0.025899745905662123
-0.00269403605294646 0.06468878608893701 -0.02416219871049527 0.032543752204433854 -0.02311301633725362 -0.023860684360725797 0.01946892965209044 0.019690056271094974
-0.0018717260327356107 -0.03698467532351531 0.042563301205505 0.0008903872678188432 0.03344152193371643 0.05440733990903662 0.03945297899321209 0.06458790972147875
0.052549329433708505 -0.04048139411442513 0.042928190601506266 0.010604066158617313 0.036476027428211245 -0.036451966466112276 -0.020927492343108152 -0.01435464092459158
00000000: 76f5 ec40 11c2 9c3f 5cf2 f0f1 c031 a1bf
00000010: 690e e49b 60bb 98bf c89e ffe3 2831 973f
00000020: 29d5 9dca 8c82 6abf f6db 0b0b dd90 823f
00000030: 45b2 ac1c afe7 a33f ba9d eb40 8649 96bf
00000040: 5c44 90d7 31db 9fbf 1088 a11f ffe1 ae3f
00000050: b340 ba31 a1b1 79bf 02d0 01f8 c2d3 b03f
00000060: a667 8445 7eff b43f bcf1 9c99 220b 7a3f
00000070: 1a97 5541 239b bf3f ee1b 4f18 68ba 953f
00000080: 206f ae9b acfa b13f 0cee 8c91 bf3f b43f
00000090: cce0 a1de bee2 b13f 9035 6d4d 0f71 9e3f
000000a0: a329 64af 69bf 863f 029f 65de 4ce9 94bf
000000b0: 6383 88c4 0dfd 95bf 8a81 1c8d 89df b9bf
000000c0: ee67 2b6b a6f8 b9bf 8dd8 e13a cfe7 8dbf
000000d0: c47f 98a5 e877 703f b423 9387 9dc0 a03f
000000e0: 1fe6 18e1 e18d b13f d2a9 c739 0d57 a43f
000000f0: ddee 432b 6c34 3f3f 2559 d94e da57 8a3f
00000100: 81a4 90a2 228f a73f b8e3 f8b7 16c8 ae3f
00000110: d1e5 2a84 c2af a13f 4fb8 e327 ce7b 9dbf
00000120: f552 aac1 0f7f a3bf 405e 2756 8c55 98bf
00000130: 651a fd8b afea a73f 9ee0 8e86 7685 9a3f
00000140: b898 bb97 cd11 66bf 2780 abbc 718f b03f
00000150: 984b 0bb5 f9bd 98bf c278 d01e 93a9 a03f
00000160: e625 1f45 f0aa 97bf 6e3e f56b ef6e 98bf
00000170: 3a4e 93c0 a9ef 933f db87 f64e a129 943f
00000180: 033f 4086 96aa 5ebf 4b73 efc5 a7ef a2bf
00000190: 50f8 5f65 dbca a53f 0363 1819 1c2d 4d3f
000001a0: 734b 1146 3f1f a13f a8b1 2463 47db ab3f
000001b0: bfe0 024d 2e33 a43f 2f83 f84f d588 b03f
000001c0: 6263 b0e6 bee7 aa3f 67c9 a22f fab9 a4bf
000001d0: 287b 6b0d affa a53f 82d8 d8aa 95b7 853f
000001e0: 05ca c861 fcac a23f 2295 b107 d5a9 a2bf
000001f0: 32c3 cd3c 046e 95bf f519 894a f765 8dbf

7.weight f8 [1, 128]
-0.07180464366270095 0.0378374001564886 0.020883275455658393 -0.020127638982743487 0.012484703757011837 -0.03329769460865192 0.0517071674698727 0.07844089030354359
-0.1503154004209025 -0.06034163805861958 -0.07505389740575419 0.053290338385502754 -0.10551565577502083 -0.038204770061287245 0.15457203357414648 -0.07864771659342522
0.17099793026892013 -0.04007522168932155 0.039705087929219736 0.005214626097192027 0.04409593199148763 -0.02315699590754152 -0.10429202093099045 0.18532181160181074
0.16043382764424388 -0.06413928131320185 0.11811727311834458 -0.022206344634744895 0.14617474101911582 -0.07582613237278404 -0.017289164330058976 0.07418597019016188
0.033767148950106046 0.03341381356172304 0.15625235207489266 -0.03335403711090393 0.10881330710787027 -0.030421219365713816 -0.0019977401527927954 0.07008037209198392
-0.1583435429955862 -0.041735661804922546 -0.09600353604679535 0.0030730949750234736 -0.0761611266280669 0.0037463919081937177 -0.07900657573958451 0.04918853295418531
0.07422910596707936 0.08136758522964904 0.1026185098208613 -0.001063740112366377 0.007855862824861788 -0.04527897629945752 0.07249223970171237 0.07631458021750072
0.0032325250453563072 0.1621894102694223 0.20433636105918576 0.14092599822266538 0.1445257242288812 -0.06727671661515887 -0.03841891933047575 0.05723215390368734
0.04925175599066502 -0.0634332688145591 0.1013183096934828 0.039544177360838956 0.07365768957379193 0.03983760729564359 0.041774050470617226 0.05237938871914068
-0.1731979968301192 -0.010294196228652804 -0.07363438570105343 0.09296139003507782 0.10384609552995498 0.04398723727913723 0.05236541125618353 0.060355820499932024
0.21236738602925911 -0.08242619078514488 0.09684150958485709 0.06702393213234473 -0.11635320187677027 -0.05456386512868751 -0.07478751785457058 0.06051846595791948
0.08422547338736393 0.014562385429846102 0.10964356247650223 -0.029361016998635164 -0.07594229069281194 -0.08125989603216757 0.02682693769053748 0.14332221686549554
0.13085617383464634 -0.08718242963156908 -0.1319489238195451 0.04313261937540214 0.15268655695765065 -0.06385194934815885 0.042205070028017086 -0.0010807053094593474
0.1469160791900311 -0.009200757052059378 -0.024155216117031038 0.031809949552091515 -0.09741850434320314 -0.05155464789717911 0.022898375468843216 0.10103174806289666
-0.08825321096717496 -0.08698055040123404 0.011115286000229471 -0.07768649683083895 0.27487317426534197 -0.05632736166311034 -0.21397957645649374 -0.04238544479430101
-0.12637660401141076 -0.06643205239758694 0.07841612554509066 0.06725648613770206 -0.21799651549409418 -0.04723645756562795 -0.0958822394026621 -0.0017550102046718918
00000000: b473 3b04 ca61 b2bf cdbe 7978 6c5f a33f
00000010: a42e 76e4 6c62 953f dcd0 b4fc 569c 94bf
00000020: c562 b192 9491 893f acb1 c03a 650c a1bf
00000030: d1f8 80a2 5c79 aa3f 0ed9 85c2 b314 b43f
00000040: 3b4b 72f8 883d c3bf 8f01 1964 19e5 aebf
00000050: a088 cb72 bb36 b3bf bbf4 1d09 df48 ab3f
00000060: 950b c5f2 1203 bbbf 97c9 ed5b 938f a3bf
00000070: cfe0 8932 04c9 c33f a380 acba 4122 b4bf
00000080: 5627 189b 42e3 c53f 5238 124d bd84 a4bf
00000090: 5917 48ac 3954 a43f 7ade c588 ee5b 753f
000000a0: 4e85 94f3 bd93 a63f 06d0 62b0 77b6 97bf
000000b0: c9e1 21c3 e1b2 babf 215a 0808 a0b8 c73f
000000c0: 79ba 737d 1889 c43f b40f a193 6e6b b0bf
000000d0: 3cd0 2201 ef3c be3f 7b36 e18f 42bd 96bf
000000e0: e6d4 169a dab5 c23f 8228 b966 5769 b3bf
000000f0: 38b8 7d2d 40b4 91bf 3ced c90b dafd b23f
00000100: b4f8 d680 ed49 a13f 63e8 f688 9d1b a13f
00000110: d1d8 0abb 1300 c43f 146c 29c5 c713 a1bf
00000120: 3edd 655b 30db bb3f 37e8 1e79 bd26 9fbf
00000130: 6ca9 e893 905d 60bf 4801 3a8a c9f0 b13f
00000140: b172 59e9 9944 c4bf c7e0 0e6d 605e a5bf
00000150: 5810 9f0f b093 b8bf b88b 494d bf2c 693f
00000160: 7414 18ac 4b7f b3bf 237a 28d7 c0b0 6e3f
00000170: 3b70 f862 c639 b4bf 4abd c048 3d2f a93f
00000180: 7b38 8abe ad00 b33f c80d 848d 81d4 b43f
00000190: 2915 a5e7 3445 ba3f 0fa1 9e3f a66d 51bf
000001a0: a430 510f bc16 803f 4d18 ce54 ce2e a7bf
000001b0: c88e bbf6 d98e b23f 81fc 3d32 5a89 b33f
000001c0: ec48 4eab 187b 6a3f 56ae 6e62 9fc2 c43f
000001d0: 4101 11a2 b127 ca3f 58e1 c2f4 dc09 c23f
000001e0: 8433 7fa5 d17f c23f 3ff5 a401 0c39 b1bf
000001f0: 77e4 2404 a5ab a3bf 268a 976a 884d ad3f
00000200: b33e 80b2 8637 a93f ce72 09a7 293d b0bf
00000210: 1a98 9e2a ffef b93f 6428 0669 223f a43f
00000220: d07f d1f7 3adb b23f 14ab f848 9865 a43f
00000230: 817d 2f89 6863 a53f 0bfd 10a3 78d1 aa3f
00000240: 091d 0f1a 5a2b c6bf c417 20a1 1f15 85bf
00000250: 7a73 72fe b3d9 b2bf bdc9 fd51 51cc b73f
00000260: a352 1e60 a895 ba3f 814e 1cc3 7e85 a63f
00000270: 5ee4 92a1 a3cf aa3f cd45 5746 f5e6 ae3f
00000280: 4dc8 ddc0 da2e cb3f be8c c101 e219 b5bf
00000290: 6bee 8fec 9aca b83f 52c8 8efc 7a28 b13f
000002a0: 2b7a d8cc 52c9 bdbf 62c9 8a80 cbef abbf
000002b0: 069b 5557 4625 b3bf 07cc 2fc0 46fc ae3f
000002c0: 3d58 b0f5 cc8f b53f 392c 6249 e2d2 8d3f
000002d0: d2b2 0dbb 9911 bc3f 0850 257f d010 9ebf
000002e0: 1cb1 e836 f470 b3bf b23c efd3 72cd b4bf
000002f0: 0779 2150 8578 9b3f 791f 1de5 6158 c23f
00000300: 51bc 8c25 e5bf c03f 50ac 0d74 9651 b6bf
00000310: 4a0f 46cc b3e3 c0bf d061 378b 7a15 a63f
00000320: 7c02 56ac 3b8b c33f 0077 3cf2 9958 b0bf
00000330: 6ecf fd26 e79b a53f bcc9 7c7d ceb4 51bf
00000340: 7359 b065 25ce c23f 8aa6 18b5 d8d7 82bf
00000350: b278 001d 25bc 98bf 34fc 06ca 6449 a03f
00000360: 0be6 2d4a 6bf0 b8bf 1fb1 59ed 5e65 aabf
00000370: 01b2 14f7 ab72 973f b4b0 c975 37dd b93f
00000380: 2ffa de2e c397 b6bf 6483 5c7b 5b44 b6bf
00000390: f876 da6e 9cc3 863f d8b0 3a23 43e3 b3bf
000003a0: 4e1c 81a7 8597 d13f 5c11 6da0 f0d6 acbf
000003b0: ce3f 72c9 ae63 cbbf 5895 6f86 8bb3 a5bf
000003c0: d2b1 9aca 1b2d c0bf dd2b 74e4 b001 b1bf
000003d0: 45f8 b146 1413 b43f 3fc2 6798 b837 b13f
000003e0: 2934 5850 4fe7 cbbf 09b6 d880 602f a8bf
000003f0: dc6d 800a bd8b b8bf 00bf b9db 0bc1 5cbf

7.bias f8 [1]
0.05606925783130419
00000000: 3a94 6419 1cb5 ac3f
