models/run2/31.pt (torch, 153942 bytes, 6 tensors)

0.weight f8 [32, 1, 9]
0.03669251808220926 0.1431941112933276 -0.11357633216306413 0.2083198925369673 0.12558061437531398 0.26148521670699326 0.2615789031464598 0.2810713571636172
0.2843976806573245 0.11379844694276954 0.30374266824262847 0.017598913617406273 -0.44423617323833187 0.3050400402806743 0.2320914473829587 0.31082342502220006
-0.37432341573499905 -0.23182544002608654 -0.225211460385992 0.0908152750417078 0.2419281398914835 -0.3278635192345513 -0.0032808936330227393 0.3073797064800382
-0.08003599071735022 0.1690629475765769 -0.24342931199128126 -0.015136094189676914 0.15622409045001165 -0.12879813856842917 0.14183078728459964 0.07524788463659617
0.3221442294381855 -0.12702861704080026 -0.1521176972859654 -0.2727136781245696 -0.2605423590406816 0.17632893980046838 -0.26331544039998417 0.28804926992086327
0.007728570191487218 -0.3275107080659532 0.17772407185948277 -0.052910342621936515 0.1752177951846843 -0.08361238313439676 0.26498532953869397 0.23586689622744353
-0.004944979020407558 0.2691587598692262 -0.05941575540742338 -0.2993319081386974 -0.007614474456910186 0.08353436415732975 0.2844379771615827 0.27542369265901523
0.27424510998562424 -0.06251498357693337 -0.35319026178251683 -0.02516736186492371 0.31756777294844946 -0.05591225318265686 -0.10083775134336519 0.0283523999513994
-0.13550566148450252 -0.041760288299945526 0.23803566832554104 -0.1724572103944818 -0.34378410421666195 0.2573938296803804 0.10501171304262208 -0.14448627146144222
0.183623352670103 0.228371191409551 -0.13757752391848604 0.2617970232774165 -0.28219364849998185 0.22294946207874733 -0.1856911392942374 -0.12005801065716605
0.26893723047315377 -0.28715170310148735 -0.18143550678597917 -0.013356759929884802 0.2196335919290638 -0.3087716899781338 -0.26569405677929553 0.19612834432809229
0.03398749251513081 0.179936192219401 0.18276356243534575 -0.047683820770801695 -0.12122318286795881 -0.05412270327432488 0.2496025217071579 -0.2330327738214376
0.15788723156938303 0.22359401814536808 0.2850335594809213 0.040793630210474774 -0.08872662966120498 -0.1558560123403836 0.16049452704971037 0.19016550906588336
-0.15549526455749238 0.24461152470812797 0.26617156344230297 -0.3481164701379029 -0.27597125879737044 0.2756384111659703 0.2752049349873151 -0.08032488705275272
-0.12495792436865831 0.0018428075995381512 0.3066545706991671 -0.0815498927647819 0.21562002606785652 0.05999371673305025 -0.34127216347170397 -0.14238886770862322
0.2243136954525008 -0.03333693588529759 0.14582167385281894 -0.36093623112877066 0.1082288014190859 0.2967012518247472 0.1298937070479251 0.20271054654713838
0.32236071299331764 -0.21903785721945573 0.17122530572740963 0.06944142190994945 0.295686647018143 0.29483449960538005 0.29507788803593904 -0.2765839570023221
0.290501821319872 0.02442384354064893 -0.07447676673505438 0.2914225040405642 0.27070448028748484 0.16394304895779785 -0.17334633828290946 0.09059379295380723
0.04798600248791213 -0.10757701200544216 -0.262177634451715 -0.22342659386995747 -0.12276601158824192 0.15040400394849107 0.1336927781463967 -0.2107921121985136
-0.15342758564767983 -0.08753407243748366 -0.0006185062767395156 -0.21084029024035092 0.21455778621328447 0.149768465439371 0.0750953896086888 0.11353297294530357
0.10224335233605443 0.20820589736076603 0.24679195150818106 -0.2405422277752275 -0.09728768167707402 -0.35334453087428674 -0.17316103726208423 0.2575313951476702
-0.2633788318887222 -0.22250261580000558 0.30549889063837604 0.04909622258860343 -0.14558803406948292 0.2512446004655733 -0.3323436652437792 -0.262265106110615
0.13538948116360938 0.24646177155019766 -0.12296492763410002 -0.05925012934526432 -0.4691927668542175 -0.20330255221625546 -0.2533811152002732 0.16376366309677648
0.24602128348855237 0.008393593051020642 0.20170662364819378 -0.2572787977369936 0.11944541731296682 0.05258329342462698 0.19237526961183646 -0.3817317719527229
-0.011498221930688246 -0.008122815005968662 0.3202915130219362 -0.21502756844084334 0.2421077384342037 0.241408428866625 0.18886328903416041 -0.13612861811301422
0.029746660350523958 -0.23378494184057036 -0.3078008396688219 -0.29870097286533337 -0.1477068393295184 -0.1476910432665934 0.3136870495659809 0.12034517266681688
-0.033358109794954266 0.22725273977410676 0.2361083508664895 0.05643638306910143 0.1331534091001891 0.11313532507132873 -0.19902265307905864 -0.35515789806311526
0.1441380032888099 -0.2155190191530618 -0.13026612676078927 -0.08645804837810013 0.127096795601156 0.3174687700168076 -0.2539824192040527 0.21642908803199082
0.27830231376345627 -0.11357463593734518 0.2646691028342405 0.24085543794669173 0.3083015650036014 0.10294087058450016 0.2808754729656731 0.19136818124974073
-0.3372128961090991 -0.05885441094101975 -0.23933947828861218 -0.011742737733108915 0.17365687836503932 -0.2029231202482921 0.17216839210449691 0.06949514700142352
-0.239782305932915 0.07533167042620817 -0.27784421350450367 0.2057369940395402 -0.2549898709342949 0.024618462636896283 0.13804875931349816 -0.11439033034867874
-0.2606293598797575 0.2765506425657402 0.1160829756968623 -0.3420999551711318 0.30878917168609415 0.2979796889922932 0.005000169557080408 -0.3286215361832335
00000000: 5a8a 579a 5cc9 a23f 3c08 7e44 2f54 c23f
00000010: 3570 3da8 5613 bdbf 9eb8 c6ea 39aa ca3f
00000020: b074 e08b 0613 c03f 7137 897d 2cbc d03f
00000030: 2e9b 9570 b5bd d03f 680b b7b7 12fd d13f
00000040: 40d0 5e54 9233 d23f e16c f41f e521 bd3f
00000050: 971e a016 8570 d33f 1c41 ba19 7305 923f
00000060: 9a90 f08e 5d6e dcbf 1777 3ea9 c685 d33f
00000070: 5f76 182c 2cb5 cd3f 8644 53ef 87e4 d33f
00000080: 845d 2d33 eaf4 d7bf 257c a5bd 74ac cdbf
00000090: f667 85a8 bad3 ccbf 8608 487c ab3f b73f
000000a0: d373 6854 80f7 ce3f c37c 2a45 b7fb d4bf
000000b0: e226 605b 88e0 6abf 424b b2ee 1bac d33f
000000c0: 6f4c a21a 3d7d b4bf eb43 67cb daa3 c53f
000000d0: 74f6 f112 b128 cfbf d74c 452c acff 8ebf
000000e0: 3942 aaa7 26ff c33f 39f2 7718 757c c0bf
000000f0: 5805 7ae0 8227 c23f 097c 9b03 7243 b33f
00000100: 5f0e 82d4 029e d43f 0c55 ec45 7942 c0bf
00000110: dd36 7ebb 9778 c3bf a4e1 2d12 2474 d1bf
00000120: cf5a d3db b9ac d0bf c003 e45a f291 c63f
00000130: 6b2f 4301 29da d0bf 1d98 7c34 666f d23f
00000140: 8ff8 7943 fea7 7f3f a9ea 0e79 eff5 d4bf
00000150: 6f99 2c92 a9bf c63f d2dc 5c7e 1017 abbf
00000160: c16a ff65 896d c63f c654 1a03 9f67 b5bf
00000170: 5976 1207 85f5 d03f 31c1 c0ee e230 ce3f
00000180: 66be c0b2 2f41 74bf e07e c4a9 e539 d13f
00000190: 0f1d afec bd6b aebf 05b8 0605 4128 d3bf
000001a0: e06a 4cec 5a30 7fbf d9db 2512 8262 b53f
000001b0: a68f 6958 3b34 d23f cce5 20b2 8aa0 d13f
000001c0: b879 9e5c 3b8d d13f 5d10 f961 fb00 b0bf
000001d0: 1bc8 e753 ab9a d6bf 37b8 8b10 79c5 99bf
000001e0: edef c4c7 0753 d43f 48f9 bae5 87a0 acbf
000001f0: a3d0 38bc 80d0 b9bf 67ad 375a 6908 9d3f
00000200: 31d8 3fe0 3f58 c1bf e522 0ac1 9a61 a5bf
00000210: 8dae 5ee9 f377 ce3f bc45 4def 1313 c6bf
00000220: aab1 1f0b 8f00 d6bf e8d7 2af8 2379 d03f
00000230: 240a 3731 0ce2 ba3f 7ced 52b1 867e c2bf
00000240: e8fe 3f53 f880 c73f 11ee 3967 443b cd3f
00000250: ca80 f2ea 239c c1bf 78aa 4a4d 48c1 d03f
00000260: dc90 dcf2 750f d2bf 58fe 24a4 9b89 cc3f
00000270: 537e 362d bac4 c7bf 8135 652d 1fbc bebf
00000280: d2c6 6380 4436 d13f 17f1 7389 b160 d2bf
00000290: c74e fd57 4739 c7bf 2f91 a2f8 c95a 8bbf
000002a0: 7a1b 381b f41c cc3f 47c0 9855 eac2 d3bf
000002b0: fbf3 26a5 2101 d1bf a698 5acc bb1a c93f
000002c0: 14ac a601 cf66 a13f 027c 792e 2608 c73f
000002d0: bcb6 c7e1 cb64 c73f 0191 8485 036a a8bf
000002e0: 4d56 ef85 7b08 bfbf af94 1191 f8b5 abbf
000002f0: a49d ddb5 f9f2 cf3f 5cc8 3a97 04d4 cdbf
00000300: 05f3 0518 a635 c43f bdfe c191 ba9e cc3f
00000310: ede9 0e66 fd3d d23f 0039 4717 e7e2 a43f
00000320: acde add4 c9b6 b6bf 9886 f1fd 16f3 c3bf
00000330: 7dc8 6eac 158b c43f c8f0 21e9 5757 c83f
00000340: bb88 fad1 44e7 c3bf 304d 6c31 6e4f cf3f
00000350: 4808 0774 f408 d13f 803d 9c4d 8a47 d6bf
00000360: 11ec ca5a 83a9 d1bf eeab 5e4a 0fa4 d13f
00000370: 07f9 dd28 f59c d13f a54b f2fa 2b90 b4bf
00000380: 0318 8a16 3efd bfbf 258e dc97 4b31 5e3f
00000390: 1199 147e 3aa0 d33f 7bc3 6a2a 74e0 b4bf
000003a0: 7a7c 29e0 6f99 cb3f 06fa aa16 7fb7 ae3f
000003b0: 445a 4933 67d7 d5bf b3be 0f65 cc39 c2bf
000003c0: ecb6 01a9 4fb6 cc3f 8b9d c0f2 8911 a1bf
000003d0: 8b77 1fdc 48aa c23f abee 2847 9419 d7bf
000003e0: 6b8b 94fa e1b4 bb3f 4d40 513f 27fd d23f
000003f0: bf0f dd63 5ba0 c03f 10b4 fc4f 6bf2 c93f
00000400: 2394 f4d3 8ea1 d43f 26f7 abb8 6e09 ccbf
00000410: ca64 2cf8 b5ea c53f dc49 17bc e9c6 b13f
00000420: f1a2 b3af 87ec d23f 9168 6285 91de d23f
00000430: 60c6 b85d 8ee2 d23f 6c16 7b32 8db3 d1bf
00000440: 88d3 7ff3 9497 d23f 74b3 ff64 9002 993f
00000450: 645a 70cd e810 b3bf b70c 0b93 aaa6 d23f
00000460: 82c9 6de2 3853 d13f 0b13 d7f8 15fc c43f
00000470: b839 e77a 3630 c6bf e20a f5a1 2731 b73f
00000480: 18e5 b30e 9f91 a83f cb61 5dc4 2a8a bbbf
00000490: d79d 6db3 84c7 d0bf bd33 dd1c 3e99 ccbf
000004a0: 85f4 d4e4 976d bfbf 78b7 123b 7040 c33f
000004b0: f5d1 ec4e d81c c13f 4ddd 1266 3cfb cabf
000004c0: 6e9c 54df 83a3 c3bf 9799 670a a268 b6bf
000004d0: 2a53 901d 6844 44bf 5d77 a18b d0fc cabf
000004e0: 14b1 7129 a176 cb3f d260 84f2 9c2b c33f
000004f0: 521f 7392 7339 b33f dc56 d135 7f10 bd3f
00000500: 514a 84ce 9e2c ba3f 6dd9 ffa7 7da6 ca3f
00000510: 4e63 52f0 e096 cf3f bc00 cd74 16ca cebf
00000520: 2050 1b73 d8e7 b8bf 62d5 1461 329d d6bf
00000530: 19b5 fd0f 242a c6bf 4e8f f6f5 647b d03f
00000540: 77ed 5ae3 32db d0bf 4e57 1139 f77a ccbf
00000550: 0964 1038 4b8d d33f ab18 c0dc 2323 a93f
00000560: f338 82f2 a0a2 c2bf 54f5 923b 6414 d03f
00000570: b34e 505d 1e45 d5bf c521 6895 f3c8 d0bf
00000580: 60f9 e848 7154 c13f 74db 4230 0f8c cf3f
00000590: ce53 be26 a17a bfbf 43b3 a46f 0856 aebf
000005a0: c826 4a19 4107 debf b727 7b6a d105 cabf
000005b0: 3c63 cd6c 6537 d0bf 700c a32c 35f6 c43f
000005c0: fd04 5a1b a07d cf3f 1356 33fd a830 813f
000005d0: 3350 facb 85d1 c93f 7603 8f7d 4177 d0bf
000005e0: ec29 0491 f993 be3f f144 268b 32ec aa3f
000005f0: eb60 c5b9 c09f c83f 8863 1819 4b6e d8bf
00000600: 6d53 3c39 618c 87bf f8af 6ac6 b1a2 80bf
00000610: 9165 67f9 a77f d43f af8d 18fb 0586 cbbf
00000620: 8a7a 57e9 62fd ce3f aafe 7aad 78e6 ce3f
00000630: 198a e818 ac2c c83f 3b2b 6c9d a96c c1bf
00000640: 1a9e 7b95 e875 9e3f 4e52 c03b aaec cdbf
00000650: 80c5 034b 02b3 d3bf 005c 6faf ea1d d3bf
00000660: 666c 28c6 0ee8 c2bf 6ffe 5e44 8ae7 c2bf
00000670: b822 c4d8 7213 d43f 28e0 d5f4 f0ce be3f
00000680: 845c 406d 5014 a1bf bcca a026 9e16 cd3f
00000690: 445c a466 cc38 ce3f f931 2cc7 3ae5 ac3f
000006a0: 17d6 b7c0 2b0b c13f c024 34c9 6ff6 bc3f
000006b0: 80a0 1105 9379 c9bf 3a38 4631 e8ba d6bf
000006c0: 1d3b 1e35 1d73 c23f bfd5 7691 2096 cbbf
000006d0: 436a 1b79 8fac c0bf 818a 425a 1d22 b6bf
000006e0: 3245 4432 b544 c03f 624e 2e88 6851 d43f
000006f0: 3362 0f7a 3f41 d0bf 9110 80c7 f2b3 cb3f
00000700: a2f8 0082 b4cf d13f 7889 0133 3a13 bdbf
00000710: 84d2 3bad 56f0 d03f f4bb 85da 59d4 ce3f
00000720: e0bf bf7c 36bb d33f d60a 9538 555a ba3f
00000730: d5b5 a81e ddf9 d13f af37 fba7 c07e c83f
00000740: 62fe 2466 e594 d5bf d31d 6f54 2a22 aebf
00000750: d615 f20f ada2 cebf 63d1 3b94 930c 88bf
00000760: 55d2 a67a 633a c63f d5ca 8882 62f9 c9bf
00000770: 2e32 bf26 9d09 c63f 4d11 9a17 6fca b13f
00000780: 5217 12c5 2fb1 cebf c267 d5b4 ef48 b33f
00000790: ad9e 9818 33c8 d1bf fa13 7dfe 9655 ca3f
000007a0: f656 1e09 c151 d0bf 25f2 9c0f 9535 993f
000007b0: ed9e 40ed 94ab c13f 9882 d347 af48 bdbf
000007c0: fbe6 43c4 26ae d0bf 2b7d 6077 01b3 d13f
000007d0: f689 3d28 9db7 bd3f b213 db35 f7e4 d5bf
000007e0: 870b 70a8 33c3 d33f 9006 c666 1912 d33f
000007f0: a0c8 8dcb 0e7b 743f e9c4 aa9f 2208 d5bf

0.bias f8 [32]
-0.07283594169826745 0.00016303142708893077 0.24741675746825245 -0.10354219245634907 0.3083466219508326 0.10076882547474328 2.935495964458066e-05 0.002791054531083282
0.0003097157826069576 0.3323340434493013 0.2953078169670756 0.002905280857191613 7.57017056254129e-05 0.10935486437299106 0.28681434818303103 0.28275230630646964
0.2630064051612728 0.0009820157155815302 0.3279622200487276 0.32145986710799723 0.05559056252965089 -0.0494605418319959 0.19097330334498588 0.26618160786547
0.00012002830992870877 -0.05642073865169085 0.31633849823419186 0.0016232129925094492 0.1528629012410998 0.054459873653691426 0.000296414625188267 0.21106903227656088
00000000: 8742 9153 60a5 b2bf 71ec 8d4b 6d5e 253f
00000010: 317d e730 5aab cf3f 1e2d 5bba bd81 babf
00000020: 0419 4778 f3bb d33f 86cf de59 fccb b93f
00000030: 35cf 6477 e9c7 fe3e ceda d5fd 43dd 663f
00000040: 4b37 4828 2b4c 343f 8e94 fd01 f644 d53f
00000050: 911c 08c2 52e6 d23f 91fd 8dc8 d0cc 673f
00000060: ea7a 4f66 41d8 133f 9bf8 232e aefe bb3f
00000070: 290f 5e91 2a5b d23f 741c 1d21 9d18 d23f
00000080: a898 33d1 18d5 d03f cd33 7c58 df16 503f
00000090: a9b3 5b40 55fd d43f 8624 0d68 cc92 d43f
000000a0: 80eb 0fc0 5d76 ac3f f2c2 3863 e452 a9bf
000000b0: 794d 232e d071 c83f 890c 2595 1e09 d13f
000000c0: f735 b7a9 f676 1f3f 627d a6d6 2de3 acbf
000000d0: 436c 18d4 e33e d43f 03c2 e7ad 3f98 5a3f
000000e0: f014 cdf4 0291 c33f 20e4 9220 2ae2 ab3f
000000f0: b690 091f 036d 333f d6c0 695f 4f04 cb3f

3.weight f8 [64, 32, 9]
0.09694590187458853 -0.18308239658897618 -0.1410608637787365 0.014245502933394485 -0.006803792341647916 0.07477657338256893 0.025858277600726967 0.030400847434708736
-0.10418991286246557 0.05357537404416412 -0.0016626272115508925 -0.12326128028967775 -0.09817301357320976 0.03265013787814342 -0.04244015248461684 0.014078454188109709
-0.039319263925836796 -0.09775508030098308 0.04938341730892061 0.003254711566075747 0.032520557660445294 0.02268123910002342 -0.037147877583306815 0.010586768524845825
-0.011799826111618358 0.020859157395788055 0.07296125903677117 0.07383185615240746 -0.15995585000633855 -0.07979266304864371 -0.06211354608207592 0.024002441981734304
0.014011071765022885 0.010086423140687525 -0.024731791673431324 -0.015966557479345257 -0.002662732644744719 0.03220309568942671 -0.039463049473256684 -0.03114900839846579
0.009108001823623235 0.037776285754126726 -0.040158339801181366 0.05544544456241807 0.01697750839100581 0.07170577525366542 -0.041051486254268035 -0.05759661789182638
-0.03315146668989364 -0.028954492580173987 0.04212131653211822 0.012801911909204398 -0.025340463117693526 -0.010706351865464332 0.01807519715548039 0.07073755973253104
-0.1541314751306153 -0.06864031722991218 -0.0021323612413668234 0.004174015933039581 0.002259538681798157 -0.0006975180459679588 -0.09876843084053172 0.11664357204613138
-0.10926143625135502 0.006248720353816424 -0.09789427232213108 0.06774018992194766 0.01506195457068731 -0.03409750218312774 -0.01730703069840211 -0.010823192154704096
0.050037506400793935 0.01822178317698963 -0.16340344549418548 -0.10801905090311492 -0.08175732377492156 -0.06430297002552714 0.055128476699793004 -0.05448448010897625
-0.10440083309798959 0.09286720133568482 -0.07859173713073336 0.06270166245445603 -0.03427997558838249 -0.035820823100752915 0.055427111491026096 -0.031843774604802685
0.058205295580933264 -0.040866947476291306 0.07764705466618062 0.007696250396999696 0.005934631043688703 -0.0016936886877739238 -0.03937669956029302 0.0008403859342334764
-0.0014634150062556145 -0.04667925821449448 -0.03933841532388027 0.1068155461488233 -0.05838728065186395 0.0015382201243282984 -0.027709888423760095 0.04072992862964933
-0.009025158027491341 -0.0013603384897173897 -0.05258816869220168 0.004297596002695896 0.06406513354421535 0.057330371040356966 -0.15812698381227888 -0.11189987952442391
-0.03472707754205333 0.03656941312774886 -0.014016789101668807 -0.056694253442358726 0.06418983445514911 0.10098495582655023 -0.03292722371618179 -0.020896754342434702
0.07071677041468102 -0.01013482634160037 -0.03294973446169072 0.06352549723790535 0.041901809184685904 -0.06051451125117349 0.0917288141418359 0.01865769526453242
0.016044078015116366 0.03767808447584601 -0.011809047677755043 0.040310239545935746 0.04211672760055902 0.05583760417617406 -0.0884531317005309 0.023292946547304218
0.06179290001110055 -0.011080294382288422 0.020955427456448388 0.027689271293576942 -0.006517363208223893 -0.05442422258291912 0.039631745471785634 0.03222530625298272
0.09691735419936046 0.0031093729479292104 0.03988814387361619 -0.016986255761179857 0.00531571799745048 -0.023525956848353485 -0.03106910194814839 0.007792384121206293
0.031184047675792383 0.15918900449458184 -0.12483474302051113 -0.08220472825992915 -0.02528725911656235 -0.09972519846859333 0.00168756937246927 0.02119882027524146
-0.059812271059891634 0.051398716636340325 0.08269999051830378 0.014284951189238438 0.04348490182574365 0.04637991996523127 -0.012244550471688568 -0.021079400277130428
-0.02731793954931765 -0.020629361924985212 -0.0884606735576109 0.07137765957735344 0.030341473149244416 -0.006945022386486909 -0.043487307838126904 0.06440613499819019
0.024884100204380564 -0.006987410197880363 -0.003245876473582942 0.06316439270199885 0.12058523155239165 -0.12061569048507015 0.016085829381951786 -0.017874396168682808
-0.010262958482255726 -0.015191103172859172 -0.03959115567382858 0.014494205797073993 0.035215770529095365 0.05505782249122282 -0.08778922042660085 -0.14372247157239806
-0.11705332483405594 -0.04003498323245461 -0.03710671313036973 -0.027727950120721833 -0.027956990240211612 0.007081623428039407 -0.016845092952822913 0.11367459342226748
-0.04607308942965409 0.08429472592054088 0.017752735486095718 0.01304921659792119 0.0559153462935516 0.040769790920530416 -0.08497560075112884 0.048994457105528015
0.059649103819227466 -0.026737057095163073 0.04806485738578072 0.047197039845822 0.0650235416415036 -0.021713457694777092 -0.035355072437200326 0.02914819764140075
0.12278826921945725 0.09037400294483071 -0.14985533339414298 -0.11438599647250806 -0.02992127937131514 0.029986770980165722 -0.027175020751680153 0.008623320135345381
-0.09668070176976166 0.10243027419842055 -0.012660144957310715 -0.0601247512724231 -0.07898085962499408 0.05243923331513651 0.008970238683410774 0.07610093049461464
-0.020709291863851193 -0.013838807327576384 0.06728245751406539 0.04417730797165647 0.0024122244973698403 0.05774470346998242 0.01052014251970694 0.027428555305029283
0.028488452790913214 0.05445920855336688 0.0756355606418731 0.07094212939384292 0.09170011643430552 -0.10967669321724144 -0.05031354244124237 -0.014235261204339829
0.039853696833416004 0.06514770264400858 -0.023330575923691522 -0.06520724249252725 0.030508812105806218 0.07709550496624014 -0.0368071386327111 -0.003670893089800371
00000000: 5957 0856 72d1 b83f 9456 e974 3e6f c7bf
00000010: 706c 564a 480e c2bf 5b46 b609 bf2c 8d3f
00000020: cad7 8919 4bde 7bbf 4061 2fb9 8e24 b33f
00000030: 3409 81a2 977a 9a3f 64d3 0256 6621 9f3f
00000040: c63f 51ac 30ac babf 8f03 c83e 3b6e ab3f
00000050: 9672 f05f 903d 5bbf b00e b51f 0d8e bfbf
00000060: 228e a5da dd21 b9bf 4104 cbd4 84b7 a03f
00000070: 6ed8 ea35 b7ba a5bf be81 8722 2ad5 8c3f
00000080: 191a 5491 a721 a4bf 851b e918 7a06 b9bf
00000090: 12f2 9c84 c848 a93f 5ba2 7ef7 9fa9 6a3f
000000a0: c5d6 32d7 88a6 a03f a65f ab30 c039 973f
000000b0: 2c17 acee 0b05 a3bf ad20 ad04 84ae 853f
000000c0: 8bac fbd9 812a 88bf 671d 595b 1a5c 953f
000000d0: 4e1b 70cd 96ad b23f 65db 93ff a4e6 b23f
000000e0: aa61 4aec 6e79 c4bf 3632 41be 4a6d b4bf
000000f0: 2849 1fc2 58cd afbf 24be 579d 1894 983f
00000100: 2cf9 1938 d6b1 8c3f bed6 2ecc 30a8 843f
00000110: 83af a271 4a53 99bf 3a60 d088 8959 90bf
00000120: 25c7 11b4 27d0 65bf d2d0 a195 ec7c a03f
00000130: c8b0 c635 8034 a4bf bf38 7f91 86e5 9fbf
00000140: b307 b74f 37a7 823f d0b3 c1cf 6957 a33f
00000150: 4528 3748 a28f a4bf 302d 3766 5863 ac3f
00000160: 4f4d 3a4d 8d62 913f 0219 a647 4f5b b23f
00000170: d21b d44d b304 a5bf c444 69cc 4d7d adbf
00000180: cdbb 7ea2 3af9 a0bf 5705 d11a 3fa6 9dbf
00000190: 4b98 f0d9 ec90 a53f 6c79 cf87 e337 8a3f
000001a0: 1788 6cb1 d9f2 99bf 4a1d f938 36ed 85bf
000001b0: 6f2d 9bf2 4d82 923f d06a a651 db1b b23f
000001c0: 7f30 7c86 94ba c3bf 9285 b06d 6992 b1bf
000001d0: d40d 70b9 e277 61bf 9263 cede c518 713f
000001e0: ce7e c197 9882 623f f70b 1099 34db 46bf
000001f0: b45a 564c e348 b9bf 8e0c 3a67 5adc bd3f
00000200: fbde 69b7 8ef8 bbbf 15de fb18 4298 793f
00000210: 76da 165a 990f b9bf a2ef 56cc 6b57 b13f
00000220: 5b09 5c52 cdd8 8e3f d8ee 8051 3a75 a1bf
00000230: 5fad 5c2b efb8 91bf 5202 be42 782a 86bf
00000240: 8c2d 211b 849e a93f 1ea7 472b bba8 923f
00000250: 67c2 3973 67ea c4bf 704d f9f2 22a7 bbbf
00000260: 9c5f d247 0cee b4bf 4399 4bd1 2876 b0bf
00000270: 5b00 02b9 cc39 ac3f 954c 6ac8 63e5 abbf
00000280: b4bd d453 03ba babf b099 9b18 25c6 b73f
00000290: 2c5b b68c 961e b4bf 6d8f a555 370d b03f
000002a0: a39b 1e1c 258d a1bf e991 775f 1b57 a2bf
000002b0: 02d7 543e f160 ac3f 6e84 04c5 d34d a0bf
000002c0: 14c0 f2a1 15cd ad3f 65c9 cb35 83ec a4bf
000002d0: 3906 6c68 ade0 b33f dd6d 1c7c 1a86 7f3f
000002e0: d289 f163 e94e 783f 1291 8261 d8bf 5bbf
000002f0: f4f7 abc9 2e29 a4bf 532a 410d ab89 4b3f
00000300: b6f4 e8e5 01fa 57bf 1097 ddfe 57e6 a7bf
00000310: a0c6 952e 2a24 a4bf 0ae0 697d 4358 bb3f
00000320: e2e3 cd09 f0e4 adbf e4ca 3148 c333 593f
00000330: ff32 3922 fb5f 9cbf 7492 dd9e 8dda a43f
00000340: ecf0 8d34 c87b 82bf ebf3 c954 ac49 56bf
00000350: 090b 6121 d6ec aabf 2c2a 8724 5b9a 713f
00000360: 15e3 6295 9266 b03f 7d2b 5f09 685a ad3f
00000370: bd5f 0b48 813d c4bf 6fd6 fb72 78a5 bcbf
00000380: 3655 a85c bfc7 a1bf f0ce d5e2 39b9 a23f
00000390: 3cf3 4a96 d5b4 8cbf e7e7 cf78 0707 adbf
000003a0: f673 b8b7 be6e b03f dabc a96a 26da b93f
000003b0: a9a5 044a d6db a0bf 6e24 f971 f565 95bf
000003c0: 26b5 3588 7e1a b23f 0fa4 805d 91c1 84bf
000003d0: 6485 d99f c9de a0bf 4054 19fd 3443 b03f
000003e0: a2d3 2e68 2774 a53f 94b1 830d c2fb aebf
000003f0: 5a0d d720 8a7b b73f 1e6b ebbb 001b 933f
00000400: 4f43 7ad9 db6d 903f c509 33b9 8a4a a33f
00000410: 0439 958c 572f 88bf 7562 1631 8ba3 a43f
00000420: c960 51df 5290 a53f d8b6 a517 bf96 ac3f
00000430: 86ef e14b dda4 b6bf 0ab4 972e 1bda 973f
00000440: d868 58a9 51a3 af3f c50e 04f0 43b1 86bf
00000450: 9b86 65ee 5675 953f 6cba 9f8a 935a 9c3f
00000460: 4e1b 5e5d f3b1 7abf 6f2d 35e0 7ddd abbf
00000470: 0493 5eb5 9c4a a43f 2398 ebd8 d57f a03f
00000480: 627b b362 93cf b83f c9e3 eae3 d378 693f
00000490: d3e2 de02 386c a43f 632d e753 d864 91bf
000004a0: 9fcc 422f efc5 753f c848 153d 3017 98bf
000004b0: 4330 2223 94d0 9fbf 6ed0 552f e8ea 7f3f
000004c0: 979e b203 b6ee 9f3f 78f0 1728 4e60 c43f
000004d0: 197b ad72 2bf5 bfbf 5df5 737b 5e0b b5bf
000004e0: d8fa a43b e7e4 99bf db7c 0232 9787 b9bf
000004f0: dd59 edd0 2da6 5b3f e40b 2fbf 24b5 953f
00000500: e214 34c8 b69f aebf 00d7 04be ee50 aa3f
00000510: 07d7 a79a d32b b53f fa3d 76b1 6d41 8d3f
00000520: b734 6c2e a743 a63f 1f2f e2de 1bbf a73f
00000530: ef17 a4be ab13 89bf 88ff 3c9b d695 95bf
00000540: 2d6d d5e3 3bf9 9bbf a07b 380b dd1f 95bf
00000550: 797d e9d3 5ba5 b6bf b1bc 8c69 ce45 b23f
00000560: 44ca 8dcb d511 9f3f 32b6 5140 6272 7cbf
00000570: cc63 e9e9 f743 a6bf f39e 7aa3 eb7c b03f
00000580: 99d6 45b2 377b 993f cec2 89a4 d49e 7cbf
00000590: 98ed a0a9 1897 6abf db41 eda8 8a2b b03f
000005a0: 80ea e579 acde be3f d090 047e abe0 bebf
000005b0: dc81 7fbc cd78 903f 21c4 eb6b aa4d 92bf
000005c0: e1fa 54f8 be04 85bf aa6d 8a5a 831c 8fbf
000005d0: b6ed a8bd 4a45 a4bf dc16 0a5f 23af 8d3f
000005e0: d9a9 732d cd07 a23f c040 faf5 8930 ac3f
000005f0: 1f70 acb6 5a79 b6bf 5547 8d79 7f65 c2bf
00000600: bfe2 0cea 34f7 bdbf 54cd 5b1f 777f a4bf
00000610: a0c7 b6ae a6ff a2bf a381 d03b b764 9cbf
00000620: 67ee 1adb c1a0 9cbf 7390 6ad0 9e01 7d3f
00000630: a962 520d d73f 91bf 077e 2235 c719 bd3f
00000640: b6ef a658 e496 a7bf 60d3 0dd3 5694 b53f
00000650: ea2c 4fe9 c52d 923f 6241 3634 8cb9 8a3f
00000660: 67c3 59af efa0 ac3f 3a3d 562d c7df a43f
00000670: fe1d 2f02 f6c0 b5bf 7733 e82d cd15 a93f
00000680: 1b51 47cc 538a ae3f 0692 4287 f560 9bbf
00000690: 431f 1efd f49b a83f 4d2d 36dd 352a a83f
000006a0: 9902 d200 62a5 b03f c984 ba7a 0d3c 96bf
000006b0: 0921 bb5f 0f1a a2bf 7fbb 6d6e 06d9 9d3f
000006c0: 7d48 a150 0d6f bf3f fb80 0e2b c022 b73f
000006d0: fe8d 07a6 752e c3bf 6344 f891 6648 bdbf
000006e0: d8c7 6a11 afa3 9ebf b097 b022 dab4 9e3f
000006f0: 0f1b 96c5 c4d3 9bbf fac6 b66f 1aa9 813f
00000700: 8b65 4104 11c0 b8bf 8872 cdd5 de38 ba3f
00000710: 8024 6fe4 8fed 89bf 8e56 cae0 abc8 aebf
00000720: cd6c 19f1 1638 b4bf 694d 3bb0 50d9 aa3f
00000730: 96b0 420e fd5e 823f e866 abbf 597b b33f
00000740: c53e 1d0d d134 95bf 8cc6 1947 8557 8cbf
00000750: 420f 9e52 6c39 b13f f75a ed79 689e a63f
00000760: 9741 752a cdc2 633f 1472 d7b9 b690 ad3f
00000770: 583a 92a0 958b 853f 3be8 0b30 3b16 9c3f
00000780: aed3 33b4 132c 9d3f 67cf 67cf 13e2 ab3f
00000790: a418 5f23 da5c b33f 48b8 a76d 4329 b23f
000007a0: 97ee 1fa9 a879 b73f cc60 8092 c513 bcbf
000007b0: 997e a956 b2c2 a9bf 44cd 946a 6027 8dbf
000007c0: a166 0c29 b467 a43f 0ffb 4314 85ad b03f
000007d0: 0d3d 5b72 f8e3 97bf 35be f7fd 6bb1 b0bf
000007e0: 57de efb8 b33d 9f3f b5a4 7ff0 87bc b33f
000007f0: 7da8 5fa1 62d8 a2bf c2db 91b8 6b12 6ebf

3.bias f8 [64]
0.03048291412634581 -0.03358271554359213 -0.024135863457239507 0.02326670260175814 -0.003798298241973971 0.00028799551662310284 0.03821892550043434 -0.019575023949231787
-0.030557495514443915 0.06090506977465317 -0.006272916474373047 0.07292535571063935 0.08486600269509222 0.006981936755402086 0.12703552247611613 0.021844678984093813
0.07080846511348417 0.08175345734712627 0.07124132917103837 0.030369770147318228 0.010676063211024118 -0.021018592220218128 -0.022267858449978976 -0.09813688111364446
-0.10031442937344874 -0.013953808226143696 0.004020603920736169 0.03334435158915842 0.06911239078715203 0.042775387630218285 0.0022742472362323254 0.013259863909374493
0.04603471697703791 0.060732710714881545 0.03517136548576448 -0.02820385365753449 -0.03864503984120963 -0.02350982442724928 0.0473133611517397 0.026515701120879566
-0.002139468458263563 0.06529969334719754 -0.02482768382409307 0.031480078722761956 -0.022491216641803865 -0.0232612789264608 0.018655872374001792 0.02027608448620979
-0.0006972068553722999 -0.035864598138245884 0.044494829290487335 0.0008903872678188432 0.037466065277585635 0.05455456986532323 0.038825110600287205 0.06521731654308173
0.05189862395116086 -0.04048139411442513 0.04592088737575424 0.010020701488463526 0.03587816295047089 -0.036451966466112276 -0.021497362321452648 -0.014415304241595197
00000000: 74a8 09bd e936 9f3f 5cf2 f0f1 c031 a1bf
00000010: 4198 d660 12b7 98bf 878e 0afb 39d3 973f
00000020: f9f7 59d7 9b1d 6fbf df42 4653 c3df 323f
00000030: 1baa 3956 6e91 a33f 34b2 b89e 790b 94bf
00000040: 4e60 87cf 764a 9fbf c27a af05 f32e af3f
00000050: b340 ba31 a1b1 79bf 848c d371 3cab b23f
00000060: 8d1f 1e42 c7b9 b53f 3461 6f60 1799 7c3f
00000070: 678b 3b33 b342 c03f 402e 5097 735e 963f
00000080: 413f f1e9 8020 b23f fa0d a469 cbed b43f
00000090: 34c6 e92a df3c b23f 7f71 47c6 4019 9f3f
000000a0: 0a24 bbf2 54dd 853f b172 c6d8 e585 95bf
000000b0: 11b0 2daf 62cd 96bf 7e1f eaa6 7f1f b9bf
000000c0: 3bd2 79d9 34ae b9bf 0e36 e36f d093 8cbf
000000d0: c47f 98a5 e877 703f 95dc 29c7 8212 a13f
000000e0: 60df 2d82 59b1 b13f f319 e4d5 a7e6 a53f
000000f0: 9098 1530 71a1 623f 3aad b8ce fc27 8b3f
00000100: c642 cbc7 dc91 a73f 95bc a29c 5b18 af3f
00000110: 0eb7 0831 fb01 a23f 1535 5294 78e1 9cbf
00000120: b58d 8a5c 48c9 a3bf 69ee 329c f512 98bf
00000130: 9401 9ff5 7439 a83f 2a29 9494 ee26 9b3f
00000140: 6cdd e361 ca86 61bf 6873 5d0f 7bb7 b03f
00000150: 8358 3da8 6d6c 99bf 14f6 2d29 281e a03f
00000160: 3ff8 b1ff ef07 97bf 8256 0201 ced1 97bf
00000170: 8014 e666 861a 933f c76c 09ff 40c3 943f
00000180: c336 3952 98d8 46bf 9807 2d38 d85c a2bf
00000190: 1399 49b9 06c8 a63f 0363 1819 1c2d 4d3f
000001a0: ab70 278a c02e a33f 6c7b d69a 93ee ab3f
000001b0: f868 9588 e2e0 a33f 6977 af01 15b2 b03f
000001c0: 32c0 27d9 7492 aa3f 67c9 a22f fab9 a4bf
000001d0: 2ade f64a f182 a73f a84d 68c9 bb85 843f
000001e0: d491 0661 9f5e a23f 2295 b107 d5a9 a2bf
000001f0: accd 7b90 6703 96bf 3b80 3c62 c585 8dbf

7.weight f8 [1, 128]
-0.07017485653278518 0.03966551025975589 0.020883275455658393 -0.020127638982743487 0.012484703757011837 -0.033431489825693876 0.05992809256128034 0.07817038967787772
-0.1624876002186572 -0.0604503379431936 -0.07505389740575419 0.06269164520860349 -0.11609222773229176 -0.0381314172761246 0.17881897286588283 -0.07790387874832112
0.18889859375195986 -0.03992379767201381 0.0447822653113156 0.004989496983524069 0.04409593199148763 -0.02315699590754152 -0.10181478215662877 0.20984433220070187
0.17245944541358402 -0.06628880981722615 0.12738465050785386 -0.022053578503101405 0.15126384978320198 -0.07521449398522574 -0.012058427741071194 0.07415318565681384
0.03672108406325694 0.033333215161799205 0.16740494269101888 -0.03305554675624803 0.11903779238321854 -0.029400649043318593 0.006369702637756757 0.06997635933198904
-0.16421962554507333 -0.04153863339580216 -0.09700798558351151 0.002856765464182419 -0.0761611266280669 0.0038152253259448494 -0.07900657573958451 0.04937171259854607
0.07422910596707936 0.08161872430763499 0.11571839244085856 -0.00044702808245726853 0.007855862824861788 -0.04527897629945752 0.0824631146178535 0.07627244492131965
0.008176439823605795 0.17482848221818462 0.21483088703050593 0.14165940430621604 0.15799108729153713 -0.0668026803258206 -0.03978126942117311 0.05738573919902079
0.0627949887708754 -0.06329386950061457 0.10983428318640506 0.039278557227331576 0.08253508109162068 0.039791514710560034 0.04596225358709711 0.052183064383817306
-0.18370960012556625 -0.010254904460411064 -0.0783138937539024 0.0933298209303334 0.10828477648323694 0.04385205397880477 0.05858137336976744 0.06030794443076495
0.2307826285634614 -0.0821979982774111 0.10428353120624673 0.06682186272599804 -0.13022772570843785 -0.05439058082713002 -0.08133453129382093 0.06030496168486983
0.09078804138180734 0.01417284874022535 0.1209260063376096 -0.02919464510699542 -0.07905498049689812 -0.0808828589041338 0.03189417893169761 0.1539647981746237
0.13559356823669658 -0.08713836478896188 -0.13548712750485137 0.04307383459028664 0.16604626048050516 -0.06334998368225672 0.042205070028017086 -0.0010807053094593474
0.1545619943781602 -0.009015180688910234 -0.02379926910722861 0.031710146452215045 -0.10297872154190504 -0.05142000513794759 0.028383799853628256 0.11610261968169776
-0.09673497121728945 -0.08686403136131095 0.011115286000229471 -0.07768649683083895 0.286229964057425 -0.05520141637682262 -0.22160171544398308 -0.041414700758636847
-0.13643398560880168 -0.06630375735973082 0.07841612554509066 0.06725648613770206 -0.224543055061075 -0.047148243786460556 -0.1033931875274869 -0.0017390403580833929
00000000: 564f cfb9 faf6 b1bf 278a b0aa 094f a43f
00000010: a42e 76e4 6c62 953f dcd0 b4fc 569c 94bf
00000020: c562 b192 9491 893f 6f73 eaa6 ee1d a1bf
00000030: d720 531b e5ae ae3f 899b 2e83 f902 b43f
00000040: 76ea 78c8 64cc c4bf 680f ffc0 58f3 aebf
00000050: a088 cb72 bb36 b3bf 6044 e745 8f0c b03f
00000060: ff12 6e61 38b8 bdbf f55a 4d0c f685 a3bf
00000070: e67f 2e44 8ae3 c63f 75a1 7433 82f1 b3bf
00000080: 4968 3641 d42d c83f 0fb6 aa5a e470 a4bf
00000090: f4e1 e779 b3ed a63f 3635 e2e5 dd6f 743f
000000a0: 4e85 94f3 bd93 a63f 06d0 62b0 77b6 97bf
000000b0: 99b1 9c97 8810 babf dcc7 06d8 2ddc ca3f
000000c0: 9b04 f8ae 2613 c63f d678 41ae 4df8 b0bf
000000d0: 9cc8 f8e5 234e c03f 5eec b899 3695 96bf
000000e0: 7965 f123 9d5c c33f 310b dacf 4141 b3bf
000000f0: 2409 50c6 16b2 88bf a04c 4a03 b4fb b23f
00000100: 942e 401e 1bcd a23f 6f1d fb19 0d11 a13f
00000110: 9ff9 0571 866d c53f d4f9 8918 a8ec a0bf
00000120: 5822 46c1 4279 be3f 1629 7d28 341b 9ebf
00000130: 3206 3b08 1e17 7a3f 1cf4 d27e f8e9 b13f
00000140: 15ea 8910 2605 c5bf c837 e93f 8d44 a5bf
00000150: 8e32 88ed 83d5 b8bf b051 b647 1267 673f
00000160: 7414 18ac 4b7f b3bf 68c7 0e80 1b41 6f3f
00000170: 3b70 f862 c639 b4bf eaa1 eac5 3f47 a93f
00000180: 7b38 8abe ad00 b33f 037d a4f7 f6e4 b43f
00000190: 3745 1477 b89f bd3f 3bab 9afe e24b 3dbf
000001a0: a430 510f bc16 803f 4d18 ce54 ce2e a7bf
000001b0: 78f4 687c 4d1c b53f 3ee5 8548 9786 b33f
000001c0: 2cec 1e2d cfbe 803f 6da9 c49a c760 c63f
000001d0: 9dbc fb18 947f cb3f c840 5536 e521 c23f
000001e0: 5102 7d4c 0d39 c43f c0d7 48ff fa19 b1bf
000001f0: 118a 50e6 355e a4bf 50b0 3be2 a961 ad3f
00000200: 0fa4 1f17 5513 b03f c9dc 8aeb 0634 b0bf
00000210: f6e4 437e 191e bc3f a66e 73ad 511c a43f
00000220: 09ac 0fe2 0421 b53f 3929 aeac 8d5f a43f
00000230: d99a 0350 5d88 a73f 47fb dd15 bdb7 aa3f
00000240: d811 40d2 cb83 c7bf a7a1 3ffa 8500 85bf
00000250: 77d4 7e1c 610c b4bf 4a27 a390 76e4 b73f
00000260: b571 a615 8db8 bb3f 011d 67c3 c673 a63f
00000270: 114b 8eb5 60fe ad3f 33ca 09d2 aee0 ae3f
00000280: 231e 1501 498a cd3f d5ec 6592 ed0a b5bf
00000290: 44cf 0a54 53b2 ba3f f3e2 10d3 3c1b b13f
000002a0: 1fa0 7957 4dab c0bf f3d6 b90b 15d9 abbf
000002b0: 5e44 f1ff 56d2 b4bf 7a33 72bc 4ae0 ae3f
000002c0: 4b4e 9a94 e23d b73f a5b4 a48e a706 8d3f
000002d0: 4db7 74ba 01f5 be3f 9dbd cf77 33e5 9dbf
000002e0: c3f1 d17b f23c b4bf 56dc cc31 bdb4 b4bf
000002f0: 298a e30e 6f54 a03f 8797 7256 1eb5 c33f
00000300: 75f1 8f4a 215b c13f b1d9 fe2a b34e b6bf
00000310: dcc6 d466 a457 c1bf 29d7 c10d c60d a63f
00000320: db84 31fd 0041 c53f a60f 1e5c b437 b0bf
00000330: 6ecf fd26 e79b a53f bcc9 7c7d ceb4 51bf
00000340: 9884 87fb afc8 c33f e9aa cf11 8d76 82bf
00000350: 3bdf efe9 d55e 98bf 7161 edf3 4f3c a03f
00000360: dad4 3441 d05c babf 38f3 da10 b953 aabf
00000370: bd1f 6e90 a410 9d3f 0748 83ba e6b8 bd3f
00000380: 87fc c181 9fc3 b8bf b142 e59d b83c b6bf
00000390: f876 da6e 9cc3 863f d8b0 3a23 43e3 b3bf
000003a0: e7c2 b07b 9751 d23f be0a 102c 5c43 acbf
000003b0: 47e2 48ec 715d ccbf 30f8 a9c2 4e34 a5bf
000003c0: b759 2039 ab76 c1bf 3843 7675 48f9 b0bf
000003d0: 45f8 b146 1413 b43f 3fc2 6798 b837 b13f
000003e0: d1ff 03ab d3bd ccbf a2dc 408a d023 a8bf
000003f0: dd4b 0fd7 f977 babf 7d9a b85d 107e 5cbf

7.bias f8 [1]
0.05666174130389767
00000000: a057 ab8b c402 ad3f
