models/run2/33.pt (torch, 153942 bytes, 6 tensors)

0.weight f8 [32, 1, 9]
0	0x3fa31e3da421939c	0.0373400938849848
1	0x3fc2347cb080928e	0.14222677820466284
2	0xbfbad645649efc91	-0.10483201700752633
3	0x3fcab2ebc4f7aa12	0.20858523480940555
4	0x3fc0444a5064cdb1	0.1270840542361902
5	0x3fd0b8fed1e937f7	0.26129122256395426
6	0x3fd0ce27a94b6c61	0.26258269817998864
7	0x3fd1f89db4f90a21	0.28079931901098304
8	0x3fd236d186388262	0.2845958529233369
9	0x3fbd2cc7288fb73e	0.1139645074869948
10	0x3fd3660098182a5a	0.3031007275864447
11	0x3f9af96d9e219b1e	0.026342118050162282
12	0xbfdcef0359ce472d	-0.45208820123763155
13	0x3fd38747a24b070b	0.3051318249600718
14	0x3fce1cda938ffab3	0.23525554852672811
15	0x3fd3e644100fd8a6	0.31092931335968854
16	0xbfd8056594bad2d6	-0.3753293945731405
17	0xbfcde15d5096f57d	-0.23344007906954892
18	0xbfcd2cb2f75712d3	-0.22792660786776384
19	0x3fb70ca052e92c12	0.09003641151609568
20	0x3fcef351e1735149	0.2418005324203796
21	0xbfd519ce8e9587e2	-0.32970012592534037
22	0xbf7f98658b33e619	-0.007713696151080218
23	0x3fd3aadf22680373	0.307304175949006
24	0xbfb4ff4efaa98d6f	-0.08202069873509797
25	0x3fc5a30e1930192c	0.16903854589345124
26	0xbfcef2a10c06bfd2	-0.24177945220208003
27	0xbf90219db264b64e	-0.01575323487593599
28	0x3fc40a0c4c0fa1f1	0.15655664171141795
29	0xbfc03598eda51c60	-0.12663566211469668
30	0x3fc23448dd5dc3b5	0.14222060021304875
31	0x3fb38ba08a39cba9	0.07634929060604513
32	0x3fd49d30d6c89fa0	0.322094163655942
33	0xbfc04b2befadd1f9	-0.12729405596805046
34	0xbfc345d78dcb2f2e	-0.15056890891571
35	0xbfd1dd7350a0623c	-0.27914126275712525
36	0xbfd0df046ac2ada6	-0.2636118929464949
37	0x3fc6bd2d0cd51669	0.1776481926591942
38	0xbfd0b928e16ad4eb	-0.26130125058564485
39	0x3fd26f654742fd36	0.288049048987847
40	0x3f7bac69f03afdd4	0.006756223508716148
41	0xbfd5114b0aaacf2e	-0.32918048898430896
42	0x3fc6b5b3afb8af01	0.1774201019301174
43	0xbfabbad3ea80afcd	-0.05415975797254156
44	0x3fc668c1c3ca1142	0.1750719266893928
45	0xbfb4b8391b82f08d	-0.0809360210577685
46	0x3fd0eb0837f2ef48	0.2643452211739157
47	0x3fce4c7fb0589a32	0.2367095576348262
48	0xbf7a48fc8a335016	-0.006417261585017561
49	0x3fd145cfc40f0635	0.26988596102100654
50	0xbfb12dcdb223f6b4	-0.0671051559365548
51	0xbfd319e93b68d658	-0.29845648576460837
52	0xbf7f9149a25de2ce	-0.00770691645981776
53	0x3fb5614fa6b4c45e	0.08351610012029329
54	0x3fd234e731fd7266	0.28447894937361295
55	0x3fd19adea2d7f557	0.27507749464696957
56	0x3fd1934e4e175a9b	0.27461583734604184
57	0xbfafd645b50296ff	-0.06218164286228322
58	0xbfd6b4abff9d0c6a	-0.354777335760622
59	0xbf9b6a6817c04101	-0.026773096513410092
60	0x3fd451105fa4c311	0.3174477514285608
61	0xbfacaf461c150548	-0.056024733474723976
62	0xbfba3c0cb451b14e	-0.10247878458330215
63	0x3f9b9d8d2395ebc8	0.026968198105787683
64	0xbfc12738428dfe75	-0.13400939225902034
65	0xbfa64842df10d042	-0.04352005932779025
66	0x3fce798bbaad9b28	0.23808428397315962
67	0xbfc62c2bfd18b98b	-0.17322301729423048
68	0xbfd6217e4d8b355f	-0.34579427311549255
69	0x3fd074aa2d03d3af	0.25712065120688526
70	0x3fbb2baf17939d77	0.10613531423188315
71	0xbfc24aabcfae465d	-0.14290378227865377
72	0x3fc7861298b09a9f	0.18377907233771837
73	0x3fcd61886f40a7ff	0.2295389693475158
74	0xbfc1d06c01bbe8ee	-0.13917303166073886
75	0x3fd0c79961305588	0.26218256465048073
76	0xbfd1db35ac4f3d6c	-0.2790044958791984
77	0x3fccee079200ff3c	0.22601408604713835
78	0xbfc793226841b71d	-0.18417768564852902
79	0xbfbf699a3c84407b	-0.12270511605697891
80	0x3fd13077f5121e69	0.26858328755085964
81	0xbfd2961a8e3babcd	-0.2904116047854444
82	0xbfc714b1f8f13ba5	-0.18031906752955
83	0xbf8bfb5b60b1c477	-0.0136630190738478
84	0x3fcc16215bae7990	0.21942536331785023
85	0xbfd3d59e462f2ae1	-0.3099132237809226
86	0xbfd11bd19d862c52	-0.26732292540754543
87	0x3fc91e41e360f0be	0.19623588182901658
88	0x3fa2befff72ace1b	0.03661346332719636
89	0x3fc756765ccafc8a	0.18232612162498568
90	0x3fc7658ee1f4097e	0.18278680832743172
91	0xbfa8e4fbffb6badc	-0.048622012105047324
92	0xbfbf88233b45563b	-0.1231710452751366
93	0xbfaa0f103a94e80a	-0.05089617457493041
94	0x3fd00283c73bb646	0.25015348869678566
95	0xbfcd671d63c3397d	-0.22970931407185083
96	0x3fc43fbd483573f6	0.15819517160244317
97	0x3fcc6b4d356958b2	0.22202458484634274
98	0x3fd23edd3ed67c82	0.2850869287157779
99	0x3fa4e97fbea47ec4	0.04084395601443938
100	0xbfb699d688051b13	-0.08828488179015563
101	0xbfc3f8d9dfc42719	-0.15603183199009932
102	0x3fc49bcf36714969	0.16100492628408894
103	0x3fc857cf2fbcd3dd	0.1901797278493679
104	0xbfc3b03c08e40588	-0.15381575044743223
105	0x3fcf70e6e1572c84	0.2456329918189547
106	0x3fd10c99b9591f34	0.2663940725365024
107	0xbfd66bd33e51ae7c	-0.3503311260780959
108	0xbfd1a7f4f794a774	-0.2758762758045272
109	0x3fd1a1041413e82a	0.27545263252943875
110	0x3fd1a13b5940e1ad	0.2754658099761638
111	0xbfb3d4ec73504703	-0.07746770682595287
112	0xbfc00a12704dc5e2	-0.12530737384399432
113	0x3f68e6e745959c3c	0.0030397908237094467
114	0x3fd3a2ad027a2861	0.30680394403373695
115	0xbfb592438e8da349	-0.08426305990509521
116	0x3fcb8eba62de228c	0.21529321506047372
117	0x3faeb7196882f1de	0.05999068642401871
118	0xbfd5f98fc7e18d9e	-0.3433570339168116
119	0xbfc22505831daba1	-0.14175480749267158
120	0x3fccb8e52df56770	0.22439255470345243
121	0xbfa0e93aa12dc951	-0.03302939622416779
122	0x3fc2ae11025138dc	0.1459370862307371
123	0xbfd7482d4cd714d9	-0.36378033164903695
124	0x3fbb4ae36e3123bf	0.10661145630105205
125	0x3fd2fc4cf4089633	0.2966492064609582
126	0x3fc0a86dd578312f	0.13014004634204343
127	0x3fca28da1fd3710a	0.20437170557023193
128	0x3fd4a42b03edffaf	0.32252002128370355
129	0xbfcbec1e63350085	-0.2181432709130641
130	0x3fc6328c7e0c3aa3	0.17341762690235382
131	0x3faf97695b904e73	0.06170205347748672
132	0x3fd2ef072e348372	0.295839114305685
133	0x3fd2e6723e94afe5	0.2953153239384377
134	0x3fd2eb3d6a535ae0	0.29560790427551176
135	0xbfd20118b600c610	-0.28131692670567165
136	0x3fd28ba563e73cbe	0.28977331882647295
137	0x3f9a5be8391847f3	0.02574122284392639
138	0xbfb505e7dba705e2	-0.08212136376007309
139	0x3fd2a3930051273f	0.29123377829511193
140	0x3fd14fb2f30bfbc8	0.2704894422058115
141	0x3fc500b104460516	0.16408360203426103
142	0xbfc64b448dacd73a	-0.17417199056370142
143	0x3fb690cb2ab610cb	0.08814687531236413
144	0x3fa8b4ea23949f71	0.04825526890118582
145	0xbfbaeccb4cafa39d	-0.10517569181651117
146	0xbfd0a3abea53a73e	-0.2599897182795877
147	0xbfccf99976989038	-0.2263671711999693
148	0xbfbf6c782df22643	-0.12274886247373566
149	0x3fc33c40c22ca2ca	0.1502762745015132
150	0x3fc122fb2494c1d4	0.13388003622232125
151	0xbfcb0d97f5ae8b28	-0.21135234352285548
152	0xbfc408f8b019e93c	-0.15652378653232712
153	0xbfb46128b3e2cf9f	-0.07960752860782215
154	0xbf34ecd123e6fb7a	-0.0003192911716744445
155	0xbfcb8b08a915baf7	-0.2151804757699762
156	0x3fcb773c5882b9d0	0.21457628557023023
157	0x3fc355f868228b1c	0.15106110653604155
158	0x3fb350114e3130aa	0.07544048460948952
159	0x3fbd65f5f104e8a3	0.11483704694993206
160	0x3fba0550c830d6d7	0.10164360892744227
161	0x3fcaa9f299ecd4a0	0.20831139102816554
162	0x3fcf95e284c4563b	0.24676162226448803
163	0xbfce9bdea3bd0293	-0.2391317653182524
164	0xbfb822605c63f051	-0.0942745423853364
165	0xbfd6a2e26030de93	-0.35369166749613007
166	0xbfc6043a68b6eb6f	-0.17200403321279675
167	0x3fd077d5c0e59103	0.25731414640019085
168	0xbfd0f5682fa5736c	-0.2649784531875443
169	0xbfcd0fd2856f187a	-0.22704535975771362
170	0x3fd387277042f160	0.30512414897000006
171	0x3fa9d56bfe2e9c0b	0.050456404474339044
172	0xbfc26d9a3d190096	-0.14396980269703324
173	0x3fd01bce03a51bf0	0.25169706684067616
174	0xbfd56c10c43d45ea	-0.3347207943344005
175	0xbfd0f1f2152a51f3	-0.2647671896641263
176	0x3fc196b4b021a714	0.13741167640846952
177	0x3fcf90268cb20837	0.24658662671942164
178	0xbfbf749238a34d99	-0.12287248499642657
179	0xbfaedd7910d3994e	-0.060283454231284325
180	0xbfdecc90379b6e20	-0.4812355559385839
181	0xbfcae79954a3c47b	-0.21019283898161575
182	0xbfd00135a5473186	-0.25007382526816746
183	0x3fc4f5fdd9b82d77	0.1637570679743978
184	0x3fcf7fe166d132f8	0.24609010239000617
185	0x3f8392ea0473d9ca	0.009557560215836331
186	0x3fc9d44be2002fea	0.2017912724990077
187	0xbfd079824424d503	-0.2574163117854626
188	0x3fbe60be30586fa0	0.11866367988881033
189	0x3faacfcd5acd9c40	0.052366654714937955
190	0x3fc89a99e86c20dc	0.19221805428265426
191	0xbfd89002c7d7c77f	-0.383789725455351
192	0xbf8b2e67e2760c23	-0.013272105787796978
193	0xbf85bdc41c56ae21	-0.01061585628016021
194	0x3fd4822452b23ede	0.3204432303982524
195	0xbfcb440cb5a54a6f	-0.21301421040932975
196	0x3fcefa1a7196dbb3	0.24200754686691325
197	0x3fcf2ae2bcaa5b4c	0.2434962674348874
198	0x3fc8235c329c3e5d	0.1885791060562835
199	0xbfc17793bd39606d	-0.1364617036767898
200	0x3f9e00657b5b3a5e	0.029298387197565716
201	0xbfcd58c437987b72	-0.22927143778448628
202	0xbfd425dee7ed151a	-0.31481144570382613
203	0xbfd3c1b0a2eb0203	-0.30869689855538257
204	0xbfc346aef5b78151	-0.15059458730594114
205	0xbfc3419198ca99b0	-0.1504384990741534
206	0x3fd4141c4f390635	0.31372745262715124
207	0x3fbed025c5724b6e	0.12036357946844387
208	0xbfa0ff38de039e88	-0.03319719038136976
209	0x3fcd1ed90970f531	0.2275039001560031
210	0x3fce35677780f55f	0.23600476584571603
211	0x3fabf159e36de576	0.054575737964976875
212	0x3fc11387fcf7864e	0.13340854503535343
213	0x3fbce8ac0c22e4bb	0.11292529388710452
214	0xbfc94c54b263c256	-0.1976419325869922
215	0xbfd73034b877f3ff	-0.3623172570658539
216	0x3fc279f87d1d00fd	0.14434724911735222
217	0xbfcb6a32f4291213	-0.21417843744178863
218	0xbfc0c39bdf7a0b01	-0.13096950923871734
219	0xbfb60b220ad1b6bd	-0.08610737575664991
220	0x3fc068ac8f5907b2	0.12819439887431155
221	0x3fd4568d2838afee	0.31778267791628323
222	0xbfd05215349e0470	-0.2550099386062987
223	0x3fcbc2cfdd801d7f	0.21688268962337173
224	0x3fd1ccf49b3d4fc0	0.27813449058634987
225	0xbfbc420e9b5bb758	-0.11038295071531701
226	0x3fd10622db902666	0.2659995216532479
227	0x3fcf52e4cadd1724	0.2447172155900087
228	0x3fd3bd7cd040cb7e	0.30844040238587656
229	0x3fba8eeb59a890e0	0.10374327601363431
230	0x3fd1f76126f2796a	0.28072384646829696
231	0x3fc8820d2f4800cc	0.19146885689406756
232	0xbfd5a125bfac34c1	-0.33796066015277054
233	0xbfada9349e8ba517	-0.0579315608536694
234	0xbfcdfda8afb97ced	-0.2343035562543955
235	0xbf8b1abe7ccdd157	-0.013234604057040284
236	0x3fc63fe3e427617d	0.17382477417300982
237	0xbfc9e79e74843ab0	-0.20238094987185695
238	0x3fc60d3e8805f17b	0.172279182832323
239	0x3fb1fc1a78d6bedd	0.07025304269950135
240	0xbfcefa0b818f8fba	-0.24200576616487784
241	0x3fb33e18af4d1bc2	0.07516626624884196
242	0xbfd1ecd536741d20	-0.2800801307461871
243	0x3fca541d176e6682	0.20569194454292378
244	0xbfd06b3387948e09	-0.25654304733527106
245	0x3f97e0b03d0dce14	0.023318055845676325
246	0x3fc1a7a8cfd26d0b	0.13792905948216858
247	0xbfbdb02064b7c570	-0.11596872767383615
248	0xbfd0aff91ff912cf	-0.2607405483470701
249	0x3fd1b3c3e34a774d	0.27659699627280504
250	0x3fbd8d3c2a2427db	0.11543632534826946
251	0xbfd60172c04b0e5c	-0.3438383939612544
252	0x3fd3c43e5ae799d1	0.308852757238495
253	0x3fd30e97904494bc	0.2977656277528913
254	0x3f712096a77ff3d8	0.004181469434112871
255	0xbfd54541e5ade435	-0.33235213689437454

0.bias f8 [32]
0	0xbfaf75239d3ab0dd	-0.061440575545334865
1	0x3f4537cc681f4314	0.0006475208358499318
2	0x3fcf6730791ff495	0.24533658899591573
3	0xbfb77480c7f9161f	-0.09162144548562211
4	0x3fd3cadee0f8bb3b	0.3092572400081967
5	0x3fb94f58ec03fec3	0.09886699449634322
6	0x3f396dd3ac165a2d	0.0003880159166213284
7	0x3f33e98998774645	0.0003038369108852894
8	0x3f67c29108ccafea	0.0029003937437632648
9	0x3fd52716f546ed16	0.3305108447345487
10	0x3fd2e3d1668d9624	0.2951549054617735
11	0x3f3b420572270019	0.00041592247921684724
12	0x3f5eacb5a514d561	0.0018722318530540393
13	0x3fbbaeb44fb3a55e	0.10813452668994247
14	0x3fd27b8ef5ca6735	0.2887914085673516
15	0x3fd2045bb1d0f781	0.2815160023200108
16	0x3fd0b6664ffaba40	0.2611327916191932
17	0x3f30ad3a2480d4a9	0.00025446576592298237
18	0x3fd4dfa8e05cf93d	0.3261511031195317
19	0x3fd49265395e3fda	0.3214352665172534
20	0x3fab2b3ed423d7df	0.053064311405179636
21	0xbfa53a9bf558c8af	-0.04146277780491069
22	0x3fc82c32ae1d818c	0.1888488149807127
23	0x3fd0f149c5f47a11	0.2647270615724731
24	0x3f6a5ae3553c6f6a	0.003217166909861226
25	0xbfa871b8fac5b0a9	-0.04774263440308008
26	0x3fd436056987951e	0.31579718881251206
27	0x3f40d3303bb9aab4	0.0005134568704766224
28	0x3fc362dc184509ea	0.15145446000140278
29	0x3fad80ee9a992198	0.05762429845032385
30	0x3f64e205e58aaf09	0.0025491824311155748
31	0x3fcb09e3ea516570	0.21123932782465316

3.weight f8 [64, 32, 9]
0	0x3fb9cbc4c7291fbe	0.10076551306076362
1	0xbfc7ae45554998ef	-0.1850058237498113
2	0xbfc2c610e23ef708	-0.14666949317136635
3	0x3f8a2d2e8d3dd435	0.012781490025853251
4	0xbf899d5eb79806e2	-0.012507190683212103
5	0x3fb34fdbab45931c	0.07543728763046115
6	0x3f9a35a2906196b5	0.0255952263472838
7	0x3f9ed9823495eb2a	0.030126604518481738
8	0xbfbb31a7537488a4	-0.10622640407067024
9	0x3fada77f90e8be8a	0.05791853565130818
10	0xbf4fa4be945d3df3	-0.0009656839908788725
11	0xbfc08d59be5f31e9	-0.12931367679119823
12	0xbfb9b557e982d7f5	-0.10042333079294948
13	0x3fa2188bd1dc989d	0.035343522422679664
14	0xbfa4ea18b6c98070	-0.040848514855270746
15	0x3f8c589b39a051de	0.01384087819682461
16	0xbfa445fb68e79d24	-0.03959642081809481
17	0xbfb97ac302de23d6	-0.09952944583905263
18	0x3fab708791ef1fc8	0.053592907489985075
19	0x3f730d64c5b33146	0.00465144504705634
20	0x3fa21cb6b495c584	0.0353753180924157
21	0x3f9aa5d689415e20	0.026023246886636042
22	0xbfa12d3241510adf	-0.0335479454738754
23	0x3f8d78ef25d7269f	0.014390819876001713
24	0xbf88b2428d1767ef	-0.01205875390126107
25	0x3f951d1fe46307fc	0.020618913950563908
26	0x3fb38a312e53fcd9	0.07632739430481496
27	0x3fb3e094680fd68c	0.07764556446621834
28	0xbfc4d1a974aba10b	-0.16264837452695988
29	0xbfb5eb7f6e39ba07	-0.08562466088344688
30	0xbfb0addbed7bf6e6	-0.06515287921862586
31	0x3f9cd3ba8d399e2d	0.028151430959409907
32	0x3f8fd736437c542e	0.015547203001498113
33	0x3f8425580c701537	0.009836852912494904
34	0xbf9996300f204afb	-0.024986983226038522
35	0xbf922bebe8281937	-0.017745672268597103
36	0x3f5da34a3ea41f7a	0.0018089509054010897
37	0x3fa0d5c0e21641d7	0.03288080940103882
38	0xbfa2ae1c699cb45f	-0.03648461140833414
39	0xbf9c77082c95621e	-0.02779782077900183
40	0x3f890d16eca98a7e	0.012231997582778261
41	0x3fa511f05a48e299	0.04115248777492759
42	0xbfa4b1ea29cc8801	-0.04041988144150822
43	0x3fac43225922e234	0.0551996930893818
44	0x3f9410a98d52394e	0.019594811678467487
45	0x3fb36c62631d8d2d	0.07587256355104861
46	0xbfa501637931be3d	-0.041026218933322124
47	0xbfaccdf60a8d09d4	-0.056258858478503676
48	0xbf9f3815dabcaf14	-0.0304873862034319
49	0xbf9b59eedec33e20	-0.02671025499949853
50	0x3fa9a319453c2868	0.050072469426667265
51	0x3f89b05acbed630b	0.01254340109669407
52	0xbf9a35f4ba90aa21	-0.025596450697927268
53	0xbf88dfed5800bdf1	-0.01214585709394009
54	0x3f9876502424da9d	0.02388882847409467
55	0x3fb2e7bde8b8ccc8	0.07384859973608393
56	0xbfc49337d7d5a157	-0.1607427410010682
57	0xbfb2388865ece454	-0.0711751221505364
58	0x3f51448e9ded8009	0.0010539429419722543
59	0x3f78be16b301b7cf	0.006040657681394237
60	0x3f606d6a6f181140	0.0020052984989452904
61	0xbf4fff81902a6b2d	-0.0009765036232523887
62	0xbfb9be8ec5d4b794	-0.10056392984253498
63	0x3fbed6fa711885bf	0.12046780835273461
64	0xbfbc56a45cd16e13	-0.11069705263201284
65	0x3f741e44f1e86a25	0.004911679569455295
66	0xbfb96ba111c3b025	-0.09929854091359454
67	0x3fb22cfd24a9bfe7	0.07099897523016772
68	0x3f90d8733dc3c7a0	0.016450691838094778
69	0xbfa1970f420b5f5e	-0.03435561829763743
70	0xbf91f6eee47cb7a9	-0.017543537803412033
71	0xbf86bb71fde55152	-0.011099710999282895
72	0x3fabcd94ad96e434	0.05430283183108778
73	0x3f948e3a02278fbd	0.020073801404478554
74	0xbfc58db201eabc1c	-0.16838669866180644
75	0xbfbbe9a916cd098d	-0.10903412634528405
76	0xbfb5f6a968f9a4b4	-0.0857950097357783
77	0xbfb070319438c9c6	-0.0642119395131778
78	0x3fac17e0d974e867	0.05486967710972195
79	0xbfac06569e581e3d	-0.05473585780060517
80	0xbfbb3e1a814cddc2	-0.10641637474770163
81	0x3fb8be4cadc12906	0.0966537403302575
82	0xbfb3f15908676841	-0.077901424934141
83	0x3fb0e9f36fb07855	0.06606980778494294
84	0xbf9f934e603ed891	-0.03083536589084496
85	0xbfa0a68e0f752cd1	-0.03252071322148143
86	0x3fae419e08b14675	0.05909437042340652
87	0xbfa07047dce44ddb	-0.03210663386758102
88	0x3fadaf78211fe558	0.05797934917786546
89	0xbfa3bf6aeda167d3	-0.03856977606547187
90	0x3fb4e0d060cfb131	0.08155538905674999
91	0x3f85f7237e180181	0.01072528580243737
92	0x3f81f48d63c5a2a5	0.008767227752018167
93	0x3f5db32a139c4358	0.0018127356437995425
94	0xbfa2bd984cf415d8	-0.036602744477970794
95	0x3f732cf4491b110e	0.004681543579583071
96	0xbf5c2f67481bbb98	-0.0017202862367715396
97	0xbfa806d341afef96	-0.0469270723042136
98	0xbfa4f6d965d85026	-0.040945810014960934
99	0x3fbc24d468466869	0.10993697686936489
100	0xbfae929ff936f565	-0.059712409183229544
101	0xbf3373a25638c7dd	-0.00029680932331921183
102	0xbf9c4db82022cabd	-0.027640225373668715
103	0x3fa4d96edc990ba1	0.0407213825497117
104	0xbf817542596b6ebe	-0.008524435380813041
105	0xbf5a43c556bc1c4a	-0.0016030718933863924
106	0xbfab0ecb5f60070a	-0.052847247498006025
107	0x3f6b9c0a6a5d7f3a	0.003370304434540031
108	0x3fb102c5c5e46d37	0.06644855576853535
109	0x3facf81460174777	0.056580197076654785
110	0xbfc4f32b6ba537cd	-0.16367094761011317
111	0xbfbd04bab72178cf	-0.11335341425862853
112	0xbfa3212590b5fd59	-0.037362264552025244
113	0x3fa309bad40a4f47	0.03718360746748189
114	0xbf8d3e769a6befb8	-0.01427929552800565
115	0xbfad29eda6f89e95	-0.0569605127641896
116	0x3fb018d6de087f9f	0.06287901802761418
117	0x3fba9a096121f888	0.1039129125728967
118	0xbfa0b14cabfee196	-0.032602687831459295
119	0xbf933916f302eaae	-0.018772467214811676
120	0x3fb2f179484c4c43	0.0739970971592792
121	0xbf81ecb56643f547	-0.008752267058748443
122	0xbf9edf4c5dfe4af9	-0.030148690449617075
123	0x3fb03252770238db	0.06326785474286416
124	0x3fa5521ed44f477b	0.041642154137334374
125	0xbfb02546209c549e	-0.06306875511320917
126	0x3fb8b8e2e43dae90	0.09657114097870534
127	0x3f9553a088f08aa2	0.020826824529772588
128	0x3f92e5a70ab66fd8	0.018454179791305453
129	0x3fa504d4965b94c3	0.04105247817441573
130	0xbf82f2ca09348c97	-0.009252146154329828
131	0x3fa68dcc07497920	0.04405057515099231
132	0x3fa56bf5048bf98a	0.041839272313143175
133	0x3fac75bec125af9b	0.055585824086704615
134	0xbfb7182ddfb16f33	-0.09021269522912405
135	0x3f9b3fa00da6e300	0.02660989840817063
136	0x3fb009ef3362665b	0.06265158657552077
137	0xbf81162de62b4256	-0.008343084894847735
138	0x3f98d13cae34ccb8	0.024235675938325513
139	0x3f9fe8e5cec3a1ee	0.03116187166679823
140	0xbf62574ae8fec123	-0.002238889988767438
141	0xbfabff5eb2753659	-0.05468269279900246
142	0x3fa426e89ef2a2c8	0.03935934963494031
143	0x3fa1d48ee1aae571	0.03482481484156608
144	0x3fb9dc0c3f2501e6	0.1010139135514759
145	0x3f7a43506a758304	0.006411852001605881
146	0x3fa62cf67e8de4e6	0.043311789463538905
147	0xbf8bda46946a7f3d	-0.013599921612069127
148	0x3f82f6e7c74de5b8	0.009259997148307927
149	0xbf940d93be743c85	-0.019583042621033293
150	0xbfa009ab1389043e	-0.03132376302210858
151	0x3f7f3a4b5aa020d2	0.007623953200898552
152	0x3fa04e88a825b072	0.031849165464195375
153	0x3fc4e63e9b782ac2	0.16327650634078422
154	0xbfc03f82cea66e82	-0.12693820085847923
155	0xbfb5d934ac49af1b	-0.08534554678197674
156	0xbf9b5cb385481620	-0.026720814714300656
157	0xbfbaaa5bd4b9e0de	-0.10416196769245142
158	0x3f5c1de7d6292b7b	0.001716114428421205
159	0x3f9571676d183fb2	0.020940414460767172
160	0xbfaec2e420cc7896	-0.060080651286839856
161	0x3fa90cf442f58b76	0.04892695729610967
162	0x3fb635405280d15f	0.08675004972685006
163	0x3f9208eb7244d53e	0.017612151002329705
164	0x3fa7a7b7828e2aa4	0.046201452910357405
165	0x3fa985ec8b9da94f	0.04984988407416557
166	0xbf83865856e35556	-0.009533586646663633
167	0xbf91e52938afb7aa	-0.017475742421019604
168	0xbf9c3c87ce3d7163	-0.02757465549744732
169	0xbf955e80afe4fa03	-0.020868311630005475
170	0xbfb714f548e0ad71	-0.09016354588736931
171	0x3fb38aa70cbbcecc	0.07633441983108041
172	0x3fa0afcf7a182ba8	0.03259132733736375
173	0xbf701498bfc5a3ae	-0.0039258925211037975
174	0xbfa492050865969a	-0.04017654159069402
175	0x3fb17fd1be2adac1	0.0683566178584938
176	0x3f9da50f5e6a94e3	0.028949966562000006
177	0xbf7da26020eb7f9a	-0.007234931471174289
178	0xbf6c79afacb7e929	-0.003475993265735462
179	0x3fb0852a8dc3788a	0.06453195534729353
180	0x3fbfd6d65512dfc4	0.12437190606112752
181	0xbfbf60a146ab25bb	-0.12256820655161153
182	0x3f930186da23b237	0.018560511650252045
183	0xbf90278e4b671a54	-0.015775893547266343
184	0xbf7da8bc27831e9e	-0.007240996339710341
185	0xbf862b65d55b1877	-0.010824962209323481
186	0xbfa465d62c6a3f4e	-0.03983945171523705
187	0x3f8d248e0c8c7a0d	0.014229879148442337
188	0x3fa2875ba8f8877f	0.03618894994384813
189	0x3fae1ecddb4fcfcb	0.05882876684327661
190	0xbfb6c24846b919cf	-0.0889020130790421
191	0xbfc348951214c109	-0.15065253622879762
192	0xbfbe72dfecd8a704	-0.11894034893398603
193	0xbfa6a5709f457f38	-0.044230956499403395
194	0xbfa2b1c3fe4e006f	-0.03651249388985966
195	0xbf9ca813b4bf479f	-0.027984912783558632
196	0xbf9cddc472d9a585	-0.02818972540845756
197	0x3f74ce6ed00bbfbe	0.005079682218578739
198	0xbf90dabad9f76540	-0.01645938830720195
199	0x3fbe0df6f467f667	0.11740058390565765
200	0xbfa66a3033359a01	-0.0437789022933437
201	0x3fb6a143e7cd189b	0.08839821252067497
202	0x3f9443d9bdcad650	0.019790079316143683
203	0x3f9295219453f736	0.01814701526472292
204	0x3fac7f3120abd44d	0.055657897222694964
205	0x3fa4bf86ed09e91a	0.04052373546160677
206	0xbfb664a3a0ec23dc	-0.08747313193101952
207	0x3fac304ac6d1336b	0.055055939454723944
208	0x3fafdf4e0f893a91	0.06225055637024924
209	0xbf984fab5f5d1057	-0.023741414733436574
210	0x3faa4a6248da5bcb	0.051348754304107645
211	0x3faa1a897b7cdbb3	0.050983711551843135
212	0x3fb193876ee98044	0.06865736444297094
213	0xbf967db53f1c49ed	-0.02196391294189397
214	0xbfa23cbee486f48c	-0.035619702717192586
215	0x3f9d33983f630f4c	0.028517130726654558
216	0x3fc03e631c54b10e	0.12690390475598473
217	0x3fb7cd2433a0ca63	0.09297395954562541
218	0xbfc3b5c16ea35110	-0.15398424055332116
219	0xbfbd93d0fa0e12b9	-0.11553674797876114
220	0xbfa12dc69bda189c	-0.033552366757292534
221	0x3f9e87892250ec6b	0.02981390258740328
222	0xbf9c166c2c4140c8	-0.027429285241226592
223	0x3f81315b113e7b8d	0.008394919837710702
224	0xbfb95538faab8068	-0.09895664329406062
225	0x3fbb5a9f9bd200ab	0.10685155443389031
226	0xbf8c291f45309240	-0.013750309275630035
227	0xbfb17d97db86e2a1	-0.06832265004676198
228	0xbfb50a5cc6b028d3	-0.08218936777862788
229	0x3fac7861625dd6d6	0.055605929620396274
230	0x3f85baaebb3d020e	0.010609974946079095
231	0x3fb36a8775f1b5d1	0.07584425572868915
232	0xbf957bbe397c89bc	-0.020979854830452047
233	0xbf8fa3da238f872f	-0.015449241838669884
234	0x3fb2839168d51433	0.072320068448861
235	0x3fa7d26987c70c36	0.04652719290199807
236	0x3f76fda02828fae7	0.0056129699829045926
237	0x3faf58a80f6a5778	0.061223270303499555
238	0x3f8cb3c42e6a012a	0.014014752069897957
239	0x3fa05fcb6278427e	0.03198085381530279
240	0x3f9cf64b03c55042	0.02828328333392017
241	0x3fabc161d6e0733f	0.05420976398474985
242	0x3fb46efed5e8f54a	0.07981865618144926
243	0x3fb332db2228edb7	0.07499475082379702
244	0x3fb83532d127c820	0.09456174475033707
245	0xbfbd743b0db5b50d	-0.11505478939735188
246	0xbfaa75ad8ee7a283	-0.05167906159824034
247	0xbf8a20fae2931e8c	-0.012758216895590445
248	0x3fa4e52bb8abd6e4	0.040810934346081656
249	0x3fb09cf121fbbdba	0.06489474372550932
250	0xbf982430d7ebe893	-0.023575556925586282
251	0xbfb12153defdc0eb	-0.06691478914376929
252	0x3fa1fa6d0dcd01e0	0.03511372369257848
253	0x3fb49cbd08c77011	0.08051663841564528
254	0xbfa219f9eca3fe24	-0.035354433190147
255	0x3efe5dcce36fac75	2.895966300890366e-05

3.bias f8 [64]
0	0x3fa16a53fb800273	0.03401434369152847
1	0xbfa131c0f1f0f25c	-0.03358271554359213
2	0xbf98b287de0cf970	-0.02411854069509317
3	0x3f9522faa20d6b54	0.020641246930021964
4	0xbf494943f2fe0485	-0.0007716733725687963
5	0xbf841c154d0cb6a4	-0.009819189466351581
6	0x3fa50a0a08685ebd	0.041092217947320965
7	0xbf96eac9125ec66e	-0.022380010362843476
8	0xbfa14296fe4985c9	-0.033711164990346605
9	0x3fadb86045922d38	0.05804730271582986
10	0xbf79b1a131ba40b3	-0.006272916474373047
11	0x3fb282c9e16eeee8	0.07230817559951286
12	0x3fb57033f6a871af	0.08374333164142088
13	0x3f70feda66082e32	0.00414929687441261
14	0x3fc0002a5631fcba	0.12500504692795805
15	0x3f93a525281030bb	0.019184666223779994
16	0x3fb177f69ea7e629	0.06823674558099725
17	0x3fb462334f70c6bf	0.07962341966119889
18	0x3fb186645fc6911d	0.06845691049835918
19	0x3f9c48b315d43dbd	0.02762107678159763
20	0x3f8bde2e1b57498c	0.013607368668918672
21	0xbf928d93ba665adb	-0.01811819863504636
22	0xbf9a90f619ef2087	-0.025943608601466408
23	0xbfb9e8777473f04e	-0.10120340912902856
24	0xbfba93b8365f0877	-0.103816521906113
25	0xbf914633f6c8c081	-0.016869365632544934
26	0x3f7077e8a5987fc4	0.004020603920736169
27	0x3f9f61baa9579792	0.030646244607758506
28	0x3fb0e9841687cf9b	0.06606317091046636
29	0x3fa4f61c576e0b0c	0.040940175697889186
30	0xbf218f63313ad44c	-0.0001339729866366733
31	0x3f876d1e01153324	0.011438593299908435
32	0x3fa79c6a9665f8a6	0.04611523710171754
33	0x3fadb63b2fbbaca4	0.058030938698572926
34	0x3fa09c94b4959fd0	0.03244461731338755
35	0xbf9fa0d7f434ce80	-0.03088700702683278
36	0xbfa23c256598fc32	-0.035615128185320435
37	0xbf996f2dd8f2c9a6	-0.024838177076796385
38	0x3fa6ee096c8cdbbd	0.04478482675624871
39	0x3f98762a439966dd	0.023888264060906706
40	0xbf75b3d2f0acb32e	-0.0052984466408759045
41	0x3fb00f506bfecb3f	0.06273367535213213
42	0xbf9686535f0e504f	-0.021996786762955186
43	0x3fa1a494aff347c6	0.0344587769301508
44	0xbf99b6487d9c2976	-0.02510941759741444
45	0xbf9af09dccc295fd	-0.02630850374466397
46	0x3f95f2a0c7a657d3	0.02143336504521882
47	0x3f91c0c9af84ceb3	0.017336989724937534
48	0xbf61a0c62cb82ca8	-0.002151858386928735
49	0xbfa07bd07489db27	-0.0321946279772674
50	0x3fa5efec270cf020	0.04284608818713331
51	0x3f4d2d1c19186303	0.0008903872678188432
52	0x3fa1d9539ab106c9	0.034861195214501324
53	0x3fab13831a98e250	0.052883240696648515
54	0x3fa5547415959993	0.04165995372277389
55	0x3fafd5d80dcc7c15	0.06217837494318005
56	0x3fabe903b3dcbd1b	0.054512134271471356
57	0xbfa4b9fa2fa2c967	-0.04048139411442513
58	0x3fa676e7ab1b143d	0.04387592281049322
59	0x3f8a75c5e1bffc01	0.012919946624604607
60	0x3fa3e203ee3b3d5b	0.03883373530481534
61	0xbfa2a9d507b19522	-0.036451966466112276
62	0xbf9305fb0fbafc24	-0.018577502093418144
63	0xbf871042cd14e084	-0.011261484035103082

7.weight f8 [1, 128]
0	0xbfb2b1164c9fa0bf	-0.07301463480655722
1	0x3fa463a7de0d6176	0.03982281289671878
2	0x3f95626ce4762ea4	0.020883275455658393
3	0xbf949c56fcb4d0dc	-0.020127638982743487
4	0x3f89919492b162c5	0.012484703757011837
5	0xbfa12ac52070df4e	-0.03352943440444155
6	0x3fae3e5e5137d24d	0.059069583334267685
7	0x3fb402d473fa5fb4	0.07816818076605508
8	0xbfc55d8284f3b4d8	-0.16691619388385592
9	0xbfafaf3669ec5e2f	-0.061883640699474156
10	0xbfb336bb72cb88a0	-0.07505389740575419
11	0x3fb00c7910772055	0.06269032146440286
12	0xbfbf12e944af5e24	-0.12138231207733746
13	0xbfa3a309f0483411	-0.038353262502006776
14	0x3fc7376a3ac1da48	0.18137863034253798
15	0xbfb42ddbd31500df	-0.0788247480713866
16	0x3fc8532c9ac241d4	0.19003827625830516
17	0xbfa4789b7fb94368	-0.03998266157271396
18	0x3fa642d9395226c4	0.04347876381605212
19	0x3f743f6eed0b9b33	0.0049433072133300724
20	0x3fa693bdf394854e	0.04409593199148763
21	0xbf97b677b062d006	-0.02315699590754152
22	0xbfbabf1a29cf5dce	-0.10447848816635671
23	0x3fcb9da517c0a508	0.21574844035902907
24	0x3fc622696e6f096b	0.17292516605636918
25	0xbfb191c025061893	-0.06863022712613746
26	0x3fc03c9852ea3977	0.1268492131097891
27	0xbf96a9f40fc45aac	-0.02213269563898261
28	0x3fc31938e77da7a3	0.14920722296966202
29	0xbfb34d083a4f3b8e	-0.0753941671712097
30	0xbf8c1e1d0cc3b763	-0.013729311897318025
31	0x3fb2eda4031fc0f5	0.07393860889692745
32	0x3fa1bb737ff8b17d	0.03463326394225683
33	0x3fa112081968531a	0.03334069547796599
34	0x3fc5681576061de6	0.16723888647923885
35	0xbfa10215d29df7e5	-0.03321903415688591
36	0x3fbe73fab2080c37	0.11895720335455527
37	0xbf9e8c621ddc2d60	-0.029832394669069173
38	0x3f77a05f6607af08	0.005768177652935476
39	0x3fb1e7cc002d3cc0	0.06994318966211477
40	0xbfc5a1cc2af951b2	-0.16900016878447627
41	0xbfa545623829a5d8	-0.041544980388447506
42	0xbfb9815252048409	-0.09962954046615392
43	0x3f674f39675adf70	0.0028453942457779477
44	0xbfb37f4bac181474	-0.0761611266280669
45	0x3f6de5345773fee2	0.0036493322655813823
46	0xbfb439c662f8703b	-0.07900657573958451
47	0x3fa9701599f178fd	0.04968326095762341
48	0x3fb300adbe8a387b	0.07422910596707936
49	0x3fb4f285e1a50ad5	0.08182560690788006
50	0x3fbdd332c8b5e8dd	0.11650388145600084
51	0xbf3d8ba988f939bd	-0.00045082940139176323
52	0x3f8016bc0f5130a4	0.007855862824861788
53	0xbfa72ece54ce184d	-0.04527897629945752
54	0x3fb517f99a3a7b87	0.08239707961409524
55	0x3fb38208a970e681	0.0762029088663443
56	0x3f7a1a13504ca6d0	0.006372523731252591
57	0x3fc69746a3e4ec6b	0.17649157526634282
58	0x3fcb6aaef4b6f9c0	0.2141932196518166
59	0x3fc221ee25e20104	0.14166046952960454
60	0x3fc44f3c71e3310d	0.15866809426223263
61	0xbfb1279131c450ab	-0.06700999703417902
62	0xbfa54e8e96b3ab86	-0.04161496724721929
63	0x3fad5cae3d2f0aee	0.05734772202369763
64	0x3fb001790792aaa7	0.06252247271428733
65	0xbfb038acd8b05895	-0.06336479463820617
66	0x3fbbe944b04e2af0	0.10902814201669364
67	0x3fa42003ee4c80ee	0.03930675777360358
68	0x3fb50bcce111b112	0.08221130843020699
69	0x3fa43d12b53af3b3	0.03952845060619072
70	0x3fa6b2a1357bec6a	0.044331586626832856
71	0x3faab2f48157b3bb	0.0521465690506839
72	0xbfc8028d713c536f	-0.18757789639553432
73	0xbf85533287ad516c	-0.010412592664274377
74	0xbfb4ebf83346806a	-0.08172560932007547
75	0x3fb7d1986604e1fe	0.09304192057323488
76	0x3fbb636fd696dd8d	0.10698603619572662
77	0x3fa65a77b00b12fb	0.043658962478309214
78	0x3fad420c5032ebf9	0.05714453200331344
79	0x3faec01b25d613d3	0.06005940281742252
80	0x3fcdad487b2a4bea	0.23185068143774795
81	0xbfb51af8cb718d9c	-0.08244280783542596
82	0x3fba6d414aa9760c	0.10322959969331452
83	0x3fb118f19df07a28	0.06678686243001464
84	0xbfc14d5de22545e2	-0.1351735452868033
85	0xbfabe0f6c412ccfd	-0.054450713572260036
86	0xbfb5c91a8554c842	-0.08509984736591128
87	0x3faee03f5334d762	0.060304621607811595
88	0x3fb6e73de859b0b3	0.08946597025505092
89	0x3f8caf416a323bb1	0.014006148389197866
90	0x3fbee8f59de07a44	0.12074217895904221
91	0xbf9dddab956d2ced	-0.029165917392032382
92	0xbfb543170d6ca114	-0.0830549628996134
93	0xbfb50675f56e696b	-0.08212983362174035
94	0x3f9ee22c75aa237b	0.030159659082105144
95	0x3fc3d219252e1230	0.15484918895175914
96	0x3fc11951abe10ca3	0.13358517544302115
97	0xbfb65345026b1f8b	-0.08720809277576629
98	0xbfc1b954c0322a57	-0.13846835503166474
99	0x3fa60973acff85fa	0.043040861957489754
100	0x3fc569d6d8d8969a	0.16729245746789873
101	0xbfb04339c3e69a80	-0.06352578194364789
102	0x3fa59be726fdcf6e	0.042205070028017086
103	0xbf51b4ce7d7cc9bc	-0.0010807053094593474
104	0x3fc3960d73bc15da	0.15301674033268747
105	0xbf829066c22dcecd	-0.00906448631369674
106	0xbf9b377b16227d63	-0.02657882998084683
107	0x3fa033030ce81493	0.03163919003058271
108	0xbfbb93f5c5309b33	-0.1077264410420014
109	0xbfaa7c0c0fa929dc	-0.05172765437290014
110	0x3f9b77c842e8720f	0.026824120601405762
111	0x3fbeebaf90830dc8	0.12078377988932865
112	0xbfb9d4f710f2d63c	-0.10090583957465865
113	0xbfb641e734b4a281	-0.08694310223348546
114	0x3f86c39c6eda76f8	0.011115286000229471
115	0xbfb3e343233ab0d8	-0.07768649683083895
116	0x3fd24fb45e6d9a11	0.2861147806310394
117	0xbfac57fdfbaa0df3	-0.055358826609360444
118	0xbfcccbc2d1baef22	-0.22496829262478807
119	0xbfa526ceb9dbb1d5	-0.041311702907339466
120	0xbfc205f4e092fad4	-0.14080677953275844
121	0xbfb0ffbb82e33c98	-0.06640216775416474
122	0x3fb4131446b1f845	0.07841612554509066
123	0x3fb137b89867c23f	0.06725648613770206
124	0xbfcd24f96aa228c2	-0.22769086558066048
125	0xbfa82a7241b55993	-0.047198839684529
126	0xbfbb919903481ea3	-0.10769039468879753
127	0xbf5df5de12ae3c2f	-0.0018286389047010956

7.bias f8 [1]
0	0x3fabcae54d0cde71	0.054282346396971166
