models/run2/41.pt (torch, 153942 bytes, 6 tensors)

0.weight f8 [32, 1, 9]
000000 ed c8 da e3 62 aa a2 3f 11 16 30 34 11 24 c2 3f
       0.03645619422367639 0.14172568367227759
000010 26 db 29 e3 f9 52 b8 bf 59 6c c3 72 cb b6 ca 3f
       -0.09501611515029804 0.20870345214538835
000020 cf 2a 71 b5 b9 de c0 3f a6 01 24 ed a6 cd d0 3f
       0.13179704055285987 0.2625520053698217
000030 d6 ae 21 74 ed bc d0 3f f3 ff 76 85 54 ed d1 3f
       0.2615312227342036 0.2801104834907157
000040 bd f8 68 2c 6d 59 d2 3f d4 16 99 28 33 e4 bc 3f
       0.28670815789144993 0.11285705319559308
000050 06 7a b0 76 bb bc d3 3f 46 69 ae 11 81 1b a4 3f
       0.3083943041873741 0.039272340210305276
000060 f9 39 06 ca 62 e5 dd bf 7e aa ee 9e 5f 9b d3 3f
       -0.46712560395181374 0.30635824700099323
000070 92 0a 84 df 9a e2 ce 3f a6 21 10 9e 95 d2 d3 3f
       0.2412904349694896 0.30972805438843876
000080 53 b1 ce 0e 49 2f d8 bf 55 20 bf b0 95 94 ce bf
       -0.377886070690484 -0.23890944605068634
000090 1e 49 b6 4b e2 2b cd bf a7 2e 32 9e 0c cd b6 3f
       -0.22790173241498562 0.08906630384643198
0000a0 bd ec 4b d9 c5 f6 ce 3f 2a 3d d9 e6 8d 78 d5 bf
       0.24190590963539718 -0.3354830507641561
0000b0 f4 92 43 e9 db d6 95 bf 8e 35 8b ba b2 bf d3 3f
       -0.021327434646894752 0.30857532708326907
0000c0 5f b1 cf 36 9e 3f b4 bf b7 0f ab 05 a9 7d c5 3f
       -0.07909573400656232 0.16789734627502437
0000d0 08 25 ab a7 45 12 ce bf 56 7e e7 05 80 27 97 bf
       -0.2349326199239743 -0.02261161838566602
0000e0 75 97 7b 50 3a 15 c4 3f 67 36 d0 3f 15 b7 be bf
       0.1568978207571338 -0.11998112495367651
0000f0 17 69 0a c4 4b 5d c2 3f 3e 5b fc 62 f4 4a b1 3f
       0.14347216675089022 0.0675499669708701
000100 38 83 67 52 a0 b3 d4 3f a6 4c b2 36 26 4c c0 bf
       0.3234635166864339 -0.12732389136053718
000110 43 13 cc cb 47 31 c2 bf 82 31 df 15 36 d7 d3 bf
       -0.14212892008813513 -0.3100104535667684
000120 82 8f 4d 73 b5 70 d1 bf 97 0c 02 db fc f0 c6 3f
       -0.2725041986470772 0.17922936147451615
000130 de a8 76 57 db 38 d0 bf 4e 4c 5a 73 fd 59 d2 3f
       -0.2534702638755685 0.2867425562373612
000140 86 b7 72 d1 b2 60 80 3f 31 41 76 96 6b 72 d5 bf
       0.007996937767838618 -0.335108658729058
000150 76 be ef ec 99 ed c6 3f 91 4f 49 25 e7 6e ae bf
       0.17912601536908185 -0.05943987207561386
000160 41 90 df ab 47 50 c6 3f 80 8b 9d 6e b6 f0 b3 bf
       0.17432495014429786 -0.0778917331750062
000170 1c b9 fb 03 ea d3 d0 3f 13 94 f5 de 8f 67 ce 3f
       0.26293421162599073 0.23753546129879108
000180 b1 c1 2a 3c d1 fd 87 bf fb f4 76 78 8a 53 d1 3f
       -0.01171458687653701 0.27072393192413785
000190 5b 46 d4 f8 46 6b b3 bf 0f 83 55 11 3c 26 d3 bf
       -0.07585567068988423 -0.2992086571958205
0001a0 ee ae 95 f1 8f 9f 71 bf 8e db d2 28 df 15 b5 3f
       -0.0043025610733413554 0.08236498591109706
0001b0 35 6e cc 6d 87 4e d2 3f a8 31 b6 97 f6 a7 d1 3f
       0.28604303095355316 0.27587666335673555
0001c0 67 48 d0 db 43 9d d1 3f ed a1 8b af c5 fd a6 bf
       0.27522369829342214 -0.044904878310095465
0001d0 fb 1e 94 78 9c cf d6 bf 98 6c 5c b9 38 7b 9b bf
       -0.3564215829396599 -0.026837240518130828
0001e0 10 0c bf c4 ee 3f d4 3f 17 d7 ff b5 36 06 af bf
       0.31640214169982617 -0.06059428188011234
0001f0 b2 cc ea 44 7d 9e ba bf 80 c8 4e fc 15 64 9b 3f
       -0.10398085529850468 0.026748984837191347
000200 71 4d ce 45 7e 32 c0 bf 4a 71 71 1b 02 dc a2 bf
       -0.1265409317826243 -0.03683477959632116
000210 34 c3 e3 f9 ee 55 ce 3f 8c 8f 1c 02 b0 66 c6 bf
       0.23699748231549622 -0.17500877478698518
000220 3a 73 68 1e e3 81 d6 bf 06 9f 86 60 70 86 d0 3f
       -0.35167768449337056 0.25820550371507556
000230 8f a2 4e 4d 54 84 bb 3f 0b 9d 3e b4 f8 3c c1 bf
       0.1074879349458888 -0.1346732025242335
000240 4f ba 2a 0c 44 5f c7 3f 49 fd 8e 0d 53 25 ce 3f
       0.18259478181922126 0.23551405107535064
000250 e8 6e 6a 99 c6 44 c1 bf f2 ea 5c 57 18 b9 d0 3f
       -0.13491137019160893 0.26129730731524525
000260 15 56 bc 87 b1 48 d1 bf 8b 79 2d 41 43 f2 cd 3f
       -0.27006185775221186 0.23395577127935172
000270 64 70 aa 13 ea 37 c8 bf 0f a1 85 95 62 fa be bf
       -0.18920637092822112 -0.12100807333411388
000280 2a 9a d1 96 77 3c d1 3f 40 66 46 52 16 d8 d2 bf
       0.26931562164682765 -0.29443891558330293
000290 e0 a6 dc 9b 95 5d c6 bf 4d 0f 41 fd 80 31 7f bf
       -0.17473096952863099 -0.007615569938994882
0002a0 f1 a8 ad 44 cc e8 cb 3f d1 11 14 83 17 16 d4 bf
       0.21804192880092146 -0.3138483791410894
0002b0 96 13 5a 50 ca 79 d1 bf 0d 77 93 6c 94 3a c9 3f
       -0.2730584892927309 0.1971002130657599
0002c0 49 26 f9 03 00 f8 a3 3f b5 73 e3 ee 30 5f c7 3f
       0.039001465306296064 0.18259250320889256
0002d0 61 c3 7b f3 46 3f c7 3f eb 3d 2e 82 7f de a9 bf
       0.18161856545296032 -0.05052565063590094
0002e0 ee 2a 5d 4c 0d 72 c0 bf bb f6 35 21 11 90 ac bf
       -0.12848058918674304 -0.0557866433182261
0002f0 39 6f 9e c4 27 d8 cf 3f 15 9b 87 98 b0 87 cc bf
       0.2487840375950954 -0.2228909249090171
000300 7a e0 a8 69 d6 cd c3 3f 76 09 39 f2 cf 2c cc 3f
       0.15471916350520926 0.22011756255421816
000310 df a5 f6 ef 82 54 d2 3f 50 d8 14 a7 49 6d a5 3f
       0.2864081710236785 0.04184942402427849
000320 26 a2 57 15 3b 9e b7 bf db 10 0b 6b ee ec c3 bf
       -0.09225816031506237 -0.15566807009429948
000330 1c 5c a6 35 f2 a0 c4 3f 70 26 9d 3c 7d 83 c8 3f
       0.16116168613072623 0.19151273212110054
000340 2a 81 6f b9 a8 13 c3 bf 59 d0 d8 d9 c2 97 cf 3f
       -0.14903744749518327 0.2468188823419293
000350 d3 b9 cc 63 fa fb d0 3f ce ae e7 95 11 cf d6 bf
       0.2653795218092487 -0.3563884700695156
000360 05 99 b5 5c 89 61 d1 bf 4f 32 99 cc 28 98 d1 3f
       -0.2715781598439125 0.27491207104029497
000370 c6 97 d8 80 b8 8e d1 3f 97 0b 24 da 26 a2 b0 bf
       0.2743359812033045 -0.06497423959448977
000380 17 a3 9d bf de fb bf bf 87 ef 48 98 74 3f 82 3f
       -0.12493698289985065 0.008910094163290484
000390 7d 05 61 5f dc e0 d3 3f 43 6e 99 45 ce 7f b5 bf
       0.31059941591600887 -0.08398141097262006
0003a0 d4 c2 61 5d 40 84 cb 3f 5b d9 32 2d b5 18 ae 3f
       0.21497349319135728 0.058782254950915123
0003b0 00 05 50 ff 2c 53 d6 bf 4d 5a cd e8 c5 fe c2 bf
       -0.34882664616459635 -0.1484000574807446
0003c0 c5 77 78 03 5f e4 cc 3f 51 f9 1e 02 86 2c a3 bf
       0.22571933431112093 -0.03744906211749089
0003d0 7c a7 c8 72 44 1a c2 3f 27 76 a3 61 42 f9 d7 bf
       0.14142661671331413 -0.37458858046543003
0003e0 ee 71 f1 32 4f 26 b7 3f d3 b7 42 d3 65 11 d3 3f
       0.09042830461243742 0.2979368746845214
0003f0 89 1e 09 9d 19 81 c0 3f 3f 80 17 2c c8 39 ca 3f
       0.12893982093577375 0.2048883643428798
000400 5f 0c 43 ad fd b9 d4 3f 00 26 7e 0c 37 97 cb bf
       0.3238519851694885 -0.2155522166251984
000410 7d c2 c3 dd ee 12 c7 3f d2 c2 eb 31 e1 4a a2 3f
       0.18026529148439244 0.0357275365294122
000420 24 ee 3c a2 c6 08 d3 3f 2d 9a 3f e5 e8 db d2 3f
       0.2974106392245821 0.2946722258333548
000430 93 cc 9f c6 50 e3 d2 3f 55 93 2f 60 ee d8 d1 bf
       0.2951242389382937 -0.27886542695187205
000440 24 b9 5b 94 19 87 d2 3f 93 43 e5 05 48 1f a0 3f
       0.28949584472765566 0.03148865768401445
000450 17 2f ee 00 80 cb b7 bf c5 2d 59 34 d1 bb d2 3f
       -0.09294891379084579 0.29271345245498664
000460 97 9f 89 28 c6 46 d1 3f 73 a1 60 18 1c b0 c4 3f
       0.2699447055697361 0.16162444296174847
000470 d6 9e 9c fa fd 73 c6 bf 8d a6 7c e4 a2 08 b7 3f
       -0.17541479813484412 0.08997552946370942
000480 b0 4e 94 e8 98 41 a8 3f a7 4e 44 c6 aa d8 b8 bf
       0.04737546767333123 -0.09705607738970433
000490 27 16 7c f9 1e 3e d0 bf c8 24 4c 65 37 90 cd bf
       -0.2537915645956183 -0.23096363493121985
0004a0 c5 ea 47 48 2e c2 c0 bf 50 50 fd cf 41 64 c3 3f
       -0.1309259274419984 0.15149710326898225
0004b0 8d 9d 7c 0c a9 f6 c0 3f e4 1c e9 0b 94 21 cb bf
       0.13252747640329368 -0.2119622285992825
0004c0 e0 87 3f 5d ce d6 c4 bf c3 25 68 a3 20 56 b0 bf
       -0.16280536225445896 -0.06381420125412433
0004d0 31 6d 09 17 5d ce 49 bf 01 83 ef 3f b9 41 cd bf
       -0.0007875399151759164 -0.2285682260690223
0004e0 6d eb a6 e0 cd a0 cb 3f cf a5 b1 ee ab 27 c3 3f
       0.2158448550161113 0.14964818148591383
0004f0 45 f7 e4 09 cf 41 b3 3f 44 cd 20 c7 e7 7a bd 3f
       0.07522291175425007 0.11515663730169928
000500 21 6c 7e 37 4a ef bc 3f d1 4e 79 66 fc 80 ca 3f
       0.11302627425031676 0.20706133845907584
000510 1f a0 98 b6 bc 84 cf 3f 3d 71 fd e3 dc 4a cd bf
       0.24623831668691396 -0.22884713299107232
000520 4e bc 7a 9d 5e 48 b5 bf fb f8 f3 5e 84 48 d7 bf
       -0.08313552231514729 -0.3638010909343305
000530 37 57 10 a5 98 c1 c6 bf b1 2e 02 33 df 81 d0 3f
       -0.17778308925397265 0.25792675000478044
000540 fd 60 93 fc 21 50 d1 bf a8 e1 72 86 c9 bf cd bf
       -0.2705159155425603 -0.23241538109665538
000550 c9 c5 f6 c8 de 75 d3 3f 49 08 9b 61 ea 27 a9 3f
       0.30406922936807895 0.049132656492944245
000560 a4 c4 07 f0 aa e1 c1 bf 01 f8 f7 a7 a5 17 d0 3f
       -0.13969933243018773 0.25144330409227683
000570 98 c8 e9 e6 fa ea d5 bf f4 08 54 99 2c 54 d1 bf
       -0.3424670462619672 -0.27076258634055184
000580 79 45 54 3f bb 6a c0 3f 56 1e 74 97 8e 52 cf 3f
       0.12825718490834584 0.24470693965143892
000590 9c e6 93 50 5e 5a bd bf 1c ad 65 e2 fa 59 ae bf
       -0.11466016261320039 -0.05928024304997789
0005a0 18 12 98 7d 8a 4d e0 bf 85 22 ff 3a 58 9a cc bf
       -0.5094654515274355 -0.2234602249211727
0005b0 88 f2 86 b2 79 c8 ce bf 44 ae eb 70 34 bb c6 3f
       -0.24049302308221265 0.17758803857519656
0005c0 42 b8 f9 7c bb 5c cf 3f 18 96 e3 6f e7 a2 8d 3f
       0.24501746752088321 0.014470871069032262
0005d0 2a f9 c6 f9 01 ae c9 3f d1 42 b2 54 c8 5c d0 bf
       0.2006227941146304 -0.2556629969704263
0005e0 53 37 3e 43 aa 57 be 3f 43 4e fa 28 32 69 ab 3f
       0.11852516309428766 0.053536956312339366
0005f0 ac e8 45 87 4e a4 c8 3f 86 bf c1 da 9e fc d8 bf
       0.19251424412852225 -0.39041873324367093
000600 80 4d 80 95 12 d9 93 bf 74 6c 93 73 91 91 80 bf
       -0.019382753729656255 -0.008090149249644997
000610 71 1b 25 fb 6e 6f d4 3f 55 7f 92 04 86 4f ca bf
       0.3193013622844126 -0.20555186484579716
000620 94 ed eb ab 95 d3 ce 3f 2b 8d c8 c1 ca cf ce 3f
       0.2408320512257488 0.24071630918579365
000630 fb 5e d7 d0 c2 3d c8 3f 6d 88 97 55 99 b2 c1 bf
       0.1893847961171032 -0.13826290778439745
000640 a5 39 9f a4 fa ba 9e 3f a5 3a ba 47 e1 00 cb bf
       0.030010143563964715 -0.21096435549084905
000650 3a 68 02 b0 31 90 d5 bf 7b 09 d2 f9 01 bf d4 bf
       -0.3369259089319062 -0.32415818592576046
000660 bc 67 71 00 bb 6f c6 bf 21 3c 79 c9 a6 71 c6 bf
       -0.17528474351530388 -0.17534336888863414
000670 1d bf b3 11 8e 03 d4 3f e5 86 65 cb 41 6f be 3f
       0.3127169773933803 0.11888514724480677
000680 63 48 f5 c7 44 d4 9f bf 01 1f 6c ad 3d 4c cd 3f
       -0.031083178238369046 0.22888918846023645
000690 b8 ea c8 1a 0b 0e ce 3f 15 f7 d8 7c d4 ea a8 3f
       0.2348035698685942 0.04866661094682293
0006a0 e0 5e 3e bc 27 17 c1 3f 2f 23 b2 53 77 30 bd 3f
       0.13351914111694096 0.11402078431468675
0006b0 61 fe d0 41 b4 d3 c8 bf 05 2c 7c 97 29 ad d8 bf
       -0.19396069730463508 -0.38556899827443686
0006c0 93 4a 1c b5 11 30 c2 3f 2a 77 d1 64 7c 7a ca bf
       0.14209195464407695 -0.20686297343029852
0006d0 74 ac 06 65 b9 d5 c0 bf 07 cb e0 ae 91 0e b8 bf
       -0.1315223449031212 -0.09397230643734754
0006e0 38 52 49 cf 96 b5 c0 3f d3 7b 14 f1 8c 74 d4 3f
       0.13054165955931452 0.3196136812493339
0006f0 6b e0 f3 b6 ca 4f d0 bf b7 f8 42 c6 48 94 ca 3f
       -0.2548701082846551 0.20765027695410307
000700 47 3f de 29 df dd d1 3f 01 d6 b4 c5 50 e9 b9 bf
       0.27916697586714573 -0.10121636225525067
000710 ec 32 87 3f 8d 24 d1 3f bf 57 69 d2 06 e7 ce 3f
       0.2678559418098263 0.2414253737831
000720 f9 2b 47 d6 94 d3 d3 3f b9 87 b8 f8 1f e3 ba 3f
       0.3097889034804094 0.10502815077100437
000730 6b 94 c8 a3 ea f8 d1 3f a5 fd fc 9b 21 54 c8 3f
       0.28081766123279434 0.1900674831067423
000740 24 6a 4d 2b 34 97 d5 bf 76 e0 05 0b e5 f2 ac bf
       -0.3373537466883667 -0.05654063949163028
000750 3b 43 3f a4 b6 33 cc bf b9 91 06 3b f7 98 92 bf
       -0.2203281690585984 -0.018161643006935544
000760 09 91 50 86 fb ff c5 3f 00 b3 c9 78 1a 24 ca bf
       0.17187446649871443 -0.20422678850027154
000770 c1 8e 08 66 bf 14 c6 3f 64 3a d6 71 b0 27 b2 3f
       0.17250816804982175 0.07091810969562001
000780 7a 6f 82 62 bc c4 cf bf c5 a0 cb 35 16 fd b2 3f
       -0.24819140253100241 0.07417429746022026
000790 0a 9a 7e 26 37 77 d2 bf 8a 0c f3 65 9f 88 ca 3f
       -0.2885263324664328 0.2072943923759321
0007a0 80 39 b3 c5 2b d2 d0 bf 3f f7 3f 84 31 8b 9e 3f
       -0.2628278189339639 0.029827855774775754
0007b0 b1 ce b5 b2 6f d3 c1 3f 06 63 c4 1d b9 22 be bf
       0.13926502443393 -0.11771733261810988
0007c0 0c 07 5a 4c f6 98 d0 bf 04 5a 34 de 08 a0 d1 3f
       -0.2593360658284929 0.2753927392926985
0007d0 9c 82 16 c2 83 43 bd 3f aa 37 64 a6 90 5a d6 bf
       0.11431144226527085 -0.3492776513020269
0007e0 3e e0 11 38 35 d8 d3 3f 31 aa 28 59 ca 21 d3 3f
       0.3100712821537889 0.2989374037448754
0007f0 01 55 2c bf b1 9c 63 bf 7d ab 09 2d 0f a4 d6 bf
       -0.0023940536133389982 -0.3537633838483812

0.bias f8 [32]
000000 05 3e c6 e7 b7 58 97 bf 65 7b 07 9e 0d e8 03 3f
       -0.022799371262918217 3.7968555037562806e-05
000010 ff e2 0b 81 5a ee ce 3f 2b d5 11 84 44 4a ab bf
       0.24164897252173742 -0.05330099212816671
000020 e9 b6 4e 00 dd 64 d3 3f 6a 07 dc 66 6d be b7 3f
       0.3030312064173431 0.09274944077699634
000030 b3 93 3e a4 0b 52 00 3f a9 85 7f 38 22 67 48 3f
       3.112886454851391e-05 0.0007447163670770046
000040 4f ad 82 c4 ef 7b 60 3f d6 7a 7f 92 88 02 d5 3f
       0.0020122225724514063 0.3282796316761226
000050 ef 40 bb fb 7a b4 d2 3f 48 93 97 50 45 da 48 3f
       0.2922656496348414 0.0007584417773470542
000060 2b 75 91 87 84 3a 43 3f 03 50 64 45 18 30 ba 3f
       0.0005868098370559784 0.10229636854302275
000070 0a c0 df 94 8d f4 d1 3f eb da ef 0e 3d bd d1 3f
       0.2805513337943927 0.2771752019756792
000080 e5 2a 4c b6 08 9b d0 3f cc e6 e6 e3 ba 66 1d 3f
       0.25946252634518735 0.00011215701758873347
000090 08 09 f4 96 31 bb d4 3f e6 0b 51 d7 0b 3d d4 3f
       0.32392539731530734 0.31622596766481903
0000a0 dc 1f 18 97 2c 65 a8 3f 7f 28 ad 63 04 6a 79 bf
       0.047646897739525435 -0.006204621454182767
0000b0 15 de 39 78 38 da c7 3f c8 30 2c 70 d3 cf d0 3f
       0.1863470637360797 0.2626846881328331
0000c0 29 88 20 03 d9 c1 67 3f c7 ce 0f 28 11 c0 85 bf
       0.0029000509757830706 -0.010620245013320496
0000d0 30 87 5a 0c 7e 13 d4 3f 02 17 a8 5b 83 3c 20 bf
       0.3136897202149269 -0.00012387374393101758
0000e0 4f d6 f3 d6 98 76 c2 3f 54 b7 fe 63 df 6a aa 3f
       0.14424429412581438 0.0515966233791533
0000f0 2d 14 a9 9d 6a 92 91 3f 89 6d b0 70 a9 3f ca 3f
       0.017160097000914632 0.2050678062667937

3.weight f8 [64, 32, 9]
000000 a8 8c d0 26 4e 01 bb 3f 25 4e 10 b0 5f e6 c9 bf
       0.10548866698859405 -0.20234294983730297
000010 f8 77 98 83 0a 74 c5 bf 0f a1 c2 80 69 89 99 3f
       -0.16760379243436296 0.024938248142150118
000020 13 60 43 23 8a be 9b bf f4 96 89 bc a0 a0 b0 3f
       -0.027094038393301 0.06495098689046214
000030 66 0b 68 75 e5 32 9a 3f e3 47 ec e2 13 cb 9e 3f
       0.025584779063147954 0.03007155487563996
000040 ea dd 6d 03 82 45 bd bf 0a 13 bd 51 ae 5e b0 3f
       -0.11434185584754855 0.06394471641131019
000050 ac 5b 37 57 47 b7 72 bf 8d 44 b3 c6 17 5f c2 bf
       -0.004569319414676903 -0.14352700426255574
000060 68 1c 87 9d a6 17 bc bf f9 b2 a2 81 82 cf aa 3f
       -0.10973588319676397 0.052364424061442656
000070 70 2e c3 b6 72 55 a6 bf a4 f8 10 5a 85 76 8c 3f
       -0.04362066727625524 0.013897935687165415
000080 7d 4a 97 6a c2 4d a4 bf bc 27 80 11 1a 00 bb bf
       -0.039655757438272744 -0.10547030379544159
000090 d2 4c e5 e0 ff 49 ae 3f 28 95 f0 73 d5 f7 66 3f
       0.059158321574295805 0.0028037232400658536
0000a0 fc 00 01 14 80 11 a3 3f 53 0c 01 17 74 99 9d 3f
       0.03724289173305981 0.028905691055353632
0000b0 6c 4a cd 54 42 80 9b bf 8a 1b 24 c3 5f fa 89 3f
       -0.026856457162760014 0.012684581892711728
0000c0 12 9b 57 da 6a b8 88 bf 25 e7 81 56 69 2a 95 3f
       -0.012070498264575433 0.020669599442476944
0000d0 fd 4c b6 7f 40 3b b4 3f 64 14 13 0b 3a 27 b5 3f
       0.07902911298724642 0.0826298024213244
0000e0 93 6d e7 c1 56 d7 c6 bf ea 18 4a 67 7d 8a ba bf
       -0.17844662158936994 -0.10367568752016934
0000f0 d6 44 58 03 e7 07 b4 bf 3a b2 19 31 ab a1 ae 3f
       -0.07824558097515263 0.05982718443269559
000100 74 9d c1 96 6e 7e 77 3f cc e5 c4 1a 02 31 84 3f
       0.005735809314593044 0.009859100763253269
000110 31 51 ef ed 89 95 99 bf 34 4f 08 96 7c 64 98 bf
       -0.02498450770129174 -0.02382082620358901
000120 0e d3 3b 5d 95 56 86 3f a9 72 09 ed fd 9b 9a 3f
       0.0109073323323883 0.025985686867317757
000130 60 17 b5 dc 18 c0 a1 bf 2a 7c 2d 79 62 15 98 bf
       -0.0346687096994589 -0.023519076009844188
000140 db 19 1d 4a 1e 14 90 3f de f4 a2 58 83 bc a4 3f
       0.015701745294132024 0.04050074059476015
000150 ee a2 d9 31 fe b4 a4 bf ee 53 1a 65 0b 47 ac 3f
       -0.04044336660883184 0.05522952660718504
000160 ef fe ff bd 39 41 92 3f 61 28 d1 39 01 eb b4 3f
       0.0178269407479083 0.08171088849590681
000170 ff 3f b8 20 e0 44 a8 bf bf 0c 0e b0 31 f2 ad bf
       -0.047400478357417335 -0.05848841928584524
000180 2f 32 cb 1e 7e 8f 9c bf 20 6c 83 c3 b0 60 96 bf
       -0.027891131047726055 -0.02185321992224598
000190 fc 4a ce 51 a2 3c b2 3f 22 49 0a dc 5f a4 89 3f
       0.07123770234310806 0.012520550634950004
0001a0 db 7c 4f f0 9d 30 9a bf 54 79 0b c1 dc 66 92 bf
       -0.025576083938969468 -0.017970513613243824
0001b0 f6 00 95 ed da a9 a1 3f 3e 92 63 87 f2 07 b4 3f
       0.0344990172402521 0.07824626737016957
0001c0 8e eb d6 a8 34 82 c6 bf e5 91 57 03 ae d6 b4 bf
       -0.17584856266134036 -0.08140075284570221
0001d0 86 47 70 e0 11 4d 94 3f 5a e8 4e dd de 29 6f 3f
       0.019825248073238842 0.0038041451284387797
0001e0 ce 5c 85 07 c1 77 60 3f 86 27 5d 76 72 1c 51 bf
       0.0020102281670620675 -0.0010443799778436526
0001f0 8c 05 c9 f1 28 42 bb bf 9c 04 fb 10 fe 3e c0 3f
       -0.10647827055892928 0.1269223769104756
000200 7a 55 20 8d 0d 73 c0 bf 04 92 c1 36 50 e4 38 3f
       -0.12851113692219568 0.0003798194727606954
000210 ef ca 16 35 6f e7 ba bf 42 4c 8f bf ad a2 b7 3f
       -0.10509390874976153 0.09232603003265274
000220 16 52 8a 1b db 36 80 3f 1c d2 31 90 d0 97 a1 bf
       0.00791712930485126 -0.03436137924373758
000230 c7 d1 27 6e fb e5 91 bf 6c 75 5e 61 94 88 90 bf
       -0.017478874777184374 -0.016146009867602215
000240 fb fe cb e1 34 d3 ae 3f 39 8a b4 a5 b4 0d 94 3f
       0.06020512825307197 0.019583532918782096
000250 12 8a c6 67 25 8d c7 bf f1 11 c4 10 46 2e b9 bf
       -0.18399493758359192 -0.09836233052562428
000260 53 db d0 84 35 cf b8 bf 66 46 fc 07 4e 7f b2 bf
       -0.09691175930570965 -0.07225501723248726
000270 02 39 2d 2e b1 16 ac 3f 82 7b b3 9f 5b 04 ac bf
       0.05486062706641982 -0.05472074818111762
000280 f6 b5 ab 95 22 0a bd bf d9 03 f7 b6 c6 44 ba 3f
       -0.11343589929648332 0.10261194197575153
000290 90 90 25 69 28 76 b6 bf dc d0 d8 02 89 a0 b1 3f
       -0.08774044577654849 0.06885582274918839
0002a0 16 5c c9 33 e9 d1 9a bf ae 07 26 6b 0c c5 9d bf
       -0.026191371713448396 -0.02907199291212919
0002b0 e7 e0 9a 27 83 f5 ad 3f 2f 31 b0 b8 89 74 a0 bf
       0.05851373537501719 -0.03213911418433423
0002c0 a0 26 0b fa 6a bb ad 3f 9d 97 04 01 27 81 a5 bf
       0.058070509932418135 -0.042000979303608
0002d0 f3 90 77 81 c1 fd b5 3f 34 5a eb 04 10 f4 8b 3f
       0.08590325747315201 0.013649106168867588
0002e0 f3 82 ce d1 a9 4f 84 3f 99 de 71 7b c6 e3 7f 3f
       0.009917570796291275 0.00778558284866162
0002f0 38 f9 d1 69 e2 36 a2 bf 31 68 dc 14 62 37 71 3f
       -0.03557498494864081 0.004203208094418585
000300 d3 c7 66 12 10 4f 5c bf b6 93 9e 7e 00 04 a8 bf
       -0.0017278344108544355 -0.04690553231856802
000310 b5 7b e6 4b 26 f4 a8 bf 6c d1 e1 b3 43 21 bd 3f
       -0.04873771358983651 0.11378882543232799
000320 ee 6f ab e9 a0 83 b3 bf 73 e7 3c dd d8 97 79 bf
       -0.07622724251581278 -0.006248328328917074
000330 6c e4 26 fb 8e c7 9b bf 30 38 e7 88 c4 5f aa 3f
       -0.02712844283971487 0.051511899673286954
000340 5a 5f 98 78 70 1d 94 bf d5 55 c7 fe cf 8e 59 bf
       -0.019643552170321633 -0.001559928055134709
000350 4d db 18 c1 a5 0f ab bf 65 84 09 9c 54 70 6a bf
       -0.052853755780623325 -0.0032273914842311673
000360 1d c1 6f 9c 5c fd b0 3f 17 3b 5d 46 bf bb a8 3f
       0.06636599368335223 0.048307397212388796
000370 3f ac ae a1 0f 03 c7 bf 26 26 84 5c 6e 6b bb bf
       -0.17978091616291356 -0.10710801848122084
000380 5a 7e 55 c5 f0 68 a5 bf 44 40 76 4c 25 bc 9f 3f
       -0.04181625756131942 0.030991156379571075
000390 95 0d 8c f8 be 48 8d bf b9 8a ff 12 10 2e ad bf
       -0.014298908195548058 -0.05699205619727849
0003a0 52 b3 62 e9 30 d1 a8 3f 6b 95 a7 1e c1 fc ba 3f
       0.04847100113815962 0.10541922567752741
0003b0 23 cc e7 6d 5c 23 a6 bf 14 a2 f1 45 5e b4 94 bf
       -0.043238533416932755 -0.020219300288234335
0003c0 34 43 d4 be 80 84 b5 3f d9 fa 1a 02 d5 5a 88 bf
       0.08405308398165517 -0.011891998411895187
0003d0 93 ae 39 6c 77 61 a3 bf 68 4a c9 7c f5 31 b0 3f
       -0.03785298534498085 0.06326231285610506
0003e0 3d be 8e 4c f0 50 a5 3f 19 06 40 39 ff f9 b3 bf
       0.04163313803234956 -0.07803340099055624
0003f0 85 d4 89 c5 05 a7 ba 3f a3 17 ea 24 8c f5 95 3f
       0.10411106178965397 0.02144450164134749
000400 ec e9 64 3f 4c 19 93 3f cc b6 ad 36 29 f8 a7 3f
       0.018651191109919127 0.04681519310439128
000410 e9 13 1c 12 e7 30 81 bf 71 40 3f b2 4b 98 a6 3f
       -0.008394055595553911 0.044130673893619916
000420 da 32 ed 5d 75 62 a5 3f 82 7c 82 6a 5c 77 ac 3f
       0.04176680347027224 0.05559815216224086
000430 7a 27 ca 28 45 e8 b8 bf 81 86 f3 09 ca 1c 9e 3f
       -0.09729416128007343 0.029406697137238872
000440 0e 1b c5 f8 1c ed ad 3f 4e a4 ce a2 a0 8b 7c bf
       0.058449654929566205 -0.006969096645584717
000450 9f 2a eb e8 7f 46 9c 3f 48 f6 b1 bc 21 9e a2 3f
       0.02761268481371337 0.03636269977958456
000460 f5 15 aa a3 b7 13 20 bf 1c 37 58 a6 3f 01 ac bf
       -0.00012265793505521175 -0.05469702630590076
000470 7c 28 c4 a1 04 20 a4 3f 8f ac 62 9f 24 b2 a1 3f
       0.03930677866635876 0.034562248665076394
000480 79 50 0f a2 d5 67 bb 3f ca 9c e5 8f e2 1f 84 3f
       0.10705313879526725 0.009826440826783762
000490 58 2c c3 7e 25 db a7 3f 1e da fb b6 31 db 85 bf
       0.04659382984535715 -0.01067198600456459
0004a0 67 1a 32 ad 4a 91 8f 3f 92 f9 f6 cc 75 98 92 bf
       0.01541384068538072 -0.018159714350753094
0004b0 d2 b5 af 0b 92 09 a0 bf 58 f2 34 8d 7b 1c 80 3f
       -0.03132301705032216 0.007866826292791604
0004c0 91 ea fd 4e 18 18 9d 3f 76 b6 cc df 2d e0 c5 3f
       0.02841222746017508 0.17090390613286716
0004d0 2b 0c 42 e9 f2 fa c2 bf c1 49 d7 fd 04 69 b9 bf
       -0.148283351798541 -0.09925872037209783
0004e0 4a 07 5b 8c f2 13 91 bf ad b7 07 ee 69 d7 bc bf
       -0.016677655998825792 -0.11266195355685112
0004f0 3f 66 06 0f 4f f5 87 bf e3 30 29 b0 8e 6f 95 3f
       -0.011698358198191204 0.020933370115287963
000500 b2 81 8c 18 6f c7 ae bf 5d 6e ff d8 a1 93 9c 3f
       -0.06011531042736652 0.02790692221593215
000510 f8 d4 68 28 e9 6d b7 3f 73 5a ee 83 d3 46 96 3f
       0.09152085529861498 0.0217545556330045
000520 3c 37 f1 1b f8 25 a8 3f ee 95 66 7c 1a 84 ac 3f
       0.047164681826514315 0.055695369420657545
000530 cb 5a 55 48 ed d7 81 bf 54 7e 74 de b0 8c 92 bf
       -0.008712629098835653 -0.018114818170145888
000540 dd 1a 2d 72 b9 3e 9c bf 1f 2e 86 af 7b 51 95 bf
       -0.02758302459121863 -0.020818646038192164
000550 59 80 b4 82 11 1b b9 bf 3a 7d d7 c6 b2 85 b5 3f
       -0.09806928101579739 0.08407132486853622
000560 fc 0d ae f7 f7 2b a1 3f f6 b5 d6 d3 32 22 5b bf
       0.03353857897220888 -0.001656102787232936
000570 5c f1 44 09 de 38 a3 bf f6 ad cc 37 cf 1f b3 3f
       -0.037543238288409525 0.07470412361424636
000580 94 e4 ee 88 b9 d2 9f 3f 0c 9c 69 c7 0a 8e 7d bf
       0.03107728861116195 -0.007215540032667011
000590 d7 b5 a4 b0 1e d3 6b bf 0b e0 06 05 07 db af 3f
       -0.003396568242485225 0.06221792160380354
0005a0 e2 5c e2 dc bc c4 c0 3f 07 f1 1c b9 74 51 c2 bf
       0.13100395951617033 -0.14311083830569535
0005b0 6d 64 ee 2a 8c e9 92 3f 60 33 88 71 7e 04 87 bf
       0.018469038124383653 -0.011239040221903529
0005c0 05 36 50 c6 4d f6 5f 3f 5a f6 33 f6 2b 86 8b bf
       0.0019508132475069006 -0.013439506007212266
0005d0 f6 ca 55 32 05 63 a4 bf bc 6d 8f 4c af 16 8d 3f
       -0.039817964929985836 0.014203423999723401
0005e0 79 1d 37 3b 97 4e 9f 3f b6 93 73 fe b4 45 b0 3f
       0.030573237408842744 0.06356364452547222
0005f0 eb 0c e7 aa cb f4 b8 bf 73 8b d7 77 77 17 c6 bf
       -0.097485284065488 -0.1725911460080983
000600 d5 ca c1 fc 0a 67 bc bf fa 22 79 e0 3c 52 aa bf
       -0.11094731016946054 -0.05140867462302441
000610 b1 d5 e4 f3 57 d5 a7 bf 0e 72 49 d7 18 a9 9c bf
       -0.04654955723018917 -0.027988803997105953
000620 1d 03 76 c0 66 c9 9c bf dd ec 38 c1 20 68 64 bf
       -0.02811203527153615 -0.0024910583249756328
000630 b1 0d c0 0e 39 ac a0 bf 61 bb ab 8e 93 67 bf 3f
       -0.032563956308901416 0.12267420037436018
000640 33 d6 01 f3 ba b1 a6 bf cf 55 33 d5 d0 5e b9 3f
       -0.04432472435375381 0.09910302357760446
000650 26 7e 53 cc ee db 89 3f d9 b0 db 18 11 81 98 3f
       0.012626519785441447 0.02392985071394169
000660 a1 9b 3c 24 40 7e ac 3f d0 47 67 b6 6f c3 a4 3f
       0.05565071527808319 0.0405535612259339
000670 43 d2 fc c5 82 0f b9 bf 0d 6c 60 a9 55 9a b1 3f
       -0.09789292653733477 0.06876120934650505
000680 b8 f2 1d 7f 51 69 b0 3f df 20 d4 1e b9 11 96 bf
       0.06410703042451871 -0.02155198336279873
000690 59 eb 94 98 6e 84 ab 3f 23 a9 eb 1e 12 5a ad 3f
       0.053744751096437234 0.05732781054924121
0006a0 62 eb c3 23 c5 fd b1 3f a5 c4 03 9e b6 7c 96 bf
       0.0702784740750935 -0.02196011866994198
0006b0 cf 51 0d 21 68 40 a2 bf 50 69 81 39 c9 f5 98 3f
       -0.03564763453929098 0.0243750993107395
0006c0 14 0d 20 b5 91 18 c1 3f 23 2b 27 d9 0a a5 b8 3f
       0.13356229156497845 0.09626834680163347
0006d0 0d 34 c0 29 47 88 c5 bf 18 d7 39 b0 26 32 bb bf
       -0.1682213739262867 -0.10623399546042511
0006e0 a3 db e2 1c 52 03 a5 bf cb 6c 69 9f 3d da 92 3f
       -0.04104096033682161 0.018410647253728023
0006f0 85 03 d7 e0 fc 14 9c bf 59 c4 49 32 36 5f 81 3f
       -0.02742381212533786 0.00848238316504728
000700 60 57 ba 88 99 c8 bb bf 57 17 b0 06 cb f3 bc 3f
       -0.1085296591575946 0.11309498704221475
000710 b1 f6 84 5c 3a 3f 9a bf 5d 8e c6 f0 ad 51 b6 bf
       -0.025631820580420853 -0.08718382957754885
000720 a0 97 8f 7a 9f 76 b8 bf de 8d d4 41 54 1f b4 3f
       -0.09556004278382924 0.07860304457840736
000730 0a c6 6c de 89 93 75 3f ab fa ac 01 56 6a b3 3f
       0.0052676568509908515 0.07584130803022997
000740 df f8 8a d5 de 86 95 bf 2c 91 70 60 13 b3 96 bf
       -0.021022302421209168 -0.022167494546139796
000750 2c 4d 79 1e 1e 90 b4 3f cd d1 81 a4 76 2f a8 3f
       0.0803240608595856 0.04723711736815837
000760 1e 36 ca ba 05 04 81 3f 4d 07 4e d9 e7 7f b0 3f
       0.008308453333735474 0.06445168547909681
000770 45 2c cd 1a 5f 0b 93 3f bc 96 9d 13 47 d1 a3 3f
       0.018598066340285397 0.03870603670547498
000780 43 54 72 db 86 18 9d 3f 90 81 02 5f a5 c3 ab 3f
       0.028413874763448154 0.05422703537738294
000790 19 8c 45 8a 83 ec b5 3f a0 98 db ff 0b 86 b4 3f
       0.08564016462109726 0.08017039295700323
0007a0 27 3e f6 13 df 3c b9 3f d5 e9 0b e4 d1 69 c0 bf
       0.09858507382727365 -0.12822936663708498
0007b0 83 7b 57 32 29 52 ad bf f4 5d 07 a9 26 e5 50 3f
       -0.05726746310732891 0.001031196359795203
0007c0 5a bb 45 83 0c 15 a2 3f cd 15 39 d1 83 9d b0 3f
       0.03531684019514243 0.06490348680480125
0007d0 33 b3 34 b0 a2 19 98 bf 83 6d 4e 44 62 b0 b2 bf
       -0.02353529167628494 -0.07300390403400141
0007e0 2d 60 80 79 5c 34 a3 3f fa 7f 01 e8 b5 da b5 3f
       0.03750885947391711 0.08536850847440283
0007f0 4f d4 54 86 b3 67 a3 bf c6 9a ef 6c a1 d4 83 3f
       -0.037900552890655186 0.009682904374085931

3.bias f8 [64]
000000 86 20 0f 08 22 45 a3 3f 18 03 6d e6 c0 31 a1 bf
       0.03763681743981899 -0.033582714203026665
000010 50 f3 0e 85 29 8e 96 bf bc e2 ec 46 bc 19 94 3f
       -0.022026680704345936 0.0196294229783429
000020 1a 32 2e 97 ec 99 37 3f cb d9 88 97 3f c7 81 bf
       0.0003601267446178572 -0.008680817424743822
000030 6c d2 28 f4 d7 99 a5 3f 4f e8 aa 3a b1 59 96 bf
       0.04218935828649681 -0.021826523977076125
000040 7a 82 d3 ed ff dc a1 bf 51 e0 02 45 80 1f ad 3f
       -0.0348892190756986 0.05688095896169954
000050 b3 40 ba 31 a1 b1 79 bf 75 ee 84 f5 fa d8 b3 3f
       -0.006272916474373047 0.07752960676310201
000060 3b e7 18 25 53 ca b5 3f 6c ce 4c 8b e3 15 69 3f
       0.08511848121352454 0.0030621952268122168
000070 50 60 1c 68 c3 5a c0 3f 42 42 29 3b 35 a2 92 3f
       0.12776987632310233 0.018196899162207687
000080 fd dd 3b bd 0f 36 b1 3f 25 7a ac 19 84 ba b4 3f
       0.06723116273848713 0.08097100855636848
000090 1b 74 a8 b0 33 83 b1 3f 02 54 4a 72 d1 33 9b 3f
       0.06840823233547193 0.02656485805581
0000a0 c9 d2 9e b5 91 78 8e 3f 65 8e 51 04 5f 70 91 bf
       0.014878404955973494 -0.0170302244554378
0000b0 66 4a 27 ed 30 f8 94 bf d1 47 2a c3 f7 9a b6 bf
       -0.020478023981761594 -0.08830212130331395
0000c0 8e 81 63 96 51 38 b8 bf 87 98 64 48 b0 6d 92 bf
       -0.0946093551788236 -0.017996553820147667
0000d0 c4 7f 98 a5 e8 77 70 3f 04 fa 48 22 76 52 9e 3f
       0.004020603920736169 0.029611440508455558
0000e0 b0 4c d3 7b d6 a1 b0 3f e7 fa e0 99 48 99 a5 3f
       0.06496944926338943 0.0421850860443465
0000f0 da 2a 27 74 49 db 38 bf 48 9b 5e 9a 75 10 86 3f
       -0.0003792814569833332 0.010773581288800252
000100 f2 98 d8 37 25 51 a7 3f c5 cf c5 92 dd 2e ad 3f
       0.04554096514429941 0.05699818054827647
000110 5e 38 05 e3 6d 13 a0 3f e8 d6 0d 33 05 57 a0 bf
       0.03139823337788593 -0.03191391227930557
000120 71 b6 2c 5f 23 aa a1 bf 64 c4 90 6d 2d b0 99 bf
       -0.03450117623138461 -0.025086126148555002
000130 d0 d3 72 f0 ea 6c a6 3f 78 df 92 18 d2 6d 97 3f
       0.04379972634470841 0.02287987017618273
000140 91 eb 59 fb 79 84 7a bf c7 98 f4 24 e2 9c af 3f
       -0.006473995677533832 0.061743800173915946
000150 33 3e 89 0f b4 6f 95 bf c6 46 ca ee 1e 39 a2 3f
       -0.02093392700981962 0.03559204735678416
000160 61 45 d8 0f 66 bc 9a bf 88 06 39 f5 7c 1e 9c bf
       -0.02610930892666852 -0.02746005293579981
000170 c1 42 68 e2 c9 37 96 3f f9 82 f7 71 5e a9 90 3f
       0.021697191661646856 0.016271091180786155
000180 4d 92 de d4 bc 49 41 3f 6a 7c d5 43 cd 7c 9c bf
       0.00052758903779144 -0.027819831147436615
000190 b6 ef a2 79 e7 0f a6 3f 03 63 18 19 1c 2d 4d 3f
       0.04309008941478913 0.0008903872678188432
0001a0 a6 20 59 b7 28 2a a3 3f 41 84 52 d9 25 b9 aa 3f
       0.03743102300774241 0.052193815973858644
0001b0 78 06 64 43 cf dc a5 3f f9 f2 ed 49 22 bb af 3f
       0.04270026872292204 0.06197459366283015
0001c0 99 f5 73 3a 3e 6f ac 3f 67 c9 a2 2f fa b9 a4 bf
       0.05553621734177767 -0.04048139411442513
0001d0 0b 8d 61 c2 d3 cb a6 3f 9f 54 9c e3 27 a3 8c 3f
       0.044523828008801024 0.013983070024133957
0001e0 59 c9 e3 44 60 70 a4 3f 22 95 b1 07 d5 a9 a2 bf
       0.03991986123027642 -0.036451966466112276
0001f0 db 53 3c 4e 02 ec 91 bf 29 eb 8e cf 19 7e 83 bf
       -0.017501865410924338 -0.009517861982990166

7.weight f8 [1, 128]
000000 3b b1 e3 4a 4e 70 b3 bf 33 c5 0d 0a 41 6b a5 3f
       -0.07593240097384506 0.04183390853621418
000010 a4 2e 76 e4 6c 62 95 3f 2c a0 51 57 5a 9c 94 bf
       0.020883275455658393 -0.020127688960570975
000020 f3 87 71 1d e7 80 a8 3f 84 fc 72 1a 49 0d a3 bf
       0.047858450264143836 -0.037210735777528675
000030 08 d9 30 3c 0a 0c b1 3f 48 f0 fc 47 37 a8 b3 3f
       0.06658996552946317 0.07678552157898466
000040 8e 2d 1b fc 6c e7 c6 bf 74 ea f6 5b ff 18 b0 bf
       -0.17893755254622729 -0.06288143153407494
000050 a0 88 cb 72 bb 36 b3 bf d9 9e e3 41 fc ac af 3f
       -0.07505389740575419 0.06186664871512244
000060 33 f6 fd de 08 66 c1 bf ee d9 99 69 b9 17 a4 bf
       -0.13592635048182586 -0.03924350179743273
000070 5b af 7a 7b 73 b3 c9 3f c6 a5 59 53 2f 1e b4 bf
       0.20078891305217436 -0.07858558449665684
000080 8d 27 fe 59 dc f3 ca 3f d7 08 17 2b bb 04 a5 bf
       0.21056703943423508 -0.04105172062874523
000090 21 f9 4f 00 ae 6f ab 3f 1a 69 7c 28 96 f5 6d 3f
       0.05358642343343179 0.0036571438576064154
0000a0 4e 85 94 f3 bd 93 a6 3f 06 d0 62 b0 77 b6 97 bf
       0.04409593199148763 -0.02315699590754152
0000b0 66 16 7e cd 87 6a bb bf 02 c7 70 b4 e0 a8 ce 3f
       -0.10709427611262753 0.23952874003003194
0000c0 5e 66 89 74 59 0b c8 3f de 80 2c 0d 57 01 b4 bf
       0.18784635725278326 -0.07814544746043192
0000d0 ca 1e 6a 69 d1 8a c1 3f f1 06 34 5e b1 bb 97 bf
       0.13704888961023293 -0.023176928877552908
0000e0 cc 4b c4 03 e0 09 c4 3f b9 73 f7 1c 0e 48 b3 bf
       0.15655136283802873 -0.0753182240218412
0000f0 9c 0e 34 f2 54 ec 89 bf 35 5b a3 93 2b e5 b2 3f
       -0.012657798425159066 0.07380936006971413
000100 e6 6f 98 46 11 d5 a2 3f 5e b1 1e a4 0d 77 a0 3f
       0.03678182589302974 0.03215830448548006
000110 9c 34 58 bb de 40 c7 3f 03 8b 59 45 e3 76 a1 bf
       0.18166717670138588 -0.03411016675524616
000120 9c a0 7b ab ab 64 c1 3f 48 83 c9 f4 51 8b 9e bf
       0.1358847224539702 -0.02982833916246655
000130 12 4f fe 42 a3 cd 88 3f 96 48 a6 ff c4 8e b1 3f
       0.012110972864128242 0.0685847400802991
000140 8a 82 f7 4c 6c ca c6 bf ca 62 6a 5c 7f c4 a5 bf
       -0.17805246122499724 -0.04251478198165655
000150 29 a9 71 7d f9 c7 bb bf 9c 97 72 4a dd 2c 5a 3f
       -0.10852011978719091 0.001597610573108344
000160 74 14 18 ac 4b 7f b3 bf 92 1d 1d a9 a7 5c 64 3f
       -0.0761611266280669 0.0024855875607589584
000170 3b 70 f8 62 c6 39 b4 bf 36 6a 06 73 f2 15 a9 3f
       -0.07900657573958451 0.048995567837853235
000180 7b 38 8a be ad 00 b3 3f cf 4e de 33 06 bd b4 3f
       0.07422910596707936 0.08100928083723179
000190 8e 6a 66 d5 93 9e c0 3f 88 14 99 f3 69 c2 5d 3f
       0.1298394004814622 0.0018163714106702884
0001a0 a4 30 51 0f bc 16 80 3f 4d 18 ce 54 ce 2e a7 bf
       0.007855862824861788 -0.04527897629945752
0001b0 a6 cb 03 ba e7 07 b8 3f e5 59 85 fb 0b 31 b3 3f
       0.09387062350633232 0.07496714487692875
0001c0 2b a9 5c 80 48 6f 83 3f 01 1e c2 0b b2 ea c6 3f
       0.00948959962586978 0.17903733801016133
0001d0 b4 30 2d 64 f6 8a cc 3f 37 f2 79 03 3f 3e c2 3f
       0.2229907979148088 0.14252460164779432
0001e0 1b d0 75 bb b5 70 c6 3f 66 99 17 0e c3 62 b1 bf
       0.17531463292436986 -0.06791323751494857
0001f0 52 3e ba 4a 13 83 a7 bf 31 71 f6 e7 15 d9 ac 3f
       -0.04592190062714664 0.05634373146605965
000200 66 26 b9 80 0f a8 b4 3f ab 9c 4d 92 9a 7b b0 bf
       0.08068940060288696 -0.06438604423384457
000210 16 a6 9d 60 be 04 be 3f c6 05 e5 02 13 76 a3 3f
       0.11725988253387984 0.03801021013579091
000220 85 95 4c 5a 5b bd b7 3f 22 2c 5d 46 94 8b a3 3f
       0.09273310617989779 0.038174279774999556
000230 de 73 cf 41 82 b2 a8 3f 6e 2c cc 4e d2 0c aa 3f
       0.04823691418980734 0.0508790703953189
000240 0b 5c 3e d2 e1 78 c9 bf d6 97 8a fb 10 87 87 bf
       -0.1990015293674506 -0.011488087345536895
000250 82 b5 1f 72 a5 6b b7 bf ab d3 1d c9 ba c9 b7 3f
       -0.091486301767608 0.09292189989157744
000260 02 da 67 1e ee 1b bd 3f 19 b3 c0 cd d2 c0 a5 3f
       0.11370743028951583 0.04248675119047202
000270 f8 63 cc ce 4f d5 af 3f 55 b2 e4 70 45 fa ad 3f
       0.062174314493127214 0.05855004313557247
000280 4e 74 55 5f 7f 0a d0 3f d7 7b 8c 78 05 53 b5 bf
       0.2506407195085715 -0.08329805558285784
000290 b6 56 1e c9 0a 24 bc 3f 19 15 af 23 8c c1 b0 3f
       0.10992495927925003 0.06545329924764011
0002a0 a4 50 99 0e 2d 01 c3 bf c7 f3 3e 16 c3 68 ac bf
       -0.14847338879429117 -0.05548677107388005
0002b0 f4 d9 50 81 9b 4a b8 bf b5 9c 42 b3 8a 42 ae 3f
       -0.09488841921925212 0.0591014236281863
0002c0 0e c5 f9 6c 7e fc b7 3f 86 82 6b 76 aa 8f 89 3f
       0.09369650040186547 0.012481052149668114
0002d0 0c d5 44 27 05 f2 c0 3f d4 67 f0 2f 65 d0 9e bf
       0.13238586823869303 -0.03009183983895254
0002e0 2a 02 4a f7 ec 8e b6 bf 7e 16 c4 04 97 9d b2 bf
       -0.08811837231952127 -0.07271713129383703
0002f0 08 ef 92 1a 9e 4d a1 3f e1 97 63 76 c9 f4 c3 3f
       0.03379530023945959 0.15590780525889072
000300 c9 81 7a 81 a5 4b c2 3f 14 b5 1b f7 84 9a b6 bf
       0.14293354818529583 -0.08829527886310401
000310 05 c4 25 a8 fb 52 c3 bf 7f c4 04 38 02 70 a5 3f
       -0.15096994123771892 0.041870183313570834
000320 fe a4 66 35 09 b7 c7 3f 10 4f d5 00 80 74 b0 bf
       0.18527331454723844 -0.06427764911978451
000330 6e cf fd 26 e7 9b a5 3f bc c9 7c 7d ce b4 51 bf
       0.042205070028017086 -0.0010807053094593474
000340 30 e1 c4 4e bb eb c4 3f 22 2d 7c 1c 36 9f 84 bf
       0.16344395967622338 -0.010069296592993885
000350 5e 49 15 ea b7 70 9e bf ce 3a 8d 84 4d 32 9f 3f
       -0.029726861631681138 0.030465327468216334
000360 12 33 22 df d4 28 bd bf e2 38 40 b1 68 e1 aa bf
       -0.11390428969953018 -0.05250098384577641
000370 53 a0 97 40 f0 5c 9f 3f 70 47 e8 1a fc c9 c3 3f
       0.030627969686890143 0.1546015864737984
000380 13 2f 02 51 c3 a7 bc bf 43 8e 0d 16 34 86 b6 bf
       -0.11193485954043707 -0.08798528231050633
000390 f8 76 da 6e 9c c3 86 3f d8 b0 3a 23 43 e3 b3 bf
       0.011115286000229471 -0.07768649683083895
0003a0 23 ec 6a 2c 18 43 d3 3f ab ad 4a ef 4f 95 ac bf
       0.3009701188818232 -0.055826662025846595
0003b0 27 08 eb ba 37 c9 cd bf 33 c7 22 e9 59 9f a4 bf
       -0.23270317675457017 -0.0402782532777465
0003c0 d0 9b 73 b9 f7 32 c3 bf 92 fb 08 f0 be 43 b1 bf
       -0.1499929099583981 -0.06743996963721902
0003d0 45 f8 b1 46 14 13 b4 3f 3f c2 67 98 b8 37 b1 3f
       0.07841612554509066 0.06725648613770206
0003e0 a6 5a 23 e2 f5 01 ce bf 03 4e 43 c1 52 b7 a8 bf
       -0.2344348291578246 -0.0482736454884183
0003f0 21 ef 88 66 88 cd be bf be 83 de fe 74 99 67 bf
       -0.12032368186276844 -0.0028807911939598687

7.bias f8 [1]
000000 a6 3b 7f 09 70 52 ab 3f
       0.05336332431726669
