models/run2/43.pt (torch, 153942 bytes, 6 tensors)

0.weight f8 [32, 1, 9]
00000000: 26e1 9938 0bac a23f cccf 9aed 5329 c23f
00000010: ba0d 795d 7454 b5bf b035 c7b5 71bc ca3f
00000020: a83e a0f4 9a4c c13f 6320 1955 54cd d03f
00000030: f20b 3e64 61b7 d03f 8706 1e0b 3cee d13f
00000040: e470 76a4 9559 d23f d6a2 0cfd 45e5 bc3f
00000050: b26d fca9 7fcf d33f 340d fa84 e08b a33f
00000060: a389 5105 ad78 debf 514c 0890 8d9a d33f
00000070: ebec 8eb2 122c cf3f 4c83 60d9 a1d2 d33f
00000080: c75e 7a9d e94d d8bf 0201 6812 c0fc cebf
00000090: b0c0 33d2 7838 cdbf a1e2 f229 00cb b63f
000000a0: 2f02 6dee 82f1 ce3f e8a0 f359 23c7 d5bf
000000b0: 9a19 0d0f c5ff 9dbf afb1 5a00 56bf d33f
000000c0: ddb0 f2e4 0a1b b5bf 6130 d493 997e c53f
000000d0: 2c64 5261 5483 cdbf aaa6 dbeb 3d56 99bf
000000e0: 95a4 707d cf18 c43f d0f1 99d5 48c9 bdbf
000000f0: 897d 694a 677d c23f 11e8 388d aa5c b13f
00000100: 6d86 2317 dcb3 d43f bc24 a7bc fc06 c0bf
00000110: de2a c27b 1b74 c1bf d2aa 0c9e 8235 d4bf
00000120: 48db f100 8dc4 d1bf a6b0 8a72 36f4 c63f
00000130: 493c f3b0 1e31 d0bf a73f 5d07 f659 d23f
00000140: 4e7a 7762 9a74 783f ce39 54a0 42ac d5bf
00000150: faf3 864a a9ec c63f 396a b75b c41b b0bf
00000160: b0f0 fef0 9e4f c63f a3ed 4a58 f893 b2bf
00000170: 408f 4b25 0fce d03f bf61 510a d8ab ce3f
00000180: a3d6 8f72 3c01 8abf 9b4d 193e 8c56 d13f
00000190: 5fa9 7fea 764a b6bf f436 529c 836b d3bf
000001a0: d7c9 7b9d 8cfd 78bf 4eb0 1718 d915 b53f
000001b0: fa93 5d60 444f d23f 9730 b004 98a7 d13f
000001c0: f3c2 666e 3ca2 d13f 281f 83ad 1910 a7bf
000001d0: 53aa 7b80 2026 d7bf 4753 02d0 9059 99bf
000001e0: 84ca 0be9 5640 d43f 0135 72a5 f77a b0bf
000001f0: 5649 c6dc 573f bbbf d434 9dc2 a54f 9b3f
00000200: 2f73 943c a51b c0bf e4a1 6436 e90d a4bf
00000210: 7f28 3b47 fa55 ce3f ff11 6e2a e28f c6bf
00000220: c066 093a 42c0 d6bf cc16 921c e286 d03f
00000230: 388a 3d3e 108a bb3f 9d59 a89b 9aaa c0bf
00000240: 277a 14c9 ac5f c73f ee1c 9fac fe93 ce3f
00000250: de80 89fc 312b c1bf 3b96 92a8 57b9 d03f
00000260: b982 c42c b439 d1bf 9926 e5cb 2ab9 ce3f
00000270: 71ec d362 bfa0 c8bf 64ae f1cc e3a7 bdbf
00000280: 5fe7 7a79 6d3b d13f 40d1 8b46 b2ff d2bf
00000290: a77d f167 df4e c6bf 641d 514d 548d 7dbf
000002a0: 9f14 ecd9 a8e8 cb3f c333 b65c a035 d4bf
000002b0: 562d 3c28 f0b7 d1bf cd2d 9466 343a c93f
000002c0: 3672 d9e8 43af a53f 247e b8f7 7060 c73f
000002d0: d056 3812 f63f c73f 54f6 6a0e 6f9a a9bf
000002e0: fb05 0425 daa8 c0bf 625f e9f0 512c abbf
000002f0: be6b b5df 49d9 cf3f 8d6a 5036 4631 ccbf
00000300: da6d 0964 08fb c33f 290d 1555 bd71 cc3f
00000310: 9bde 68f5 a354 d23f a34a fe25 b169 a53f
00000320: b679 a67a 6c94 b8bf dc40 7f2c abd4 c3bf
00000330: 2611 9ebd eaa6 c43f ec36 23bf f083 c83f
00000340: 47e5 1922 2bb7 c2bf 4cf1 a70b 4398 cf3f
00000350: aec8 4783 4dfc d03f 8751 0d20 d9fa d6bf
00000360: ccfa bba7 d163 d1bf 560f 44cf 059c d13f
00000370: 208a 4d9f 508e d13f dd19 0c52 20db aebf
00000380: d1ad 314c a315 c0bf 7eff 576e d11a 863f
00000390: e0ab 8383 dce1 d33f d521 1a41 32be b5bf
000003a0: c2af 0b2d d084 cb3f e25b 588d c91a ae3f
000003b0: 5b1f a2c6 956a d6bf 0bc0 93d4 0508 c3bf
000003c0: 0900 7e6d ade3 cc3f a792 bd71 fb0e a3bf
000003d0: 2fbe 4d14 9bd6 c13f c204 9ef5 c41f d8bf
000003e0: 0b9f 9e15 f1ae b73f 00e0 78d9 6f11 d33f
000003f0: 7f24 e50c 7d81 c03f 43b3 76e4 1643 ca3f
00000400: a0f4 f67a 02ba d43f 2e5a a075 8f7f cbbf
00000410: 07dc c86e 2168 c73f 71d9 f3a9 8ed7 a03f
00000420: 47f7 40a4 8509 d33f fe9e eef2 5ce3 d23f
00000430: cf62 adb5 d9e4 d23f 6129 af78 67dd d1bf
00000440: 28da 213d 6987 d23f 0d91 67d9 95db 9f3f
00000450: 7ca2 0b84 dca0 b7bf 7d9c e8d1 16bc d23f
00000460: 176c 8366 4f44 d13f 8196 298b 5baf c43f
00000470: 0f9b 890d 6c76 c6bf 793b 8419 7505 b73f
00000480: 0d5a adb0 0f48 a83f 3d2f a323 24b1 b7bf
00000490: 9322 52e2 fd06 d0bf a52b 13ed 5d30 cebf
000004a0: b50e 06f1 18e6 c0bf e34d 0b22 2763 c33f
000004b0: f7be fdb0 dcf6 c03f 1ec4 2b71 b94d cbbf
000004c0: a8a2 c893 0e03 c5bf de18 828b 938a acbf
000004d0: 89a8 4a5b 7462 40bf e3f8 7f9e e6f2 cdbf
000004e0: deb2 042f e9a0 cb3f d946 0d10 8f7c c33f
000004f0: 1fa5 8cb8 b2c9 b33f 870f b9fa bd9d bd3f
00000500: 7fd4 d18a b11c be3f bca1 bb71 8181 ca3f
00000510: a4fc 4f78 8a88 cf3f 500b 7004 ed60 ccbf
00000520: 9e93 d391 ceab b2bf 0c4a 1941 0271 d7bf
00000530: f39b fbe6 48af c6bf 7a09 4d49 2e81 d03f
00000540: 681b 925f 1385 d1bf 0052 b8be 59c1 cdbf
00000550: 5b73 6a52 2a76 d33f 0220 8a12 6427 a93f
00000560: f7c0 c3aa bcee c1bf 55e2 4001 2918 d03f
00000570: 0cbb 1945 ccfd d5bf e25a 5ac2 8e86 d1bf
00000580: 966d 919b 3d65 bf3f 8720 3c05 1253 cf3f
00000590: 573c 5f72 af60 bcbf 5a30 9448 6418 adbf
000005a0: cea7 f4ea 63a9 e0bf c9fa 81c9 0e0f cebf
000005b0: f6a9 d47b b951 cebf bb6c 21ae f293 c63f
000005c0: a1d0 9a85 485d cf3f 4e08 e21e e32b 8f3f
000005d0: 6809 8c9f 36ae c93f 838f 3095 3a5c d0bf
000005e0: 1ef8 e303 2a55 be3f 747b 380f a167 ab3f
000005f0: 753d cbe9 f29f c83f 9ce6 466c f03b d9bf
00000600: b45e ae73 3342 97bf 0726 6494 ceaa 7fbf
00000610: 8d47 14b4 3570 d43f 8506 45ac 67a7 c9bf
00000620: 9adc 48fe 3ce6 ce3f 7b6e a683 44c6 ce3f
00000630: 10f0 0500 233d c83f 6a85 0e7a b2a7 c1bf
00000640: 7b0e 7cd0 ecb2 9e3f aac8 481c 8c7f cabf
00000650: fd81 fdb6 453b d6bf 2e4e 6c58 ad9c d5bf
00000660: 2879 9c89 0d35 c6bf 1387 c6ab 626d c6bf
00000670: d0fd 3b92 b003 d43f b317 c90c a76f be3f
00000680: 00bf ae09 e062 9fbf f200 a03e 2647 cd3f
00000690: 95eb e53b 9d0d ce3f f0fd 5f55 0433 a73f
000006a0: c437 638f 9e1a c13f 1bf8 19b4 bb2e bd3f
000006b0: de36 4414 f4b8 c8bf 526c 8756 3000 d9bf
000006c0: 82ad 4770 3135 c23f a697 c491 bae4 c9bf
000006d0: a003 cabb 413c c0bf 6600 f964 9545 b8bf
000006e0: 50f4 28ba 7e04 c13f e90c 5d56 2278 d43f
000006f0: bf91 2014 731e d0bf f739 444e deee ca3f
00000700: 6878 e4f9 67dd d13f bf5d fe15 0b31 b8bf
00000710: 914e 33c4 6626 d13f 7780 e44e b2ed ce3f
00000720: d695 b70e b8d3 d33f 7c2b c898 a529 bb3f
00000730: 0b5c 726a 77f9 d13f fbc5 3519 e453 c83f
00000740: b895 85fd 0f84 d5bf 48c4 9ede 128c acbf
00000750: 017f 98e9 257b cbbf 0c49 326b 687e 94bf
00000760: 7cb4 7c99 3000 c63f 38c5 d018 db21 cabf
00000770: 0ee5 b802 ec1c c63f 1af3 8660 db35 b23f
00000780: d8e3 ffea ee10 d0bf f7fd f2c3 53f8 b23f
00000790: 8e90 c9a5 2de8 d2bf 3d80 b032 4b88 ca3f
000007a0: ad94 732a 62ed d0bf a9b0 a029 31da 9a3f
000007b0: 5e89 d90d b3d2 c13f 6ead 34a4 cad0 bcbf
000007c0: 3d72 e251 b276 d0bf 3bf9 3208 12a0 d13f
000007d0: 2e4b 2b1b 5643 bd3f 242f 7c89 9c92 d6bf
000007e0: 9493 2972 5bd8 d33f fe5c 1fa6 af21 d33f
000007f0: 26d3 340e c3df 5ebf 89e4 a5a0 3beb d6bf
0.036468840274155576 0.14188622571748366 -0.08331992418339143 0.2088758599842726 0.13515030808092843 0.2625323134457231 0.26119265355390475 0.28016568265602654
0.28671780644232414 0.11287343433344729 0.30953971481514053 0.038176552040591366 -0.47611547011742966 0.3063081652227924 0.24353250235240095 0.30973097065184585
-0.37975540522300516 -0.24208832644217898 -0.22828588737275401 0.08903504394664676 0.24174534456143834 -0.34027942451804316 -0.029295996707583073 0.30855321917149586
-0.08244388665724807 0.16792602270323 -0.23057036163371103 -0.02474304916441975 0.15700715661049416 -0.1163526078689252 0.14445201047326986 0.06782022426423874
0.3234777666058111 -0.12521323405807105 -0.13635581534284474 -0.31576600489158324 -0.2776215085245224 0.1793277797017982 -0.25299804001128173 0.2867407867352036
0.0059705763482883045 -0.3386389318192443 0.17909732951184748 -0.06292369116946696 0.17430483596206647 -0.0725703445013353 0.2625768532000059 0.2396192598705635
-0.012697670217657836 0.27090745987262616 -0.08707373833718667 -0.30343714013802914 -0.006101178434379815 0.08236462438770895 0.28608807955453097 0.2758541150840385
0.27552710324657353 -0.045044710570037616 -0.36170208499121265 -0.02475572843157472 0.3164269710388583 -0.06437633313381143 -0.10643529071811506 0.026671018603612165
-0.12584367235185698 -0.03916863240221227 0.2369988296325722 -0.17626597472930425 -0.355484539677132 0.2582326201448779 0.10757543105641154 -0.1302064189955673
0.18260726755484422 0.2388914435270872 -0.1341307147113246 0.2613124033181042 -0.2691469609435831 0.24002585368935028 -0.19240562749459714 -0.1158430457450606
0.269252174981025 -0.296856469052063 -0.17428200316770168 -0.007214860253106668 0.2180377067635719 -0.31577309659843084 -0.27685169152456035 0.1970887661812938
0.042352792905806444 0.18263065429435799 0.1816394413914879 -0.050006361494052826 -0.13015295798690815 -0.05307251039329121 0.2488186209037319 -0.2202537312703793
0.15609841236697158 0.2222210565033518 0.28641604390893755 0.04182199085984919 -0.09601476663963279 -0.15492763207158233 0.16134390124001036 0.19152650196922794
-0.1462148586759133 0.2468341643251598 0.2653993398699964 -0.3590605557449397 -0.27171746616651826 0.27514786949926895 0.27431121403620473 -0.06026555062821946
-0.12566033573544513 0.010793338947223449 0.31066048472592733 -0.08493341531187266 0.2149906368207422 0.05879812097935379 -0.35025543592245406 -0.14868233566039665
0.22569816442774052 -0.037223680147495934 0.13936174861326964 -0.37693904863415295 0.09251314904997458 0.29793926465526965 0.1289516747440622 0.2051724067254331
0.3238531304194314 -0.21483033412433045 0.18286531361965805 0.03289457153907705 0.2974561790505174 0.29512714122618877 0.29521792165682553 -0.27913843904084074
0.2895148369783862 0.031111089128800496 -0.09229830001607725 0.29273005007639324 0.2697943211657629 0.16160148901979102 -0.17548895512592153 0.0899270236297819
0.04742478400901371 -0.0925467097287624 -0.25042674161572015 -0.23585104061052423 -0.1320220162270879 0.15146340524971355 0.13253363268039894 -0.2133094599335274
-0.16415579048159157 -0.055744753627594554 -0.0005000179431438194 -0.23397524585011018 0.21584811015909272 0.15223873409063662 0.07729641919708684 0.11568820353664765
0.1176253284373434 0.20707719853750273 0.24635439753180777 -0.22170794216807588 -0.07293406543938238 -0.3662725101213773 -0.17722426680049316 0.25788457067769566
-0.2737472947414319 -0.2324630910158163 0.30408723877353844 0.049128653777245304 -0.14009817445867842 0.25147462007911275 -0.34361559627625193 -0.2738377473810215
0.12263855979965962 0.24472260718926384 -0.11085030119214544 -0.05682671915028044 -0.52067752733023 -0.23483452643627903 -0.23686903520986363 0.1763900137183095
0.24503428004903063 0.015220426921818266 0.20062907019025578 -0.2556292015963139 0.11848700137122178 0.053525002582538145 0.19238125243871776 -0.3942833955185081
-0.022713474212280274 -0.007731253577966785 0.3193487413965322 -0.20042129432299674 0.24140131393662473 0.24042564800480534 0.18936574460155997 -0.1379302116375059
0.029979419922723665 -0.2070174348933212 -0.34736769552367247 -0.33768781313958385 -0.17349404544160874 -0.17521317851520077 0.3127252033300154 0.11889118253847535
-0.03065061625574028 0.22873380716192276 0.2347904722663229 0.04531110326933774 0.1336248588690393 0.11399434229858267 -0.19314433087895727 -0.39063652467820476
0.14224832518025826 -0.20229274861884255 -0.12683889073744314 -0.094811761046914 0.13294967737047836 0.31983240541394636 -0.25185849156903467 0.21041468450171383
0.2791385593753888 -0.09449834143594325 0.2679688373584464 0.24162892200638783 0.30979730069370015 0.1061042306902617 0.2808512248533936 0.19006015044173794
-0.3361854530142767 -0.05575617759257817 -0.21469568162955713 -0.02001345781588619 0.1718807935189125 -0.20415819846815864 0.17275762684747814 0.07113429171199606
-0.2510335249822311 0.07410167249599185 -0.29542103948757237 0.207284354925834 -0.26448873658803046 0.02622296158385554 0.13924253631837308 -0.11256090649538006
-0.25724466320551526 0.27539492417044514 0.11430872119244093 -0.35269845415381185 0.3100803961627261 0.298931038121239 -0.0018844036902240873 -0.3581074780300431

0.bias f8 [32]
00000000: fc7c eec3 50e0 8dbf 431c 0664 b753 523f
00000010: d6ce c519 c6c7 ce3f 9319 68de 7db3 a5bf
00000020: ccd1 e78a f588 d33f 2c70 8db5 e0aa b73f
00000030: 9ea9 8c66 0714 4a3f 43b4 3ef6 14e0 073f
00000040: 796f df3b a3c4 733f f1a0 3671 84ef d43f
00000050: ac8b 7f5b 2ec5 d23f 14af 2719 5f53 083f
00000060: ed57 4c7e fb62 643f 14c6 f9b5 182b ba3f
00000070: b7f2 8be7 7e35 d23f 9cfa ab91 64b3 d13f
00000080: ecd9 d4a4 a792 d03f 6e19 e519 3805 ff3e
00000090: 4da1 fc8a adb0 d43f 6253 eeb7 6a5f d43f
000000a0: c5b8 c421 e2a1 a73f 1e23 70db 49bc 193f
000000b0: afa6 2006 0aa7 c73f 77f2 e231 9dc8 d03f
000000c0: 4f81 cd5a 9b7e 763f 5b4a c65f 4437 5bbf
000000d0: 77c1 b0ce a622 d43f 1738 2eb4 91d4 203f
000000e0: 11cd 52d6 e283 c23f d0de 8f89 baf0 ab3f
000000f0: 1a02 93c1 48ae 903f fddb bb0f 3099 ca3f
-0.014588004092557665 0.001118592350481299 0.2404716134875488 -0.04238503780293281 0.3052343231677497 0.09245113785203846 0.0007958446632064136 4.553855867981589e-05
0.004826200134598107 0.3271189790343803 0.2932849782502511 4.63975331007322e-05 0.0024886047343768342 0.1022201008106765 0.2845151196668598 0.2765742704940892
0.25895110222646056 2.958334663929459e-05 0.32328356335576275 0.3183237835121898 0.04615694677555519 9.817314899874778e-05 0.18478513049313025 0.26224450942735394
0.005491835455217433 -0.0016611259189615233 0.3146149652921148 0.0001284053670044811 0.14464984383594318 0.05457098893378787 0.01628984147532906 0.20779991882565688

3.weight f8 [64, 32, 9]
00000000: f090 51bc 7dc8 bb3f 1bfe b84c 6362 cabf
00000010: 351b 8403 9807 c7bf 9402 a7b6 d837 923f
00000020: c277 8b6f dd0d a3bf 68ef e9b6 85b8 b03f
00000030: f19b 608b bd09 9a3f b603 f5b6 a899 9e3f
00000040: 38ed 32ea 843f bebf 744c c5c3 3090 b13f
00000050: 8898 9275 c238 7cbf 39fd 7c22 9da9 c2bf
00000060: baf5 9ce3 d92f bebf 75d3 527e 0741 a93f
00000070: bc8d 0a68 04cb a5bf d972 26a9 b13b 8c3f
00000080: 83fe 699c dd64 a4bf c078 f871 f0f4 bbbf
00000090: 2e98 1022 9f0b b03f 92a0 fcd8 d1c5 603f
000000a0: 5077 1552 4d4b a43f c253 b51d 4548 9f3f
000000b0: 6142 03bf fdf2 99bf b8dd 49d1 b09a 8f3f
000000c0: a19a b40b 8a0b 89bf ade7 f04a f40a 953f
000000d0: 74d1 905d c88f b53f 2f2a 6d6e 67be b53f
000000e0: 9c65 8496 b59f c7bf 7577 45d1 317e bbbf
000000f0: d3fd b15d 4bfd b6bf 2a43 aaa3 4695 ad3f
00000100: fc76 98fd ab31 7d3f 1438 10a8 1fe8 833f
00000110: 02e0 0470 44bd 99bf 9eae 0bae 1e8d 9bbf
00000120: 8ec7 19d8 da6f 8d3f 6d0e 33ac 449e 993f
00000130: 8505 820c 20c4 a0bf 8171 e5e6 307e 96bf
00000140: f5aa 3635 0b2e 913f ab3b 9b33 81cf a53f
00000150: 71a4 74b1 69ca a4bf 32d9 896f aa35 ac3f
00000160: 16a3 58df bfeb 953f 1604 7e13 aefc b53f
00000170: 9448 fb08 3bc1 a9bf c830 d376 0e72 adbf
00000180: 718d 1496 2718 9dbf a9f1 3a04 8fa5 98bf
00000190: 2218 9af5 73d3 b33f 2841 531d 8753 893f
000001a0: cf8a cd06 2053 9abf 2a7b 364f c7ff 95bf
000001b0: 9af4 6af9 0ab9 a43f b89c c783 6c34 b43f
000001c0: 5083 25a7 decf c6bf 0f2b eb02 7316 b7bf
000001d0: 8b7b efa0 fc7f 913f 7642 6342 7250 753f
000001e0: 5e30 8e6a ff8d 5e3f 222e 386a 9054 54bf
000001f0: c519 ba32 6a3b bcbf 234b cfdc b070 c03f
00000200: 9768 c46c f0a0 c0bf 0ace 5ce7 252c 4cbf
00000210: 32ec 0e9b b2d1 bcbf 25ac 247c 6ba4 b73f
00000220: 8081 c99f 6c8e 833f 6194 578b 49ac a1bf
00000230: f14f 617f f502 92bf cc4a dca6 a015 90bf
00000240: d9f4 2963 239b b03f 00ca 8d37 1d8e 933f
00000250: 42c0 1c12 f989 c8bf 2d5a 8cfa 3ec0 babf
00000260: 51ba ce28 5935 bbbf c21e 3d55 7194 b2bf
00000270: c970 b0c4 3f02 ac3f 12be d793 3c17 acbf
00000280: 66b9 2a6e 8b11 bebf dbcf 12a6 34c4 ba3f
00000290: 2e5f dadf 4b54 b6bf b1c7 aaab 7828 b23f
000002a0: fc34 17bc 91e5 98bf ee07 aa76 80e5 9bbf
000002b0: 5fd7 d359 bb6d af3f 1b69 9ad6 338b a0bf
000002c0: eb31 c4e8 2faf ad3f 9987 acef 4b08 a4bf
000002d0: 62cc ae9d a5ea b63f 7037 40e2 8fbf 8e3f
000002e0: fe87 4156 995f 873f 9497 1bab d83d 833f
000002f0: c22e 2a09 0ffe a1bf 9d90 7993 803b 7d3f
00000300: 11b0 51cb abd9 5ebf 461e 816d 4816 a8bf
00000310: 6e70 0d8e 76b7 aabf 29c4 c0e9 df59 bd3f
00000320: 7493 2e8d 3de6 b3bf 8d5b b323 e88a 80bf
00000330: a456 cb32 92ad a0bf 71ae 8d45 ef11 a93f
00000340: beea 4487 9158 93bf 1507 a6c8 788f 5bbf
00000350: 20ef 254c 8624 abbf dbc3 f26d c87f 72bf
00000360: 9942 d83b b897 b13f 0e51 6cb5 8fb7 a63f
00000370: b9c1 b305 2ee5 c7bf 2c5d 3616 ef44 bdbf
00000380: 4857 210f 4e94 a9bf 5f6b 7376 b9e6 9f3f
00000390: 6228 fdbe 8b9e 8dbf 5f12 3b1e c744 adbf
000003a0: efe4 e691 75ee a93f 03d7 98d7 9e7b bb3f
000003b0: a5e5 b17e 2f40 a6bf 0f08 64f7 0648 95bf
000003c0: 63f8 f202 4371 b53f c5ac 3a71 ba72 8dbf
000003d0: 72a2 9c4a af44 a2bf e424 7f57 cb27 b03f
000003e0: 698b ee66 023c a53f 5627 0f57 d1da b4bf
000003f0: 8f53 d45d 31ef bb3f 26ee 503c f2f8 953f
00000400: 6d9e abef 8468 943f b7e0 0241 8aa6 a83f
00000410: 5280 d598 79a5 81bf 6371 258e 62e9 a73f
00000420: 7524 1139 b748 a53f e585 530c 2764 ac3f
00000430: 2f2b a054 7ade b9bf 85ab ddc9 c4b0 a03f
00000440: f2ae 9f1c d111 ad3f 5186 f007 5208 74bf
00000450: fecc 74a4 4dd5 9d3f 830c c40d 583a a33f
00000460: e41e 569a f81b 693f c4ce 6b7a fb15 acbf
00000470: 9c13 ae44 9107 a43f c51b 982e b3cf a33f
00000480: 3096 204b 0b25 bc3f 020e f432 6092 883f
00000490: ef74 1520 1134 a93f 2f9d d91a 578d 81bf
000004a0: 62e9 65af 1d91 923f 7e87 0fb3 8091 8ebf
000004b0: 9100 7ff6 691d a0bf b409 955d 621c 803f
000004c0: 6f83 f20e db41 9c3f d187 4ab2 d60e c63f
000004d0: cb81 da65 da31 c3bf ac90 c467 4813 bcbf
000004e0: bca2 3dbd 7c1b 98bf 08a5 620f c3a9 bebf
000004f0: dcc3 aa15 ea80 87bf dabd 27e2 2147 953f
00000500: 187e 4102 abde aebf 60a2 9a72 3c06 9e3f
00000510: 09d3 e597 b183 b83f 403d cb20 41e2 973f
00000520: 5981 98ff 88ea a83f 3cd2 56af e15d ad3f
00000530: 09d6 d0f7 b51d 81bf b0df d970 94ba 8fbf
00000540: fd61 055d 1e67 9cbf 4268 f1be 6f71 95bf
00000550: 3279 bcb4 dc08 babf de87 a143 47b5 b63f
00000560: 73bd 4890 4d5b a13f 992a ddad d762 4b3f
00000570: 485b 0cd4 e440 a2bf 74d5 86bd 01b1 b33f
00000580: 9608 ae2e 487c a13f 086b e319 c31d 7ebf
00000590: c6cc 1a33 f3a6 6cbf aef1 8ba0 f50a b03f
000005a0: 7926 6f38 01f5 c03f 5049 4f80 e488 c2bf
000005b0: b1fe 671a 59cf 923f 2d25 c95c 5869 8cbf
000005c0: 4aba 6d33 f857 513f 3236 b973 85f8 83bf
000005d0: 6e8b da84 9974 a4bf 6406 b7f0 f1bd 8c3f
000005e0: eae4 e815 486e a13f 4356 1f31 0e29 b13f
000005f0: a1f6 6ee8 bfdb b9bf b945 dd33 fc7f c7bf
00000600: 143f 8c0d c481 bebf 7862 a5cd bb2c afbf
00000610: 6562 9a1b 42bb a7bf 117d f0db 3ed1 9cbf
00000620: cebd d12f 76e4 9cbf 2b97 bbe6 c4fa 79bf
00000630: f3a2 be83 6a11 9ebf 1358 9a7a b4ce bf3f
00000640: cd5b 643d f85f a6bf c630 a940 4437 ba3f
00000650: bc1e a21e 47b7 893f ba0e 0b5a 8811 9e3f
00000660: 83cf c81d fd69 ac3f d93f e983 9eb1 a43f
00000670: ee8d cd31 373c babf 156c 0822 3707 b33f
00000680: a7eb 51f7 479a b03f 1dc5 2d74 1183 93bf
00000690: 2772 257d ab69 ac3f 66d9 aac3 9f55 ae3f
000006a0: 7e55 c17e 7191 b23f 7f5e eace f1a2 96bf
000006b0: 5710 3be5 8356 a2bf ac39 dbdc 3c65 963f
000006c0: d02b e8ae f082 c13f 29dc 7a5b 60c9 b83f
000006d0: 45e1 4260 d791 c6bf d11f c318 00e5 bcbf
000006e0: 5f09 9760 0e2c a9bf d5a4 9604 e0a9 923f
000006f0: ce96 8057 b33b 9cbf e972 beea ab2c 813f
00000700: a343 7353 34bb bcbf 4fca bf14 fe08 be3f
00000710: 902a a4d5 16c6 9ebf 6163 4f86 cc23 b7bf
00000720: 8b29 28e5 f45a bbbf eb24 8356 2f2a b33f
00000730: 1862 3331 29a2 783f 4429 aa69 6360 b33f
00000740: b2c4 41bf 37b6 95bf 29da a9f1 0153 9abf
00000750: 83f0 12a8 d4b2 b53f b9b3 7775 f871 a83f
00000760: f36a 3ac4 8943 863f 4d9e 4517 c711 b13f
00000770: 4d26 b124 f419 953f d16b 7771 b89c a53f
00000780: 86e8 9a96 d009 9d3f 7a16 f41e 99b1 ab3f
00000790: 6643 cd30 1710 b73f 1df8 f237 1d76 b53f
000007a0: da03 6b74 6b66 b93f 0cfb 919c b6b4 c0bf
000007b0: 37c3 1bed 2684 b0bf fa6e 9a1a d72d 63bf
000007c0: e042 138f 617c a23f 0500 a81e 1e94 b03f
000007d0: 0a42 5d6e 1b3b 98bf 6bb1 2657 bf94 b3bf
000007e0: e76c 26f2 2700 a73f b353 f244 5728 b63f
000007f0: 85e0 ff49 c05f a3bf c09b 4e7f fa77 873f
0.10852800223944192 -0.20612756010267294 -0.1799192444961705 0.017791162632195226 -0.03721515642767727 0.06531558719319508 0.025427781707687506 0.029883037726225324
-0.11815672605273597 0.0686064222293668 -0.006890067678943741 -0.14580120262142218 -0.11791765028916404 0.04932425896678342 -0.042564523411126015 0.013785732245020043
-0.03983204397536346 -0.1092062261818425 0.06267733174954124 0.0020474527917891472 0.03963700892448563 0.03054912561249857 -0.025341000350467605 0.015431767832736351
-0.012229040605757748 0.020549599718129908 0.0842251995498538 0.08493658491094246 -0.18456144189330537 -0.10739432677425305 -0.08980246579630284 0.0577795100008472
0.0071274488814461155 0.009720084492098414 -0.025136060082530783 -0.02690551698007814 0.014373502464170487 0.02501780797025648 -0.03274631645855223 -0.021965755551137448
0.01677720558442793 0.04259876017533001 -0.04060678759771797 0.055096937289749084 0.021407125479672016 0.085886840590334 -0.05030235752714521 -0.05751080704212225
-0.028412455115483796 -0.0240690561611118 0.07744526620999229 0.012366347868380048 -0.025707722106185934 -0.021483530244604733 0.04047426504755798 0.07892492501524628
-0.1782186809678259 -0.09018629857306969 0.017089793513033007 0.0052036727194751855 0.001864909582056227 -0.0012408647825193982 -0.11028159845782344 0.12843905240750883
-0.1299114733781763 -0.000859755046553835 -0.11257473264315435 0.09235259800759417 0.00954899656898145 -0.03451757265046563 -0.017589412593522927 -0.015707502540929494
0.06486722155564752 0.019096809879053822 -0.1917105997504241 -0.10449594132328661 -0.1062827801349411 -0.07257755595230278 0.05470465923301188 -0.05486478142472263
-0.11745521010991453 0.10455636076477452 -0.08722376074944968 0.07093004408923666 -0.02431323729051814 -0.027242667429625493 0.06138406249549066 -0.03231203074138219
0.05797719684969479 -0.03912579823214841 0.08951792812040218 0.015013813106658808 0.011412809319327973 0.009395306321902365 -0.03514143931269366 0.007136823892867875
-0.001882951514995849 -0.04704500519488568 -0.05218096241034763 0.11465262848720727 -0.07773194023918767 -0.008077443685051278 -0.03257424230620856 0.04896495555916836
-0.018892549401452234 -0.0016821555642256337 -0.05301303557913983 -0.004516394546201642 0.0687213083367716 0.04436921205175014 -0.18668151167322636 -0.1143330983380692
-0.04995960173316277 0.031153581480661937 -0.014462558523195838 -0.057165358009602533 0.050647424755377084 0.10735504878615747 -0.043458446708380984 -0.020782574510128934
0.0837594873619039 -0.014378983097535056 -0.03568027292050581 0.06310721288822979 0.04147346025936011 -0.08146389365643122 0.10911854305989109 0.02145746701374498
0.019929959419555155 0.04814559978098159 -0.008616399742720802 0.04670246110137801 0.04157040187471576 0.05545160317866386 -0.10105099264198424 0.03259863819297152
0.056776556724654884 -0.004890747483871375 0.029133999979603857 0.03755450408973451 0.003065095474713663 -0.05485521191977008 0.03912023509386772 0.03869399970795188
0.10994024833834071 0.011997939639065262 0.0492253638901533 -0.008570366389177934 0.018131698446702933 -0.014925961937425344 -0.03147441038118005 0.007866638642217129
0.027594969546615496 0.17232783990499326 -0.149958896382499 -0.10966923268694256 -0.023542355585422156 -0.11977786183947015 -0.011476353441453861 0.020779160908146334
-0.060292572045679005 0.02932066392409849 0.09575948675576397 0.023324029566365256 0.04866436119141566 0.057356884626106525 -0.008357450127827641 -0.015492591566029862
-0.027737116267731555 -0.02094053843425337 -0.10169772541528202 0.08870358849665602 0.033899711478052284 0.0008357575531843963 -0.03565135086517174 0.07691965939632955
0.03415132112333301 -0.007352602113509084 -0.003497576712868519 0.06266722840877634 0.13247695212912783 -0.14480263009188343 0.01836909507437551 -0.013872804957957808
0.001058571227726584 -0.009751360506153526 -0.0399520849871554 0.01403416648725226 0.03404450671627919 0.0670327062537917 -0.10100936340946955 -0.18359329731405952
-0.1191675694537902 -0.0608881653340107 -0.0463505419440409 -0.028141958402668147 -0.028215262097033116 -0.006342667718603849 -0.02936331204515148 0.12424781792864818
-0.043700940603393336 0.1024058015693213 0.0125566059325729 0.02936375665264166 0.055496129880707755 0.040417626955445214 -0.10248131719486483 0.07432884770280197
0.06485414302907931 -0.019054672924032724 0.0554936971918532 0.05924700988309688 0.07253178925141943 -0.022105959180946485 -0.035816308719888106 0.021870566349031215
0.13680847683312303 0.09682275994679003 -0.17632572365051594 -0.11286926846071245 -0.04916424683644282 0.018226146965081142 -0.027571489539829845 0.00838598547107368
-0.11223151242599143 0.11732471472331805 -0.030052525319698875 -0.09038999823623108 -0.10685663790369497 0.07486244070163976 0.006014023692124691 0.07568951921181105
-0.021202918098826636 -0.025707273840874265 0.08475998977059089 0.04774452623301024 0.010871006298932317 0.06667751615679514 0.020606817950726875 0.04221130738343216
0.02835775298329015 0.0540893411908145 0.09008927289438659 0.08383352867073808 0.09921905128705025 -0.13051493306189632 -0.06451648033886391 -0.0023411942718903874
0.03610520240329662 0.06476009605830775 -0.023662975894071216 -0.07648845555985921 0.04492306548055485 0.0865530532194743 -0.03783989814104508 0.011459309587577127

3.bias f8 [64]
00000000: 86b0 e971 41a6 a43f 1500 0ee6 c031 a1bf
00000010: 40a7 3bf7 17e1 92bf 29a1 e906 862b 923f
00000020: 1464 e88f 96aa 633f 8359 2b22 6dd5 8cbf
00000030: 8220 9ef1 48a7 a63f 5685 7bd0 4fc4 98bf
00000040: 5e97 a78a 24f6 a2bf ac8a 1ceb 7a0d ac3f
00000050: b340 ba31 a1b1 79bf e86a a14d ee74 b43f
00000060: 5d42 14c2 336c b53f 1f4c 0457 7f5a 513f
00000070: 49f1 4e03 d006 c03f 1fa0 b455 e2c0 903f
00000080: 9a16 9c3f 0dc0 b03f 88ae 1ab0 f336 b43f
00000090: 8276 096f 33de b03f a7d4 9cbe 0232 993f
000000a0: c5d8 9045 934d 913f 5f9b 01c9 64a7 8ebf
000000b0: 8964 9007 baaf 93bf 4dbe f318 d4fa b6bf
000000c0: 2bb6 8631 d4e5 b8bf 86a0 164d 0d96 94bf
000000d0: c47f 98a5 e877 703f 603b 9716 bb56 9c3f
000000e0: fb6a 8bcd 631f b03f 778f 1e5c 4c48 a53f
000000f0: 90c1 bc01 d0f2 61bf 16ae ee48 230d 843f
00000100: e156 6556 63b9 a63f 582c 55b0 e533 ac3f
00000110: 3eb6 57f9 7e25 9e3f 17c7 24ac e34b a1bf
00000120: de1a c575 9c9e a0bf 2b0f e1f3 d1ce 99bf
00000130: 5086 89d8 597d a53f 553f 5cf0 0187 953f
00000140: 3c98 3808 81a2 81bf 4d67 e91a 0aab ae3f
00000150: 0459 a335 1c62 93bf 6ed7 90d1 3384 a33f
00000160: fa28 d778 38a2 9cbf 4472 576e 2b46 9ebf
00000170: ded1 8346 0002 983f b3e3 d992 b354 8d3f
00000180: 519b 59dd fdb2 62bf 23e9 d683 730c 9abf
00000190: 4f43 eb9f 0d85 a53f 0363 1819 1c2d 4d3f
000001a0: 96cf e178 2c16 a13f 2438 c2c7 53b0 aa3f
000001b0: 06aa ab15 49e0 a63f e945 de2e b193 ae3f
000001c0: cd46 47a7 1c6b ad3f 67c9 a22f fab9 a4bf
000001d0: fb15 4b50 5026 a63f 90a2 3165 5950 903f
000001e0: da68 e7f0 2d77 a53f 2295 b107 d5a9 a2bf
000001f0: 3608 fabf 1bd4 8fbf 29b3 aba5 2ac9 7dbf
0.04033092990434377 -0.033582714159820316 -0.018436789002328924 0.01774415414038902 0.002400678698233802 -0.014078953366532648 0.04424503278193105 -0.024186369991075672
-0.03703417007981956 0.054790345382817435 -0.006272916474373047 0.07990922351147456 0.08368228424320408 0.001059173922901342 0.12520790254155603 0.016360794526150465
0.0654304771706741 0.07896349954051562 0.06589051686156647 0.024604838260718378 0.016897488709411563 -0.014967715629791987 -0.01922503157775116 -0.08976483925993613
-0.0972569104112259 -0.020103652792073955 0.004020603920736169 0.0276746017969417 0.06297897117785205 0.04156721710685834 -0.002190977347616925 0.009790683425158025
0.04438314847599912 0.05508344438074947 0.02943991085878949 -0.03378211475718567 -0.03246010720845559 -0.025203018675042415 0.041971976931347244 0.021022825522833816
-0.00861073309267734 0.059898677621005626 -0.018928948186691677 0.03811799939323533 -0.02796257245589915 -0.029564550981250784 0.023445133499039865 0.014321711463013509
-0.00228261549891632 -0.025438122674793406 0.04203074051986865 0.0008903872678188432 0.03337229705439808 0.052126520285227934 0.04467991246731988 0.05972055146333927
0.05745782415364218 -0.04048139411442513 0.04326106052534936 0.0159315078748557 0.04192489209863633 -0.036451966466112276 -0.01554128341308934 -0.0072719255356162105

7.weight f8 [1, 128]
00000000: 6ce9 68ea f1c3 b3bf f87c 5d7b d2bf a53f
00000010: a42e 76e4 6c62 953f 6647 b972 5a9c 94bf
00000020: 0d31 3d51 90c5 ad3f 2740 3266 5da2 a8bf
00000030: b8d1 b341 a344 b13f 166a 692f 9aa9 b33f
00000040: e68a 9033 9210 c7bf c45a d0ac 3219 b0bf
00000050: a088 cb72 bb36 b3bf 1594 04cf 02b2 af3f
00000060: a635 08f7 4dc9 c1bf b17c 0827 6117 a4bf
00000070: fd92 8ae4 ea59 ca3f f57d 972e bf1b b4bf
00000080: 5622 e705 230e cb3f 2a71 0048 1905 a5bf
00000090: 880c eeca ddc7 aa3f e3ae f725 50eb 6d3f
000000a0: 4e85 94f3 bd93 a63f 06d0 62b0 77b6 97bf
000000b0: adc4 a67d bf86 bbbf 8209 c02e 9e88 cf3f
000000c0: 27df 2449 0fdc c73f dde6 025e 626b b4bf
000000d0: 1744 4079 7a9f c13f bd86 8a63 b8bb 97bf
000000e0: 339d c387 1c6e c33f 2c5a a2aa 744d b3bf
000000f0: 382a e872 ed2a 8abf a49a 33e5 86df b23f
00000100: 0a24 bd1f 2769 a23f 99a7 6138 c177 a03f
00000110: 7e46 da28 f9e6 c63f c2ed 87e2 0876 a1bf
00000120: 251f 03a3 d846 c13f c374 8595 f881 9ebf
00000130: ccfb 060f 2f71 8b3f 1a58 0b14 b28e b13f
00000140: 5581 9203 2331 c7bf cc1e c0f1 12c4 a5bf
00000150: c0bd e970 06f8 bbbf fb50 8dd9 6d3c 5a3f
00000160: 7414 18ac 4b7f b3bf b6da 10c9 2877 643f
00000170: 3b70 f862 c639 b4bf 2753 7900 831d a93f
00000180: 7b38 8abe ad00 b33f 0b2e ddbb 49c0 b43f
00000190: 564b 3e10 0301 c13f 9235 e35c 0270 5a3f
000001a0: a430 510f bc16 803f 4d18 ce54 ce2e a7bf
000001b0: f81a 47e8 8659 b83f eba7 917a 7932 b33f
000001c0: d265 2262 b7d2 823f 0dbf 1248 af09 c73f
000001d0: 74ee 0664 2c99 cc3f bdcf 2298 ea49 c23f
000001e0: 5951 d7eb 394f c63f 20f2 0b33 1962 b1bf
000001f0: 5f9f eafb e4da a7bf 0cfb d145 a5de ac3f
00000200: c51c a815 9765 b43f 3ca8 cf56 de7b b0bf
00000210: 23fb e4b3 7c56 be3f 193d 50ae cf76 a33f
00000220: 2deb a6f9 f510 b83f 9401 09d3 5d8a a33f
00000230: e54a 45ad c892 a83f 49fa ba6f a80c aa3f
00000240: ec07 67eb f795 c9bf 5a1b ead8 f18a 87bf
00000250: 76a4 aacf 42bb b7bf 2405 c25a deca b73f
00000260: b82b 420f 87e0 bc3f 7b81 fd7b acbf a53f
00000270: 427f 8b3c d8da af3f 0db5 c8a9 23f7 ad3f
00000280: 04cf 5370 521f d03f bb64 bc00 0e54 b5bf
00000290: 2833 7d65 404e bc3f d395 70e0 76c1 b03f
000002a0: c784 e280 3e38 c3bf ef5c e03a 4668 acbf
000002b0: d72c 0387 30b8 b8bf e80e a2aa 3143 ae3f
000002c0: 99d0 4dd6 a628 b83f 3406 5e1e 787d 893f
000002d0: 8043 e139 9715 c13f c5ec d01e cccc 9ebf
000002e0: 95d1 bcc7 d657 b7bf 8731 5041 c8a1 b2bf
000002f0: c298 d4b2 0a32 a13f 5fc1 f287 0d00 c43f
00000300: cc83 d6af 04af c13f b166 70bb cd9a b6bf
00000310: a2d5 f3a3 1964 c3bf 17c1 1128 2e71 a53f
00000320: c1b3 1544 978f c73f 259c bcd0 d875 b0bf
00000330: 6ecf fd26 e79b a53f bcc9 7c7d ceb4 51bf
00000340: a138 dfb1 5a6f c43f c839 b78d 7a9b 84bf
00000350: 6634 4be7 2c2c a0bf a941 ab33 bb32 9f3f
00000360: 4716 c44e f517 bebf dad6 9222 c3e1 aabf
00000370: 3c9d 6d34 5d25 9f3f 84cb c53c 50c8 c33f
00000380: 2b9c baa8 bec6 bcbf 58bb f334 9186 b6bf
00000390: f876 da6e 9cc3 863f d8b0 3a23 43e3 b3bf
000003a0: e327 93cd a118 d33f 444e e1cf f491 acbf
000003b0: 1851 a496 8cd4 cdbf c818 d216 1b97 a4bf
000003c0: f2af 10eb ad63 c3bf b46c 2986 9d45 b1bf
000003d0: 45f8 b146 1413 b43f 3fc2 6798 b837 b13f
000003e0: d9ef 3fd9 e60c cebf 28f9 d1b8 56b8 a8bf
000003f0: e4e1 f70a 4c4d bfbf 565a 7865 9988 67bf
-0.07720863316436571 0.04247911220476824 0.020883275455658393 -0.020127690555745835 0.058147916714547866 -0.04811374542725871 0.06745357851088485 0.076806675505772
-0.18019320981792147 -0.06288449019516934 -0.07505389740575419 0.06190499093126093 -0.13895582735169149 -0.03924087144354738 0.20586906584971834 -0.0785483826398304
0.21136892116762124 -0.041054525412820134 0.05230610944911357 0.003652245082539683 0.04409593199148763 -0.02315699590754152 -0.10752484147703241 0.24635674746248176
0.18640318938718645 -0.07976355357359517 0.1376793949171151 -0.023177033496387212 0.1517978346739511 -0.07540063062547436 -0.012777190274410363 0.07372325034848842
0.035958502411240614 0.032163656361105804 0.1789237451053402 -0.03410365834494257 0.13497455558376106 -0.02979267513852758 0.013399474760147266 0.06858361234057533
-0.18118703531673455 -0.042511550913386736 -0.10925331360498713 0.0016013214828563538 -0.0761611266280669 0.0024982258405786507 -0.07900657573958451 0.049053281600811176
0.07422910596707936 0.08105908237956087 0.1328433827698869 0.0016136191439274123 0.007855862824861788 -0.04527897629945752 0.09511607333034167 0.07498893015295464
0.009190972025225817 0.17998305339050838 0.2234244812406022 0.14288074902071726 0.17429279342344264 -0.06790311332947185 -0.04659190726425665 0.05638615109727682
0.07967514303901442 -0.06439008349812608 0.11850718872026937 0.03801583292817607 0.09400880188961187 0.03816502762902299 0.04799487223740132 0.05087782253166446
-0.19988917345295876 -0.011495484764294229 -0.0927011258123843 0.0929392787529833 0.1128010189296863 0.0424779797892851 0.06221652735780349 0.05852614829596279
0.2519117447802588 -0.08331382291761973 0.11056902387390422 0.06545203189360586 -0.15015393536763197 -0.055483050047934294 -0.0965605096454739 0.05910639961169101
0.09437029583006264 0.012446344782577425 0.13347139669579278 -0.03007811487280489 -0.09118406654744711 -0.07278110117494495 0.03358491356839145 0.15625161302660737
0.1381536348899587 -0.08829961610936256 -0.15149231439106098 0.04187912215354766 0.1840695459790407 -0.0642982015238976 0.042205070028017086 -0.0010807053094593474
0.15964826283601943 -0.010062177133389208 -0.03158703158769853 0.030466961887954423 -0.11755307362553778 -0.05250367924729256 0.030415970158540903 0.15455058066762828
-0.11240760440215129 -0.08799083273673369 0.011115286000229471 -0.07768649683083895 0.29837842059771286 -0.05580105817412265 -0.23304898601112067 -0.04021534589360126
-0.1514794729022238 -0.06746849561152396 0.07841612554509066 0.06725648613770206 -0.23476873023889658 -0.048281393109379345 -0.12227320926456958 -0.002872752764015811

7.bias f8 [1]
00000000: f965 b22a f46e aa3f
0.05162776013566978
