models/run2/45.pt (torch, 153942 bytes, 6 tensors)

0.weight f8 [32, 1, 9]
0	0x3fa25b4321ad9875	0.035852525578591456
1	0x3fc231d6d6da8a7e	0.1421459721651281
2	0xbfb33f3a7cbafca7	-0.0751835398213979
3	0x3fca86650678e342	0.20722639862085585
4	0x3fc15a59b0cfb72b	0.13556977399223888
5	0x3fd0d4616b8eac55	0.2629626798977303
6	0x3fd0ae7cdccc0569	0.26064988672449957
7	0x3fd1ecb8076a716c	0.2800731728000503
8	0x3fd260b255a4db17	0.2871518932692409
9	0x3fbccce1f0a8de99	0.11250126004676488
10	0x3fd3c7ae0b201231	0.30906249128773583
11	0x3fa303d63e3b53a2	0.037138648125313325
12	0xbfdeed63ae99c3a6	-0.4832390980801001
13	0x3fd39a6f2c2a7e2d	0.30630091965756173
14	0x3fcf8efa479c6a38	0.24655083176260617
15	0x3fd3d19fc100e644	0.3096694359588563
16	0xbfd849acc7a1ed42	-0.37949676032413404
17	0xbfcf1607a7a46a6f	-0.24285979924828235
18	0xbfcd35dcd27d79a0	-0.22820625570143438
19	0x3fb6ce5170307783	0.08908566464421423
20	0x3fcf1706c31e9f68	0.24289021041226566
21	0xbfd5e2df28f82fdc	-0.3419721508114415
22	0xbfa16b05090575ac	-0.03401962027667635
23	0x3fd3c87bcd7268aa	0.30911154807257424
24	0xbfb4efcf8b9fdb9b	-0.08178422125625533
25	0x3fc56a4ed7ce3a8f	0.16730676209813963
26	0xbfcd1de60acb72c8	-0.22747493292890497
27	0xbf9c9acafe7bd700	-0.0279342382263712
28	0x3fc3ee3a543b9ec2	0.1557076369565405
29	0xbfbd8ae33ebc7010	-0.11540050775187205
30	0x3fc29a171393ae54	0.14532745796110424
31	0x3fb110253959ad51	0.06665260934976415
32	0x3fd4b2880b26706d	0.323396693123647
33	0xbfc02b161b26d09b	-0.1263148911072037
34	0xbfc149ed8d7129f6	-0.135068601668834
35	0xbfd49ff7ecae0cbe	-0.3222636996581051
36	0xbfd212a2d5e50ee5	-0.28238745582733166
37	0x3fc6f552cd574de6	0.17936167742173764
38	0xbfd015a166cbffc3	-0.25132021940953225
39	0x3fd258a17e62ded5	0.2866595968475683
40	0x3f7d55c5266c808c	0.007161874883223739
41	0xbfd5bac4d4c30356	-0.339524467253843
42	0x3fc6fefce5535054	0.17965661237269848
43	0xbfb008fc4b35851b	-0.06263710819395778
44	0x3fc6532bd10c0cbf	0.17441318232895317
45	0xbfb2464f283411e1	-0.07138533336189525
46	0x3fd0cca2c28d03a6	0.2624899768744008
47	0x3fcf090f8be263c2	0.24246401148118762
48	0xbf8adb46fc58bb41	-0.013113550735480596
49	0x3fd170d901696109	0.27251267564635434
50	0xbfb75278093a7df8	-0.09110212540917206
51	0xbfd3530f60c61af4	-0.3019445843751065
52	0xbf74e9771ad4c33b	-0.005105462315712124
53	0x3fb509cb1a0161cb	0.08218068489930556
54	0x3fd2415affb6e51f	0.2852389809809938
55	0x3fd1b24c572cd029	0.2765074588126049
56	0x3fd1a2d966e33893	0.2755645279656928
57	0xbfa5ae558b5c590e	-0.04234568906956514
58	0xbfd74fe54661877a	-0.36425144074575366
59	0xbf9830d265543bfd	-0.02362374061072713
60	0x3fd44a5f298c2750	0.3170392900216159
61	0xbfb0d70cd52cb398	-0.06578140453775772
62	0xbfbb6ca3324fceb1	-0.10712642648996497
63	0x3f9becd56a2d0d6b	0.02727063618227758
64	0xbfbff1e7d16aaa2a	-0.12478493559562112
65	0xbfa3deaeb2e1e7d5	-0.038808307014690215
66	0x3fce5195486c50d0	0.23686471973690582
67	0xbfc66cc9870ba1f2	-0.17519492239013307
68	0xbfd6d008b6bc79ab	-0.3564473900350104
69	0x3fd0899e93146c70	0.2583996235204671
70	0x3fbb864ff7df2957	0.10751819421344543
71	0xbfc083cfb9810758	-0.12902256543935198
72	0x3fc752f30e5b84e5	0.18221891594934117
73	0x3fceff9c4195db66	0.24217560961161694
74	0xbfc0d48255af6d90	-0.13148526367045266
75	0x3fd0b262f51e22c9	0.2608878511169164
76	0xbfd13d8d6e60a6a1	-0.26938186434800043
77	0x3fcf3cd1eb5306da	0.24404357901044343
78	0xbfc8f7912e270454	-0.19505514863525042
79	0xbfbd97e5a0e41ebf	-0.11559901407246807
80	0x3fd148c837fc01dc	0.270067267105359
81	0xbfd324712de95c20	-0.29909924968291257
82	0xbfc63f307f915fd4	-0.1738033888711913
83	0xbf730c710cd8ba10	-0.004650537111543077
84	0x3fcbe78c996253e8	0.21800382127244622
85	0xbfd428c7325c9e46	-0.3149888984503132
86	0xbfd1c6595bb984e7	-0.27773126561630906
87	0x3fc9391e09e2db81	0.19705558283541438
88	0x3fa5e2d4676608c0	0.04274619829358661
89	0x3fc75d4abc898aac	0.18253454404756064
90	0x3fc73a7cbac9a927	0.1814723884629725
91	0xbfa94b16e818544a	-0.04940101226035461
92	0xbfc0f3ad2ca97d0d	-0.13243641548886168
93	0xbfab3e440c9f17c4	-0.05320942548819077
94	0x3fcfcd19c83fc11e	0.24844667699608974
95	0xbfcc3e0734fa1b8a	-0.22064294897810682
96	0x3fc3f69b26eb0da8	0.15596331978131883
97	0x3fcc900e495b146d	0.22314623433900085
98	0x3fd2541b56178be1	0.28638347060603847
99	0x3fa59fde62318605	0.042235326277261044
100	0xbfb95d993c2626b1	-0.09908445089800001
101	0xbfc3df2f8561457e	-0.15524858486837084
102	0x3fc4acead19683f0	0.1615270160082498
103	0x3fc87e43fbbb6750	0.19135331908801811
104	0xbfc2aaff127485b3	-0.14584339524394138
105	0x3fcf92ee037b2e97	0.24667143983821369
106	0x3fd0fa5fcf951c12	0.26528163215374534
107	0xbfd70959b5ebf613	-0.359945705087598
108	0xbfd14c05cc05a96d	-0.2702650539782983
109	0x3fd19b3f65df9e5e	0.27510056446633324
110	0x3fd18e69850a2d96	0.2743171500412357
111	0xbfae048fdacc0bf9	-0.058628554781556326
112	0xbfc01e898bae2f20	-0.1259319240601764
113	0x3f88fe73ebb8c2cd	0.012204080229908066
114	0x3fd3e535a1797c2f	0.3108648373508371
115	0xbfb51ee6b51daeca	-0.08250276490951616
116	0x3fcb88d2b10deb40	0.21511300702317193
117	0x3fadf094593a89f2	0.05847610081879741
118	0xbfd69108566ecb42	-0.35260208550169037
119	0xbfc321b9888bd41a	-0.14946669738097357
120	0x3fccf5097ab2a03e	0.2262279366598267
121	0xbfa35cde5d386347	-0.0378179062647122
122	0x3fc1b1eafe84e6e5	0.13824212482159406
123	0xbfd83f05e886b6a2	-0.37884662349356735
124	0x3fb787e506ec9bdc	0.0919173375992694
125	0x3fd314e85a5be22c	0.29815110038865344
126	0x3fc0779c50955241	0.12865022597056178
127	0x3fca498f7ace0c48	0.2053698873170069
128	0x3fd4b9ded8c53734	0.323844634713953
129	0xbfcb9eb8228aa719	-0.21578122793771895
130	0x3fc77f0f60f0f2da	0.18356506570298486
131	0x3f9e03276745fbee	0.02930890624838505
132	0x3fd300b780356d9b	0.2969187500036356
133	0x3fd2e93d809d4029	0.2954858547209392
134	0x3fd2e656b7a396e6	0.29530876096246883
135	0xbfd1c2230e5afb9c	-0.2774741783322783
136	0x3fd28988b77c91d5	0.28964441221822074
137	0x3f9f806159dc734a	0.03076316939324223
138	0xbfb764fc4944148e	-0.09138466633528905
139	0x3fd2b728ea78db24	0.29242918870606815
140	0x3fd1539698f71259	0.2707268232154881
141	0x3fc4aa24d9cbf033	0.16144238123513474
142	0xbfc6493f482ef3d8	-0.1741103270013855
143	0x3fb7085ce233963d	0.08997135660646279
144	0x3fa7e2ed7c9dd37b	0.04665319582173929
145	0xbfb70d76c05a420a	-0.09004919239146872
146	0xbfcfeb915b5a16b4	-0.24937645874540737
147	0xbfce80f8a343921b	-0.23831088992950886
148	0xbfc1108722584181	-0.13331689049710962
149	0x3fc37561a616ef7f	0.1520196972832046
150	0x3fc0edf047b1973e	0.13226130963010435
151	0xbfcb3a672ab9d53e	-0.21271981798387601
152	0xbfc52c3e5f802141	-0.16541270888434137
153	0xbfa828133e8b3dac	-0.04718074930644475
154	0xbf3d9a137b6810fd	-0.0004516885341277059
155	0xbfcea0bc23cd8211	-0.2392802405183976
156	0x3fcba5e4e79bf1ea	0.2160001879600622
157	0x3fc36da2a2b5f9af	0.15178330368867196
158	0x3fb3cd3a8f2d2e0f	0.07735029216308241
159	0x3fbda005fbcdb11b	0.11572301290079105
160	0x3fbeb7d18471981d	0.11999234660615384
161	0x3fca8494a33e7d34	0.2071710393038103
162	0x3fcf6b06426af1af	0.2454536270432874
163	0xbfcbfa837de2395b	-0.2185825695673412
164	0xbfb1504f44ebb900	-0.06763167793880953
165	0xbfd792b9bbca0d7b	-0.36833041514201853
166	0xbfc6f013b84f4cd6	-0.17920156955242444
167	0x3fd08c8bf188a6bf	0.2585782870033703
168	0xbfd1ae8a474a5113	-0.2762780853456814
169	0xbfcdb90d43320ae1	-0.23220983296422218
170	0x3fd378b378825547	0.30424200790851724
171	0x3fa8f2d6aad0cff7	0.048727711059115046
172	0xbfc2075bcc38a509	-0.14084956619016278
173	0x3fd00727a2541012	0.25043669559841064
174	0xbfd62e33ab8c29ec	-0.3465699363011072
175	0xbfd19df75de8a075	-0.27526649637957884
176	0x3fbed26facc77a28	0.12039850204698921
177	0x3fcf50f485eef1af	0.24465805568423835
178	0xbfbbca5f8a47c3a4	-0.10855672002777667
179	0xbfad23b90cd19d64	-0.056913168730541114
180	0xbfe0ee71000a0941	-0.5291066170468995
181	0xbfcf24842e57e44b	-0.24330189001901412
182	0xbfcddf75a1879c95	-0.23338194262689585
183	0x3fc6c96d59e1f68c	0.17802206887056504
184	0x3fcf558c5722cbea	0.24479822401698864
185	0x3f91d66b80c8b85f	0.017419509635310578
186	0x3fc9aa4c9cd362d4	0.20050962121492566
187	0xbfd03f24e882a0b4	-0.25385401445465594
188	0x3fbe5d8157e00218	0.11861427684198877
189	0x3fab8f938bf4b3fb	0.05382977565236754
190	0x3fc8cb07df48aa36	0.19369600679904558
191	0xbfd94eec34a03135	-0.39544205798371773
192	0xbf97d9e79ec5b07d	-0.023292178216636195
193	0xbf74f734be9fdeb3	-0.00511856654519931
194	0x3fd466d851182fc5	0.3187771598757048
195	0xbfc97746ec087e53	-0.19895254635865686
196	0x3fcf04dd537d9aef	0.24233595444385211
197	0x3fcec5fd223f1b77	0.2404171387881566
198	0x3fc84803e4388e58	0.18969772952651698
199	0xbfc1e1e744952103	-0.13970652436024275
200	0x3f9f6f0d730c10c4	0.030697069308204275
201	0xbfca55a061914df7	-0.20573811306040543
202	0xbfd6c3fafaf1da1c	-0.35571169382402146
203	0xbfd63d6851f12083	-0.34749801637782
204	0xbfc632f347ea330b	-0.17342988025156844
205	0xbfc65dffe00cb55e	-0.17474363746570537
206	0x3fd40172f5d8a3b8	0.31258844383642836
207	0x3fbe67675f7770bb	0.11876531677939088
208	0xbf9e94034255f830	-0.0298614987600489
209	0x3fcd30145a505dec	0.22802976999149338
210	0x3fce0fb20b50c5c5	0.2348539881946136
211	0x3fa6ce44890abd1c	0.04454244778514235
212	0x3fc0eb8de3877e52	0.132188545320775
213	0x3fbd45d1504fcb2c	0.11434658251509394
214	0xbfc8e116a679c290	-0.19436915520374898
215	0xbfd95b6522de74e3	-0.39620331196949915
216	0x3fc22996f8a62d87	0.1418942178828326
217	0xbfc9d6dadf1c44ea	-0.2018693532377605
218	0xbfc0495e7fbbc0ea	-0.12723904835684802
219	0xbfb87275f2d2339c	-0.09549653223275673
220	0x3fc17d229b7a0013	0.1366313227808865
221	0x3fd46896909515b1	0.3188835536896831
222	0xbfd01b91dab9327e	-0.2516827236147846
223	0x3fcade973694e68c	0.20991792836303025
224	0x3fd1e5c27283abf9	0.2796484106353883
225	0xbfb7813730e1c593	-0.09181542342573427
226	0x3fd128538181555d	0.2680863156031899
227	0x3fceb0895527fbb5	0.23976246507660695
228	0x3fd3d43deaf27f4a	0.3098292154700074
229	0x3fbaee638c08bce1	0.10520002526094487
230	0x3fd203056b1a8a6e	0.28143439730971564
231	0x3fc84eb35904a14d	0.18990175100885623
232	0xbfd56ad455a06032	-0.334645351047132
233	0xbfac3df10095d32e	-0.05516007549423417
234	0xbfcaf168835927dd	-0.21049219525804022
235	0xbf94973b1fc646f6	-0.020108150305140314
236	0x3fc6006cb9540a64	0.17188796090347858
237	0xbfca2a12c707b2b2	-0.20440897672906072
238	0x3fc60a51413ae15d	0.17218986210878998
239	0x3fb20243e6047b21	0.07034706464444841
240	0xbfd0243492e5e010	-0.25220980020049044
241	0x3fb32f1a60499a07	0.07493748522538378
242	0xbfd30faa6c23057d	-0.2978311592124426
243	0x3fca8c1d41289882	0.20740094834872386
244	0xbfd0eb1f6459bcdf	-0.26435074615342374
245	0x3f998d7254f97c93	0.02495363849299943
246	0x3fc1d37fe119e486	0.13926695338503609
247	0xbfbbad5a9a7a2e4f	-0.10811392089288428
248	0xbfd04986276fd5e0	-0.254487551224285
249	0x3fd1a157fecb4c69	0.27547263986816134
250	0x3fbd486f04197b66	0.11438649988256841
251	0xbfd6a12ba249fed1	-0.35358706329860207
252	0x3fd3d98947c4d25e	0.31015235909152306
253	0x3fd325cd049c4189	0.2991821808837121
254	0xbf68a39ccfae96e0	-0.0030077040405157435
255	0xbfd735d246963822	-0.36265999692193607

0.bias f8 [32]
0	0xbf7184985d614098	-0.004276843237747262
1	0xbf014d488a88f5f9	-3.300073268917495e-05
2	0x3fcedbcf4fca2840	0.24108306308727556
3	0xbf9e3de0f1ce45be	-0.029532923468257748
4	0x3fd3935205c7ea34	0.3058667236761352
5	0x3fb7d5b65c188031	0.09310474155836414
6	0x3f428f6f0a0d4f73	0.0005664150413431226
7	0x3f58f6e5e966cf71	0.0015237088424386559
8	0x3f6ea5db26534e05	0.0037411957042452503
9	0x3fd5001aa94895b1	0.32813135654063347
10	0x3fd2d989943ce0a9	0.2945274303087993
11	0x3f5d178d14da9b99	0.0017756345509185366
12	0x3f5252329583793b	0.0011182302460422528
13	0x3fba6196c1d11922	0.10305158836226672
14	0x3fd23a3846b5906b	0.2848034563560364
15	0x3fd1c2f71f0530cc	0.27752473859142124
16	0x3fd0a162fc1da023	0.2598502599780678
17	0x3f5af1f860d85ef4	0.0016446042603827623
18	0x3fd4bdfcba419e0d	0.32409589947789713
19	0x3fd467b5ba8b5768	0.31882994858948743
20	0x3fa7e47f3596da2d	0.046665168086679955
21	0x3f479aac89e2972d	0.0007203428720188081
22	0x3fc7c1af602d3afe	0.18559829898955366
23	0x3fd0d6b75c0b7047	0.2631052397607658
24	0x3f729b6ab3b74c34	0.004542748265026698
25	0x3f5faf18095fc154	0.0019338354809371365
26	0x3fd437de3a04b9a3	0.31590991655220985
27	0x3f59b4d03e1271f8	0.0015689881914006092
28	0x3fc289bad28c3593	0.14482817917489096
29	0x3fab659d94600206	0.05350964008539809
30	0x3f8fcc0db88754e3	0.015525920099131734
31	0x3fcab31eafd3491f	0.20859130463811312

3.weight f8 [64, 32, 9]
0	0x3fbbf9002aadcf3f	0.1092681984135284
1	0xbfcaf671a5901767	-0.2106458719646824
2	0xbfc83f24adb6fd24	-0.18942697984855628
3	0x3f8dd5cbecbbcddf	0.01456794086650509
4	0xbfa67fc0f980555f	-0.04394343419714163
5	0x3fb168a0a03ed593	0.06800273811571449
6	0x3f9ba012da967bae	0.02697782000688747
7	0x3fa0165077d85530	0.031420244817278564
8	0xbfbe8d1fc85045bd	-0.1193408836409366
9	0x3fb20f835e8ef99f	0.07054921206051866
10	0xbf841adc4acb388f	-0.009816857368971447
11	0xbfc3214111b9be8f	-0.14945233693605472
12	0xbfbfb746e19408f5	-0.12389033324510364
13	0x3fa911dfd1b8541f	0.04896449503954891
14	0xbfa4538c49483a7d	-0.039699920602392226
15	0x3f8f6af332f76826	0.0153407096794816
16	0xbfa399fef0856485	-0.03828427015350492
17	0xbfbc2b3c7b62928e	-0.11003473293619434
18	0x3fb06ad8dea3f01d	0.06413035808140007
19	0x3f1acbe3efc74759	0.0001022203322869319
20	0x3fa4450841bec878	0.03958917429498937
21	0x3f9efff1601d2f21	0.030273219577153235
22	0xbf99f04be06f0d76	-0.025330720494606017
23	0x3f911d54f815b554	0.016713454858679214
24	0xbf85e071355e5bd9	-0.010681995812587818
25	0x3f96a2f2dfba8632	0.022105975060759238
26	0x3fb6106e55bd9436	0.08618821709895105
27	0x3fb5ce688d2915d6	0.08518079229641926
28	0xbfc87c1338551430	-0.1912864708957911
29	0xbfbcdf3d6e137389	-0.11278137147333046
30	0xbfb90a2e059f4ff3	-0.09781158101333158
31	0x3fae905e33356104	0.0596951901922598
32	0x3f8336965d9d5b62	0.009381460887807062
33	0x3f8715c0d617cf2a	0.011271959813690186
34	0xbf98281c249290ed	-0.023590507251939497
35	0xbf9bfd68b274ec51	-0.027333866016516165
36	0x3f8fcc9c459c29fe	0.015526982187584967
37	0x3f9734422880480e	0.02266028759192556
38	0xbfa0f2e2742cb500	-0.033103062325929855
39	0xbf96d1491e19ac2f	-0.022282736265349875
40	0x3f90727e02e99c99	0.01606175320412415
41	0x3fa6087b6c5c9d88	0.04303346345687503
42	0xbfa3ff6512e42bbc	-0.039057882839265784
43	0x3fad00b3f433c9b7	0.056645988044596356
44	0x3f9663787848700b	0.021863825170029865
45	0x3fb669d3501ec7c7	0.08755226808605619
46	0xbfab928db6786219	-0.053852489971351676
47	0xbfae28689f167865	-0.058902043743032796
48	0xbf9ed4cf218b8f69	-0.03010867731326475
49	0xbf9b23840a5ce8bc	-0.02650266946077616
50	0x3fb58b80d2fed9e0	0.08415990020043962
51	0x3f8c797bc303cdcd	0.013903586281663128
52	0xbf98bb40cca51bd6	-0.024151813974892487
53	0xbf969c6f35e175ac	-0.022081124938599636
54	0x3fa66d37dffd5e65	0.0438020192074731
55	0x3fb4163c73af946b	0.0784642965732744
56	0xbfc74ae73cbea392	-0.1819733664135837
57	0xbfb8b4c22fffce58	-0.0965081565080309
58	0x3f9177409acd440b	0.0170564741595776
59	0x3f81565fb103b65e	0.008465526189378621
60	0x3f6bf2690c5f83f0	0.0034114886975520273
61	0x3f3366b88d3f157d	0.0002960396352558943
62	0xbfbc7553ae104a3a	-0.11116526603317647
63	0x3fc07c8a880914d9	0.12880069391591212
64	0xbfc0f5dcc5ebc877	-0.13250312484848667
65	0xbf6206747b9c19f9	-0.0022003436141659863
66	0xbfbe03f8431b8ff6	-0.11724807394381273
67	0x3fb82b46d734ab2c	0.09441035036131201
68	0x3f8957dd1b4c146b	0.012374617953819297
69	0xbfa0e1573d28876f	-0.03296921369134408
70	0xbf906b5d582e881c	-0.01603456354826714
71	0xbf8dc8b3444ce704	-0.014542961618292612
72	0x3fb1157a6740aa57	0.06673398037734422
73	0x3f92052fec865fc2	0.017597912608465334
74	0xbfc96df0a582b79e	-0.1986676033170029
75	0xbfbb7641c28a93d2	-0.1072732067064657
76	0xbfbcd5ed82c53f25	-0.11263927881850273
77	0xbfb216839582e252	-0.07065603637864484
78	0x3faccd08c78d82db	0.05625178752848622
79	0xbfab4c628c02ae42	-0.05331714591133309
80	0xbfbe57e1dd58c693	-0.11852847722982522
81	0x3fbad43c0891db62	0.10480094155523781
82	0xbfb6b0f40c5290c7	-0.08863759327738584
83	0x3fb2201110d94caa	0.0708017984518842
84	0xbf98fa4d61922e84	-0.024392327385199156
85	0xbf9c22bd15c7203f	-0.027476267294133768
86	0x3fafef4cf66e88a5	0.06237259395790432
87	0xbf9f81f943538e0a	-0.030769247755314345
88	0x3fae7b802ae99428	0.0595359852202722
89	0xbfa4151ac46adafe	-0.039223515011533636
90	0x3fb73710ff478bb4	0.09068399650963849
91	0x3f8de15d94dae48e	0.014590006928630463
92	0x3f85e7e455a65e39	0.010696205009295233
93	0x3f82f8503824d529	0.009262682641387148
94	0xbfa2b3cac1f5ef5f	-0.036527954270211486
95	0x3f81f48aec0f28fe	0.00876720936675612
96	0xbf35fbbb6827bff0	-0.0003354389702101548
97	0xbfa74b5a81e3812e	-0.045496776919892276
98	0xbfab53c134403b2e	-0.053373372677120265
99	0x3fbd46f1f9f5b322	0.11436378815205875
100	0xbfb4a00ed60630c5	-0.08056729054641483
101	0xbf845c3fe52c0828	-0.009941577130579374
102	0xbfa1bef4805d1cc5	-0.0346599966711039
103	0x3fa8f613a78960ec	0.048752416802644166
104	0xbf91423de31c4970	-0.01685425470993479
105	0xbf20f466724cdda5	-0.0001293540055031631
106	0xbfaa5999b8d162d9	-0.05146484738424357
107	0xbf710f27282c86ea	-0.00416484161067541
108	0x3fb1901750449cc2	0.06860490522068388
109	0x3fa48e7e5174596c	0.040149638598608955
110	0xbfc8bafccc1acdad	-0.19320640531587455
111	0xbfbe3f407a3cd88e	-0.11815264686888069
112	0xbfac26e5fb8542a5	-0.05498427100485984
113	0x3fa12b2f3f2bfdbb	0.0335325970281661
114	0xbf8a72235314bbac	-0.012913013432436525
115	0xbfac7af7db783511	-0.05562567285606169
116	0x3fa994d2aa10f846	0.049963553676648106
117	0x3fbb8a34a5e9e7d4	0.10757760096194541
118	0xbfa727543dc1254c	-0.04522193197096644
119	0xbf9784e397193c2e	-0.022967868897748094
120	0x3fb53ec38e540abb	0.08298895096599328
121	0xbf922979675a14d4	-0.017736336644266285
122	0xbfa116ec353a6bfe	-0.03337801122435023
123	0x3fb08d42290950dd	0.0646554327188968
124	0x3fa607049460b8e2	0.043022292244460095
125	0xbfb555c74b10491a	-0.0833401258717327
126	0x3fbc8dcab3ae1fe6	0.11153857123110775
127	0x3f94aaad5f2c7b87	0.02018233197588473
128	0x3f936d8c2c86fe42	0.018972578256351243
129	0x3fa87fcd38dd0ae7	0.04785004920133478
130	0xbf8549f4ebe61e17	-0.010394967507422454
131	0x3fa8b927dd148bf0	0.04828762601598402
132	0x3fa6122aeed84aeb	0.04310735860430789
133	0x3fad2f68d1447e06	0.057002330346446015
134	0xbfba2435e3218261	-0.10211502833545573
135	0x3fa1001170b85d47	0.03320364476183584
136	0x3fabaa501d70520a	0.05403375968322528
137	0xbf755b4d4911dc0f	-0.005214025398450963
138	0x3f9d65c73b8784f3	0.028708565719971223
139	0x3fa30361ac62fc9e	0.03713517407731469
140	0x3f73e6fa4a5b235c	0.004858949372370382
141	0xbfab4bb964af1c03	-0.0533121047406482
142	0x3fa4d13d68d006f4	0.04065887360049017
143	0x3fa45dd2c4dd2bb1	0.03977831509708752
144	0x3fbc6062a9c29c41	0.11084572453056386
145	0x3f88aee1c030c9b6	0.012052310636225676
146	0x3fa9582feb8811e7	0.04950093984738029
147	0xbf81c35e03ee4e5e	-0.008673414702378309
148	0x3f933242e30a35cb	0.018746419055380586
149	0xbf8c2f71e8826e93	-0.0137623690682667
150	0xbf9ea452e1330592	-0.029923720355105106
151	0x3f8356074db153fc	0.009441430147640865
152	0x3f9c1a210ed1e9c4	0.027443424729861624
153	0x3fc6180b33bcf359	0.1726087572696098
154	0xbfc38f87ea6c2354	-0.15281771608740746
155	0xbfbdff14c8fd7247	-0.11717348010046989
156	0xbf9b5c143bd863e0	-0.02671844115511479
157	0xbfbfcb01b39a1bbe	-0.12419138560117823
158	0xbf83bae28e5370bf	-0.009633798569148031
159	0x3f96dbeb6a92854d	0.022323301677379438
160	0xbfae1458ed09ff02	-0.0587489880899721
161	0x3f9ca892d08c47c7	0.027986806849248837
162	0x3fb8f3f4baab6707	0.09747247273790204
163	0x3f97c6cca7d618bc	0.023219297164836603
164	0x3fa88aad13cb8a27	0.047933014551535806
165	0x3fad50d92429e910	0.05725744787646836
166	0xbf8413d51b2dc7d6	-0.009803452388698657
167	0xbf8d10c62d35341c	-0.014192150358804105
168	0xbf9ad2932ef801fe	-0.02619390463041959
169	0xbf93da1057d95602	-0.01938653503596833
170	0xbfba55c7f95b2ce7	-0.10287141645237662
171	0x3fb7559197f2e9f0	0.09114942512216095
172	0x3fa0d3b04258fe3c	0.0328650551787146
173	0x3f4ce34f08a41e26	0.0008815894991877668
174	0xbfa2627f75b3f628	-0.03590772926143543
175	0x3fb3c3f0e4885f6a	0.0772085721913506
176	0x3fa22ae0ffed6827	0.035483390084394544
177	0xbf77c7467385cc07	-0.005805278015361465
178	0xbf5fc48c46c1eb96	-0.0019389505278286415
179	0x3fb02854f95031d8	0.06311541640042806
180	0x3fc100a0a73e045c	0.13283165136457142
181	0xbfc2f15df03ffa83	-0.1479909346671385
182	0x3f912bdc5d38f69e	0.016768878164148952
183	0xbf90e6d6cb8af3dc	-0.016505581067338557
184	0x3f2fb2f4ce6b560b	0.00024184454306090705
185	0xbf76b2adfad315cc	-0.005541495903519555
186	0xbfa3a9a39157b346	-0.03840361737443358
187	0x3f8fe4e862f6198f	0.015573325653133433
188	0x3fa1c614346d6487	0.03471434726697802
189	0x3fb16692197b0c05	0.06797135469518885
190	0xbfbae4a86d4cc59c	-0.10505154293493607
191	0xbfc8a57a8c57e11e	-0.19255000927638205
192	0xbfbf8e910982cbd9	-0.12326914293480175
193	0xbfb102cbda895be2	-0.06644891820302193
194	0xbfa69bc5a1ae01f3	-0.04415719603185044
195	0xbf9b3c8a04a484ae	-0.02659812596642002
196	0xbf9b4b0b9fc02e36	-0.026653463006409882
197	0xbf7e681bcf487d95	-0.007423504478111372
198	0xbf9d977d27a9fddc	-0.028898196741009005
199	0x3fbfd57b0fbe4f71	0.12435120710716575
200	0xbfa71d3658eeccb1	-0.04514474711995698
201	0x3fba9bba4e4fe7b4	0.10393871700207918
202	0x3f852d2b55405b1a	0.010340059794584234
203	0x3fa1788d4288a61d	0.03412286221675862
204	0x3fad344b6d493b81	0.05703960141237641
205	0x3fa57d46ab7ccf2b	0.0419714054427501
206	0xbfbab787e3224dc8	-0.10436295790923744
207	0x3fb3db87bee117bc	0.0775685158742751
208	0x3fb06a33b3204b3f	0.06412051318356492
209	0xbf937cb266e8fa8c	-0.01903036835778464
210	0x3fac37b1ba3eeeef	0.05511241339215
211	0x3fae62aa1dd4aed4	0.05934650053162974
212	0x3fb2aaafa6538529	0.07291696367930868
213	0xbf950d409cb13109	-0.020558366359453326
214	0xbfa18cca32bf76c0	-0.03427726621133109
215	0x3f95fbb414464799	0.021467984902819735
216	0x3fc1ad21d48eb2f6	0.13809607390194117
217	0x3fb89d22624747aa	0.09614767932296667
218	0xbfc773808ff436de	-0.18321234730722485
219	0xbfbdb994aa63de54	-0.11611298713602852
220	0xbfabcf04788553a2	-0.05431379290772688
221	0x3f942ae3c05ddea6	0.019694861045961652
222	0xbf9aa5696e2267c4	-0.026021621081419047
223	0x3f845a6296cc264f	0.00993802092263532
224	0xbfbd0978e0102c12	-0.11342578382770821
225	0x3fbe5915f9823bee	0.11854684201738028
226	0xbfa1dcbe4c6a9b48	-0.034887263134172175
227	0xbfb863f7f36cd3cb	-0.0952753991412713
228	0xbfbd5810f8407256	-0.1146250349124299
229	0x3fb31ec3b7819668	0.07468817930347316
230	0x3f81a7c02eac7fe2	0.008620740341541425
231	0x3fb3c5c804acf6ee	0.07723665346290051
232	0xbf942240b8fc5ae6	-0.019661914148936165
233	0xbf9acf8518d6c035	-0.0261822506342357
234	0x3fb6502794c3e29a	0.08716056234323802
235	0x3fa7eaca3e9d569e	0.046713180678733965
236	0x3f868c0a55eaddfe	0.011009293314926612
237	0x3fb1147e368ea13b	0.06671894866906751
238	0x3f9517fa83688783	0.020599283476378637
239	0x3fa66e573c8d8c32	0.04381058324977295
240	0x3f9ea349203b7b2e	0.029919760315233628
241	0x3fac7c872fabb230	0.055637573784995786
242	0x3fb77879d7c8477a	0.09168206709025908
243	0x3fb5da0a06b025bb	0.08535826361926173
244	0x3fb9454063d0eb12	0.09871294438282188
245	0xbfc125fe64eaf747	-0.13397197654370016
246	0xbfb1af614256b4af	-0.06908233518216166
247	0xbf68b02223912914	-0.003013674428563049
248	0x3fa3df6635806bad	0.03881377604576328
249	0x3fb0f96cc12d54ec	0.06630592075574143
250	0xbf96a2db12da701d	-0.022105620408737637
251	0xbfb3c23cfa88e17d	-0.07718258968896481
252	0x3fa8f4cd0410d775	0.04874268221503445
253	0x3fb61f5ba4422316	0.08641598472798892
254	0xbfa4674c6018a3f7	-0.03985060380029631
255	0x3f88718b22c18949	0.011935317037743547

3.bias f8 [64]
0	0x3fa4d4a9dc73234c	0.04068499389683797
1	0xbfa131c0e60dfe88	-0.03358271415981756
2	0xbf91f3d1823c1447	-0.01753165585889274
3	0x3f92ae272154a751	0.018242465409606116
4	0x3f5ed589583400d1	0.0018819657569225
5	0xbf90adf6e96ea4fa	-0.016288621900149437
6	0x3fa6619d490152a4	0.04371348873306616
7	0xbf977ca6afa88a52	-0.02293644377835797
8	0xbfa2af84671f9122	-0.03649533995465705
9	0x3fac5142bf0fa4e9	0.055307470152749456
10	0xbf79b1a131ba40b3	-0.006272916474373047
11	0x3fb50173b694d01b	0.08205340583373337
12	0x3fb5bf0784d2242d	0.0849461268682183
13	0x3f59db4866e335f8	0.0015781600046013127
14	0x3fc018adad6ab4ca	0.12575312583559245
15	0x3f9142e2fcddcbdd	0.01685671490072226
16	0x3fb0df16eef8870f	0.06590407690285026
17	0x3fb4a25e3e1b574e	0.08060254112510032
18	0x3fb15717fcc15981	0.06773519440444
19	0x3f99b9695de8197e	0.02512135158215178
20	0x3f90c627eebd6cd9	0.016380905100373908
21	0xbf8fbc7c1d7a2d9b	-0.015496225022863899
22	0xbf916e574d3e7e38	-0.017022480096441778
23	0xbfb6d77d1cd9e840	-0.08922559694647791
24	0xbfb8d56c9f2bc4a3	-0.09700659643182745
25	0xbf9408cc510d3ddc	-0.01956481213283988
26	0x3f7077e8a5987fc4	0.004020603920736169
27	0x3f9cdbfabb86acfa	0.028182904906924634
28	0x3fb04127b0997c35	0.06349418698799598
29	0x3fa5f9af36495bae	0.04292056596448589
30	0xbf5874896ace3483	-0.0014926282849246082
31	0x3f84980d5a66f1d6	0.010055641480783455
32	0x3fa6ea26fbb36edb	0.044755190110405706
33	0x3fac7606abc65d2f	0.05558796736584736
34	0x3f9eac66323efb64	0.029954525772832766
35	0xbfa10b68b941c88c	-0.03329016934812143
36	0xbfa0e2cac4144fd1	-0.03298028605982462
37	0xbf99cd078c956d8a	-0.025196187930629978
38	0x3fa5bc62b2d2eda2	0.042452892617315344
39	0x3f96086512dda365	0.02151639869353818
40	0xbf808857ba64f429	-0.00807255303936401
41	0x3faeeb45fb93e873	0.06038874336259505
42	0xbf93e9f5dc2c92a4	-0.019447175563203203
43	0x3fa3344413badfb9	0.037508132370418897
44	0xbf9c206f755afa6f	-0.027467481172374904
45	0xbf9db968d0426aaf	-0.029027593337199672
46	0x3f97581738b2c749	0.022796976886360985
47	0x3f8e5e2ae1a7c198	0.014828047763302973
48	0xbf5e13614194621d	-0.0018356752173699427
49	0xbf9a593c1b55e669	-0.025731028717450508
50	0x3fa5cc6418a86980	0.042575004587166454
51	0x3f4d2d1c19186303	0.0008903872678188432
52	0x3fa1b91d288bdb57	0.034615431975842874
53	0x3faa9269e563114e	0.05189829754957263
54	0x3fa69bce3562030e	0.04415745164533834
55	0x3faedaade4447104	0.060262140383402524
56	0x3fad29d02279faf9	0.05695963307242908
57	0xbfa4b9fa2fa2c967	-0.04048139411442513
58	0x3fa69731d94b62f3	0.044122274184422404
59	0x3f8f978c03cbe1e3	0.01542577158532849
60	0x3fa5337138ddf54b	0.041408098403716474
61	0xbfa2a9d507b19522	-0.036451966466112276
62	0xbf906e80a7bbfa2b	-0.016046533811272006
63	0xbf7f86450bccd354	-0.007696408950143081

7.weight f8 [1, 128]
0	0xbfb38bf68e8232be	-0.07635441760266823
1	0x3fa6dcc01614451e	0.04465294141312824
2	0x3f95626ce4762ea4	0.020883275455658393
3	0xbf949c5a72b94d90	-0.02012769055575131
4	0x3fb2029ef9ee75d7	0.07035249330370817
5	0xbfad8ca84730b1d9	-0.057713755312167776
6	0x3fb1ea97e72ab793	0.06998586076471573
7	0x3fb3abf6b604fef3	0.07684270805202313
8	0xbfc71164934b1d1f	-0.18021828834592044
9	0xbfb00721b0072ec5	-0.06260881946144099
10	0xbfb336bb72cb88a0	-0.07505389740575419
11	0x3faf9b75fc9e1598	0.06173294743261265
12	0xbfc1e0c47bfd2aca	-0.13967186025759865
13	0xbfa441355966eb5a	-0.03956000057538374
14	0x3fcb1df65cd7ae8e	0.21185187848401593
15	0xbfb3cc220cf32053	-0.07733357254176214
16	0x3fcb861d52238542	0.21503035078698401
17	0xbfa51871463cd42f	-0.04120210630791409
18	0x3fab8ab185c56924	0.05379252202938492
19	0x3f6d788cd062c869	0.0035975218080120286
20	0x3fa693bdf394854e	0.04409593199148763
21	0xbf97b677b062d006	-0.02315699590754152
22	0xbfbb2b17df9d7604	-0.10612630090096081
23	0x3fd04d32daec6aa4	0.2547118318486048
24	0x3fc8314681a567f9	0.18900376634957164
25	0xbfb488a22cd2ac40	-0.08020986170110778
26	0x3fc2030ac5a11d52	0.14071783685560973
27	0xbf97d4f3cf77bb22	-0.02327328637869209
28	0x3fc357f3e17e996e	0.15112160215830833
29	0xbfb33f4eb1d5f1d1	-0.07518474427883538
30	0xbf86d82d8bf54cce	-0.011154514154134178
31	0x3fb33992a803f7fd	0.07509724237385736
32	0x3fa318b2204586db	0.03729778903904243
33	0x3fa0670f01daa89c	0.03203627488740432
34	0x3fc711b05d011002	0.1802273229715184
35	0xbfa18fe919a77455	-0.034301075345617583
36	0x3fc1989de350209a	0.1374699935843225
37	0xbf9eaefaa60be031	-0.029964367279689156
38	0x3f904e9f94be275a	0.015924924329318337
39	0x3fb199c61b2a1fd6	0.06875265277096729
40	0xbfc743a96842d6f0	-0.18175237265466349
41	0xbfa5d12758724302	-0.04261134104411292
42	0xbfbbf507c3a96ed7	-0.10920761610889983
43	0x3f5871220910ab6b	0.001491816747384712
44	0xbfb37f4bac181474	-0.0761611266280669
45	0x3f656ce5eede5d40	0.002615403259322996
46	0xbfb439c662f8703b	-0.07900657573958451
47	0x3fa8fc2ae978202d	0.04879888629881211
48	0x3fb300adbe8a387b	0.07422910596707936
49	0x3fb4b55d4c921f15	0.08089240188030218
50	0x3fc1939a34fefb38	0.13731696689316109
51	0x3f48179e03265732	0.0007352372688724572
52	0x3f8016bc0f5130a4	0.007855862824861788
53	0xbfa72ece54ce184d	-0.04527897629945752
54	0x3fb9301030af775e	0.09838963688477295
55	0x3fb330f0185d226c	0.07496548266238684
56	0x3f86c019f5892fd5	0.011108591848049723
57	0x3fc7339bbe0458e1	0.18126246240780744
58	0x3fccf7a0c71b5b70	0.22630700799956172
59	0x3fc28b18114fb610	0.1448698124435599
60	0x3fc6b1cd2b73d075	0.17730106946658322
61	0xbfb16e7b514775cb	-0.06809206709245712
62	0xbfa79c26bf99d002	-0.04611321534039804
63	0x3facf6de9e92f9dc	0.05657096563071537
64	0x3fb522da7f2b9f0b	0.08256307224985109
65	0xbfb0820629619577	-0.06448400984080203
66	0x3fbf1db529060c3b	0.12154705287507366
67	0x3fa360b9bdec78c9	0.03784733241467248
68	0x3fb8e4dfe73ee129	0.0972423495831022
69	0x3fa399796961dffc	0.03828029071240732
70	0x3fa99808686599d1	0.04998804354072529
71	0x3faa01b729ab6f09	0.05079433807051543
72	0xbfc991ae739f00d8	-0.1997583450847802
73	0xbf87dc4b2413ec2a	-0.011650645292766344
74	0xbfb7b19429a25ca6	-0.09255338684521294
75	0x3fb82e10bb7e4712	0.0944529016253706
76	0x3fbd4c822c4dea65	0.11444867688798295
77	0x3fa5a5fd994c149a	0.04228203293136197
78	0x3fb077e383b655b7	0.06432935681944839
79	0x3fae456c48e7da06	0.05912340536081122
80	0x3fd05d92663380f0	0.25571117382607067
81	0xbfb558f8c3d708cb	-0.08338885098695241
82	0x3fbcfa96d8b11b71	0.11319868841483839
83	0x3fb0bd87ddb05db0	0.06539200937583334
84	0xbfc343dcbc74a39d	-0.1505084915345635
85	0xbfac7a2db3438a72	-0.055619648106376554
86	0xbfb8bdda96e6d8f2	-0.09664694007992461
87	0x3fae391525e19dd5	0.05902925574701682
88	0x3fb8c99dab8641a4	0.0968264144669378
89	0x3f8a4737800edbfc	0.012831147761842125
90	0x3fc1846a51a39db5	0.1368534945133725
91	0xbf9f064a0c7bf910	-0.0302974290962022
92	0xbfb77516b744bb3f	-0.09163038229301622
93	0xbfb29d2883483e11	-0.07271054463512196
94	0x3fa2417381a6fece	0.035655603005123035
95	0x3fc411eb18b59d47	0.15679682451739493
96	0x3fc19f18a248833b	0.13766773151385245
97	0xbfb6a016870c55bb	-0.08838024899554046
98	0xbfc36c0c2686ee8d	-0.1517348468895431
99	0x3fa56426f6143f38	0.04177972558875215
100	0x3fc7f6a9e18f8c08	0.1872150756235842
101	0xbfb0759349dc4e3c	-0.06429405740009825
102	0x3fa59be726fdcf6e	0.042205070028017086
103	0xbf51b4ce7d7cc9bc	-0.0010807053094593474
104	0x3fc470637ddcbe0f	0.15967982907885456
105	0xbf84dcc82f99f512	-0.010186733200721085
106	0xbfa0118acfeb4f9f	-0.03138383663249943
107	0x3f9f12a6dc8d935f	0.03034458848141541
108	0xbfbe5223c15ad5ad	-0.11844085188462002
109	0xbfaafc24666415ec	-0.05270494222535746
110	0x3fa097aedcedb6a3	0.03240724989778456
111	0x3fc3bd15098953b1	0.15420783010145336
112	0xbfbc5778bb23866c	-0.11070971077745079
113	0xbfb68d8a30915725	-0.08809722600684873
114	0x3f86c39c6eda76f8	0.011115286000229471
115	0xbfb3e343233ab0d8	-0.07768649683083895
116	0x3fd33572e7980327	0.3001372586877999
117	0xbfacbde18c1aa3a1	-0.05613617739920263
118	0xbfcdbc9ffe7ada4a	-0.2323188774659733
119	0xbfa502ba3119fac9	-0.04103643273719155
120	0xbfc3665f75e0a8e0	-0.1515616727422815
121	0xbfb149540bd05be2	-0.06752515114236204
122	0x3fb4131446b1f845	0.07841612554509066
123	0x3fb137b89867c23f	0.06725648613770206
124	0xbfcdf415f6934484	-0.23401140727813552
125	0xbfa8c88938d6089e	-0.04840496844100638
126	0xbfbf4bb865dc6a3a	-0.12224915015068741
127	0xbf68fe501dcb67a2	-0.0030509533665794156

7.bias f8 [1]
0	0x3faaabfa92908a10	0.05209334410780653
