models/run2/47.pt (torch, 153942 bytes, 6 tensors)

0.weight f8 [32, 1, 9]
0	0x3fa279c7864b04ba	0.036085353034203974
1	0x3fc245e6ba2bc948	0.14275821771986785
2	0xbfb13d194133bcbf	-0.06733854142997851
3	0x3fcab9253f88f4db	0.20877519228262184
4	0x3fc2eca13f094738	0.14784637048665572
5	0x3fd0ceae038a6ebc	0.2626147303178461
6	0x3fd0a669ef4a92ff	0.26015709274570037
7	0x3fd1a95cf76346b1	0.27596210631336776
8	0x3fd25d9de53afeb7	0.286963914735661
9	0x3fbce5410fab8b82	0.11287314064570178
10	0x3fd3a0b0bb0deae0	0.3066827608778748
11	0x3fa387d68df7a05b	0.03814573748587754
12	0xbfdf39f35bb604b6	-0.48791202503350506
13	0x3fd39b4b29cfe3b3	0.3063533695527056
14	0x3fcfe98af78f1d98	0.24931466186374673
15	0x3fd3d240b7cc811e	0.3097078127775762
16	0xbfd8d41bb9ee432d	-0.3879460635881056
17	0xbfd02d7bfa97987d	-0.25277614089862493
18	0xbfcd2278e901b7fd	-0.22761451127320234
19	0x3fb6d18ee035d686	0.08913510297665014
20	0x3fcec0144e8a3145	0.24023679575874204
21	0xbfd6b2128de434e9	-0.3546186814936179
22	0xbfa70bc068305275	-0.04501153251491
23	0x3fd3beda590a87eb	0.3085237378637646
24	0xbfb6314c19085ca9	-0.08668971644543667
25	0x3fc57a228dbb8a99	0.16778976364647205
26	0xbfccbe8815b68944	-0.22456456241804734
27	0xbf9ae9b97b1a814b	-0.02628221334328033
28	0x3fc3e5feff5cb4af	0.15545642346243002
29	0xbfbd5c8f2075593c	-0.11469358961526138
30	0x3fc50103a95918a8	0.16409345406481646
31	0x3fb479065d56724f	0.07997169283630366
32	0x3fd4b17308f17250	0.32333064912180465
33	0xbfbe62fc7ee90936	-0.11869791124721449
34	0xbfbfdd42e808a717	-0.12446993031394658
35	0xbfd53a982dc709cd	-0.33170132132013636
36	0xbfd2608b6ac90119	-0.28714261463393737
37	0x3fc6f78951ea9249	0.17942921161479067
38	0xbfcfcf81eb7496fb	-0.24852012631270512
39	0x3fd258a639386275	0.2866607245246436
40	0xbf5cab61d42c6e17	-0.0017498450621990008
41	0xbfd6792ab160a95c	-0.3511454326823207
42	0x3fc6f27caff2851f	0.1792751177900209
43	0xbfb2d85a4cb42225	-0.07361378071448905
44	0x3fc64d41d217115a	0.17423269995027618
45	0xbfae7a721714bbf3	-0.05952793628454591
46	0x3fd0a1acd241d868	0.2598678639691401
47	0x3fce2eeca56d78e2	0.23580701901932516
48	0xbf98036b3f9e551c	-0.023450542219127887
49	0x3fd1709b70e46320	0.2724979975187569
50	0xbfb8f7cfb201fc2e	-0.097531300505566
51	0xbfd384c8da42de1f	-0.3049795276124047
52	0xbf741b648d96fd9d	-0.004908936295975688
53	0x3fb510ae0240869d	0.08228576235753811
54	0x3fd248e752a36cfd	0.28569968290476294
55	0x3fd1ac2094eb09f5	0.2761308149603388
56	0x3fd1a692d7cf6b96	0.27579184603899287
57	0xbfa389108a88b839	-0.03815509501542675
58	0xbfd7f9a70071ad3c	-0.3746125702225134
59	0xbf96d68eeaf22252	-0.022302849855380842
60	0x3fd4465cb6037c8c	0.3167945649601698
61	0xbfb36f45afe7d8f2	-0.07591662926265366
62	0xbfbdcb8b41d1c3e3	-0.11638708455008344
63	0x3f9b7e556f5959e3	0.02684911243553668
64	0xbfbf65d6a23e36e5	-0.1226476808644424
65	0xbfa3947675612dec	-0.03824205572945147
66	0x3fce5481cbcd8c29	0.2369539494639821
67	0xbfc780c52561104e	-0.18361725163606696
68	0xbfd775aeea3b275a	-0.3665578162586961
69	0x3fd0873507d2e95e	0.2582523895649923
70	0x3fbb8e37120d7024	0.10763878050551107
71	0xbfbe64f528da9c16	-0.11872799155627009
72	0x3fc75f5423f5b3de	0.18259670024727276
73	0x3fcfac0d857ed756	0.2474381353219381
74	0xbfc09d3bf0cc8f49	-0.1297984052445094
75	0x3fd0b7c1e321ad0a	0.2612156599122534
76	0xbfd11bd882aaa535	-0.26732456932457477
77	0x3fd0070068290699	0.25042734310054865
78	0xbfc96460bf1e9008	-0.19837579090119584
79	0xbfbda716dbac2de4	-0.11583083022212964
80	0x3fd13c1de3d1a2a1	0.26929423568666705
81	0xbfd3580fc9865dcb	-0.30224985771334606
82	0xbfc5f93b0c955d33	-0.17166841616083559
83	0xbf62ff95b79b4796	-0.0023191379703825883
84	0x3fcbe6ed23d627cf	0.21798481225806518
85	0xbfd4b74e8eaf8a1b	-0.3236881631293344
86	0xbfd257bb93db26f1	-0.2866047805697312
87	0x3fc9423a535a1417	0.19733361310878259
88	0x3fa8ab62c82e83e3	0.048182570396654766
89	0x3fc75a336a82c28e	0.18244021130296456
90	0x3fc74eda580c86d3	0.1820938997198512
91	0xbfa913a43db480fd	-0.048977978260383616
92	0xbfc12c584cd0e9c3	-0.13416579962524908
93	0xbfab3068b22327e5	-0.05310370611694263
94	0x3fcfe9222081dca7	0.24930216395634838
95	0xbfcad1dea70dd08a	-0.20952971608096888
96	0x3fc4cbab87158a8a	0.16246551605134513
97	0x3fcc8a82f4e27849	0.222977037022192
98	0x3fd254824cf660f4	0.28640801921711945
99	0x3fa559ba74bc80a2	0.04170019793514369
100	0xbfba1eff32fe9375	-0.10203547472936043
101	0xbfc39b2b2781d069	-0.15317286900574636
102	0x3fc4e3d9598165fb	0.16320340032943634
103	0x3fc8867e652e51db	0.19160442295527855
104	0xbfc137ed82cbfde1	-0.13451928030552465
105	0x3fcf5546b488a533	0.24478992285848164
106	0x3fd0fa2f70b4b943	0.26527009970131504
107	0xbfd7ced6e24413f1	-0.37199947448999554
108	0xbfd1495fced6ffc9	-0.2701034088058774
109	0x3fd1b7f825c99481	0.27685359659364656
110	0x3fd18f2149b85602	0.27436096381401864
111	0xbfa8596169de79f5	-0.0475569192633322
112	0xbfc027ae324b0979	-0.1262109513828127
113	0x3f8edda4889c47a8	0.015071187418957369
114	0x3fd3e388d29e5300	0.31076260154922863
115	0xbfb75cd6c9921d73	-0.09126036091958216
116	0x3fcb8b2ed2aec1b4	0.21518502509344517
117	0x3fae13ab02e225a9	0.05874380502889249
118	0xbfd6b2220e3887f2	-0.3546223772883642
119	0xbfc36de91262a2bf	-0.15179170034141085
120	0x3fcce5f183f2738a	0.22576731627205177
121	0xbfa4327d3c581462	-0.039447702041834246
122	0x3fc133dcaea9c619	0.13439520386195694
123	0xbfd869e6a7f29a84	-0.3814636840929
124	0x3fb755b0cc991644	0.09115128512447607
125	0x3fd314414216e9da	0.2981112618832903
126	0x3fc07ea769cedc52	0.12886517206581743
127	0x3fca5e8ec60a4f3c	0.20601067228255399
128	0x3fd4ba9712c932f5	0.32388855776370856
129	0xbfcaa69870992c93	-0.208209090213448
130	0x3fc8b5cb6f55c814	0.19304793297084244
131	0x3f97f8773be24459	0.023408759145756217
132	0x3fd3081accf14929	0.2973696710006544
133	0x3fd305202d56f757	0.2971878474016782
134	0x3fd2f5c1cbba36a5	0.29624981780293985
135	0xbfd1af51014fc160	-0.27632546547012815
136	0x3fd28c2c9ac1cbb7	0.28980555642118183
137	0x3f9f7070a75ea098	0.030702362265998845
138	0xbfb74a3f1f3922b3	-0.09097666275296028
139	0x3fd2ba4879807c96	0.2926198183576586
140	0x3fd13e7a5ad6830e	0.26943835135357197
141	0x3fc4b224048f0804	0.16168642256349142
142	0xbfc6e593d28f2b7a	-0.1788811472054837
143	0x3fb70901d209f011	0.08998118760968078
144	0x3fa840e3e45a9584	0.04737007296106824
145	0xbfb46e3e33c82d9a	-0.07980717434127485
146	0xbfce7f40c8afc007	-0.2382584552683513
147	0xbfcf2e4f3f9fbe61	-0.24360075575485765
148	0xbfc16ec682ea0211	-0.1361930979947066
149	0x3fc35ea253b7f7ee	0.15132550323318078
150	0x3fc0f708959816ec	0.13253886513137247
151	0xbfcc74233c1ac4d3	-0.22229423937600376
152	0xbfc56aafac8c6d29	-0.16731830525609695
153	0xbfa58159afe8cd25	-0.04200248977977087
154	0xbf5714b481a72bdf	-0.0014087450750703762
155	0xbfcf56cea97f7007	-0.24483664776096267
156	0x3fcba2593a0fce47	0.2158919843201252
157	0x3fc4368b0f8afaff	0.15791452654772084
158	0x3fb5b1c92cea8240	0.08474404665549518
159	0x3fbd8e76503e6e94	0.11545505007819151
160	0x3fbf3b81b7570d72	0.12200175024104512
161	0x3fca8159edb2ace0	0.20707248789162858
162	0x3fcf9c01a8214fea	0.2469484396884803
163	0xbfca3625b50ad2ce	-0.20477744426684413
164	0xbfac86549e4775c2	-0.05571236068838516
165	0xbfd7c6041b00a232	-0.37146093975983085
166	0xbfc70a4cd504d640	-0.18000183488190835
167	0x3fd08203ee99f34b	0.2579355077830782
168	0xbfd1d3f49aa1d477	-0.27856173611446117
169	0xbfcd9b2996bff428	-0.2312976823886015
170	0x3fd37aaeb228821f	0.30436293981805024
171	0x3fa8f04a0581b993	0.04870826070042535
172	0xbfc1eaa12a1f6faf	-0.13997282559182397
173	0x3fcffff0d33805b5	0.24999819100780277
174	0xbfd723b3e13bcadc	-0.361554117159512
175	0xbfd24dd3ee2cd371	-0.286000235169289
176	0x3fbe0ad7d682c084	0.11735295283392772
177	0x3fcf6360f64aed59	0.24522029901514023
178	0xbfb9019c4a2b9f33	-0.09768082438278895
179	0xbfa8c1cc0796e76a	-0.04835355370182877
180	0xbfe13ea2ac0209b7	-0.5388959273844226
181	0xbfd0031f90d9aca4	-0.25019063134704767
182	0xbfcd62c7cfb5cf41	-0.2295770420274668
183	0x3fc7221724e5364f	0.18072785665065047
184	0x3fcf5e23b9187ddc	0.24506041086077246
185	0x3f8443d284de1e74	0.009894985847281414
186	0x3fc9ad214eca5708	0.20059601161181484
187	0xbfd09432c276fbb0	-0.25904530516339275
188	0x3fbe5f778310c4f4	0.11864420842973172
189	0x3fab7076b3a5b9b9	0.05359240477524758
190	0x3fc8995ed401df11	0.19218049384993965
191	0xbfda078474863c06	-0.4067088258679522
192	0xbfa107957e2bf9e4	-0.0332609859960831
193	0xbf69a16a2d6ffa5f	-0.0031287263659572208
194	0x3fd46f514f5402e9	0.3192942881287722
195	0xbfc88ed9d4b35ba1	-0.1918594635560256
196	0x3fcee1d78794f9bf	0.2412671482106372
197	0x3fcec4da8d4c35ad	0.24038249873448816
198	0x3fc84595d181f251	0.1896235726343485
199	0xbfc0d5d0208b91d4	-0.13152505482788845
200	0x3f9ef6b20319ed9c	0.03023794311455462
201	0xbfca76ea9d0554e4	-0.20675404231102512
202	0xbfd7550a3885a24e	-0.36456542510726286
203	0xbfd6a84ed5daf08c	-0.35402270206737607
204	0xbfc6a8d0b18fce93	-0.1770268313408577
205	0xbfc69fd95cb17b83	-0.17675320650138468
206	0x3fd4022d88b026c2	0.31263292644926477
207	0x3fbe748d491df608	0.11896594081004974
208	0xbf9f98cc509b92e3	-0.0308563160132448
209	0x3fcca4056dc8302d	0.22375552998016826
210	0x3fce08d22d43f7e5	0.23464419565419728
211	0x3fa159e88b1f66ed	0.03388907144808493
212	0x3fc121154acedf46	0.1338221183084391
213	0x3fbd2e7a793a1e3a	0.11399045428890356
214	0xbfc7d1dd886dd0ac	-0.18609208261080334
215	0xbfd98bfcd77caa40	-0.3991691688885659
216	0x3fc211ecbd2ac62b	0.1411720203082479
217	0xbfc9c2c73bc27792	-0.2012566606326201
218	0xbfc06e6329485bee	-0.12836875453714874
219	0xbfb8b76c59bf35d2	-0.09654881659590522
220	0x3fc3a9ac914dc14d	0.15361554236325006
221	0x3fd480765ce48350	0.3203407199053361
222	0xbfce5e517332bc57	-0.23725336193953936
223	0x3fcb4eb140fd7c92	0.21333900140141232
224	0x3fd1dcbf299b7566	0.279098311073389
225	0xbfb3fbf1e2061180	-0.07806312339932298
226	0x3fd12b56c4012ba1	0.26827019826003534
227	0x3fce8a77ecdc8e77	0.2386007219839603
228	0x3fd3d38f7c3ab95e	0.3097876275231978
229	0x3fbcc91808992f32	0.11244344911500262
230	0x3fd1ef599e5ed2c5	0.28023376909122205
231	0x3fc855d794c81f89	0.1901196934197709
232	0xbfd5ad9d7571884a	-0.33872162312593856
233	0xbfac6f2724bb1c5a	-0.05553552935958157
234	0xbfca868649c0393e	-0.20723036385647647
235	0xbf9462f827dcc56d	-0.019908788140303658
236	0x3fc5ebee62abfbe2	0.17126254861793117
237	0xbfcb5e01df583e32	-0.2138063755560196
238	0x3fc6247e6ae47a13	0.17298870295867683
239	0x3fb0ec014ab42a0e	0.06610115121672086
240	0xbfd0aa150a951c79	-0.26038099320835034
241	0x3fb313ef55d950d3	0.07452293249054102
242	0xbfd3dbb01f6a805b	-0.3102836901471215
243	0x3fca83b4a1be4c37	0.20714433572411092
244	0xbfd1846c1a3aae17	-0.27370741425940665
245	0x3f9288e160a2d40a	0.018100282214351927
246	0x3fc1b9d19219a097	0.13848323472780485
247	0xbfbabd6ae06899ae	-0.1044527814743563
248	0xbfd016ab5429e7bc	-0.2513836213980729
249	0x3fd1a106f6948ec2	0.27545332031352754
250	0x3fbd1297b910fe4a	0.11356495159361049
251	0xbfd75f73bd6984b0	-0.36520093438418666
252	0x3fd3d79e2ddfd1f7	0.31003527145301696
253	0x3fd323096676de63	0.29901347166330633
254	0xbf520c7986274944	-0.0011016070135281978
255	0xbfd796012a4335f9	-0.3685305512161388

0.bias f8 [32]
0	0x3f236bd619b84bcc	0.00014817226916416374
1	0x3f2fbec49ea5f159	0.0002421965612703452
2	0x3fce8ea5b4051bd2	0.23872824945485022
3	0xbf91f7e89c174775	-0.01754725887969451
4	0x3fd39363c4fffebb	0.3058709548786102
5	0x3fb6ff7c01630b61	0.0898358825098007
6	0x3f296abf47592185	0.0001939161772262049
7	0x3f13b434f303f632	7.516453911545691e-05
8	0x3f6d20ae82ff3d2b	0.003555622904947283
9	0x3fd4e0556d80b728	0.32619224256164836
10	0x3fd2c92ee08cd54f	0.2935292427894937
11	0x3f1e716a38bb38db	0.00011613093209492406
12	0x3f4478151d2281cb	0.0006246665091290069
13	0x3fb9a994a33f43c2	0.10024384484792306
14	0x3fd23bd02c1b9aa1	0.28490070636181924
15	0x3fd19b1717af7a2d	0.27509095490487107
16	0x3fd088daaf21892c	0.25835291960369733
17	0x3f210faeff002887	0.000130167114093919
18	0x3fd4a26ac91618df	0.32241315495811124
19	0x3fd46afe2b03e075	0.31903032494256617
20	0x3fa645fb79b4b852	0.043502672774011444
21	0x3f1e55d90b877437	0.00011572015035406299
22	0x3fc7738a6d978c15	0.18321352339907607
23	0x3fd0bfabdf18638a	0.26169869219443653
24	0x3f77e816c18af380	0.005836571589210915
25	0x3f145f360cddd432	7.771270176511259e-05
26	0x3fd42e1ec1778907	0.3153149499249967
27	0x3f234a1010371a18	0.00014716573796942699
28	0x3fc244f4287ffdd8	0.1427293012384172
29	0x3fabaffd3829a5eb	0.05407706556873023
30	0x3f935eaa0f64a962	0.018915803136374428
31	0x3fcabbd4fdca2eb0	0.20885717765883305

3.weight f8 [64, 32, 9]
0	0x3fbcdd8e8142f7cc	0.11275568633843064
1	0xbfcb6b7738492e60	-0.21421709297497937
2	0xbfc88114a17f838a	-0.19143922696732957
3	0x3f8e8b1534f81aec	0.014913716963758948
4	0xbfa9f139dc5f2859	-0.05066853346905082
5	0x3fae5c88d33e00d1	0.05929973200454842
6	0x3f9a1d823b24331d	0.02550319181414117
7	0x3f9e9635cddf6f8f	0.029869881334760925
8	0xbfc0cb19c6f577a2	-0.1311981412390511
9	0x3fb3405074140cb8	0.07520010789817178
10	0xbf86ae6f4e4a7a19	-0.011074895455121457
11	0xbfc397171c3e143b	-0.1530484092619718
12	0xbfbfb2ef4e072472	-0.12382407813051247
13	0x3fa9f9dce09fc51d	0.050734426898893605
14	0xbfa716b5ceed05a2	-0.0450951399893811
15	0x3f8cb8191a4ff3e0	0.014023014178741577
16	0xbfa4641041d02107	-0.03982592395192524
17	0xbfbf360215664b30	-0.12191784880114365
18	0x3fb16e2925e5c169	0.06808716941100602
19	0xbf1090ccc1befd7d	-6.319284187749313e-05
20	0x3fa5a6564e843eb1	0.04228467663244596
21	0x3fa13dc3f80c298d	0.03367435839580244
22	0xbf96a62f3fd48d9d	-0.022118318816081495
23	0x3f8fa12e159dc03e	0.015444145235704917
24	0xbf88dc4e093c2f72	-0.012138948113282064
25	0x3f9545cbbeda22db	0.02077406265610447
26	0x3fb7c432459fd2f6	0.09283746909916232
27	0x3fb694ae1c16a011	0.0882061785292765
28	0xbfc9036c6982a42d	-0.1954169764697168
29	0xbfbe5471c3fe7aea	-0.11847601923953346
30	0xbfb8efb3d37dc954	-0.0974075690590202
31	0x3fafd934988a7eae	0.06220402109215449
32	0x3f62d9b7d39244a5	0.0023010816917766346
33	0x3f84380833c87b3f	0.009872497635169728
34	0xbf99c42800e53930	-0.02516233926262962
35	0xbfa3c4aea328fa39	-0.038609940926552296
36	0x3f94a7703d516687	0.020169976942588732
37	0x3f961afab6ae58d6	0.02158729305264092
38	0xbf9ef40c1934cfe4	-0.030227841413946424
39	0xbf939aa138e6dccc	-0.019144553277979523
40	0x3f92d5b2f7d8f37e	0.018393322350891854
41	0x3fa5eb145af54ce0	0.04280913935022013
42	0xbfa4c0ffb8ff7bd7	-0.04053496487880864
43	0x3fac4b85178fdd8c	0.05526367104169613
44	0x3f9ae24bf5df7bea	0.0262538784808121
45	0x3fb785b167275392	0.09188374298476124
46	0xbfac8049365321f2	-0.05566624439376601
47	0xbfad2cd7390b5543	-0.056982732499515375
48	0xbf9bd48fea7f615d	-0.027178047835918807
49	0xbf99726019e6dcc3	-0.024850370007439403
50	0x3fb66e2436328ad7	0.08761812518290966
51	0x3f8983dddc466162	0.012458546910054383
52	0xbf9a34e4db48035f	-0.025592399486416336
53	0xbfa1c93efbdd4186	-0.03473851036563062
54	0x3fa9618b142285bc	0.049572321136348546
55	0x3fb46c484e45fea8	0.07977725897762389
56	0xbfc7c4af8c72e145	-0.18568987233971704
57	0xbfb8adf43dfc9f78	-0.09640432847356617
58	0x3f93528ba8f4af25	0.018869573771708965
59	0x3f6b6d290ee879ff	0.0033479501646660466
60	0x3f60597a2052e704	0.001995790984975156
61	0xbf54c118cbcd06e7	-0.0012667410039316985
62	0xbfbf816d5611cec6	-0.12306865073497439
63	0x3fc0c431dff2168b	0.13098739085051067
64	0xbfc180494501daad	-0.1367274844121388
65	0xbf6f4d24e79b8ed9	-0.003820964889074446
66	0xbfbd7fbe7f862c61	-0.11523047078496652
67	0x3fb857d2d6848018	0.09509008157010646
68	0x3f7d2f6f8a4bf825	0.00712531633757688
69	0xbfa19fac09a0dbf4	-0.03442132585080762
70	0xbf91c352469ee32c	-0.017346654472677844
71	0xbf97e01806181db2	-0.02331578767009796
72	0x3fb23a3f25a4e36d	0.07120127362294477
73	0x3f9202e4649ead30	0.0175891577161284
74	0xbfc9acffeebf09c0	-0.20059203298121808
75	0xbfbb5cb7402f87f5	-0.10688348118813436
76	0xbfbe310f3d8de994	-0.11793608906547198
77	0xbfb41fe086a41233	-0.07861140524989522
78	0x3fac0f31428568b9	0.05480340897584441
79	0xbfac0665b7606799	-0.054736307749592324
80	0xbfc0b9d9333a052d	-0.13067164422322133
81	0x3fbb8311e938c34c	0.10746871894731419
82	0xbfb7005e7ea3601e	-0.0898493823218591
83	0x3fb2e8754c578fb3	0.0738595305807042
84	0xbf95bd589133e73b	-0.021230110037300447
85	0xbf99bea7f9f2db45	-0.02514135802331487
86	0x3fb0189ace8fb819	0.06287543814661979
87	0xbfa0869b907306a2	-0.03227697504327166
88	0x3fadd5153971d892	0.05826631857137089
89	0xbfa225e28699998e	-0.03544528859201811
90	0x3fb81c838627092e	0.09418508553702473
91	0x3f90e98acd67a00d	0.016515892779267505
92	0x3f8bc9ee881d5fa5	0.013568748024837715
93	0x3f899dba62073ac2	0.012507873646339877
94	0xbfa1deeba1213ec5	-0.034903872889683586
95	0x3f7f9307b550b2dc	0.007708578215027653
96	0xbf5d37871803a2f4	-0.0017832583690113287
97	0xbfa804797e490456	-0.04690913836066872
98	0xbfb0a7214aeb7a7b	-0.06505020217034911
99	0x3fbdabae875e8e29	0.11590090565601287
100	0xbfb59b24b0c05eca	-0.08439854922505244
101	0xbf8847e54dbe5fad	-0.011855880198524316
102	0xbf9e980e3d461e71	-0.029876921167242224
103	0x3fa83e9e9aff37f9	0.04735274927189432
104	0xbf973afd93158c94	-0.022685968496614153
105	0xbf584d10369719e4	-0.001483217080350146
106	0xbfab18e0c4cdfb2b	-0.05292417910003729
107	0xbf8e63633471ecd0	-0.014838004148478495
108	0x3fb23de53ed3693e	0.07125695022424325
109	0x3fa32d31246b01c1	0.037454162307315915
110	0xbfc90c6f026b1be7	-0.19569194429479284
111	0xbfbe2f139b31aeee	-0.11790583170812471
112	0xbfae25c52028068b	-0.05888191239865844
113	0x3f9b062d44fc906b	0.02639075025139485
114	0xbf8d74eacf74e630	-0.014383158165048732
115	0xbfad40ef4dd61acf	-0.057136038066393995
116	0x3fab68d4b1613454	0.0535341707733116
117	0x3fbbf5fc3bfd27b9	0.10922218765804716
118	0xbfa8358721d224fb	-0.04728338516094684
119	0xbf94e41e4139fe53	-0.02040145180808246
120	0x3fb60862fa028fc4	0.08606546977767865
121	0xbf93bc86e45fd24e	-0.01927386063467145
122	0xbfa4036ad42418d6	-0.039088571926230095
123	0x3fb02e65ad635074	0.06320796473602447
124	0x3fa546ec6eb0cd4f	0.04155672885135663
125	0xbfb8438e7b904606	-0.09478083149613079
126	0x3fbddfefb9f3ca7a	0.11669824876643445
127	0x3f954e6c45ee6206	0.020806972282658286
128	0x3f962816f0406881	0.021637304700654617
129	0x3faa2147e369eec4	0.051035162458871436
130	0xbf8217896831af1f	-0.008833955280543258
131	0x3fa7e64de3fddd05	0.0466789570627331
132	0x3fa54484373d62cb	0.041538364165437956
133	0x3fac742e31673e1f	0.05557388642375493
134	0xbfbd32d86ab6d1a8	-0.1140570889027176
135	0x3fa2c4686a248e90	0.03665472312630158
136	0x3fab4c256a5c2aa3	0.05331532405223995
137	0xbf648c04e76565e5	-0.0025081725863571485
138	0x3fa04b94bf9e90f7	0.03182663764099119
139	0x3fa48437cb6764a0	0.04007124288518438
140	0x3f7354f90a858ca3	0.004719708267972997
141	0xbfac0a852520e3b4	-0.05476776197651337
142	0x3fa407573abc9b4e	0.039118505401623524
143	0x3fa709d8e2eba73a	0.04499700326944241
144	0x3fbd3764a4e5bbf2	0.1141264822560826
145	0x3f8e09a31dd97c77	0.014666818951069012
146	0x3faae281216d3b67	0.052509341555029114
147	0xbf76c5de6b34e5ea	-0.005559796164840128
148	0x3f969f07d9f6d83b	0.022091028860551126
149	0xbf88f2f86ebe2909	-0.012182179336168735
150	0xbfa00eb43fc02776	-0.03136218336301415
151	0x3f813cb5b32be919	0.008416575937634495
152	0x3f92653562a284ec	0.017964204926674762
153	0x3fc65fee9e1b40e0	0.17480261535684516
154	0xbfc43126576a7d98	-0.1577499319873652
155	0xbfbe14ae5add6dab	-0.1175030681455868
156	0xbf9b0f90ab1f28c0	-0.026426563686791082
157	0xbfc0aad791343cd2	-0.13021368589440968
158	0xbf91f18ab469ed87	-0.017522971402724543
159	0x3f9560d16cb8e2f1	0.020877144108655214
160	0xbfaedb227f6df65f	-0.06026561551605591
161	0x3f9fdb20a45bb888	0.03110934260524137
162	0x3fb9faf483a0f34e	0.10148552144614806
163	0x3f99f2f589218b95	0.025340878004850593
164	0x3fa9fb6d09d72193	0.050746352626052225
165	0x3faef5f8a3d39b76	0.0604703617080337
166	0xbf80a67c9e26e75b	-0.008130048347868948
167	0xbf8f8b743c150dad	-0.015402706225933505
168	0xbf9c4da4c0927002	-0.02763993668905585
169	0xbf954035b472b26d	-0.02075275339000131
170	0xbfbd5f3964caef2b	-0.11473425589332169
171	0x3fb89be86284000f	0.09612896351973198
172	0x3fa13cb1fffce6f5	0.03366619348385128
173	0x3f6e42f8929e8f32	0.003694043630234755
174	0xbfa0cd8b1e82d954	-0.032818171953681
175	0x3fb4a65336f3ca7f	0.08066291896447274
176	0x3fa2960fb0ad7ce5	0.036301126782513106
177	0xbf7d854845377427	-0.00720718603721785
178	0xbf6a5b7471a4d5a2	-0.003217437200101884
179	0x3fac29b5028ced25	0.05500569969304995
180	0x3fc144ae85e97391	0.13490850008647873
181	0xbfc386b6f22bca7b	-0.15254866432913503
182	0x3f93a2adf26f3c67	0.019175260469463853
183	0xbf8c6d54b2d3e691	-0.01388040705431884
184	0xbf060687d37b23f1	-4.201032646517628e-05
185	0xbf833b2202774972	-0.009390130710845244
186	0xbfa45f3ca39a361a	-0.039789099665636665
187	0x3f8cd7c58705ff86	0.014083426650131303
188	0x3fa44afb4614a403	0.03963456373669063
189	0x3fb253a1399b1091	0.07158858925237356
190	0xbfbb67ed5f055210	-0.10705455369799943
191	0xbfc8f797e370e05a	-0.1950559483100303
192	0xbfbf74f7d5576cdb	-0.12287854155094939
193	0xbfb24a5fc3fe8d04	-0.07144735846536682
194	0xbfaacb23519a726c	-0.05233106967100273
195	0xbf9cb6011f43b437	-0.02803804162333653
196	0xbf9c9e1e40c7c0cd	-0.027946922973513467
197	0xbf93e0cfdcb77492	-0.019412277075265445
198	0xbf9e8ce6271a7edd	-0.029834362160385253
199	0x3fc032ec0d908f1c	0.12655401861513205
200	0xbfa5c215b1f01489	-0.04249637410252045
201	0x3fbb6e74096665a9	0.10715413312427437
202	0x3f86d33ff98b7c43	0.011145114710812481
203	0x3fa151a06923b048	0.03382588656845137
204	0x3fac76c8d73be32a	0.05559375407569285
205	0x3fa4c59dd72728bc	0.040570194734372816
206	0xbfbdced2e44e3f24	-0.11643713067882949
207	0x3fb58de65205674f	0.08419646742313812
208	0x3fb0b5857c4b2da4	0.06526979717744169
209	0xbf909a65d5b4b746	-0.016213980835508644
210	0x3fadcb3b4bdd3a5e	0.05819115925861661
211	0x3fb01060d4ceeb43	0.06274991221918662
212	0x3fb2e411f4b07c20	0.07379257415640028
213	0xbf968348174e2bc6	-0.02198517458195306
214	0xbfa24f8fb28237ad	-0.03576325468121353
215	0x3f84fa011bb71c95	0.010242470415404529
216	0x3fc21e93f98c4b2f	0.14155816731416723
217	0x3fb8e06caf801d52	0.09717444691351787
218	0xbfc799fdf36f63be	-0.1843869627616907
219	0xbfbd926657259328	-0.1155151331673322
220	0xbfae7b8a8fcb8952	-0.059536294987781915
221	0x3f87e792a6a0707e	0.011672158918422545
222	0xbf9c1ad2e4efb481	-0.027446074698606274
223	0x3f81308f1ffe843f	0.00839340034855429
224	0xbfc0090daf27ede5	-0.12527628948724537
225	0x3fbf87489a4cbf6c	0.12315801398358212
226	0xbfa39ca614532217	-0.03830451009850238
227	0xbfb9862df9c7057f	-0.09970366809922913
228	0xbfbd4e0d5deafbc8	-0.1144722322742232
229	0x3fb3a949e9b41de7	0.07680189090398636
230	0x3f6004110137e567	0.00195506402246497
231	0x3fb367b9707adb86	0.0758014583214913
232	0xbf95b08af9dd7453	-0.021181270123055217
233	0xbfa41c1e6f88a398	-0.039277030100783594
234	0x3fb78f28a3ad1e85	0.09202817913057444
235	0x3fa86301ce9e4dd0	0.04763036391446074
236	0x3f8c85e3cd717456	0.013927249629143084
237	0x3fb1e7f26abe2102	0.06994547945044263
238	0x3f984c8e7214c4bb	0.023729539597472576
239	0x3fa80276365b1df7	0.046893781790966864
240	0x3f9d70bcd6e5acc3	0.028750372520715894
241	0x3fabc504e8fb28d5	0.05423751205451458
242	0x3fb8c8c572ecc2e9	0.09681352668554734
243	0x3fb6d8ce2f4fc439	0.08924568800991119
244	0x3fb997fbef611c36	0.09997534364912117
245	0xbfc19300b648fd46	-0.13729866886749614
246	0xbfb12b028ecf04b2	-0.06706253038921053
247	0xbf63c8d0f5356f12	-0.0024150925834599624
248	0x3fa10f93fdc8be54	0.033321976403723724
249	0x3fb09d04e6fb8e12	0.06489592208122755
250	0xbf98077c9d6b1b4a	-0.023466059787803396
251	0xbfb6c83cdebf6117	-0.08899288595364784
252	0x3fab59f95ba7ae3b	0.053420822561602375
253	0x3fb6960cc0560e75	0.08822707839686379
254	0xbfa34839bf1f4236	-0.03766041238816735
255	0x3f8ed3c568d2d021	0.015052358876666063

3.bias f8 [64]
0	0x3fa66b0607ee56e9	0.04378527495206958
1	0xbfa131c0e60dfe88	-0.03358271415981756
2	0xbf914434ec6ebab0	-0.016861750536629472
3	0x3f908c0ee10b9959	0.01615927933280523
4	0x3f709408c5d0cc19	0.004047426479746563
5	0xbf911f81c0d37034	-0.01672175158897478
6	0x3fa7817fe376495d	0.04590987826954305
7	0xbf98c690c52944a7	-0.02419496730209816
8	0xbfa3dbd02168edc9	-0.03878641517482213
9	0x3fab2c8729e555f9	0.053074096550215395
10	0xbf79b1a131ba40b3	-0.006272916474373047
11	0x3fb501941dc7c1e6	0.08205533721025624
12	0x3fb572c4c5fbadce	0.08378248056003842
13	0xbf44482e7c76669d	-0.000618956278162847
14	0x3fbfdaf7abe4ef5f	0.1244349283851398
15	0x3f8e48e1fcdd5c83	0.014787450341527958
16	0x3fb05c880638515f	0.0639119162736441
17	0x3fb43e1967906b41	0.07907255915089896
18	0x3fb11ee650aac36b	0.0668777415219332
19	0x3f977cbf7cf84446	0.02293681335692479
20	0x3f92fd214ac19b62	0.018543739497910557
21	0xbf8b41a0c3faa1ee	-0.01330876920776888
22	0xbf8bdcb3bc962202	-0.013604549591733853
23	0xbfb64e248153dfe1	-0.08712986142552338
24	0xbfb8b2a67d13f65f	-0.09647598794614386
25	0xbf96619257be3b1e	-0.02185658131161993
26	0x3f7077e8a5987fc4	0.004020603920736169
27	0x3f9aaf286afd90d5	0.026058799295598362
28	0x3faf68dd5b851523	0.06134692899881091
29	0x3fa55cabea53c371	0.04172265277327981
30	0xbf6bff9bf259aede	-0.0034177823861706166
31	0x3f8290e6b9626a74	0.009065439732059512
32	0x3fa60cf16cd70a93	0.043067497764714656
33	0x3fab60dbff567187	0.05347335330881991
34	0x3f9c75ef4cf4708f	0.027793635436964833
35	0xbfa21860420593c8	-0.03534222417764671
36	0xbf9f8d8121cd4289	-0.03081323403177064
37	0xbf99bdb58be0a3a2	-0.025137745535321117
38	0x3fa4b69e96182c6c	0.040455776044915875
39	0x3f93ecc26cc851d1	0.019457853211933888
40	0xbf85394ab0095f98	-0.010363181588374279
41	0x3faddf7ffa215ee2	0.05834579399441765
42	0xbf91b5f9b21c42d1	-0.017295743461604843
43	0x3fa487313442184c	0.04009393465916897
44	0xbf9e3f6c3bb34fa1	-0.029538813728165917
45	0xbfa0094c6e9d2074	-0.0313209424044211
46	0x3f992e40d8e704d7	0.02459050487391753
47	0x3f8a0d2eb3fa9e61	0.012720455997011717
48	0xbf6ecd752a302a9e	-0.003760079228873294
49	0xbf97d63f0e372e34	-0.023278222315452804
50	0x3fa4c83ab29740b8	0.040590128231657585
51	0x3f4d2d1c19186303	0.0008903872678188432
52	0x3fa127a6c4ac2719	0.03350564146792418
53	0x3faacf8ddbd28c97	0.05236476238612758
54	0x3fa7b3d1e8a95263	0.04629379239182609
55	0x3fadabd7f94e8701	0.05795168798728235
56	0x3fae391203fcf721	0.059029162394365516
57	0xbfa4b9fa2fa2c967	-0.04048139411442513
58	0x3fa5efea86daa431	0.04284603973548718
59	0x3f91ef118841af4c	0.01751353639740154
60	0x3fa64c5ce53a8461	0.043551352483753865
61	0xbfa2a9d507b19522	-0.036451966466112276
62	0xbf8c932054501334	-0.013952496121427772
63	0xbf75cbc1de4dcd2e	-0.005321271227205755

7.weight f8 [1, 128]
0	0xbfb4114105a237ae	-0.07838827502766207
1	0x3fa69d8447cc52f5	0.044170507206365096
2	0x3f95626ce4762ea4	0.020883275455658393
3	0xbf949c5a72b94db1	-0.020127690555751424
4	0x3fb412bce7e0ae0d	0.07841091786456662
5	0xbfb1deaaa8dfa62c	-0.06980387328044263
6	0x3fb229ed51faa986	0.07095225573963235
7	0x3fb3ad2916f1cf21	0.07686096964044654
8	0xbfc7aef57f85ab1e	-0.18502682425181488
9	0xbfb00218c5c85e57	-0.06253199413947051
10	0xbfb336bb72cb88a0	-0.07505389740575419
11	0x3fafb3697287f1be	0.06191567919811146
12	0xbfc28a1f67701765	-0.1448401694362317
13	0xbfa419f626a1f2e1	-0.039260570732016616
14	0x3fcbcb4f605e1d66	0.21714203076792699
15	0xbfb3bad9011c6670	-0.07706981923220169
16	0x3fcbee7f503f62f8	0.21821586054172548
17	0xbfa50e240f3e90ad	-0.041123511181724616
18	0x3fab64bae26f8125	0.05350288404565821
19	0x3f6d5495888bbbcd	0.003580371911418001
20	0x3fa693bdf394854e	0.04409593199148763
21	0xbf97b677b062d006	-0.02315699590754152
22	0xbfbb8c7010a5bcf6	-0.10761166006499309
23	0x3fd0b3ecf007ef06	0.26098178329969846
24	0x3fc82bd7dbbab622	0.1888379881760765
25	0xbfb53b95c3f67065	-0.08294044527286955
26	0x3fc231fad43e1d35	0.14215026248369048
27	0xbf97c5b2c19f76cd	-0.023215096538357117
28	0x3fc310ea91bfef4f	0.1489537440937689
29	0xbfb35788d8173bbd	-0.0755544211926766
30	0xbf88dda0f0a4f387	-0.01214147314441917
31	0x3fb2dcae71cc0a19	0.07367983129737644
32	0x3fa293406e6a8850	0.03627969119885732
33	0x3fa0736762b37484	0.03213046150060797
34	0x3fc704fd460d2e49	0.1798397628830222
35	0xbfa175453af84cfa	-0.03409782738540375
36	0x3fc1c5f4427742de	0.1388535809078552
37	0xbf9e6288cdaaf319	-0.02967275386139354
38	0x3f913b37480d16ff	0.016827453396465405
39	0x3fb18b447f18df67	0.06853130438764553
40	0xbfc7c351210b9de7	-0.18564809907478194
41	0xbfa5cdee2b78d8e1	-0.042586748892448296
42	0xbfbce60deb154efb	-0.11288535107933832
43	0x3f597e1478adf3e1	0.001555938712697762
44	0xbfb37f4bac181474	-0.0761611266280669
45	0x3f646ea246fafa16	0.0024941606023667446
46	0xbfb439c662f8703b	-0.07900657573958451
47	0x3fa92273e0eeda24	0.04909097786678654
48	0x3fb300adbe8a387b	0.07422910596707936
49	0x3fb4c31d3bc2629d	0.08110220631568628
50	0x3fc1ffab708bb868	0.14061491961860217
51	0x3f4835c26f36f490	0.000738830507934234
52	0x3f8016bc0f5130a4	0.007855862824861788
53	0xbfa72ece54ce184d	-0.04527897629945752
54	0x3fb98a2575c7ebfb	0.09976419568549481
55	0x3fb3325530b0f90d	0.07498676718475768
56	0x3f85a30c075cfb95	0.010564893698413328
57	0x3fc7530e09aebe35	0.18222213242323596
58	0x3fccf49b1f152d14	0.22621478097639935
59	0x3fc26c7de73f2425	0.14393590728130437
60	0x3fc6bacfaf0520fb	0.17757602735424158
61	0xbfb169dccff9f846	-0.06802158429670255
62	0xbfa96423684611e6	-0.04959211967346615
63	0x3face4f5eddcd3a3	0.05643433121296162
64	0x3fb56843f2210aac	0.08362221394876695
65	0xbfb07f23110b98c4	-0.06443995634217276
66	0x3fbfa480ad8a1ab2	0.12360386120608771
67	0x3fa370ece983ed12	0.037970927720346506
68	0x3fb956bd43981277	0.09897978687519947
69	0x3fa3838749065b25	0.03811285749832497
70	0x3fa93bec7dd2b76a	0.04928530727316523
71	0x3fa9fd9fe6de85e6	0.05076312726238168
72	0xbfca203e29eeb674	-0.2041089730022808
73	0xbf87aa1d7844d773	-0.011554937584701474
74	0xbfb8ba2a8257c85e	-0.09659066850852713
75	0x3fb7d0d6bd14f2ee	0.09303037754302654
76	0x3fbd0c1cc7665220	0.11346607082516202
77	0x3fa5b0bf19b40d5a	0.042364093673337336
78	0x3fb086d4e1b28030	0.06455736646830768
79	0x3fadf72ae549a9be	0.05852636383936581
80	0x3fd090d1654bc947	0.258838986322321
81	0xbfb55a5fd40de3b1	-0.08341025282960747
82	0x3fbd48ddc56d9a6a	0.11439310140631567
83	0x3fb0bd8c7ff26deb	0.06539228557306102
84	0xbfc3ef194d31dbda	-0.1557342173507255
85	0xbfac6926a5f49ba8	-0.05548973823379494
86	0xbfb9d1b45e5b422c	-0.10085608771920168
87	0x3fae3ba718afbf47	0.05904886413907078
88	0x3fb8f3909cbdb1b5	0.09746650530514141
89	0x3f89485e799c0fab	0.0123450642454442
90	0x3fc1c430a099398f	0.13879974214291876
91	0xbf9ece73e4f5de67	-0.030084429597506814
92	0xbfb84cc508722b87	-0.09492141205025294
93	0xbfb2a524de1c4bf0	-0.07283239767666294
94	0x3fa203688b1d781f	0.035182253820252855
95	0x3fc41fc1dd91d616	0.15721915549117743
96	0x3fc148fa26568e54	0.135039585799961
97	0xbfb69e9c79566583	-0.08835771524754503
98	0xbfc3f7e76875a1e5	-0.1560029277855072
99	0x3fa56d993b598ed1	0.04185179566846176
100	0x3fc7f8fe7a0534f7	0.18728619535469423
101	0xbfb07790a715c02c	-0.06432441786978477
102	0x3fa59be726fdcf6e	0.042205070028017086
103	0xbf51b4ce7d7cc9bc	-0.0010807053094593474
104	0x3fc44259c1a4f656	0.15827485995571305
105	0xbf84a2aea8b2d560	-0.010075916789314021
106	0xbfa1a27fe8e7e6e1	-0.03444289892281716
107	0x3f9f2b1ddc6571a1	0.03043791444484756
108	0xbfbf5bff571cab58	-0.12249751927144581
109	0xbfaae6d5f1c5d49b	-0.05254238678291153
110	0x3fa04fe195758680	0.031859445089833294
111	0x3fc3c30ce8ad9a37	0.1543899665950492
112	0xbfbd9bf85c4041e3	-0.11566116573545275
113	0xbfb689200b15b8d5	-0.08802986403108844
114	0x3f86c39c6eda76f8	0.011115286000229471
115	0xbfb3e343233ab0d8	-0.07768649683083895
116	0x3fd3346be552acbd	0.3000745524866025
117	0xbfac8314efa291bd	-0.055687574627231375
118	0xbfce3c5c2eab7076	-0.23621704367440416
119	0xbfa4908b8befa1b5	-0.04016529162601349
120	0xbfc40022ad679fe5	-0.15625413386373946
121	0xbfb14dbea2bf3497	-0.06759253953278442
122	0x3fb4131446b1f845	0.07841612554509066
123	0x3fb137b89867c23f	0.06725648613770206
124	0xbfce6b44bf87f1eb	-0.23764857627965283
125	0xbfa8bf295babc94b	-0.0483334469226003
126	0xbfc03619e5207a2e	-0.12665103614649936
127	0xbf67a0b376d3fa15	-0.002884245410881956

7.bias f8 [1]
0	0x3fa9b15eee7fe226	0.05018135701533692
