models/run2/48.pt (torch, 153942 bytes, 6 tensors)

0.weight f8 [32, 1, 9]
00000000: e41e bc06 7d77 a23f 59a2 e566 554c c23f
00000010: 0a2c 76e1 7600 b0bf c15d 004a d3b8 ca3f
00000020: bead e279 86e5 c23f 6bb0 7dcb 89ce d03f
00000030: d8d0 821f 6da2 d03f c5b5 8e81 15ab d13f
00000040: 0b53 9062 095e d23f afc6 da2b 35e5 bc3f
00000050: 0d84 c1c1 d0a0 d33f b61e cab7 f0d5 a33f
00000060: 018e b4d6 5477 dfbf ceaf 4b36 bc9b d33f
00000070: abd9 2482 bf14 d03f 04c9 31f4 63d2 d33f
00000080: 8681 bc7e e2ca d8bf cd5a fa18 ee2d d0bf
00000090: 52aa a62b af12 cdbf c7c8 d1eb 78d2 b63f
000000a0: d86b 8dc7 19c2 ce3f 651f 8d3e 8db6 d6bf
000000b0: dfb0 3595 9e93 a7bf af58 9845 2dbf d33f
000000c0: 6917 2d51 d0e2 b5bf af75 f60c 3f7a c53f
000000d0: 36a8 550f 7885 ccbf ba55 8cc0 2ec3 9cbf
000000e0: 5b95 83d3 6fe5 c33f 2a56 d915 8a4a bdbf
000000f0: b6f5 8c29 87ff c43f 56bd 6b87 1e59 b43f
00000100: ccb9 8672 9bb1 d43f cc36 8ba6 7aa6 bebf
00000110: 2a88 b107 5de4 bfbf cd60 7dd2 3978 d5bf
00000120: 13bc a983 3f9c d2bf c9aa 49b7 67f8 c63f
00000130: f22b 0a26 e9af cfbf 8fa5 3566 d658 d23f
00000140: b0af 5d25 43e3 3cbf 4cb4 05b7 4879 d6bf
00000150: 197c 3786 f9f2 c63f 08cf e6f2 f2d3 b2bf
00000160: c69e 643a c050 c63f 0802 b1c3 e1a8 aebf
00000170: 6b7a 77db 5fa2 d03f 793e 277e ec54 ce3f
00000180: 9c7f f88f f7da 97bf 9979 443f 6e71 d13f
00000190: 29a3 f2ca cb6d b9bf 63a2 df7d 1d78 d3bf
000001a0: 6d84 af36 348e 70bf 505a 8f7d 1311 b53f
000001b0: 9ab3 455e ec48 d23f d1c4 c349 21ac d13f
000001c0: dcb3 7c85 56a5 d13f 30e7 b2c9 e991 a2bf
000001d0: a96c 764f 6300 d8bf b909 039d 47f0 95bf
000001e0: 7572 2b61 3247 d43f fdbc b282 7076 b3bf
000001f0: 5fc1 493e 4bc0 bdbf d64b fd9f 887a 9b3f
00000200: 0729 cbe8 3c1e bfbf a478 c19d 4ded a2bf
00000210: 6645 cdb8 c554 ce3f 6825 1248 2d64 c7bf
00000220: aab6 b608 0778 d7bf 8795 9df2 6687 d03f
00000230: c7b2 1080 3f8c bb3f 29af b729 4d58 bebf
00000240: e404 98a0 385f c73f c768 7229 e6f0 cf3f
00000250: 7449 acba ec60 c0bf c10c 5eb6 b9b7 d03f
00000260: 4b19 d0a9 1c1d d1bf b3f9 683f 552c d03f
00000270: bf55 6647 d493 c9bf e8b2 918e 14b7 bdbf
00000280: cc14 0ee1 263c d13f 1440 3475 8a79 d3bf
00000290: 0ba6 136e d9d3 c5bf f66b 75f4 bb9d 2cbf
000002a0: 2d34 393d 48e7 cb3f 0dfd f0b2 05ac d4bf
000002b0: f36b 62ab e157 d2bf e031 72c1 f941 c93f
000002c0: 727c f863 442e a83f cf6e 6ba8 9558 c73f
000002d0: 9076 197c 154f c73f ef9e 07b8 26cb a8bf
000002e0: 3cb8 8e82 7e50 c1bf ff2a c7c5 78a8 abbf
000002f0: cd1b 5620 19e8 cf3f eb4f 4c73 5ae6 cabf
00000300: 10d3 2129 a8b3 c43f 141b 0556 3a81 cc3f
00000310: e4b3 5af8 8554 d23f 41c9 f358 e458 a53f
00000320: e3d0 c677 d488 babf 3bae 3934 5e92 c3bf
00000330: e16e 8470 3bce c43f 34fd 6b04 5386 c83f
00000340: 0e04 e5ab 8b3b c1bf b7ab 0061 a553 cf3f
00000350: 41b4 d304 6cfa d03f 98ed 2de3 b5cf d7bf
00000360: 4a1d ba3d e33b d1bf a5b4 f5d9 22b9 d13f
00000370: 70e5 004e 2a8f d13f 0a39 a2b2 9053 a8bf
00000380: b9e4 9e4d 7e23 c0bf c8af 940f 56f5 903f
00000390: 294a 09d4 6ce4 d33f edf5 68d9 d326 b7bf
000003a0: d6ee 2b4f 268d cb3f 6ff6 f3e7 4914 ae3f
000003b0: 9bbb 7517 15c4 d6bf 2753 1329 1e89 c3bf
000003c0: 66b0 0026 a2e5 cc3f 5c1e 632e 9685 a4bf
000003d0: eb66 16cc 642a c13f 8470 8522 c781 d8bf
000003e0: f105 e512 0ef4 b63f 6493 8d6b 5014 d33f
000003f0: 1140 74cc b07e c03f b907 2754 2e63 ca3f
00000400: 2dca b545 71ba d43f 8dce 21b3 d9be cabf
00000410: a7c0 35ae a6b8 c83f fd58 6a6b ebd1 943f
00000420: 13b4 16d5 4c08 d33f 0a19 f1ef 4f07 d33f
00000430: 0367 b6a7 68f8 d23f 32a4 ee68 6f99 d1bf
00000440: 8a5b 5ddd 8e8d d23f fbc9 b7bc aa07 a03f
00000450: 5ade e245 0230 b7bf 90e8 a8f1 8eba d23f
00000460: 9910 17d4 dc3e d13f 7fee 8a65 d5b1 c43f
00000470: c2cb 6143 57d7 c6bf 8769 b0c9 e108 b73f
00000480: c419 3f67 c341 a83f 3322 e461 8a31 b4bf
00000490: 4946 7e9d 8f79 cebf bd6c 7b4f f28b cfbf
000004a0: 2d05 bb9f d393 c1bf 89ca 895b a85e c33f
000004b0: 8b38 ff72 ecf6 c03f 959e 4293 a55e ccbf
000004c0: 0cde 6461 6f49 c5bf 73cc 359f df8a a3bf
000004d0: e9c1 b3ae 9e0b 58bf 6f39 8a1c 89ad cfbf
000004e0: e194 a8b1 7ca2 cb3f 6731 4da8 9b16 c43f
000004f0: e4b4 6ba9 2a92 b53f f936 0405 e8a3 bd3f
00000500: 3887 fb9b 8744 bf3f 946b 1c95 cc81 ca3f
00000510: 674b 49da b69c cf3f d9ff 980b 4e1d cabf
00000520: fd7b 3503 6527 acbf 9aae 59db 91db d7bf
00000530: d29f 11fd 432f c7bf e5ab 0c2e f481 d03f
00000540: 2a7a 361d 73ec d1bf e3c5 c418 2b8e cdbf
00000550: 742b 11a2 4d7b d33f 2c6e 2fdc 0aef a83f
00000560: ef5a 546f 42e6 c1bf 0355 2304 3300 d03f
00000570: 3234 75ef 5d28 d7bf 06c1 c438 ac4f d2bf
00000580: e172 8853 48db bd3f 87d4 3cf9 f162 cf3f
00000590: 9778 feba 59e9 b8bf f726 c1bf 9d13 a9bf
000005a0: b1a7 aca4 f862 e1bf 6b7a d112 ab58 d0bf
000005b0: 8613 0ac0 2b2d cdbf c337 1d72 4846 c73f
000005c0: 42a5 6651 855e cf3f e9be 54d3 f8d7 863f
000005d0: aa95 007f 64ad c93f 4950 93b8 6c7e d0bf
000005e0: 9e49 ba6f 7b66 be3f ac0e ec05 0670 ab3f
000005f0: dbe5 d543 3c99 c83f e5a9 4631 bc0a dabf
00000600: ef44 3bdd 03fc a0bf 3dd3 c608 9cab 54bf
00000610: c4e0 b9e0 866f d43f 2ec5 a89d 8a7a c8bf
00000620: 90f1 4ca5 f0e1 ce3f 1f37 c574 cfc2 ce3f
00000630: 1061 ef3b 5945 c83f 5d15 f593 5201 c1bf
00000640: 32cf c49b 2ef7 9e3f 9db8 cf4d d77b cabf
00000650: aeb5 b8c8 e1a3 d7bf 8ce4 2471 2c02 d7bf
00000660: e1ae cbda 81a0 c6bf 524b da20 cda2 c6bf
00000670: 003f f548 7902 d43f bffc 2aab be74 be3f
00000680: 9c7b 0864 f6c5 9ebf 2432 ced6 98a0 cc3f
00000690: 6d3c c98c f708 ce3f 9b95 18bd cc55 a13f
000006a0: 57d2 0f29 e320 c13f d827 7f3e 2d2e bd3f
000006b0: b435 ce72 6fea c7bf d74f d3aa f1a5 d9bf
000006c0: 10b7 c8e6 4c12 c23f 1fcc 56c2 04c6 c9bf
000006d0: 500a e567 cb76 c0bf ac9f 70c6 65d5 b8bf
000006e0: e012 0a79 07a8 c33f 4d33 9ab0 1d81 d43f
000006f0: 49a4 51c4 8867 cebf 467c dfee e41a cb3f
00000700: 1e73 8c6a acdc d13f 3ff0 d28c a7e6 b3bf
00000710: 5b9e f60b c92c d13f 8685 0b2d d355 ce3f
00000720: 4011 1940 95d3 d33f 5c16 b672 9c99 bc3f
00000730: 0a43 e29c 65f0 d13f c3f2 b939 8e55 c83f
00000740: a2bd 1d2c 349c d5bf cd60 cf0d c69d acbf
00000750: f2f1 fc98 ac51 cabf f4fb 8c41 7bd2 94bf
00000760: da34 97fe f3ec c53f b9e1 af83 9a4c cbbf
00000770: 50cd f3f5 4927 c63f ceed d8f7 37fe b03f
00000780: 7682 d5da 89ac d0bf dfd2 bbff e714 b33f
00000790: d846 7466 86e6 d3bf 0a02 e673 cd83 ca3f
000007a0: 3e0d 4686 b682 d1bf 83a4 419d e4b9 923f
000007b0: 76e1 58a8 d8b9 c13f 429b 4cad 142c babf
000007c0: dc83 80e5 5803 d0bf ec58 2751 31a1 d13f
000007d0: 2a81 4cf3 6413 bd3f 96dd 791e a75f d7bf
000007e0: 434d fb39 97d7 d33f 37ea 6dca f822 d33f
000007f0: e091 82e8 63d1 64bf 188f 344c feb6 d7bf
0.03606787402355652 0.14295451664226524 -0.06250708584245515 0.20876542199469664 0.1476295561927667 0.26260609504857396 0.259913712284527 0.27606713916869935
0.2869895422493733 0.11287243195217898 0.3066903965137165 0.03874160998844671 -0.4916584107142797 0.30638032247838687 0.2512663622796036 0.3097162136756568
-0.387383102193802 -0.252803348915603 -0.22713269835851918 0.089149053166497 0.24029848331232873 -0.3548920737125541 -0.046048122133329754 0.30854350849530027
-0.08549215299453085 0.16779316075273473 -0.2228231501460997 -0.028088312627991142 0.1554393561156456 -0.11441863091871399 0.16404809502448153 0.07948485189603124
0.32334028419691374 -0.11972776952753889 -0.12457829892949293 -0.33546300464287243 -0.2907866273662318 0.17945572328183904 -0.2475558696499714 0.28667221051599595
-0.00044079198175128297 -0.35115259049672853 0.17928999951888683 -0.07354658537115821 0.1743393216249755 -0.05988221658526888 0.25991054947181763 0.23696666869954067
-0.023296230470918652 0.27254825762238394 -0.0993316050031693 -0.3042062501176927 -0.004041866263805633 0.08229181113652229 0.2857008858325628 0.2761309833868611
0.2757164290986205 -0.03626947962898297 -0.3750236774446401 -0.021424406965488283 0.31684550751905444 -0.076025993260135 -0.11621542235093817 0.026834616436939594
-0.12155514415204403 -0.03696672964791617 0.2369620468476043 -0.18274465579115007 -0.36670089579534226 0.258264290742169 0.1076087653788803 -0.11853487270826392
0.18259342042441695 0.24953915618681874 -0.12795790781872152 0.2612137108737436 -0.267401853402039 0.25270587150944407 -0.19982388960185735 -0.11607483368579674
0.2692963788798124 -0.30429326482499275 -0.17052762865868973 -0.0002183238923219863 0.2179956721251143 -0.32299940562002477 -0.2866138623882641 0.19732591577157077
0.047227990344475126 0.18239088748565854 0.18210094985527236 -0.04842492100197925 -0.1352689874160563 -0.05401971258432602 0.2492705734150306 -0.21015482549466866
0.16173269279865865 0.222693721773077 0.2864088940939935 0.04169381700366382 -0.10365035938486104 -0.1529042963987751 0.16254370683679212 0.19159925189885885
-0.13462968724528007 0.24474017368751586 0.26528454276450836 -0.3720526426838773 -0.2692802527239634 0.27692481312881007 0.2743631135704936 -0.047512552076215256
-0.12608317174980302 0.01656088323686314 0.3108169623057245 -0.09043621118413343 0.2152450453357832 0.058748540463040004 -0.3557179192638899 -0.15262200360907593
0.22575785499191453 -0.040081685221193125 0.13410625424585673 -0.3829210126039089 0.08966148339552384 0.29811487677789317 0.12886629088507154 0.20615176304823793
0.3238795452845434 -0.20894929167444723 0.19313510423990474 0.020332029753796544 0.29738159951631465 0.2973213046247031 0.29641167047667255 -0.27498994109425035
0.2898900186314043 0.031308494126182716 -0.09057630735593972 0.29263661956395826 0.26946182929919754 0.1616770501913045 -0.17844668188226193 0.08997927831697981
0.04737673411686985 -0.07888092889710023 -0.23808474722004494 -0.24645832901919631 -0.1373238115248027 0.15132622213021232 0.1325355111607148 -0.2216383904499152
-0.16630356078688668 -0.03816889589770591 -0.001467614138899726 -0.24748338597823813 0.21589621233685022 0.15693994253013985 0.08426157604454293 0.11578226206276189
0.12213943060080801 0.20708615570842126 0.24697003992568087 -0.20401931349078842 -0.05498805679484773 -0.3727764741986249 -0.181129931038639 0.2579317521764877
-0.28005674221813825 -0.23090113362699957 0.30440083338606105 0.04869874894913226 -0.13983946262370447 0.2500121632013618 -0.36183880219033704 -0.2861128382092065
0.11662723578815416 0.24520706815534174 -0.0973106462028873 -0.04897778478387054 -0.5433314529702696 -0.25541188085290994 -0.22794100644037146 0.1818323666761313
0.24507204508453567 0.011154121350585426 0.200604021084627 -0.2577163507933205 0.11875125386931137 0.05358904669085737 0.19217637359888226 -0.4069052201472501
-0.03317272258358083 -0.001261618020277313 0.3193070597258265 -0.19123966882902138 0.2412701422816892 0.2403201408546289 0.1896163504268391 -0.1328528616378816
0.030239799744961 -0.2069043283403901 -0.3693775615855327 -0.3595076661036465 -0.17677329238301012 -0.17684330085884398 0.31265098690799675 0.1189688842668941
-0.03005204186967668 0.2236510323385953 0.2346486508781455 0.033857725222598854 0.1338161421296202 0.11398585105703718 -0.1868418989728703 -0.4007534187523993
0.14118348377945056 -0.2013555478020814 -0.12862532208426325 -0.09700618834233293 0.15356534395336663 0.32038061376879484 -0.23753461442837168 0.2117582479831716
0.2790938416017513 -0.07773825824819001 0.2683584801511409 0.23699416827643577 0.3097890020328755 0.11171891975944831 0.2802976638859468 0.19011094874067255
-0.3376589232275028 -0.05589121740894285 -0.20561749906654786 -0.020334173084162147 0.17129373484787075 -0.21327525548964646 0.17307400235550086 0.06637906838380234
-0.2605309140254016 0.07453775399683192 -0.3109451294450145 0.207147294608163 -0.2736030875459682 0.01828725061242099 0.1384840795524373 -0.10223511916102004
-0.25020430004411565 0.27546341824689935 0.11357718410409193 -0.36521318412948156 0.3100336137988117 0.29900951164714534 -0.002541251309667411 -0.37054402772831585

0.bias f8 [32]
00000000: 5d17 46b1 5f2e 273f ff96 70be a83b 293f
00000010: 43e0 6836 ef92 ce3f 6c1f 78f1 95c2 86bf
00000020: 1d9e f1ef 31a5 d33f af10 6eb2 0c08 b73f
00000030: 6e2b 76eb f531 293f 94f0 8eb3 c195 2d3f
00000040: 2e0c db25 528d 6f3f 458a 2485 4ce3 d43f
00000050: 5535 ffda 29d5 d23f f92b 93b1 89de 323f
00000060: 5d1b a678 2780 453f 8e33 5f16 d6c2 b93f
00000070: 28c8 507c 1b4c d23f d611 b6a6 98a1 d13f
00000080: 5de2 48d7 228c d03f e8bb a0aa bfa0 2c3f
00000090: 1d08 484c 34a5 d43f ce39 ba43 3b7c d43f
000000a0: d6fa 08c3 6e3e a63f 24e7 0bc6 fd63 203f
000000b0: dd17 a364 3875 c73f 2382 2066 bec4 d03f
000000c0: 2684 0105 0a32 793f 5db7 8248 d85a 283f
000000d0: 0789 7c20 883a d43f 3545 45fe 93e9 2c3f
000000e0: 6128 e3ad e458 c23f 2834 caf5 7be6 ab3f
000000f0: 3db8 757b eafd 933f addb 423c f5d8 ca3f
0.00017685812111894574 0.00019251284467818733 0.23885908276293052 -0.011113330298954081 0.3069577067567211 0.08996657711219556 0.0001922238059076336 0.00022571553725281703
0.003851566739145016 0.3263732242795963 0.2942604673997569 0.00028792249356673867 0.0006561463099366939 0.10062921568096625 0.2858952249545177 0.27548805504218643
0.2585532286061943 0.0002184137313760708 0.3225832695899287 0.320082489147265 0.043445073421471456 0.0001250502855539233 0.1832647792236334 0.2620082852681966
0.0061512366665690595 0.0001858128564484152 0.31607249424463685 0.00022058421667251753 0.1433378075656178 0.05449283004154665 0.019523299966231134 0.20974603121223137

3.weight f8 [64, 32, 9]
00000000: 6b86 93d9 bb4c bd3f e126 05a4 9e76 cbbf
00000010: 8404 63a6 af01 c9bf 9340 bb27 fe04 8d3f
00000020: 5dfe ea94 b87f abbf 613b 7c3e 3054 ae3f
00000030: 3a43 c987 3520 9a3f 96a0 241b f698 9e3f
00000040: a2e0 9f4f a0cd c0bf 6c6e 97ab 57c0 b33f
00000050: c37e ea2a 28c3 86bf 90b6 c233 8fd8 c3bf
00000060: 0a3f cfa6 c722 c0bf 7055 3fdf d627 aa3f
00000070: 9928 4826 8e18 a7bf 9180 eed8 8abd 8c3f
00000080: 087a 92fc bf62 a4bf 3a7d c769 0433 bfbf
00000090: 466a a44c f2db b13f a69d c481 fc34 e7be
000000a0: 9b19 ff71 add2 a53f c752 3f9b 0074 a13f
000000b0: ecf2 e483 301e 96bf a259 60e7 f1ab 8f3f
000000c0: 1275 fb5a f0d6 88bf d0f5 2619 a248 953f
000000d0: 29d6 8108 0b30 b83f 1bce 96ec 40f9 b63f
000000e0: 3a4c e505 9b26 c9bf 2b49 3b58 be15 bfbf
000000f0: 262a 0e75 f8b2 b9bf dddc 8fa5 ee52 b03f
00000100: e4a5 2f89 4679 583f 4927 cf5a 6b3d 843f
00000110: 6bfb 8da4 76c1 99bf 49a6 f2e7 41a5 a3bf
00000120: a231 f71c 03f2 953f 9103 bbc9 c1fe 953f
00000130: 5923 ef96 8fac 9ebf 2da5 3a70 0c3a 93bf
00000140: d8e7 60a7 c2f2 923f 6e0c ebda c303 a63f
00000150: 2c22 125e 9dbf a4bf d821 e249 f14c ac3f
00000160: 03b4 8df9 e56c 9b3f 8897 4eb7 8bfb b73f
00000170: 6db0 e2ab aebf acbf 7d11 8dbd b950 adbf
00000180: 4627 4a4b 30fc 9bbf 56bd ebed b703 9abf
00000190: 7de0 1790 af56 b73f d1d1 879a d788 893f
000001a0: 7d8e f821 1732 9abf 9767 f7f8 3dba a1bf
000001b0: 1ef5 f412 64bb aa3f 87e1 5bb2 05ad b43f
000001c0: f062 add4 d807 c8bf ea36 dc37 a647 b9bf
000001d0: 6073 d4d0 2dce 933f 46bd f095 d2e4 6c3f
000001e0: 36ff 73dc 856e 603f efd1 c255 d096 54bf
000001f0: 45c3 e19f 8380 bfbf 79c9 f744 01f2 c03f
00000200: c10f 9952 c183 c1bf 4e86 f2f1 163f 73bf
00000210: 8909 5a68 56d5 bdbf 6b02 0a61 e397 b83f
00000220: 53e8 3124 3008 7d3f 9815 9cf4 509e a1bf
00000230: 0cb7 91cf 75c0 91bf d632 09c9 70c9 96bf
00000240: f438 3a49 12b9 b23f 04aa 50c4 4e92 923f
00000250: 6426 e321 270f cabf 45b8 7ee6 e186 bbbf
00000260: 90fd 4cb4 97ec bebf aca8 9c8e c52d b4bf
00000270: a9ae 8981 8610 ac3f ee65 f45b fb04 acbf
00000280: e4c0 7b13 31bb c0bf e4e2 c3a1 86c0 bb3f
00000290: 6cea 2708 29f6 b6bf df44 7038 7f01 b33f
000002a0: 2bb2 2a26 0348 95bf 6ac7 3dc2 c37b 99bf
000002b0: 78a5 aee9 8137 b03f d544 2b98 3385 a0bf
000002c0: 4b9f 5c3e 95d6 ad3f 08e2 7230 08fb a1bf
000002d0: 89fe aba5 e17a b83f 83bf aa25 af8b 913f
000002e0: 20ab 5464 1316 8c3f 9b4e b00b b293 8a3f
000002f0: 8361 2e86 0100 a2bf d841 8910 55f7 803f
00000300: a8b1 cbf4 000d 5dbf 9dab 1ceb 0303 a8bf
00000310: d380 1a40 29a9 b0bf c91f 927f cbf4 bd3f
00000320: 1e35 5ddd aaa4 b5bf c66e 3a8b 529f 8abf
00000330: 4c1f 4c93 8449 9ebf bbe2 d916 9120 a83f
00000340: 6bde b86b b390 97bf 7938 83d0 1621 58bf
00000350: d628 1113 7d17 abbf 184c cabb 9a20 8dbf
00000360: ff49 4989 c483 b23f d5da b5b6 94d8 a23f
00000370: 0b58 1972 ce6b c9bf d9d2 b797 d977 bebf
00000380: 91b4 63b1 4d44 afbf 8ada bbbf d5f9 9a3f
00000390: 40cb 1baf a96f 8dbf a36c ee55 943f adbf
000003a0: 8f22 3f6b 6a74 ab3f 7d2e 56b0 9146 bc3f
000003b0: e6cd d6f9 1319 a8bf bc7f 4d08 3152 95bf
000003c0: 7209 faba ad1d b63f 86e0 b192 f62e 95bf
000003d0: 0af1 f2d9 2cec a3bf ed23 84b8 122f b03f
000003e0: 0cfe ee32 5848 a53f a329 7228 0e4e b8bf
000003f0: de01 9972 6c65 be3f f832 cad1 37b3 953f
00000400: 5070 5de4 cb2e 963f 4d66 7f25 6157 aa3f
00000410: d7e1 0982 b2e1 82bf c6d8 b9fd 1829 a83f
00000420: 4ec0 937d d245 a53f 4c0f 88c4 9a75 ac3f
00000430: e139 4128 b133 bdbf b0a6 305e 0259 a33f
00000440: 71fa 273a 842c ab3f 4bc0 e58a f588 62bf
00000450: bb33 f609 6074 a03f 0d95 668c 69ae a43f
00000460: 742e 4b86 baa4 753f 12b4 c140 3109 acbf
00000470: b67c a3f1 af08 a43f e701 f574 399c a73f
00000480: e4bd d952 7b88 bd3f 8238 4442 aa4c 8f3f
00000490: 0797 590d 6825 ab3f 3ce4 2d98 6420 75bf
000004a0: 39b9 3e4a ab58 973f 1ee6 adb2 d1dc 87bf
000004b0: 97fb b6e6 540d a0bf 5e4a 9f99 8943 813f
000004c0: 0678 9693 b9de 923f a1b2 9bad 1d8c c63f
000004d0: 97b4 c992 4c39 c4bf 1126 38d8 f4d0 bebf
000004e0: 2fd0 33ee e3e0 9bbf eb02 d265 a7f2 c0bf
000004f0: 1c49 4740 c73c 92bf 1181 45ca 9163 953f
00000500: e3c7 d3b0 c4d9 aebf 6ed7 2271 7870 9f3f
00000510: 255d 6e43 356a ba3f 5423 ac38 78ca 9a3f
00000520: 4575 2f95 f80b aa3f bdb5 af92 c333 af3f
00000530: 6f0d 3250 5035 81bf 7e71 bbc8 e8b9 8ebf
00000540: c8cf 2bf2 f54a 9cbf 74f2 3c1f 3d3d 95bf
00000550: ba89 6307 9c60 bdbf c5f1 441f b423 b93f
00000560: 9409 ebb9 7270 a13f 02c3 b75b 4fc2 703f
00000570: f936 a76e c09f a0bf a56b db51 78cf b43f
00000580: 29d3 5839 dcd3 a23f 1a4d e1a2 4c7a 7dbf
00000590: fb3f 391f 1944 6abf c761 7d68 6495 ac3f
000005a0: 4d78 2918 036f c13f c38c 61e5 c496 c3bf
000005b0: 7c0b 75d1 1f5f 933f 2bbd 68a8 c063 8dbf
000005c0: aa30 7844 fa8f 32bf 825e 8f0f 0205 81bf
000005d0: 4c37 7b15 df5d a4bf 6bf2 a1f7 3ddd 8c3f
000005e0: 22d4 9dc0 0591 a43f 7c82 ddab 35be b23f
000005f0: 1d3a 6c66 b47a bbbf 43bf 44be ee6f c9bf
00000600: 8fb8 ec63 04bd bfbf bb87 e6b1 f3e4 b2bf
00000610: 07a0 79f5 e3f9 aabf 4921 791b 58b3 9cbf
00000620: ee68 f7d7 2d9b 9cbf 995b b65b 99e9 93bf
00000630: 382c 4f15 2279 9dbf 8272 9f80 0a53 c03f
00000640: f58a 28a7 dfd5 a5bf c023 348d 33b5 bb3f
00000650: 4380 3cc6 6b49 853f 9436 1f2a 0e47 a23f
00000660: eaba ec70 1d78 ac3f bbdb a02c 14c7 a43f
00000670: 3f60 3592 afda bdbf 34ac f53b ce21 b63f
00000680: 3b77 d6e1 62da b03f 9594 de63 c334 90bf
00000690: ac0f d58f 9ef2 ad3f 74e5 3e07 b935 b03f
000006a0: 80bc 7f02 18ee b23f 74f6 cd16 8980 96bf
000006b0: 5fb8 1bc1 2f4e a2bf 0b24 1092 5773 853f
000006c0: f067 f1dc 4558 c23f 59cb e005 6b13 b93f
000006d0: d5b6 673b 52f6 c7bf dc58 8ed8 e3c5 bdbf
000006e0: ecc3 5a89 ddaf afbf 6c8e 0832 bbda 863f
000006f0: fc8d 1569 2318 9cbf 7d05 7480 b236 813f
00000700: 993e 84cf fd0a c0bf 8316 5961 9bf5 bf3f
00000710: 93f1 a040 cff3 a3bf 2a78 df43 d728 babf
00000720: 3ff0 18fd 6905 bebf 75dc b1c3 3bce b33f
00000730: afa2 6172 1b8c 583f a186 d387 6268 b33f
00000740: 347a cd86 e3ad 95bf ef6f a7a7 16fe a3bf
00000750: 8d7c c868 5814 b83f 5233 371d 308e a83f
00000760: ec36 483a a96f 8d3f c682 87d7 2e07 b23f
00000770: bf22 49b3 6ac3 983f 8c4a c068 fc8f a83f
00000780: 72e8 f72d ba73 9d3f 7ce8 a410 75c6 ab3f
00000790: d4b6 0046 2612 b93f 0580 a9c3 bd57 b73f
000007a0: a60f 9175 40d6 b93f ef92 d55b c3d1 c1bf
000007b0: c3d1 05cb 917e b1bf f453 26b5 dcb3 63bf
000007c0: 83e0 63e9 cd0b a13f af53 a616 ad9d b03f
000007d0: 8d91 5962 a404 98bf b203 e144 41c1 b6bf
000007e0: a076 3255 5cab ac3f f8ed 9da5 e6d5 b63f
000007f0: 7140 a5d6 c580 a3bf ffcc 927d 5226 903f
0.11445211469574594 -0.21455748566432134 -0.19536395668368212 0.014169679248340372 -0.053708809069118436 0.05923605692634371 0.025513492977839315 0.029880376249963612
-0.13127521408001025 0.07715366305586152 -0.011114419755642207 -0.15504636790631254 -0.12606139798162302 0.051085200073127335 -0.04510921685512521 0.014033398385265879
-0.039815902310909534 -0.12187221128941852 0.06976236697338675 -1.1065949415979916e-05 0.042622966924273 0.03408815283879601 -0.02159953885096659 0.015464677690073373
-0.012128713394697264 0.02078488615528845 0.09448307950682334 0.08974080825901647 -0.196490648154027 -0.1214255299958366 -0.10038712365909727 0.06376544515648015
0.0014937580897317277 0.009882773121620796 -0.02515206698762588 -0.03837018925089503 0.021431015627784718 0.02147963327184105 -0.02995514258126106 -0.018776125287932977
0.01850418230626602 0.042997475121887216 -0.040524404271370024 0.05527452494522195 0.02678260169652803 0.093682033779798 -0.05614991996967054 -0.05725651205878799
-0.027329210849109907 -0.025404809853111963 0.0911664702215393 0.01246803703632163 -0.025581704567356745 -0.03462403930798457 0.05221092921645208 0.0807651100584562
-0.18773947128899904 -0.09874953140043954 0.019341197844471636 0.0035270798685115594 0.0020058264232146973 -0.0012566599389575125 -0.12305472043386796 0.13238540523122902
-0.13683334858990118 -0.004698838834117659 -0.11653652236603852 0.09606762999647749 0.007087886860171438 -0.034410981998045986 -0.01733573989297725 -0.022252809782275694
0.07313646590975847 0.018136244518396807 -0.20358742861417334 -0.10752689244574849 -0.12079761649964937 -0.07882342082726507 0.05481357890388711 -0.054725508665978015
-0.13071263743723371 0.10840646218629107 -0.08969360779875907 0.0742415917195731 -0.020782517628207636 -0.024886187296437802 0.06334697680599344 -0.032266247105903346
0.05827776323559294 -0.03511834708610101 0.09562502188418355 0.017134415315637874 0.013713981150961951 0.012977019292555616 -0.035156295423067106 0.00828424889292105
-0.0017731198633398147 -0.046898004961199315 -0.06508119406726402 0.1170165239765303 -0.08454387573620578 -0.012999195932301599 -0.029577323427502564 0.047123464621966225
-0.02301292748435772 -0.0014727328107713418 -0.05291357858421157 -0.014222344261076755 0.07232311584201766 0.036808631232749946 -0.19860249110450953 -0.11901626543096756
-0.061067989257801554 0.026343669726851128 -0.014373136192693203 -0.05712569760290733 0.053622556296948 0.11045179896444242 -0.04706633019250343 -0.02082134831596226
0.0863903600202656 -0.020686962798635487 -0.038911248784161925 0.06321827893056282 0.041567569940067356 -0.09494102942895792 0.11873510167880094 0.02119147508578842
0.021662889302533295 0.0514479025147919 -0.009219545930350499 0.047188549969108304 0.04154832632946236 0.055584751597079846 -0.11407000763686127 0.037788461683090246
0.05307400903619886 -0.0022625728371892576 0.032137871948271855 0.04039316023708226 0.005284050571116351 -0.05475763240324495 0.039128778693105756 0.04611377289484491
0.11536379597395513 0.015282945773403837 0.05301976359332455 -0.005157845446654593 0.022799183279567734 -0.011651647820815344 -0.03135171238272177 0.008429598808935509
0.01842775309852842 0.17615099884951227 -0.15799863021257884 -0.12037592200081117 -0.027225076116295262 -0.1324052092714035 -0.01780997590851384 0.020887639971420905
-0.06025519045387264 0.03070247831848099 0.10318310638682655 0.026162985285768173 0.05087258168326029 0.060941802650499956 -0.00840246910798356 -0.01500303137384473
-0.0276297024783643 -0.0207414198223312 -0.11475539379492875 0.0982010437337016 0.03406103629596938 0.004091558449986323 -0.03246880865809305 0.08129074095215445
0.03677261543308525 -0.007196711883881402 -0.00320629984506837 0.055827272181605596 0.1362003200510479 -0.1530386085533789 0.018917557868245435 -0.014350419177474002
-0.00028323993726143504 -0.008310333347181901 -0.039778682110052616 0.014093860740325334 0.04016893364215714 0.07321486898355006 -0.10734107494884211 -0.19872841158348295
-0.12397792281692176 -0.07380602925562034 -0.0526877629425258 -0.028027893711880556 -0.02793571119932719 -0.01944579717891379 -0.02878239874898389 0.12753421097194823
-0.04264735141284418 0.10823366353373753 0.010393945681755784 0.03569835914786981 0.05560390475726769 0.04058135075359056 -0.11661813087027982 0.0864533325563322
0.06583230985276327 -0.015826275797412654 0.0584916639877798 0.0633197443666143 0.07394552289018641 -0.021974699036482595 -0.03575276596335252 0.010473903794279612
0.14331887520057718 0.09795254605778093 -0.18720462704316412 -0.11630081212055948 -0.06188862134639081 0.011159384216689015 -0.027435830391722135 0.008405108017998536
-0.1253354323639442 0.12484141470585013 -0.0389694944755973 -0.10218568236402406 -0.11727011136184816 0.07736562278465604 0.001498247912900801 0.07581153694220656
-0.021171145537090832 -0.039047916379530416 0.09406044538671861 0.04795980793605871 0.014373132792595077 0.07042210351893194 0.024182955925683865 0.04797352579784783
0.028761776977241423 0.05424848392654355 0.09793318947842106 0.09118257548243498 0.10092547292975826 -0.13921396240325332 -0.06833754736528079 -0.002405100888788864
0.033293184986122014 0.06490594675990623 -0.023455208304214593 -0.0888863366281061 0.05599487819675386 0.08920136969930315 -0.03809183354553703 0.01577118770064789

3.bias f8 [64]
00000000: 560f 2798 bab3 a63f d0fd 0de6 c031 a1bf
00000010: d23b b28b a731 90bf 19b0 ec4c 673f 903f
00000020: 7911 45ff 77d5 713f 92b3 34c9 72a8 92bf
00000030: 82de 95a7 89aa a73f f9d1 1ea4 e0d7 98bf
00000040: 92c0 f46c cc05 a4bf 59c5 a70a 3d04 ab3f
00000050: b340 ba31 a1b1 79bf 3a5a bdd5 b5fd b43f
00000060: 80bd a979 cb76 b53f cfd8 21ca f957 4ebf
00000070: b102 6bba ffc5 bf3f 1134 5464 5ab5 8d3f
00000080: 5999 34fd 634a b03f 84e9 d0be d63b b43f
00000090: f00e 7b35 a136 b13f e2a6 6593 0c2d 973f
000000a0: 0f27 c287 b94c 933f a0f8 7da1 3e9d 8abf
000000b0: 4f7b 29c8 4cb5 8abf ee21 ef3e 969c b6bf
000000c0: d158 dcfc 54df b8bf f89c d066 c9b5 96bf
000000d0: c47f 98a5 e877 703f 1768 5d89 eb60 9a3f
000000e0: 9307 9735 6441 af3f 9749 c931 fa6b a53f
000000f0: fa1c 919e d2f1 6cbf ade5 9a2d 2153 823f
00000100: a3f0 dcc7 cded a53f afaf 6a55 dc39 ab3f
00000110: d3db b6ea 8226 9c3f f515 63c9 f63d a2bf
00000120: cd37 4df9 103d 9fbf b7e5 c054 59ad 99bf
00000130: bae6 50f0 d091 a43f 8a04 b07f 61a1 933f
00000140: 98dc 8deb 05e1 85bf fbf4 3242 cfb9 ad3f
00000150: b75f 1529 d165 91bf d700 7149 78b8 a43f
00000160: ef8c 5e9f bb8b 9ebf 6fc3 621f 3833 a0bf
00000170: ee82 d9be 6d48 993f db3f ef00 3572 893f
00000180: 9d7c f500 0b79 70bf 6d0f 7628 cc6e 97bf
00000190: ee32 639c 429f a43f 0363 1819 1c2d 4d3f
000001a0: c25d 6bd0 ae30 a13f 81ab ac1a dfe5 aa3f
000001b0: d201 888d dddb a73f 118c cc5d e281 ad3f
000001c0: 33c4 6d6c b35f ae3f 67c9 a22f fab9 a4bf
000001d0: b7b7 e8cd 3ede a53f d590 6dc9 933c 923f
000001e0: fcc9 76e1 4574 a63f 2295 b107 d5a9 a2bf
000001f0: d7c0 eadd 9af7 8bbf a2ba 998a 492a 74bf
0.04433997256594917 -0.033582714159816285 -0.01581441679132551 0.015866865224936164 0.004353970278604507 -0.018220704584723864 0.04622297449799097 -0.02426100732528089
-0.039106739330578524 0.052766711760237235 -0.006272916474373047 0.08199631183865899 0.08384391517915013 -0.0009260148692778139 0.12411497403355544 0.014506059824748648
0.06363511020444913 0.07903806837649624 0.06723983340912887 0.02263278627052657 0.01884736910918777 -0.012995232871386542 -0.01304111467214644 -0.08832682644345599
-0.09715777562482521 -0.022177836323092642 0.004020603920736169 0.0257603457060683 0.06104577211546238 0.04183942659132638 -0.0035332788143339596 0.008947619632965276
0.042829924247116645 0.053175816943024194 0.027490659309218856 -0.0356289978822523 -0.030506386963047128 -0.025075336263602668 0.04017498906655477 0.019170306604796163
-0.010683103800813762 0.058058239775599284 -0.016989963657891596 0.04046989342214296 -0.02982991371358151 -0.03164077170493484 0.02469035603860708 0.012424863902111774
-0.004021685584432747 -0.022883596391252526 0.040277558889647 0.0008903872678188432 0.03357454580480691 0.05253503037086827 0.04659931519200068 0.05763156313903307
0.059323889718946886 -0.04048139411442513 0.04271122230089424 0.017809209031285207 0.043855842373336146 -0.036451966466112276 -0.013655862710351503 -0.004923140784383636

7.weight f8 [1, 128]
00000000: d3e2 631b 382b b4bf 80c6 0a1f c4ac a63f
00000010: a42e 76e4 6c62 953f b257 b972 5a9c 94bf
00000020: a3d0 972f cb9d b43f a463 25ea 8870 b2bf
00000030: b59a 8cee 123b b23f 0f06 a0ff c4ae b33f
00000040: f08a f945 d1bb c7bf 5989 8a18 90fa afbf
00000050: a088 cb72 bb36 b3bf 0a48 6e68 80b7 af3f
00000060: 0bfb f7fd e0a7 c2bf f0eb 85ee 4618 a4bf
00000070: efad 2f3e 6ff6 cb3f 03bd d319 0fb5 b3bf
00000080: 4859 25b8 fb0b cc3f 9adf 45f1 080d a5bf
00000090: de6d 96ec b08e ab3f 9861 a501 1a62 6d3f
000000a0: 4e85 94f3 bd93 a63f 06d0 62b0 77b6 97bf
000000b0: 6f7f 518b ffa2 bbbf d8ce 8084 6aea d03f
000000c0: ec8d 5c86 825d c83f a27a f614 f153 b5bf
000000d0: 23d0 a29d f244 c23f f198 f371 bbc3 97bf
000000e0: 3fc1 8889 a30b c33f c3c6 9fcb f556 b3bf
000000f0: 2ae0 e0d8 a802 89bf ee75 4826 fade b23f
00000100: e7fa 8b09 6f9c a23f 001d 8c03 3474 a03f
00000110: e36f 0119 1e23 c73f 9117 3b0a 5f73 a1bf
00000120: 7f14 0567 d1e2 c13f 7726 68f4 595a 9ebf
00000130: 973d 95d3 406e 913f bf17 2693 498c b13f
00000140: 841d f3d8 51e0 c7bf 5060 bc47 76cc a5bf
00000150: b94b b68c 291d bdbf 8750 56aa 11a0 593f
00000160: 7414 18ac 4b7f b3bf 9887 3283 3f9b 643f
00000170: 3b70 f862 c639 b4bf 701b f0f2 4926 a93f
00000180: 7b38 8abe ad00 b33f 1f6d b341 dbc4 b43f
00000190: 9337 8fcb a51d c23f cd0a 4bc4 4488 483f
000001a0: a430 510f bc16 803f 4d18 ce54 ce2e a7bf
000001b0: c298 f999 5db9 b93f 2cf7 61f8 c033 b33f
000001c0: 5b5e c5e6 f40c 863f 411e f2db 0e6c c73f
000001d0: c38b d1ec d10c cd3f 1053 78a1 d471 c23f
000001e0: a84b 59c6 0df6 c63f fb1a 5991 1a69 b1bf
000001f0: aa8a 8152 814d a9bf fa9b 15e8 87eb ac3f
00000200: 4b3e ae20 0ea6 b53f 0320 f0dd 9e7e b0bf
00000210: 898c 0315 efc7 bf3f 18e1 453f 8571 a33f
00000220: 64ed 5a53 a482 b93f 8ad0 3de9 ee85 a33f
00000230: 67f2 caa7 f16e a93f 9b2c 3283 44ff a93f
00000240: dcc9 3271 3428 cabf e354 8053 7ca4 87bf
00000250: eee7 d53c 2ccb b8bf d994 427f 54d7 b73f
00000260: d16f 7d25 172f bd3f 9254 4413 1db3 a53f
00000270: d028 99fe 5f96 b03f 9ecf 8276 06f9 ad3f
00000280: 6a9a 9581 bd9d d03f 6df0 b059 7859 b5bf
00000290: c90d 19ba b362 bd3f 4737 8147 d3bd b03f
000002a0: 5b8b 18c3 a400 c4bf 65a3 013b 3c68 acbf
000002b0: 83fe c26f 2fee b9bf ad51 c14e 793d ae3f
000002c0: c2af 0ee6 a70b b93f 8685 0ea8 264c 893f
000002d0: 6a3b 5126 a2d9 c13f a368 c0cf 4bcc 9ebf
000002e0: da1c b021 bd7d b8bf daee 0012 3ba2 b2bf
000002f0: 6ef7 2ad6 a32c a23f b527 68ff ba29 c43f
00000300: 0e58 0644 a248 c13f 2fbb 3213 0a9e b6bf
00000310: ddef b040 db19 c4bf f9fa 19d7 126f a53f
00000320: ed60 f3e2 953a c83f eeb3 1f69 3377 b0bf
00000330: 6ecf fd26 e79b a53f bcc9 7c7d ceb4 51bf
00000340: f014 5da4 0349 c43f f25c 0f29 0c9e 84bf
00000350: 19df 3bd5 f0e8 a1bf 283a 1947 f22d 9f3f
00000360: deab e3ae ca9a bfbf 1516 f283 cde3 aabf
00000370: 1717 5dda 0e6e a03f 8c6f f852 c8c3 c33f
00000380: 3fda 1f33 b88a bdbf aa3e 9e2b b288 b6bf
00000390: f876 da6e 9cc3 863f d8b0 3a23 43e3 b3bf
000003a0: 6837 b739 ec46 d33f 4c85 d2ea 6781 acbf
000003b0: 3e2e 809b 4b42 cebf ff16 2a36 f591 a4bf
000003c0: e1b5 56c7 7f10 c4bf 710c a773 874d b1bf
000003d0: 45f8 b146 1413 b43f 3fc2 6798 b837 b13f
000003e0: 30b7 b0e9 b870 cebf 1523 6224 87be a8bf
000003f0: 2d6c b9d9 2449 c0bf 6328 fc93 9b8a 67bf
-0.07878447216706812 0.044286850728338045 0.020883275455658393 -0.02012769055576031 0.08053274070681708 -0.07202964512306537 0.07121389697986553 0.07688552132460579
-0.1854192344354355 -0.062458518024203165 -0.07505389740575419 0.06194688105382802 -0.14574825669111421 -0.03924771939906424 0.21845808540761832 -0.07698149090332511
0.2191157006406661 -0.041115073635352675 0.05382302177460095 0.003586817544754161 0.04409593199148763 -0.02315699590754152 -0.107955905450124 0.26430762233506533
0.19035369454023454 -0.08331209909236262 0.14272911736554858 -0.02320759661679345 0.1487926885179238 -0.07554565640728143 -0.012212103956798687 0.0737148612465359
0.036349744716053504 0.03213655989935127 0.1807592031572077 -0.034083337782745755 0.1397344353701193 -0.02964153818360279 0.01702214518928499 0.06854686586856838
-0.18653319447751582 -0.042575546509568185 -0.11372623143533546 0.0015640423310730193 -0.0761611266280669 0.002515434310752473 -0.07900657573958451 0.04912024584341779
0.07422910596707936 0.08112879137063488 0.14152977408815257 0.0007486663604015731 0.007855862824861788 -0.04527897629945752 0.10048470505862198 0.07500845016508312
0.010766900341578614 0.18298516978778603 0.22695373595624177 0.14409883388784595 0.17938396630287667 -0.06801000641381087 -0.04941944248345938 0.05648445804654752
0.08456505105845584 -0.06443207662971422 0.1241444994262101 0.0379754676568515 0.09964968714750949 0.038131204578264535 0.04967456029178124 0.050775662436614875
-0.20435195472016587 -0.011544200227982809 -0.09685017094844259 0.09312942606864584 0.11399979272158524 0.042382153131407155 0.06479454007890983 0.05854053684870951
0.2596277013275655 -0.08339645566678806 0.11478732388882586 0.06539650436135701 -0.15626964117208328 -0.055482752039842244 -0.10129066923672707 0.05906275831572159
0.09783410421977037 0.012352277759250862 0.13945414420092145 -0.03007620292201153 -0.09566862175425986 -0.0727879446939669 0.03549682607034198 0.15752351256406674
0.13502910920641437 -0.08834898918824473 -0.15703907641170547 0.04186304927588042 0.18928788739754712 -0.0643188602113722 0.042205070028017086 -0.0010807053094593474
0.15847821736875956 -0.010067076685955165 -0.03498032191231299 0.030448709096441956 -0.12345568437346752 -0.05251924739517847 0.032089676051823605 0.15441230822841268
-0.1153979420485962 -0.08802331509491049 0.011115286000229471 -0.07768649683083895 0.3012037814740922 -0.05567478887065622 -0.23639817326362506 -0.04017607008158385
-0.15675351365409454 -0.06758925031231101 0.07841612554509066 0.06725648613770206 -0.23781501207980105 -0.04832861251003898 -0.12723217612332985 -0.002873710502062686

7.bias f8 [1]
00000000: dd53 f07d d48d a93f
0.049910202382456005
