models/run2/57.pt (torch, 153942 bytes, 6 tensors)

0.weight f8 [32, 1, 9]
000000 1a f3 f3 38 1c 0b a3 3f 03 ac e2 19 eb 5e c2 3f
       0.03719413943506407 0.14352167858064044
000010 c1 ea d7 0d 5d fd 8d bf a5 6f c6 6d 53 d2 ca 3f
       -0.014643408760993794 0.20954363689531622
000020 a0 61 4a 90 f7 f1 c3 3f 60 1a fc 1e b5 ba d0 3f
       0.1558217482131683 0.2613957216821401
000030 38 80 5a 13 b6 b7 d0 3f e5 ff ae 74 22 76 d1 3f
       0.2612128437995156 0.2728353633392529
000040 d0 fc 5d b9 5a c2 d2 3f 50 1c 8a c6 50 3c bd 3f
       0.29311245062122016 0.11420159194141033
000050 d3 5a 52 68 0d 84 d3 3f 48 52 ba f6 dd f2 a0 3f
       0.30493483722368103 0.03310292851270852
000060 02 06 62 be 17 4c e1 bf a2 c4 48 bb 22 81 d3 3f
       -0.5405386656204316 0.3047568158099897
000070 f4 eb 3c 48 c4 93 d0 3f 4d 52 bb dd aa e5 d3 3f
       0.2590189652871111 0.31089278844345786
000080 1e 78 61 2f 72 f0 d8 bf 85 b9 ad a7 3d fa d0 bf
       -0.3896756613447695 -0.2652734887587019
000090 f7 87 3f 26 09 89 cd bf cc df 3b ed 42 bd b5 3f
       -0.2307444988974223 0.0849191502746855
0000a0 d6 15 0f 0b 97 61 ce 3f e2 31 be 0f 56 32 d8 bf
       0.23735321083056132 -0.3780722764720662
0000b0 13 71 71 c7 02 1b af bf 55 4a 63 b1 1f 99 d3 3f
       -0.06075295147522488 0.3062209350875141
0000c0 b7 30 32 78 ea d4 b5 bf 37 4f 18 49 55 98 c5 3f
       -0.08528008875345248 0.1687113387021044
0000d0 ce de a9 ee 9c 9d cc bf e8 68 41 99 27 92 99 bf
       -0.22355996755117363 -0.024971598366712394
0000e0 42 87 f5 ae 4f 60 c4 3f 63 29 c6 c9 22 70 ba bf
       0.15918918650555197 -0.10327355791210872
0000f0 0b bb fa 80 b7 44 c5 3f 82 07 ab cf 21 79 b6 3f
       0.16615957067320894 0.08778582878133359
000100 5d 17 ce 80 00 a8 d4 3f 43 14 a0 e5 e0 a8 be bf
       0.3227540262090452 -0.11976438146673822
000110 53 7c 7f 85 e2 ea bd bf 08 67 c2 a1 84 7e d8 bf
       -0.11686530837276736 -0.38272205159010797
000120 f1 0b b5 08 2e 71 d3 bf 5d 89 b9 64 bb 8d c7 3f
       -0.30378294802011313 0.1840128175563888
000130 eb 2b 1c ce a6 a3 cf bf b1 d1 54 88 69 66 d2 3f
       -0.24718174995390937 0.2875007468567459
000140 72 a2 a9 a3 23 9e 38 3f dd 88 0a a2 52 39 d7 bf
       0.000375636769297339 -0.36287370514231815
000150 a7 a7 7b 0c f3 cb c6 3f 7e 55 bf ce dd b4 b7 bf
       0.17809904202959823 -0.09260355279487517
000160 e4 1f 5d f6 73 71 c6 3f e9 06 30 87 d9 22 a7 bf
       0.17533731011849263 -0.045187757255929224
000170 1f ad c6 15 cf 06 d1 3f cb af ca 5f d0 ee ce 3f
       0.2660405838639281 0.2416630237324838
000180 51 c2 be ee 58 85 9d bf 21 29 2a fb 53 1f d1 3f
       -0.028828992435310067 0.26753711250116124
000190 9e 66 53 72 4e d8 c0 bf 5f 32 17 0f a3 82 d3 bf
       -0.13160114843667697 -0.3048484465951215
0001a0 a3 6b 19 94 58 0d 81 bf 8e 24 04 e4 3c 54 b5 3f
       -0.00832623674357597 0.08331661764909112
0001b0 61 94 08 9f 3b 38 d2 3f 0e 33 8c 95 0e 94 d1 3f
       0.2846821835576688 0.2746616802622136
0001c0 65 cc 62 dd 09 92 d1 3f ce 9e eb 22 2d 65 7e 3f
       0.27453848476142745 0.007420708002179045
0001d0 ad 1b d1 d5 73 ba d8 bf b2 51 e6 cb db 9d 89 bf
       -0.38638015633153594 -0.012508122596764124
0001e0 34 87 32 63 cb 68 d4 3f d0 80 77 79 ef 8f b5 bf
       0.3188961476063128 -0.0842275306272342
0001f0 bc 00 2e d9 45 d7 bf bf 1f b0 dd a8 92 24 97 3f
       -0.12437855293501604 0.022600452000389844
000200 8c 06 b4 d4 b4 1c bd bf cb 22 a9 35 d8 6e a3 bf
       -0.11371927445363833 -0.037955051946999406
000210 f1 a4 1e 05 e2 78 ce 3f 15 8a 50 20 86 6a c7 bf
       0.23806405305848657 -0.18293835237371128
000220 b1 f8 66 2c 9e 23 d8 bf 89 e6 ae f4 19 6e d0 3f
       -0.3771739419570493 0.25672005553097016
000230 d0 99 a9 9e 9e 2f bc 3f be 55 9f af c6 bf bd bf
       0.11010161756130477 -0.11620752132087994
000240 82 7e 95 06 4c 8a c7 3f b7 bb 40 a4 31 c9 d0 3f
       0.1839079887531519 0.26227990188902645
000250 ee 48 33 f5 ae de bf bf b5 27 28 c6 4d 99 d0 3f
       -0.12449162947021694 0.259356921684794
000260 75 16 b8 8b e4 0f d1 bf e4 e0 6a fb 40 a3 d0 3f
       -0.26659501690333026 0.25996422340860037
000270 9f e0 84 cb 06 ce ca bf 36 97 aa 92 94 a5 bc bf
       -0.20941243112043126 -0.11190155583116454
000280 80 7b ba 9d 38 2a d1 3f 8c 10 16 aa 2b 2e d2 bf
       0.268201974898993 -0.28406802759150973
000290 56 5a f6 18 66 83 c5 bf 4b 97 39 bf 2e 2e 4f bf
       -0.16807247370589334 -0.0009515503174497368
0002a0 0e ec 20 cf 5c 01 cc 3f aa cb 86 1e 40 66 d5 bf
       0.21879158128453507 -0.33436587315662314
0002b0 f4 4f 4d 68 ba ee d2 bf 19 9e 0f 22 36 4a c9 3f
       -0.2958208101820212 0.1975772539437777
0002c0 3a ef ed 43 4e 0b aa 3f 2d 50 50 38 4f ef c7 3f
       0.05086750582901663 0.18699064492887044
0002d0 49 e8 68 a9 4a 6b c7 3f 1b 66 c1 ef ec 81 a8 bf
       0.1829617812343847 -0.04786625315382428
0002e0 13 d1 48 b0 c1 a3 c2 bf 83 4b 52 be b9 c3 a9 bf
       -0.14562245471609767 -0.05032139251957004
0002f0 5a b8 83 b6 97 36 d0 3f 86 40 7c c1 fe 9e ca bf
       0.25333206962284793 -0.2079771466019375
000300 2d 2d da 55 e1 0c c5 3f c2 66 23 ad 97 85 cd 3f
       0.16445557300571903 0.23063941911714464
000310 ff a9 73 b8 9f 43 d2 3f f0 2d c7 52 9e a6 a4 3f
       0.28537743580696423 0.04033369789575747
000320 dc ee e7 7e c8 ab bc bf 59 6a fd e0 ca 5c c1 bf
       -0.11199620340624555 -0.13564430223307758
000330 01 b2 11 a1 9b d5 c4 3f b1 7e 76 6d 35 76 c8 3f
       0.16276879658416024 0.19110744328371745
000340 6b 66 96 54 96 12 c0 bf c5 eb f4 c4 24 6a cf 3f
       -0.12556723718880689 0.2454267465307948
000350 30 53 93 fc d8 28 d1 3f 94 86 8b ad 06 87 d7 bf
       0.2681181398923398 -0.36761633823162154
000360 a1 42 e6 c7 cb 6a d1 bf dd 13 28 8c f2 d4 d1 3f
       -0.27214331170493195 0.27862228095210445
000370 37 c0 21 eb f8 5c d1 3f d0 71 0d 61 71 7d a9 bf
       0.27129958116620706 -0.049785178277236164
000380 0b d0 f8 f4 14 db c0 bf b4 7a f0 dd b3 5a 94 3f
       -0.13168584786910772 0.019877252980331675
000390 28 ca cc 5e 45 f6 d3 3f 00 34 ec f9 b3 0c b7 bf
       0.3119061876088005 -0.09003758288982056
0003a0 9f 4b 4d 6c db fa ca 3f 5e 7e 05 3d c8 df ad 3f
       0.21078055179768015 0.05834794754877913
0003b0 f2 25 72 fa 9d 30 da bf 5c ef 7c a3 b6 3a c3 bf
       -0.4092173524628314 -0.1502292917519935
0003c0 a0 a4 56 c1 c4 dd cc 3f ad c9 f2 9b e3 81 a4 bf
       0.22551783981660822 -0.04005347517649525
0003d0 46 33 3d b9 d7 61 c0 3f 7f 8d ef a7 88 3a d9 bf
       0.12798592133403924 -0.3941976203916155
0003e0 bd 8b d4 98 4f 20 b7 3f 41 a6 22 56 60 04 d3 3f
       0.09033677560050442 0.29714210902838906
0003f0 8c 30 a0 ce 23 a4 c0 3f e5 c0 55 04 32 92 cb 3f
       0.1300091513552427 0.21539902888935739
000400 aa 56 23 76 82 af d4 3f 5a 2b d2 fd 1d ca ca bf
       0.32321225678365784 -0.20929312604524847
000410 31 70 5a 62 3c a1 c9 3f d7 31 11 cb 90 24 66 3f
       0.20023302843481042 0.0027029827111049
000420 7c e4 cd 9b 79 15 d3 3f 79 6a ec a8 6b 2a d3 3f
       0.29818573203335297 0.29946414467273247
000430 7d da 95 5a e4 d0 d2 3f 66 83 3f 9a 18 b5 d1 bf
       0.2939997563002306 -0.2766782289818849
000440 8b 74 57 cc 53 54 d2 3f a1 41 d3 3d cf 16 a3 3f
       0.286396932175031 0.037283397957824656
000450 f6 75 46 47 5c 1b b7 bf 3b 81 4e e8 00 c9 d2 3f
       -0.09026123752706625 0.29351828275868613
000460 a5 55 f8 84 f3 e9 d0 3f 78 95 22 39 08 c5 c4 3f
       0.26427925095898736 0.16226294317054246
000470 5f 8b e2 53 5a ea c6 bf 53 7c 46 37 f9 34 b6 3f
       -0.1790268811792783 0.08674581145759079
000480 d0 29 fc 2b fe d8 a8 3f 87 77 5a 4d 40 26 b3 bf
       0.04853052412916592 -0.07480241669187936
000490 34 aa d9 a7 60 8b cc bf 5b 4a bb 10 02 92 d3 bf
       -0.22300346561253692 -0.3057866252321781
0004a0 d9 d6 80 9f 99 e2 c1 bf 07 7e 6b 26 ff 35 c3 3f
       -0.13972778595205318 0.1500853479001167
0004b0 31 a2 90 20 b1 1f c1 3f cf 17 d7 3b b5 97 cc bf
       0.1337796601303736 -0.22337975904355153
0004c0 62 56 5b a6 c7 b4 c4 bf 9c cb 1e bf d4 85 97 bf
       -0.16176696417703612 -0.022971462407166507
0004d0 da 2e f9 1c 5e e9 21 bf 99 bb 0b 21 08 9f d0 bf
       -0.00013665460436339852 -0.25970652796871146
0004e0 65 2e 2e 7a cf 7e cb 3f 8c 04 5f 52 b2 24 c4 3f
       0.21480744806136723 0.1573698904231019
0004f0 17 f3 1e ad dc 77 b6 3f db 66 14 30 e4 a8 bd 3f
       0.08776644922813791 0.115858327615935
000500 ec 05 8b c0 01 e9 be 3f fa 1e cc b8 4d 65 ca 3f
       0.12074290228613166 0.20621654055889121
000510 4f 1b 2a b1 e8 35 cf 3f 95 3e 2e 03 44 68 c9 bf
       0.24383267069444023 -0.1984944358377915
000520 e2 87 6b ff 05 26 a7 bf cf 2a 55 16 39 5c d8 bf
       -0.04521197073860585 -0.380628845032942
000530 fc 14 1a 27 3a e9 c6 bf 85 25 31 b0 da 6f d0 3f
       -0.17899252805015198 0.2568270416855614
000540 ed 8b 11 f2 ca 45 d2 bf 91 89 3f 0d 15 0c ce bf
       -0.2855098117781257 -0.2347437205017511
000550 fb 37 84 18 45 7f d3 3f 34 24 06 6a a4 c1 aa 3f
       0.30464293855845853 0.05225862306821974
000560 cf 78 aa fc 9d 69 c1 bf 95 1b 92 a3 26 0a d0 3f
       -0.13603567921831547 0.2506195638056224
000570 a7 59 be 2a 6c 46 d7 bf de ff 56 65 32 f7 d2 bf
       -0.3636732499520811 -0.2963376989027874
000580 16 7a f0 7a 18 8d bb 3f 29 5a c1 d3 ad 3c cf 3f
       0.1076216983933381 0.2440392765008295
000590 f1 4b b6 8e dc 22 bb bf 99 0b d0 13 31 fb a6 bf
       -0.10600069507772482 -0.04488519064763991
0005a0 f8 66 1a b5 76 94 e2 bf 04 20 98 90 a2 d4 d3 bf
       -0.5806230103655414 -0.30985321159869295
0005b0 b5 81 27 00 45 e5 cb bf de c3 ea 35 91 16 c7 3f
       -0.21793425090346621 0.18037619717281833
0005c0 b2 1d a5 e7 36 82 cf 3f 04 d8 bd 52 63 dc 8d 3f
       0.24616133032598736 0.014580512964794685
0005d0 4b 75 4a 07 2f d4 c9 3f 14 37 40 a5 0a 47 d0 bf
       0.20178783279417653 -0.2543360341813792
0005e0 06 1e 42 79 46 35 bd 3f ed ac e6 a9 29 c5 aa 3f
       0.11409416637808797 0.0522854823969626
0005f0 31 dc 5b 3e 64 f8 c8 3f 83 ae 63 e8 2a de da bf
       0.19508030934204748 -0.41981003469729944
000600 3c cb af ad d7 05 a6 bf c6 b5 76 f5 8a 6e 3e bf
       -0.043013324691762084 -0.00046435253667706196
000610 05 86 45 b6 bf 83 d4 3f 65 63 fa 80 ca bf c9 bf
       0.32054131317099205 -0.20116549775846262
000620 fb 9a 2a 9a 99 b4 ce 3f 69 22 00 75 f2 a5 ce 3f
       0.23988647487313827 0.2394393035213114
000630 3c a7 2c 15 73 1f c8 3f 46 42 2f 1d e7 77 c1 bf
       0.18845976385028418 -0.13647164273290197
000640 9e a3 b9 e9 b9 af 9e 3f f6 70 60 a6 37 22 c9 bf
       0.02996721734089968 -0.1963567316423746
000650 3b 49 47 7f 0e ba d9 bf d5 81 33 be 5b e9 da bf
       -0.40198099545991156 -0.42049306463561936
000660 48 cc ee f8 34 f2 c6 bf 8c 85 05 38 2a c0 c7 bf
       -0.17926656870767688 -0.18555190787723708
000670 66 db 75 83 30 14 d4 3f 51 53 15 0e 70 af be 3f
       0.3137322696488155 0.11986446708517674
000680 67 c9 e0 60 2e 56 a1 bf bb c2 da d5 10 12 ce 3f
       -0.0338606351146094 0.23492632333866034
000690 24 af 9a 61 75 34 ce 3f e6 3e b2 9d a1 ef 94 3f
       0.23597590699989113 0.020445370912567727
0006a0 7a 59 c4 91 f5 49 c1 3f e1 19 2a 8d e6 d1 bc 3f
       0.1350695573571093 0.11257782884977231
0006b0 bc d2 63 12 e5 0a c8 bf 0a 05 e9 d5 b3 fc da bf
       -0.1878324832720376 -0.42167373552008824
0006c0 a3 07 e4 21 03 e2 c1 3f eb 1d a8 cc f8 74 c9 bf
       0.13970984606572498 -0.198882198267014
0006d0 29 d8 5e e8 c2 ca c0 bf 05 3f 6b fb 93 dc b9 bf
       -0.13118778558936242 -0.10102200401456336
0006e0 79 39 f6 5b 00 92 c3 3f 11 23 73 96 f9 99 d4 3f
       0.1528931092293069 0.32189788524969837
0006f0 3c 47 fe 4f 72 d7 ce bf f1 84 22 d4 15 93 cb 3f
       -0.24094990640565495 0.21542618616243872
000700 21 3c 03 8f c8 c7 d1 3f d3 63 dd 6d fa c6 ae bf
       0.2778188130004669 -0.06011183348773099
000710 29 60 12 f3 7e 9c d1 3f 2e dc cc 19 97 63 ce 3f
       0.27517675149420256 0.23741425285126766
000720 19 a7 49 9e c2 c1 d3 3f c3 ab ee 1b be 3b bd 3f
       0.30870118577750955 0.11419284994069216
000730 bb 42 79 b9 43 10 d2 3f d2 59 fd 7f ea 7a c8 3f
       0.28224270928061984 0.1912510991048309
000740 c7 48 b8 e5 9d b2 d5 bf 4c 5e 48 f9 0c 73 ac bf
       -0.33902690347271086 -0.05556526701928685
000750 31 66 e1 df 68 a3 c8 bf 82 78 1b bf 6f 87 9b bf
       -0.19248686725295408 -0.026883836783661248
000760 5e 18 77 20 da 57 c5 3f c9 a5 9f 5e ad bb ca bf
       0.16674353203979114 -0.20885245437902558
000770 5d 85 8d 0c 88 5b c6 3f a4 8c 06 f0 3c ad ac 3f
       0.17466831791811446 0.05600920133590506
000780 91 4f 70 2c 65 11 d1 bf fc 78 88 59 a0 64 b3 3f
       -0.2666867193195169 0.07575418649546245
000790 e8 f7 67 ca b9 f5 d3 bf 40 56 ba 56 37 6b ca 3f
       -0.31187290922377864 0.20639697775611587
0007a0 4b 4c f5 18 42 6e d1 bf 23 3d 27 35 4e f4 95 3f
       -0.2723546260578515 0.021439764017313522
0007b0 95 5f 66 30 29 75 c1 3f dd 32 f1 99 3d 7b bb bf
       0.13638796675945444 -0.1073492527804762
0007c0 64 7c f2 0a 3d 97 cf bf 89 a5 3c 1a b3 b6 d1 3f
       -0.24680293116122975 0.27677609979817724
0007d0 95 23 7d 6d 6f 54 bc 3f a4 d5 9d bb c1 4a d8 bf
       0.11066337988917348 -0.37956279107978674
0007e0 85 b9 c6 94 a8 c2 d3 3f c5 2e b1 6a 22 0c d3 3f
       0.3087560131924863 0.29761562747146925
0007f0 48 7d 75 34 ff 68 49 3f 8b b1 f7 1a 02 03 d9 bf
       0.000775456058288806 -0.39080860742139895

0.bias f8 [32]
000000 0a 94 c5 1c d0 1c 84 3f 4a f5 6e 91 ef 17 91 3f
       0.009820581319852213 0.016692870379974502
000010 42 00 d7 03 fb f6 d0 3f e6 00 c6 6b a8 04 7b 3f
       0.2650744950769913 0.0065962389893458925
000020 13 cd 48 36 bc 07 d5 3f 9c d8 a0 c3 b2 c2 ba 3f
       0.3285971193428889 0.10453336025315924
000030 89 57 d9 f8 c0 70 8e 3f 65 3c 43 8e 07 21 47 3f
       0.01486349830080848 0.0007058417218334222
000040 08 2a cd ad bf 8a 9d 3f e6 df 74 0d 15 76 d6 3f
       0.028849596961018548 0.35095716776004193
000050 11 87 e2 fd 9c a8 d4 3f df ff 2e 74 c3 6f 5c 3f
       0.32279133599705384 0.001735630867855768
000060 4f df 99 77 bc 01 9b 3f d9 b7 0c 5c 98 db c0 3f
       0.026373810577268227 0.13170151228535934
000070 e1 21 22 5a 0e 9b d3 3f 63 32 2d 32 d8 ac d3 3f
       0.30633887102206186 0.30742459201863975
000080 05 3e 62 98 06 1f d2 3f b7 d2 78 84 1b 3f 83 3f
       0.2831436622736592 0.009397711734984921
000090 ab e2 99 01 52 53 d6 3f 17 ac f8 c9 ec df d5 3f
       0.3488354697833908 0.34179229472891975
0000a0 00 b8 0f fc 69 ba a9 3f 15 7e f3 58 95 c3 93 3f
       0.05025035097047237 0.019300778917452705
0000b0 39 7b d7 f3 d3 e4 c8 3f 5c fc 43 e6 1a 8d d2 3f
       0.1944832745202463 0.2898623703658296
0000c0 e0 c1 4b c6 bd 6f 92 3f 80 d5 aa 75 9a 2b 72 3f
       0.018004384258292094 0.004436114652596301
0000d0 e9 04 b8 e8 8a f3 d5 3f d7 31 c5 35 40 0f 8b 3f
       0.3429896614689612 0.013212682381571845
0000e0 cb 6d 2b bb ec c6 c5 3f 48 29 ec 0c 5e 97 b2 3f
       0.17013320101874138 0.07262218299380152
0000f0 33 08 3c 51 e9 a1 a2 3f ce f5 b5 a6 fa ae cd 3f
       0.03639153591758806 0.23190243854689502

3.weight f8 [64, 32, 9]
000000 89 83 42 4e 1e 52 c0 3f c0 32 5f 7c 84 79 cb bf
       0.12750605412750485 -0.21464592049450992
000010 4c 89 2e b9 34 2a cf bf 9f b4 d3 54 c7 23 6d 3f
       -0.24347552339629386 0.0035570996466192796
000020 bf e2 f6 b6 15 a8 b9 bf c3 21 26 c6 e2 b9 b0 3f
       -0.10022102085975869 0.06533639276142993
000030 8f 5f 9f dd 00 a8 9a 3f 5e ab d1 0b 7a 04 9f 3f
       0.02603150704075535 0.030290514918685722
000040 1d e0 51 fa 92 90 c2 bf e8 7a f1 df 5a ed b8 3f
       -0.1450370523705268 0.0973717495667007
000050 56 70 1d 37 4c c5 8d bf d6 26 fb ee 44 54 c7 bf
       -0.01453647177884691 -0.18225919407841812
000060 23 49 6c a3 10 d8 c4 bf c9 65 e1 eb 03 fc ac 3f
       -0.16284378032339317 0.05661022428894175
000070 8f 0c cd 26 18 ad a3 bf d9 9a 2b cb 02 18 8e 3f
       -0.0384299800266713 0.014694234681383577
000080 a7 bb 3c 16 23 2e a4 bf 58 be 77 35 11 31 c1 bf
       -0.03941449781847633 -0.1343099127839078
000090 46 60 3f 8f b6 bf b5 3f b9 a4 61 93 db 10 62 3f
       0.08495656010870886 0.0022053040111598946
0000a0 9b 5e 94 73 ff e5 a9 3f 98 d1 16 86 ec d8 a4 3f
       0.05058286939509778 0.040717498176863376
0000b0 ef 75 cd 18 6e 38 85 bf e3 ba 29 49 c3 b7 9a 3f
       -0.010361538059153267 0.02609162458468973
0000c0 8f 3b b8 4f 91 cb 87 bf df 3f 5e 1f 92 f0 95 3f
       -0.011618743176794925 0.021425517239151644
0000d0 31 ec 90 46 bb 92 bd 3f 70 cb 33 92 36 05 ba 3f
       0.11552019570164941 0.10164204663651133
0000e0 c7 86 77 5c 37 68 ca bf 1d 24 0c bf b0 ca c3 bf
       -0.20630542769418111 -0.1546231205796013
0000f0 55 80 43 8b 71 0b c2 bf e6 e0 34 8d 87 57 b6 3f
       -0.14097422885879732 0.08727309415269566
000100 af 94 d4 4c e7 3b 63 bf ea e3 00 48 69 65 85 3f
       -0.002347900159878145 0.010447332868453747
000110 7b 62 83 ec 31 5a 99 bf 9b 44 fe 07 d4 96 a8 bf
       -0.024758129177686144 -0.04802572820256864
000120 b8 42 59 08 f5 a9 a0 3f e8 88 1e 06 c6 eb 99 3f
       0.03254667021667984 0.02531346714352703
000130 26 2f 2a 0d cd 3d 98 bf d1 aa 3b 07 0b 0e 87 bf
       -0.023673252037539026 -0.011257253797756136
000140 e4 8c 19 d0 ff 46 92 3f 8d 0b 89 1b ab 9a a8 3f
       0.01784896571770113 0.04805502616047539
000150 8f ca 23 8f 4e 7c a4 bf 77 cb fa 10 62 9b ac 3f
       -0.040010886166688235 0.05587297875663116
000160 c2 58 57 36 ed 95 a3 3f 0c 98 6e c6 e5 39 bd 3f
       0.0382532242617102 0.1141646966412681
000170 06 7f 6d 80 94 0b af bf 70 76 c6 b2 c3 99 ad bf
       -0.06063522403451142 -0.0578137546283245
000180 9e ef e2 90 f2 9f 9d bf 89 06 9d 30 4d a5 a4 bf
       -0.02893046387974573 -0.04032365053582249
000190 37 c0 0f 6b 75 11 be 3f ec be 3f b7 41 9a 8a 3f
       0.1174538980847054 0.012989533810439956
0001a0 64 48 0d 03 df 9c 99 bf 61 36 8b 3a 36 3f a8 bf
       -0.025012478410026864 -0.04735726799627283
0001b0 37 22 ab 1e d3 c1 b3 3f fa ae 71 3f bb 59 b5 3f
       0.07717628000967457 0.08340044306686059
0001c0 56 c8 aa 90 c5 8d cb bf da d8 f8 79 0c 70 c1 bf
       -0.21526403011154355 -0.13623195605914057
0001d0 0c 8c 68 2f 5f 3e 9c 3f 02 d2 b3 a1 9c e5 87 3f
       0.027581679600313477 0.011668418583647092
0001e0 70 65 64 08 57 fa 64 3f 54 cc 86 90 c5 79 4c bf
       0.002560777650739858 -0.0008690085097015168
0001f0 dd 29 fd 0c 2a 64 c1 bf 96 6c 53 0d 66 f1 c1 3f
       -0.13586927065109836 0.14017940188100358
000200 a1 e2 b8 cc 07 da be bf 41 da 82 80 25 9d 90 bf
       -0.1205143809137419 -0.01622446629400032
000210 ae 06 e9 97 8b 7d c2 bf a2 90 c8 f8 4e ce bf 3f
       -0.14445633809559894 0.12424176763357989
000220 e0 38 5a 48 9f 36 86 3f 6e f1 75 1c 7a 5a a1 bf
       0.010846371074219652 -0.033893409704407115
000230 fd e1 d7 b5 90 10 91 bf 00 04 33 19 9d e9 8e bf
       -0.016664754008134598 -0.015094020205994596
000240 d0 67 2d 58 61 dd b7 3f f4 1d 07 7c cf 81 92 3f
       0.09322174456374843 0.018073312707000924
000250 b8 1f 4d 8d d0 b4 cf bf 32 51 5c 71 8c 01 be bf
       -0.24770552539325563 -0.11721112983315576
000260 98 1f 9f bd b7 57 c5 bf f6 a2 50 92 f5 b0 b2 bf
       -0.1667394328962899 -0.07301268407958247
000270 35 ba c2 ff f8 53 ac 3f 16 b5 3b a2 a8 c0 ab bf
       0.05532816049650472 -0.054204244426595036
000280 0c d3 ae 59 d7 84 c2 bf 86 fe 13 40 03 98 bd 3f
       -0.14467899207161172 0.11560077967078017
000290 34 4d d3 fc b9 7e b3 bf 37 af 74 58 8a e9 b4 3f
       -0.07615244314665831 0.08168854388776202
0002a0 34 70 64 eb 8a 71 88 bf 9d ab c2 db 5d ee 97 bf
       -0.011935315426448857 -0.023370234048950434
0002b0 0d e6 97 a6 0b f4 b2 3f df 88 8a 3c c6 46 a0 bf
       0.07403633897038038 -0.03178996552493784
0002c0 c8 f2 48 8c fe 35 ae 3f 89 25 9a 28 84 b1 9a bf
       0.059005694031360856 -0.026067795732648533
0002d0 64 84 4c 01 64 5c bc 3f 3d 58 08 79 00 5b 96 3f
       0.11078476936065013 0.021831519496196206
0002e0 ee 85 f9 5d 7e 76 92 3f 27 c8 d6 cd 24 db 96 3f
       0.01803014229370164 0.02232034212438108
0002f0 30 1b ac 5d 9d 1d a7 bf c1 c8 bf dc bd 2d 99 3f
       -0.04514781731091089 0.02458855304571084
000300 b4 a7 ee 8c ab 88 54 bf 7e 4b 17 eb 63 b8 a7 bf
       -0.0012532878206265976 -0.0463286613918603
000310 41 1e ae 57 f5 b4 b3 bf 03 3f 30 f5 06 ad bf 3f
       -0.07697995558384553 0.12373393522306846
000320 e6 11 10 9f c0 c3 b2 bf 0f 31 5b dd ab 49 9d bf
       -0.07329944499367222 -0.028601346383582412
000330 e4 f6 88 e7 fa 4f a5 bf 12 b6 d0 e6 15 28 b0 3f
       -0.04162582470278922 0.06311165700091007
000340 6c 93 02 06 96 0a 96 bf b8 74 ed 0a 5d 83 4b bf
       -0.021524757496666977 -0.0008396343526829919
000350 b4 41 63 56 00 d6 aa bf 2b 33 94 2f 88 9f 90 bf
       -0.05241395048654188 -0.01623356619261355
000360 77 e5 2a 7e 0b 01 b6 3f 5b e0 0f 50 86 72 9e 3f
       0.08595344381583013 0.02973375190410397
000370 ae c2 28 f7 71 ec ce bf 65 e4 9b f7 b4 a3 c1 bf
       -0.24159073417970006 -0.1378084382083983
000380 52 80 a1 89 f7 98 b9 bf d4 8e 83 87 df 98 a0 3f
       -0.09999034032944223 0.03241632966253652
000390 8b 10 39 8c df 69 8c bf 2a 7c 09 1f ba 03 ad bf
       -0.013873812166942187 -0.056669060028746124
0003a0 00 0f 40 03 d8 be af 3f fe 45 ea aa 56 6d bf 3f
       0.062002897640949683 0.12276212380154303
0003b0 3c 9f 74 d2 9e bd a1 bf 03 da 54 1b 5d c5 9a bf
       -0.03464981383359464 -0.02614350776021902
0003c0 c3 50 05 f1 da 5e b8 3f 00 44 41 c4 5b 90 ad bf
       0.09519737610145555 -0.05774199267091973
0003d0 38 02 34 9e 95 36 93 bf c1 33 e7 0b 5d 51 b0 3f
       -0.01876291063399746 0.06374150791744083
0003e0 57 d1 58 e5 43 8b a5 3f fb a0 93 df 5b 74 bb bf
       0.04207813429494205 -0.10724424560942573
0003f0 12 e9 15 68 94 b7 c1 3f 3e b0 75 43 29 24 99 3f
       0.13841490824035724 0.024552006475843983
000400 19 ba af 60 4f 15 99 3f aa 13 4a 01 43 b3 ae 3f
       0.024495353962203568 0.05996140852679528
000410 d1 4e db cd 50 f8 96 bf 9e 9c e0 1e 7b 17 b0 3f
       -0.022431623997205833 0.06285829070894741
000420 d3 cf 69 b4 86 7b a5 3f 7b db 11 76 07 bd ac 3f
       0.04195805504141927 0.05612967792779152
000430 39 4e bf ff 80 3e c0 bf 48 f8 fb 61 15 af aa 3f
       -0.12690746772442354 0.05211703129860773
000440 41 ac 22 0a 0f b3 aa 3f f0 ea 3e a9 cc 58 71 3f
       0.05214735983585018 0.004235076386914768
000450 60 a5 e3 6e 90 b1 a3 3f e8 c9 81 8b d2 ea a6 3f
       0.03846408227566189 0.044760303048764716
000460 21 11 a7 2f b9 47 94 3f 23 30 f8 bf d2 c7 ab bf
       0.019804852994426917 -0.054258905347609486
000470 cc 22 54 ac 2c 40 a4 3f 85 27 0c 23 8f f6 af 3f
       0.039552112613881 0.06242797186685237
000480 79 a8 21 ca 86 4f c0 3f 52 67 97 13 ea da 97 3f
       0.12742695684147856 0.02329602951599636
000490 b7 db 90 06 eb 10 b0 3f 5d 6a 80 12 f7 25 64 3f
       0.0627581492452539 0.0024595094328224002
0004a0 52 d0 99 ca 8f 2f a2 3f 94 1f 35 8d a6 17 3e 3f
       0.035519116860911595 0.00045917335701916554
0004b0 0a 9b bc 5b 16 8e 9f bf a1 4e 8a 3f 73 41 83 3f
       -0.03081545767704611 0.00940218007716648
0004c0 5c 51 05 82 c2 30 91 3f 26 82 3f 9b e2 41 c7 3f
       0.016787566362226655 0.1816981561705841
0004d0 a3 b5 5e 26 0e 05 c2 bf 0c 74 2c 63 86 98 c4 bf
       -0.14077927468808324 -0.16090469210112734
0004e0 86 66 5b f6 34 40 a4 bf 7f d4 4d 26 a4 39 c6 bf
       -0.03955235965049746 -0.1736340701133123
0004f0 43 a0 da de 3d f4 92 bf a1 9a d3 92 ad ed 95 3f
       -0.01850983307545585 0.021414482199271338
000500 18 95 8d b0 e0 9f ae bf b4 ff 27 e9 e8 dd a1 3f
       -0.059813520004164455 0.03489616247315955
000510 38 a0 0b 61 d6 59 bf 3f fa 46 b1 fe 61 94 a0 3f
       0.12246456021569052 0.03238207086600471
000520 bb 1f 6d 75 22 25 ac 3f 6b 91 ae 3c 5c 06 b2 3f
       0.05497081454683391 0.07040955049030166
000530 cd cb ff c8 ae 50 93 bf a9 d3 50 28 b3 a1 33 3f
       -0.01886246778299121 0.0002995550533484945
000540 85 ee 4a e0 ac c2 9b bf 4e 17 10 5c 7e 9c 94 bf
       -0.027109814824810136 -0.020128225678511406
000550 63 ae 83 44 53 3c c0 bf 97 d7 bb 8b 0a 16 be 3f
       -0.12684098096302696 0.11752382194012366
000560 0a a9 f2 2c a6 0a a4 3f ff 86 7a c6 d8 b5 89 3f
       0.03914374636345215 0.012553876454436173
000570 f3 53 84 e9 ed 64 9a bf 5d 74 bd 34 c7 b0 b7 3f
       -0.025775639894238322 0.09254117047881168
000580 44 75 ac d8 8a 8c a9 3f af 1c ba b0 56 29 7b bf
       0.049900378178998867 -0.006631220468654649
000590 7d c9 10 0d 80 77 64 bf a5 08 36 ec c0 33 ae 3f
       -0.0024983883854698395 0.05898859866557985
0005a0 74 e9 cd fc 12 59 c2 3f eb cb 13 f3 b5 f2 c1 bf
       0.14334332794153293 -0.14021944397936123
0005b0 4a 6e f7 4c 26 f6 8e 3f 3c 2b c7 cb 94 44 98 bf
       0.0151179306257553 -0.023699116647360116
0005c0 e7 8a 3c 05 5d 05 94 bf e3 f1 12 55 dd 68 69 3f
       -0.019551709599123248 0.003101761140525948
0005d0 b5 29 b4 39 9a 0f a4 bf 42 68 01 fa 91 d4 8d 3f
       -0.03918153719321841 0.014565601770460405
0005e0 43 4a 7d 4e bd 0f ac 3f 4c 3c 39 24 6d 1d b6 3f
       0.05480758269427046 0.0863865102230516
0005f0 e8 16 3d d1 54 db bc bf bb 2a 27 8f b1 73 cf bf
       -0.11272173031201371 -0.24571818818943378
000600 df bd d5 b9 03 1a c2 bf f5 02 9e 91 19 57 bd bf
       -0.14141890119525066 -0.11461028866871088
000610 d6 15 6c 3b c0 1e aa bf 83 70 67 e3 92 2a 9c bf
       -0.05101586079949143 -0.027506156091348998
000620 38 10 3d 83 95 e2 9b bf 3d 9d 07 fb 33 ca a0 bf
       -0.027231536994136912 -0.032792686837462594
000630 90 2e 6f 52 b2 8b 6d 3f ec 7d 6d be 13 3c c1 3f
       0.003606651578115301 0.13464590833881063
000640 ea 1f 02 a7 d9 0d a6 bf 8e 12 0a d2 c2 56 c0 3f
       -0.04307441867518931 0.12764773612811492
000650 d1 98 f1 d2 0f 23 90 bf c0 d7 d9 3c 4d 3d b4 3f
       -0.01575875020025636 0.07906038985842567
000660 a5 94 a5 e0 dc bb ac 3f 60 c3 40 67 5d 13 a5 3f
       0.05612077944059849 0.04116336713230484
000670 ec 47 9e 5c 21 f0 c0 bf b0 31 34 20 71 0b bb 3f
       -0.13232819578530497 0.10564333950259797
000680 e2 43 9e 61 80 33 b2 3f 3e 72 5f a0 81 6c 7e bf
       0.07109835036523252 -0.007427698472352305
000690 ef cd d8 77 2a 85 b0 3f 78 d7 84 39 5b e8 b2 3f
       0.06453195024442214 0.07385797647734005
0006a0 3d ad 4c 9c 37 0b b4 3f 57 32 63 11 91 ee 95 bf
       0.07829616132646762 -0.021417872129676798
0006b0 f1 f6 56 56 fb 0e a2 bf 48 d7 85 19 21 27 68 3f
       -0.03527055195762142 0.0029483458021627752
0006c0 63 e5 15 fc ed 14 c4 3f 1f f0 91 ad ee 46 b9 3f
       0.1568887215505966 0.09873859155226271
0006d0 30 3f c3 0b 4f 68 cd bf 4d 00 8e bf 12 a5 c0 bf
       -0.22974575113630058 -0.13003763535744142
0006e0 37 41 b2 93 b6 ba ba bf 8d 5f 0b 76 f0 14 85 3f
       -0.10441151719920048 0.010293844797544494
0006f0 9b 17 15 de 5b 8a 9b bf 12 e2 1c a5 3c 38 82 3f
       -0.026894984655221426 0.008896325863688968
000700 d2 80 e4 57 d3 b6 c1 bf d9 5d bc 9f 94 16 c2 3f
       -0.13839189330702212 0.14131410407638503
000710 25 02 a2 37 4b f8 a6 bf 96 fb 4b 9a 8f 1b c1 bf
       -0.04486308149444466 -0.13365359338783084
000720 ee b7 2e 17 ab 1f c4 bf 08 56 8f d7 a1 a6 b5 3f
       -0.1572164405055782 0.08457385552113561
000730 ff 5d 05 99 72 8c 4b 3f 88 52 c2 7d cf 8a b3 3f
       0.0008407172736423773 0.07633683033265914
000740 ab 8c cf 22 d7 3b 95 bf cb 0d da f8 86 ac aa bf
       -0.020736085414580312 -0.05209752834073419
000750 ee cc f7 90 00 fe bc 3f 19 b7 1b 6a cb 6f ab 3f
       0.11325076617486093 0.05358730001704099
000760 91 11 36 0c 66 f7 97 3f 1a 74 48 2f 85 34 b4 3f
       0.02340468835383686 0.07892639545794147
000770 18 1c 44 d1 65 3d a1 3f f7 41 dd 17 19 76 af 3f
       0.03367155246274239 0.061447891390915936
000780 24 f0 39 ab 63 57 9e 3f bd 9c c9 f3 be 13 ac 3f
       0.02963023884375117 0.05483814931795326
000790 c5 36 c2 39 d0 3a bd 3f c0 ed d5 8d 64 3c bc 3f
       0.11417867097972152 0.11029652083191532
0007a0 66 8d 32 29 18 71 ba 3f 53 8d 79 8d ba 17 c5 bf
       0.10328818326757058 -0.16478664310407484
0007b0 03 c3 eb a0 97 82 b8 bf a0 1a 37 98 cf eb 72 3f
       -0.09574268034681314 0.004619418064470665
0007c0 24 60 e7 27 59 08 a4 3f 08 ff df 1a 3f c2 b0 3f
       0.039126192208357474 0.06546396642806596
0007d0 ea 97 8b 06 a1 62 97 bf 5d a0 25 02 20 a8 b9 bf
       -0.022837177299969293 -0.10022163441101513
0007e0 63 1a ae 1a 80 4d b7 3f d8 4c 75 f6 e8 2d b8 3f
       0.09102631236428631 0.09445053116842261
0007f0 23 b5 8f e7 fa 6c a5 bf ac 73 ac fc cd e5 9e 3f
       -0.0418470771472619 0.030173510119414423

3.bias f8 [64]
000000 0c e0 e3 1d d0 d7 ab 3f cc 78 b3 89 c0 31 a1 bf
       0.05438089718694536 -0.03358270340844313
000010 6d e0 29 06 83 28 88 bf 30 26 73 3d cb c7 82 3f
       -0.011796020150754505 0.009170139134215466
000020 7e 74 13 06 7e cd 86 3f 93 c8 73 1d c0 e9 a9 bf
       0.01113413291971654 -0.05061149940037626
000030 70 4a 1a 4c 55 29 ab 3f 9a 6e f8 ac 12 d3 99 bf
       0.05304972223270432 -0.025219241912152947
000040 ea fe 8f 17 af 91 a7 bf 78 f2 47 39 3e 86 a7 3f
       -0.04603335535648319 0.045946068279566654
000050 53 d9 5d c6 b3 5a 79 bf 97 3e 32 1c f2 16 b5 3f
       -0.006190016027053896 0.08238137424836577
000060 05 1d b1 65 9a d5 b4 3f 16 9b c5 f7 74 ee 7f bf
       0.08138432486258658 -0.00779576960153496
000070 27 dc 72 03 1d 44 bf 3f 51 e5 b0 fa 34 1a 80 3f
       0.12213307699390495 0.0078624857907125
000080 70 b2 04 3a e6 2e ad 3f 93 63 62 94 7c f6 b3 3f
       0.056998438436811294 0.07797983763374665
000090 0b 39 ee 1c 9f b3 ac 3f f2 ec 36 25 cd 2c 90 3f
       0.0560579035583136 0.01579590358390432
0000a0 8b 01 e5 49 b5 3d 9a 3f 83 d1 8e 43 0d 26 79 bf
       0.0256260229446084 -0.006139804660893924
0000b0 a4 21 6b 7a 93 1c a0 bf 8e df cc 81 0b b1 be bf
       -0.03146801823965298 -0.1198889915366392
0000c0 de bc cc 58 b9 9b c0 bf 8f 64 e7 f5 6c dc 9d bf
       -0.129752319678551 -0.029161169537335992
0000d0 c4 7f 98 a5 e8 77 70 3f 24 86 cc f5 35 73 93 3f
       0.004020603920736169 0.018994181754470443
0000e0 0d f1 fb 89 22 26 ad 3f 30 b6 d4 1c 11 93 a3 3f
       0.05693157133461755 0.03823140599193342
0000f0 82 0c 98 f1 3e 52 7c bf 58 32 4b fe 94 60 79 3f
       -0.006914373277598364 0.006195623402800075
000100 76 ee 6a a7 da 2e 98 3f 86 a5 1a ee 39 c1 a7 3f
       0.023616234272351787 0.0463960745958714
000110 d2 1d a1 f9 15 27 95 3f 07 ce d1 87 f7 ac a5 bf
       0.02065691314808566 -0.04233525784448138
000120 5e 51 d7 dc e8 4b 98 bf 10 d0 6b ff 18 1e 95 bf
       -0.023727072218961857 -0.020622625913304715
000130 f9 88 ba 06 a7 2c a1 3f e2 66 7d 08 02 8b 89 3f
       0.033543796130531996 0.012472167858209319
000140 18 1c fd 1d c4 06 92 bf 50 05 9e 9d 3b 4d aa 3f
       -0.017603935556760403 0.05137049006499217
000150 75 e4 10 14 13 dd 84 bf fe 0d 2d 9f 30 72 a8 3f
       -0.010187291192879958 0.047746200018561766
000160 56 86 42 5a 0f da a1 bf 87 e4 98 02 84 c5 a3 bf
       -0.034866790550279234 -0.03861629993156961
000170 25 67 39 77 86 e1 9e 3f e1 e5 db 69 ef 45 77 3f
       0.03015718558012916 0.005681929787664215
000180 3e 2f b8 49 8e 71 73 bf 30 be 47 31 55 0e 90 bf
       -0.0047469671367357785 -0.015679675228908063
000190 ce 30 54 02 90 ea a3 3f 03 63 18 19 1c 2d 4d 3f
       0.038898945125852444 0.0008903872678188432
0001a0 4b b0 78 02 98 bc a1 3f de f0 bf ff d9 27 ae 3f
       0.034641981412591415 0.058897793263868556
0001b0 f8 31 ba e6 1d 57 ab 3f a9 b0 ac ed 30 fd a9 3f
       0.05339902345176378 0.05075981999684249
0001c0 43 5c 7b 4e ba e4 b0 3f 67 c9 a2 2f fa b9 a4 bf
       0.06599010864316406 -0.04048139411442513
0001d0 47 51 03 8e cb a6 a5 3f c2 6c da e8 d6 19 99 3f
       0.04228817089611652 0.024512632333977498
0001e0 fe 09 11 b0 7d ee a9 3f 22 95 b1 07 d5 a9 a2 bf
       0.05064766668558106 -0.036451966466112276
0001f0 56 6d be 78 fa 75 7c bf 93 30 be c1 3f 39 63 3f
       -0.006948450474648501 0.002346634411827317

7.weight f8 [1, 128]
000000 8c d5 30 4f b9 53 b5 bf 4c 54 04 e6 ad 03 a8 3f
       -0.08330877478950621 0.04690307076285957
000010 a4 2e 76 e4 6c 62 95 3f b8 41 bb b9 6a 9c 94 bf
       0.020883275455658393 -0.020127933107518564
000020 bc 9f 0d 00 e0 5a b8 3f af a4 80 cd de 09 b9 bf
       0.09513664246844561 -0.09780685917998498
000030 4a b9 d7 39 7b 1e b1 3f 9b f2 c8 a3 20 ce b3 3f
       0.0668713585107287 0.07736400602966358
000040 7a 37 e7 35 cc 2b c9 bf be 1f a8 dd c3 4a b1 bf
       -0.19664909965507232 -0.06754707490483633
000050 a0 88 cb 72 bb 36 b3 bf 64 89 52 e6 17 21 b0 3f
       -0.07505389740575419 0.06300496457200705
000060 5b 21 c2 bc eb be c3 bf ac da db 17 03 a4 a3 bf
       -0.1542639419242374 -0.038360687887622674
000070 cf 07 c3 f3 97 63 cd 3f 11 d8 20 13 b0 5b b4 bf
       0.2296018543475484 -0.07952404467582165
000080 14 a7 f6 5a 87 00 cc 3f 65 10 77 2a 4e 83 a4 bf
       0.21876613561226377 -0.040064280208327564
000090 b6 d2 54 2d 9f 5d a7 3f 89 fc 84 6d 37 80 71 3f
       0.04563615253792845 0.004272667422184581
0000a0 4e 85 94 f3 bd 93 a6 3f 7f 8c e9 91 ca b7 97 bf
       0.04409593199148763 -0.023162045627384217
0000b0 98 cb 6b 16 83 49 bc bf fd 6e 71 29 65 c4 d2 3f
       -0.11049670503034148 0.29323700949838366
0000c0 6a 70 97 f6 42 36 ca 3f 18 91 30 42 b2 38 b9 bf
       0.20478093186000318 -0.09852136722526372
0000d0 d7 52 b7 58 34 5f c2 3f 46 53 95 84 46 d6 96 bf
       0.1435304101165886 -0.0223017710134912
0000e0 72 da 15 ab 57 75 c1 3f 7f fc 6f e1 79 15 b3 bf
       0.13639350751664697 -0.0745464492210761
0000f0 87 07 f6 e5 f0 9f 89 bf 0b 72 79 15 c9 a5 b2 3f
       -0.012512094514707929 0.07284218572880989
000100 80 78 0a b5 a1 ad a2 3f 5e fe 1d 8f 6c f3 a0 3f
       0.036480954503745444 0.03310717818294216
000110 5d a8 4a 3f fc 65 c8 3f bc a8 e5 26 54 d3 a0 bf
       0.1906123456040544 -0.03286231016939342
000120 e3 b0 e6 9e 0b d8 c1 3f 0a d7 9e 04 6b f4 9c bf
       0.13940568217129287 -0.02827613082600692
000130 9a db 16 76 e1 3a 91 3f dc 78 80 a3 f9 ae b1 3f
       0.01682617457637612 0.06907615892166369
000140 84 b1 0d 32 41 e8 c8 bf 07 d8 74 04 1b 38 a5 bf
       -0.19458785003679335 -0.04144367627525019
000150 b4 55 98 0d b2 90 be bf 5b 7e 17 f1 32 8e 63 3f
       -0.11939537841711606 0.002387141700395818
000160 74 14 18 ac 4b 7f b3 bf 5d 08 a6 65 c8 d1 61 3f
       -0.0761611266280669 0.0021752275471849506
000170 3b 70 f8 62 c6 39 b4 bf 7e be f7 ca 1d dc a9 3f
       -0.07900657573958451 0.05050747969278023
000180 7b 38 8a be ad 00 b3 3f 7b eb 6a 7d 5e 0c b5 3f
       0.07422910596707936 0.08221998750643238
000190 3e 0e 55 87 db e3 c2 3f 7a 02 11 5c 6a b3 57 3f
       0.1475786600877757 0.0014465845745378612
0001a0 a4 30 51 0f bc 16 80 3f 4d 18 ce 54 ce 2e a7 bf
       0.007855862824861788 -0.04527897629945752
0001b0 9c ef 4e 56 56 8a b9 3f 0e 23 a2 65 e3 40 b3 3f
       0.09976710898530289 0.0752088664177217
0001c0 ee ee 14 01 af 2e 87 3f 65 35 e6 c7 ca 3a c9 3f
       0.01131951067019751 0.19710669289308239
0001d0 60 e5 60 fa a1 58 cd 3f b0 ad 53 a0 3a cf c2 3f
       0.2292673561621923 0.14694912746868516
0001e0 87 59 26 15 18 b2 c8 3f 30 63 71 bc a1 37 b1 bf
       0.19293499977784398 -0.06725512362153263
0001f0 86 da 07 f7 c8 51 b0 bf 0f af 17 44 45 86 ad 3f
       -0.06374794035932937 0.05766502815444429
000200 88 dc c3 94 04 fd b4 3f e8 a2 76 a6 fb 44 b0 bf
       0.08198574668846181 -0.0635525971798746
000210 77 0b d0 b4 df 1e c0 3f a3 ec 2f 19 b6 e7 a3 3f
       0.1259421952127828 0.03887719209156983
000220 62 be 25 56 ae ee b9 3f 0b a5 59 58 e9 7e a3 3f
       0.10129823306282895 0.03807763293736784
000230 24 4e 9d 93 bf d0 a9 3f 94 84 72 48 f5 60 aa 3f
       0.0504207484906625 0.05152098187796486
000240 0b 00 d1 77 44 68 cb bf 3d c1 d2 01 05 77 85 bf
       -0.21411949015055173 -0.010480918043271554
000250 c4 83 96 c5 00 f7 ba bf 54 7e 80 e0 22 0c b8 3f
       -0.10533146690296663 0.09393518429760067
000260 67 c9 4d 42 02 4b bd 3f 28 0a 9a 6a 0a 00 a6 3f
       0.11442579382654615 0.042969060433297124
000270 4f cd 20 d5 cf fc b0 3f 77 bb d7 63 e9 77 ad 3f
       0.06635760262797884 0.05755547851355563
000280 c2 04 64 d0 a6 8c d0 3f 93 95 f4 d8 03 1d b5 bf
       0.2585846934380919 -0.08247398421061396
000290 92 91 b2 50 8d b0 bd 3f 6c a9 ca e8 c9 f1 b0 3f
       0.11597521991877205 0.06618940289869152
0002a0 55 e4 1a 0b ad db c5 bf 9f 9c 46 51 d6 dc ab bf
       -0.17076647798765757 -0.054419228955617564
0002b0 8d 95 60 6d b9 a3 bc bf a3 4d ee 82 e5 c3 ae 3f
       -0.11187323494285391 0.06008832190778015
0002c0 8c 62 8b 84 a7 21 bb 3f b3 7b f0 b1 a3 99 88 3f
       0.10598227487515482 0.012011793964175376
0002d0 93 9e c1 a7 e6 0f c2 3f 75 b0 ac b9 bc 87 9d bf
       0.14111025992609835 -0.028838108856846085
0002e0 71 c2 cc 12 c0 db ba bf 18 de 8c 32 0c 9d b2 bf
       -0.10491562327366367 -0.07270885690820028
0002f0 b4 08 e6 4b c7 9d a2 3f 7b 83 a6 aa 6b f0 c3 3f
       0.03636000443931789 0.15577455360928724
000300 73 6e 5c 90 3e a4 bd 3f 54 2e 4a b4 c2 58 b6 bf
       0.11578742050590467 -0.08729187871556948
000310 fc 6b 71 8a 7c ce c4 bf ba 10 ba ca f6 da a5 3f
       -0.16255146751322502 0.0426861879796276
000320 bf e7 80 3a fd 80 ca 3f 16 4d 62 df 75 1b b0 bf
       0.2070614371930883 -0.0629190130587641
000330 6e cf fd 26 e7 9b a5 3f bc c9 7c 7d ce b4 51 bf
       0.042205070028017086 -0.0010807053094593474
000340 34 6b 60 21 86 96 c3 3f 6a 08 ab c0 ad 65 82 bf
       0.153031126305757 -0.008982999269736964
000350 51 ce 0f 76 62 b3 a5 bf 56 6c 6d f5 ca f1 9f 3f
       -0.04238422099288342 0.03119580386133366
000360 f3 66 d5 21 e1 b9 c1 bf e3 a3 1a cb a4 75 aa bf
       -0.13848508979827265 -0.051678800385452715
000370 84 51 d9 7b a0 2d a0 3f e3 d6 4d cb e1 e3 c3 3f
       0.03159810554339784 0.1553919069953543
000380 04 cc d9 c9 ae e2 be bf 4d 0e e9 55 31 4b b6 bf
       -0.12064640453336045 -0.08708484980984928
000390 f8 76 da 6e 9c c3 86 3f d8 b0 3a 23 43 e3 b3 bf
       0.011115286000229471 -0.07768649683083895
0003a0 ed ad 68 6d 05 f8 d3 3f d6 e5 27 15 ef c8 ab bf
       0.31201301273787757 -0.054267379124165835
0003b0 a8 7a f8 e1 6c dd cf bf ca 88 26 bc 92 cb a3 bf
       -0.24894486459466703 -0.03866251513251624
0003c0 2d 82 51 ae f6 12 c6 bf 1b 98 d1 ec 87 fa b0 bf
       -0.17245372306480658 -0.06632279903132636
0003d0 45 f8 b1 46 14 13 b4 3f 3f c2 67 98 b8 37 b1 3f
       0.07841612554509066 0.06725648613770206
0003e0 ea 7b 63 56 2f fa cf bf a2 5e 51 ae 1c 27 a8 bf
       -0.24982253759569 -0.04717340114501424
0003f0 ac 23 ed 9c 98 85 c1 bf ea 5a c6 67 b0 33 61 bf
       -0.1368895307771515 -0.0020998425881758502

7.bias f8 [1]
000000 63 9c dc 88 1e 3b a6 3f
       0.043419794279821365
