models/run2/58.pt (torch, 153942 bytes, 6 tensors)

0.weight f8 [32, 1, 9]
000000 4f 10 7c 78 52 05 a3 3f c6 ca cc 81 00 8f c2 3f
       0.0371499797893483 0.1449890741146957
000010 ba ed 7c 51 e7 06 84 bf 42 f1 25 0a 15 ce ca 3f
       -0.009778792547527771 0.2094141292144603
000020 a7 70 88 fb 4d 1b c4 3f ea 88 0f a9 38 bb d0 3f
       0.15708327085383653 0.26142708310921015
000030 93 b3 a4 8d 36 ad d0 3f de f3 50 4c 1e 61 d1 3f
       0.26057208855018493 0.2715526337886426
000040 50 a8 bd f4 eb e6 d2 3f b3 f4 96 28 a9 3b bd 3f
       0.29534434223626693 0.11419160119017384
000050 03 10 1e de dd 85 d3 3f 89 f4 f7 95 14 1c a1 3f
       0.3050455731502099 0.033417361551962683
000060 70 fa a9 0f 87 88 e1 bf 34 06 61 d5 61 7f d3 3f
       -0.5479159646927894 0.30464979017060334
000070 08 2b b5 84 7e ae d0 3f 32 02 9a 31 0c e6 d3 3f
       0.2606502815221323 0.3109159931555353
000080 09 c6 3d ae 76 d6 d8 bf ce 75 f5 c2 31 19 d1 bf
       -0.3880898191046929 -0.26716274298618437
000090 81 bf 8b 07 b1 83 cd bf 65 e8 be cb 6a bf b5 3f
       -0.23058140629245474 0.08495204424153398
0000a0 c4 3d 14 65 4f 67 ce 3f a9 2c 29 02 ab 5f d8 bf
       0.2375277751493582 -0.3808391114332133
0000b0 e3 ff 1e 9a 83 5b af bf 5c 67 64 9a f5 98 d3 3f
       -0.061245071948633066 0.3062109000908231
0000c0 f0 94 e2 4b 08 6a b5 bf 3a cc 5b db 5f 97 c5 3f
       -0.08364917614615641 0.1686820813261834
0000d0 55 7b 87 d1 23 a8 cc bf 4e 51 7c f5 ce 7a 99 bf
       -0.22388122301978322 -0.024882539494755655
0000e0 5d 29 9d 91 41 60 c4 3f 90 0d 69 b4 a5 bf b9 bf
       0.1591875039105827 -0.10058055548238642
0000f0 15 23 d2 e6 6d 40 c5 3f 33 42 4d bb d7 a0 b6 3f
       0.16602872629689416 0.08839176485822335
000100 52 1b 31 5a 1d a8 d4 3f e3 fd 76 4d f7 1d bf bf
       0.32276090438647487 -0.12155099526625394
000110 28 00 a6 46 f9 c5 bd bf 52 64 bc b9 c2 f0 d8 bf
       -0.1163020894509833 -0.38969486368438766
000120 51 be 8b 5e e0 7d d3 bf 9a 60 8e 24 f1 8c c7 3f
       -0.3045578883456744 0.18398870739907097
000130 c0 e0 c3 d6 9e a8 cf bf fe 54 c1 fb 2c 66 d2 3f
       -0.24733338820056439 0.2874863108202844
000140 9f d8 d9 de f8 f8 60 3f 94 ca c7 b7 05 57 d7 bf
       0.0020718441726855353 -0.36468642184551325
000150 76 39 09 fb 58 af c6 3f d0 42 c1 c0 a5 01 b8 bf
       0.17722618348711777 -0.09377513843470386
000160 43 92 53 f0 b4 9e c6 3f e8 3c ab 81 29 54 a6 bf
       0.17671834692659347 -0.0436108561312894
000170 82 a6 b0 d6 34 14 d1 3f bb de 63 ed 95 28 cf 3f
       0.26685830083679474 0.2434260758525307
000180 54 2a 24 95 e8 cd 9d bf dc 81 63 e6 2d 0e d1 3f
       -0.02910579119001462 0.26649043558975705
000190 62 3d 1f da a9 5c c1 bf d6 32 dd 4f 6b 78 d3 bf
       -0.13564036512841954 -0.304224803917163
0001a0 a4 3c c4 60 51 ef 80 bf 9e 3e d6 bf 6e 53 b5 3f
       -0.008268962636547812 0.08330433066862006
0001b0 cf ca c6 04 b4 38 d2 3f 57 50 f9 57 b1 93 d1 3f
       0.28471088854273047 0.2746394499893134
0001c0 28 26 be e5 60 92 d1 3f 4e 15 e3 24 56 22 8d 3f
       0.27455923496072154 0.01422564792700123
0001d0 62 f1 42 83 3d ca d8 bf a6 d7 37 ac 2e 23 89 bf
       -0.3873437673426193 -0.012274136191063278
0001e0 60 f4 6f 7b 06 6a d4 3f 87 22 87 ed 12 fd b5 bf
       0.3189712720339397 -0.08589285182018545
0001f0 19 e7 5f 05 43 10 c0 bf ba 67 57 b1 50 32 97 3f
       -0.12549627077515238 0.022652874778806377
000200 9e 76 9b e1 71 e4 bc bf 95 96 f6 fa 98 62 a3 bf
       -0.11286079175939753 -0.03786161483303122
000210 66 f3 24 67 79 78 ce 3f 54 39 ea f6 d1 35 c7 bf
       0.2380515817293613 -0.18132996136086865
000220 c3 7e ad 82 85 2a d8 bf 90 23 53 2a 9f 6e d0 3f
       -0.37759530793662693 0.2567518151595829
000230 06 70 36 23 75 30 bc 3f 0b 91 a8 8e 49 a5 bd bf
       0.11011440381702195 -0.11580333454964291
000240 4a 25 99 99 fb 89 c7 3f 9a ad e5 85 4a c9 d0 3f
       0.18389840125954954 0.2622858340825701
000250 9a c9 f9 f4 0a 72 bf bf 06 aa a4 3c 70 99 d0 3f
       -0.12283390503743022 0.25936513826550855
000260 49 53 ff 6a ab 12 d1 bf 05 25 11 21 5a aa d0 3f
       -0.2667645020385874 0.2603974650306358
000270 83 4c 90 51 f9 ef ca bf 5b 92 69 07 89 af bc bf
       -0.21044842226601554 -0.11205345564810314
000280 51 ad bb ff fb 29 d1 3f 36 ce 46 cd 27 a4 d1 bf
       0.26818752263962603 -0.2756442551283017
000290 1a 1e f9 76 a3 82 c5 bf f3 74 e8 75 7a f2 48 bf
       -0.16804927167162093 -0.000761327548221806
0002a0 11 e3 f6 c4 8b 02 cc 3f f6 1d 92 47 7a 85 d5 bf
       0.21882769696619467 -0.33627182950337386
0002b0 11 f8 62 79 58 f4 d2 bf b7 52 60 e2 cc 44 c9 3f
       -0.2961636720100396 0.19741211942223
0002c0 48 42 d6 23 01 46 aa 3f 8b a9 b1 63 5d ef c7 3f
       0.051315341591479824 0.18699233405943647
0002d0 13 88 70 ed 67 6a c7 3f ae 2a 3d 51 96 a0 a7 bf
       0.1829347524044925 -0.046147057930814625
0002e0 15 52 be bf 86 cf c2 bf 4f ee 01 39 ba ee a9 bf
       -0.1469582020041719 -0.050649470766953024
0002f0 c5 9f d8 8f 3c 37 d0 3f 34 7e 02 41 ee d3 ca bf
       0.25337137267569815 -0.20959261106780647
000300 01 57 ba 41 54 15 c5 3f 9e c5 8a 0e 4a 88 cd 3f
       0.16471341332788117 0.23072171888410947
000310 dc 44 cc 4a c3 43 d2 3f 40 87 1e 47 0b a8 a4 3f
       0.28538591675267155 0.04034457438616679
000320 ac a8 c4 ca 7f 24 bd bf 95 b2 11 81 fc dc c0 bf
       -0.1138381834067867 -0.13174396803096458
000330 92 39 6e c9 86 9d c4 3f 05 63 94 a0 ac 80 c8 3f
       0.16105732760884145 0.1914268287735227
000340 3f 23 37 30 b2 db bf bf b3 d4 64 88 fd 48 cf 3f
       -0.12444604565747584 0.24441498908860168
000350 eb d2 ab 19 85 31 d1 3f a0 88 c6 b5 35 73 d7 bf
       0.2686474562354266 -0.36640684844508975
000360 28 df 63 ed 8b 64 d1 bf af 2e a9 70 0c d6 d1 3f
       -0.27176187689427644 0.2786894893840594
000370 26 0d 42 93 b6 47 d1 3f b9 aa 11 ff 2c 64 a9 bf
       0.2700020254198584 -0.049592405449251094
000380 c8 a4 c2 82 5a d9 c0 bf 49 58 dc d6 04 9b 92 3f
       -0.1316331041792067 0.018169475187356707
000390 6c 09 7d 1b ed f5 d3 3f e9 1d c6 f5 e1 98 b6 bf
       0.31188514408508783 -0.08827030420626837
0003a0 99 a1 c1 a8 d4 fc ca 3f 51 0c 56 9d 15 a2 ad 3f
       0.2108407806401942 0.05787723107916832
0003b0 b4 1d c2 0f ca b2 da bf 35 be 77 b6 2f 3f c3 bf
       -0.41716243304150713 -0.15036579522664942
0003c0 ac f9 7a f2 99 df cc 3f ad b1 3d b5 ce 5f a5 bf
       0.22557377185689853 -0.04174657785810907
0003d0 d8 bb 8b 01 4d 68 c0 3f 36 2b 87 92 77 55 d9 bf
       0.12818300796013093 -0.3958414965570002
0003e0 39 eb 4f bb 37 1b b7 3f 01 02 8b 1f 75 04 d3 3f
       0.09025905917216627 0.2971470649754622
0003f0 31 38 b8 71 7b a3 c0 3f c1 88 58 1c 09 c8 cb 3f
       0.12998908093180853 0.21704210170816476
000400 51 3e ae 5e bf af d4 3f 04 48 26 f4 56 f6 ca bf
       0.3232267784705743 -0.21064268990863877
000410 91 b8 d6 04 91 ad c9 3f 4a 13 66 6c 5c 34 61 3f
       0.20060932861583017 0.00210016299678487
000420 45 64 4d 03 d1 13 d3 3f c1 60 f0 26 b3 2a d3 3f
       0.29808450052729923 0.2994811897529069
000430 d5 54 83 53 8d c2 d2 3f e7 9e b2 da 4f b1 d1 bf
       0.2931245151097078 -0.27644726140213866
000440 ad 68 7a 93 8a 56 d2 3f 24 14 b7 b1 e6 bf a3 3f
       0.28653206255115543 0.038573464578384425
000450 cf 4c 0e ad 21 32 b7 bf e8 80 58 3f 76 c8 d2 3f
       -0.09060869669910974 0.2934852236376302
000460 82 58 bf c0 4a f6 d0 3f 5d 58 9b 2e 5f c2 c4 3f
       0.26503247092239957 0.16218175674174776
000470 c7 28 89 c7 e8 c1 c6 bf ec a1 8e bd 22 3b b6 3f
       -0.17779264204938824 0.08683983924732502
000480 75 2c 10 21 9f d4 a8 3f a1 0a c1 3e 10 b5 b2 bf
       0.04849717405894519 -0.07307530910569905
000490 84 67 ec b7 3f 40 cc bf 00 ae ce 49 21 0f d4 bf
       -0.2207107208312743 -0.3134234638953046
0004a0 9a dd bd 88 ae de c1 bf 42 4e 4d c9 b0 36 c3 3f
       -0.13960820843543048 0.15010652379224793
0004b0 63 25 35 f0 90 1e c1 3f a4 0a aa ab 36 62 cc bf
       0.13374530533682635 -0.22174723989526968
0004c0 7b 50 39 f7 fc 89 c4 bf 81 67 51 2d da 93 97 bf
       -0.160461064066684 -0.023024949089041073
0004d0 92 31 10 9e fa 7e f1 3e 21 14 d8 a4 23 98 d0 bf
       1.6685496920175432e-05 -0.25928584192326026
0004e0 d9 c1 86 4e 0d 80 cb 3f 45 6b e6 65 c8 ec c3 3f
       0.21484533628746652 0.15566353774632993
0004f0 e7 4d 55 b5 cf 7b b6 3f 07 5e 0e f7 36 98 bd 3f
       0.08782671143608632 0.11560386211055383
000500 b4 ec 3a 1f 82 e3 be 3f f8 3d 4d 89 19 65 ca 3f
       0.12065900099234989 0.20621031955896263
000510 3a 93 f2 35 23 33 cf 3f c7 e8 13 99 c0 2f c9 bf
       0.24374809393079905 -0.1967697856378605
000520 d2 60 82 d1 f4 e4 a6 bf 0c cc 7e 62 a0 68 d8 bf
       -0.044715548109879 -0.3813858949535536
000530 56 8c b8 8a 95 eb c6 bf b1 0c bd b5 6f 70 d0 3f
       -0.1790644576404669 0.25686257121942463
000540 6f 99 ca a9 42 62 d2 bf be 51 b3 29 4b 0f ce bf
       -0.28724733906928795 -0.234841723786884
000550 d5 82 d8 2f c2 7c d3 3f fa 57 2d 66 b0 c9 aa 3f
       0.30448965713916937 0.05232001540450422
000560 e6 60 70 e8 d0 a3 c1 bf 0e 91 fb 70 d0 09 d0 3f
       -0.13781176900443554 0.2505990126940255
000570 a9 dd ab ee a0 29 d7 bf 40 aa 46 6c d9 08 d3 bf
       -0.36191581065892336 -0.297415118921581
000580 49 86 17 3e 39 9e bb 3f 68 18 62 f0 e2 39 cf 3f
       0.10788305059352256 0.2439540551897068
000590 8b d2 a2 2e 47 9e bb bf 10 a0 35 a4 18 ec a6 bf
       -0.1078838814599498 -0.04477002148161102
0005a0 72 06 b8 6d 39 93 e2 bf b2 43 35 4c 0a 48 d4 bf
       -0.5804717200227982 -0.31689698641008157
0005b0 3a 57 62 7e 11 bc cb bf ca cd 55 e6 19 16 c7 3f
       -0.2166768900976253 0.18036197420916117
0005c0 81 46 3b 48 69 82 cf 3f 50 6f a8 ba 5c a0 90 3f
       0.24616733576708685 0.016236733334252407
0005d0 71 bb ac 4c 77 d3 c9 3f 34 73 8e 16 9e 2b d0 bf
       0.2017659305942874 -0.2526622028615748
0005e0 af 4d 19 24 0a 38 bd 3f 00 8a fd e3 f0 c5 aa 3f
       0.11413634663886428 0.05229141982160357
0005f0 3a dd 3b 87 d3 f5 c8 3f 5c d0 f7 2d b7 eb da bf
       0.19500202277388629 -0.4206369351297832
000600 3d 7e fc 21 e2 9a a6 bf ff 82 27 15 50 35 37 bf
       -0.044150416039198316 -0.0003541298403018505
000610 85 fb fc e8 d5 83 d4 3f 7d 5f 6c 0b 6c fd c9 bf
       0.3205466056132809 -0.20304632718829999
000620 1c d8 55 d2 77 b4 ce 3f ee 70 8e f4 c6 a6 ce 3f
       0.23988244791297653 0.23946463528853407
000630 dd 1e e5 b5 7e 1e c8 3f cd 64 67 9a b0 a7 c1 bf
       0.18843063241569427 -0.13792998828174632
000640 4e df a9 62 9c 1a 9f 3f 5b 78 36 ca 8d 4a c9 bf
       0.030374949953027745 -0.1975877034537373
000650 15 99 55 e7 f2 b2 d9 bf 12 a0 07 76 0e 61 db bf
       -0.40154717055556094 -0.4277988579401618
000660 f9 66 74 cb 4e fd c6 bf ea 23 10 69 fa c5 c7 bf
       -0.17960534033118572 -0.18572931413680688
000670 57 c8 7e 0a d4 13 d4 3f f9 19 8d d7 32 af be 3f
       0.3137102224819776 0.11986081850509568
000680 5a db f1 2f d3 fc a0 bf da 5d 13 5f b4 09 ce 3f
       -0.03317890129340269 0.2346711601482941
000690 48 11 06 1f e0 35 ce 3f ff 86 65 10 bb a2 93 3f
       0.236019148968021 0.019175455928581716
0006a0 92 85 a8 f3 d2 44 c1 3f 95 84 0a d9 92 d2 bc 3f
       0.13491284272553777 0.11258809851507785
0006b0 a3 0f 22 26 f9 43 c8 bf 31 17 3e c6 cd 21 db bf
       -0.1895743786045588 -0.42393822059271985
0006c0 45 15 d3 04 cc e1 c1 3f 3f cb 0f df 49 42 c9 bf
       0.1397032760197964 -0.19733546630558327
0006d0 6b fc e2 06 45 f5 c0 bf 25 9a 07 ef af e4 b9 bf
       -0.13248503528845687 -0.10114574037252362
0006e0 9e 7d d7 c3 5b 8c c3 3f ee ff c6 0b db 95 d4 3f
       0.15272090017877543 0.32164646291857835
0006f0 d9 34 19 ec 0d 13 cf bf d3 57 5d 69 9e 91 cb 3f
       -0.2427689936470532 0.21538143296009923
000700 c4 1b 0c 4b 1c c8 d1 3f c5 ab 24 11 13 a8 ae bf
       0.27783877686345826 -0.059876056521111866
000710 d9 3e 82 8f f4 9d d1 3f 42 59 0d ee bb 5f ce 3f
       0.2752658273175093 0.23729657291068845
000720 b7 87 a8 34 ce c1 d3 3f 97 8b 8e f2 7e d4 bc 3f
       0.30870394842542787 0.11261742994115163
000730 d1 9b 27 6d f3 11 d2 3f 22 79 a9 77 b7 79 c8 3f
       0.28234563502922777 0.1912144979750759
000740 6c 8a c9 30 f8 9b d5 bf cf 43 d1 c5 85 71 ac bf
       -0.3376446224630516 -0.05555360831988986
000750 5f 27 ae 1b 0a 88 c8 bf dc 49 ae 8a 44 7b 9b bf
       -0.19165159560753417 -0.026837416614918883
000760 2d 8b 7b 8f da 58 c5 3f 2a de d5 fb 6e b2 ca bf
       0.16677410131441076 -0.208570359198107
000770 17 5b 80 d2 25 5b c6 3f 43 e6 80 84 49 d1 ab 3f
       0.1746566083754366 0.05433110945200472
000780 df b6 d8 c5 dd 15 d1 bf 63 90 11 05 74 66 b3 3f
       -0.2669596130461808 0.07578206180329654
000790 96 55 9f fd 19 e9 d3 bf e5 58 70 d4 30 6b ca 3f
       -0.3111023880749938 0.2063962018298248
0007a0 6b 14 8b 44 ef 8a d1 bf 3a 71 3f 86 ab 03 99 3f
       -0.27410489743880956 0.024428062504612692
0007b0 2e da af e7 be 77 c1 3f 2b 40 9f 49 20 e1 bb bf
       0.13646684944952042 -0.10890390202916993
0007c0 87 24 ab dd 64 97 cf bf bc 4f bf 01 2b b7 d1 3f
       -0.2468076784482813 0.276804687219961
0007d0 52 65 1e 0c 63 59 bc 3f df 4b 26 92 e5 6e d8 bf
       0.11073893590800779 -0.38176860115453154
0007e0 82 e7 52 30 ee c2 d3 3f 8d cf ee 28 5c 0a d3 3f
       0.30877260893941394 0.29750732419346876
0007f0 f9 a5 6b 2d 6c 9b 61 3f 9e 5d 7d 04 c1 22 d9 bf
       0.0021493065681752435 -0.39274621427963463

0.bias f8 [32]
000000 e5 d5 b0 fe 0c 5d 89 3f 61 63 85 65 22 60 96 3f
       0.012384511492295533 0.021851098486283308
000010 34 68 01 d8 25 6f d1 3f fd 73 30 28 07 86 7c 3f
       0.27240892500197167 0.0069637565202613745
000020 f0 53 de f6 f6 52 d5 3f 15 7e 37 50 1a 46 bc 3f
       0.33318876369713646 0.1104446836320608
000030 da 45 bd be 12 d0 93 3f b1 c6 2b 2b 4b 62 47 3f
       0.019348423854642728 0.0007136218103751172
000040 a8 db 64 b2 6a e3 a1 3f 10 97 ad 96 c0 e3 d6 3f
       0.034938177372559054 0.35765089716584075
000050 41 58 1f b7 b6 0b d5 3f 5e f4 cd da b9 28 5f 3f
       0.32883994944620915 0.0019017996775965366
000060 1f e5 96 1d 3a f8 a0 3f f0 c8 6d 6d 5b e3 c1 3f
       0.03314382182311192 0.13975088923650203
000070 55 93 95 4c 94 e3 d3 3f ca 28 7b eb 2e 29 d4 3f
       0.31076533774312526 0.31501362796974475
000080 52 45 c1 4e a3 8c d2 3f bb dc 3d 16 e9 d3 86 3f
       0.2898338574496694 0.011146374694119712
000090 6c da 73 ac 93 be d6 3f 57 1d 4f ea 81 28 d6 3f
       0.3553818878275823 0.34622238046400383
0000a0 c0 c7 15 40 42 a9 ab 3f 07 15 f8 f3 f0 21 98 3f
       0.054025717089543956 0.023566975489321098
0000b0 c1 77 e5 2c 42 9b c9 3f 1a 8f d2 d9 96 f5 d2 3f
       0.20005061332898147 0.29623957893112307
0000c0 e0 2e 75 bb 96 04 95 3f e4 e7 b0 5a 39 26 76 3f
       0.02052531737471852 0.005407547035298752
0000d0 61 e1 76 55 7c 4b d6 3f 16 e8 15 72 8e 3f 90 3f
       0.34835728021746176 0.015867448533278226
0000e0 8a 49 5c ba cd 8a c6 3f 24 2b 53 00 c0 8c b3 3f
       0.1761109504664769 0.0763664246361882
0000f0 df 8a 1b 1d 38 c3 a4 3f 32 4e d3 84 4d 3e ce 3f
       0.04055190425221666 0.2362763308106977

3.weight f8 [64, 32, 9]
000000 58 79 4e 85 d9 7c c0 3f 32 c1 da e2 49 65 cb bf
       0.1288101101790271 -0.21402858330612556
000010 ee 73 af f0 9a c7 cf bf 42 cd d9 d9 40 23 76 3f
       -0.24827896835532165 0.005404713939799523
000020 46 61 d3 76 cd 1e bb bf be df b9 24 ab 18 b1 3f
       -0.10593876029031887 0.06678266188271118
000030 7c 2d de c7 57 cd 9a 3f 97 9a 81 bd 3c 24 9f 3f
       0.026173945974318866 0.03041167170195055
000040 aa 69 33 91 0d ef c2 bf fc db 05 5c 30 97 b9 3f
       -0.14792031850704507 0.09996320959713495
000050 2f 49 0c 71 c1 56 8f bf 26 0b fa ac 5e de c7 bf
       -0.015302191984606665 -0.18647368856553576
000060 7a c8 33 9e ca 4e c5 bf 5f c6 60 6d 24 12 af 3f
       -0.16646702503891558 0.06068528971844666
000070 2c 24 d6 8a 9c fb a2 bf 5d 59 9e e3 8d 6e 8e 3f
       -0.03707589335233083 0.01485930300604526
000080 f5 b7 43 c1 6b 1e a4 bf 27 86 d8 1f db 86 c1 bf
       -0.03929459318338494 -0.13692797713251645
000090 59 48 5b ed 3e 1c b6 3f 74 26 29 d7 8e a6 65 3f
       0.08636849684560967 0.002642897591873356
0000a0 17 9e b6 db 9c 3a aa 3f 83 7f 7f f7 22 1c a5 3f
       0.0512284296231053 0.04123029013840009
0000b0 ef 7d 03 47 b6 27 81 bf 81 91 d7 b5 b1 0b 9c 3f
       -0.008376525919117276 0.027388359760054385
0000c0 77 75 1b 6b c8 82 87 bf a9 f3 07 46 30 1b 96 3f
       -0.011479917305616578 0.021588091158253473
0000d0 a1 5c 72 bd 39 59 be 3f b2 48 2d 99 9a 4d ba 3f
       0.11854897380031783 0.10274664153738192
0000e0 77 b4 3c 93 f5 86 ca bf 68 7a e0 4d 29 63 c4 bf
       -0.20724363030732082 -0.15927616407948908
0000f0 5e 0b 85 e3 94 8c c2 bf 43 2e 00 4a 2a 05 b8 3f
       -0.1449152098594721 0.09382881457002505
000100 70 47 d8 ca 72 38 68 bf 93 8f 3c d2 4b b3 85 3f
       -0.002956604198296846 0.010595886567507573
000110 e7 1a 4e 8f 67 3b 99 bf ed 95 48 fc 51 bb a9 bf
       -0.024640672799729393 -0.050257265135126385
000120 85 76 76 15 92 f0 a0 3f 6a 99 50 71 9d ee 9a 3f
       0.03308540832516108 0.02630086902731802
000130 14 75 7d 71 cd dd 97 bf c4 1e 79 ab e1 3d 85 bf
       -0.023307046939739243 -0.010371935887760649
000140 2d 31 e6 d9 be 6c 91 3f 33 6f 20 50 ec 94 a8 3f
       0.01701639370871637 0.04801119306668369
000150 ea 06 a8 ce 41 6a a4 bf 9d 3e b9 4d 86 af ac 3f
       -0.03987317702923383 0.056026646602387965
000160 33 a6 ca 14 f9 48 a4 3f 5a d0 72 99 c1 f6 bd 3f
       0.03961923960498517 0.11704645153332774
000170 98 4e a9 00 ed 4c af bf 99 ce a9 b4 50 f5 ad bf
       -0.0611337722117728 -0.05851223187792449
000180 56 3e d4 2f 88 bc 9d bf 66 73 9b 0e 3a a3 a5 bf
       -0.02903950492787851 -0.04226094654379757
000190 7e 7d f7 4f 6e fa be 3f 39 19 30 9a 3f e4 8a 3f
       0.12100877239526217 0.013130661862316916
0001a0 b9 53 96 3d 8c 7a 99 bf 9f f9 e5 cd 0e b9 a9 bf
       -0.024881545313821116 -0.05024000419051621
0001b0 f0 6e 4c 7c 0b 7c b4 3f b0 65 26 46 f9 28 b5 3f
       0.08001777443535807 0.0826564594521162
0001c0 38 a7 1a ad db 18 cc bf e7 5f 6b fc 86 e8 c1 bf
       -0.2195086093172962 -0.1399086697117575
0001d0 ce 3f 14 8c c1 70 a0 3f dd 46 dc 8d f3 d4 8a 3f
       0.03211026034307417 0.01310148502992397
0001e0 56 7b 7c 8f c7 2e 66 3f f4 d8 44 a5 7a 9a 48 bf
       0.0027078530946619645 -0.0007508372168903142
0001f0 87 25 5a 8e 6f bb c1 bf 20 c3 24 f4 39 f5 c1 3f
       -0.13853258562839363 0.14029621525835356
000200 16 80 9e 86 b8 cb bd bf 94 1a 4b dd da aa 92 bf
       -0.11638978277778764 -0.018229884869266202
000210 65 84 64 d9 d9 de c2 bf 51 bb 0f 06 37 d6 c0 3f
       -0.14742587199092153 0.13153732105225882
000220 c9 ba 23 5c e9 36 86 3f 00 d4 81 c1 10 48 a1 bf
       0.010846922993065349 -0.03375294077060431
000230 6d 9c 5c a1 e0 e4 90 bf 53 ac 88 42 2e fe 8c bf
       -0.01649809822916064 -0.014156686215832581
000240 47 77 58 c7 d4 82 b8 3f 7f a9 e7 b0 7c c9 91 3f
       0.09574632517657476 0.017370174691600845
000250 6f 34 f1 07 5f 29 d0 bf b6 39 e7 b2 eb 7d bd bf
       -0.2525250985680207 -0.1152026473784876
000260 87 7d b0 e7 19 0b c6 bf a5 0d 91 58 df 3c b2 bf
       -0.1722137814804052 -0.07124133980055676
000270 2a fb 20 40 54 66 ac 3f 9d 6e 3a e1 89 ae ab bf
       0.055468209102846736 -0.05406599878662386
000280 db 90 65 a5 14 e2 c2 bf bf 6d a6 38 ff 9b bd 3f
       -0.1475244338609006 0.11566157467898729
000290 57 84 a2 78 c0 bc b2 bf 5a aa 58 16 0c 11 b5 3f
       -0.07319262452303242 0.08229136987271471
0002a0 65 b5 94 6b 01 37 86 bf 5f ac c7 3c 75 8d 98 bf
       -0.01084710225640135 -0.023977119288172918
0002b0 5a 05 e0 66 2f 2b b3 3f f6 08 1f f5 63 35 a0 bf
       0.07487770330046342 -0.031657336875939565
0002c0 e7 8b 43 8d 0a 4d ae 3f 4c 58 66 54 c6 98 99 bf
       0.059181527847407094 -0.024996851827005437
0002d0 ae 02 d1 c5 03 cb bc 3f 2c c9 52 72 21 29 96 3f
       0.11247275905135254 0.021641275980706684
0002e0 0e e2 4f 19 20 92 92 3f 2a c5 32 5d e1 3c 98 3f
       0.018135549111294273 0.02366974002206238
0002f0 f4 77 1d 0a a0 72 a8 bf c9 8f 5d f5 9a 64 9b 3f
       -0.0477495205256985 0.026750966287536735
000300 fe fc 4f 10 a9 3b 52 bf 8b 35 fd 1c 09 a5 a7 bf
       -0.0011128569615264645 -0.04618099669333294
000310 60 1c 87 b5 4a 62 b4 bf 1f a9 1e 67 75 c3 bf 3f
       -0.07962481433706747 0.1240762116200682
000320 0d 03 e1 09 c2 0c b2 bf 7d 75 e4 a9 a7 19 a0 bf
       -0.07050717106995937 -0.03144573162920048
000330 3b a9 6e b8 f2 01 a6 bf ee 8b f3 58 47 db b1 3f
       -0.04298361302729111 0.06975217744506754
000340 9a ec 64 68 bb 21 96 bf 07 42 e8 db 96 43 46 bf
       -0.02161305260345312 -0.0006794439903519697
000350 fe ec 06 19 f9 c3 aa bf 18 9c db 47 22 75 91 bf
       -0.0522764056254008 -0.017048392902236115
000360 ed b9 d3 5a 7d 8d b6 3f 49 c7 63 82 9e a2 9d 3f
       0.08809646098573128 0.02894065543018279
000370 7d cb c1 da e7 8c cf bf 0c 8d 41 d1 95 a0 c1 bf
       -0.2464876001500577 -0.13771317212658862
000380 44 30 41 b7 29 c5 ba bf ca 77 3d e0 c2 57 a1 3f
       -0.10457096790304471 0.03387269007974643
000390 b1 25 44 76 dd 21 8c bf 20 51 f0 82 b4 f2 ac bf
       -0.01373646752519417 -0.056539193137867594
0003a0 cb cf 85 95 04 56 b0 3f d9 40 96 fb df cc bf 3f
       0.06381252909142103 0.12421989338168106
0003b0 6e eb 0d 9c 6b 43 a0 bf 7b 87 61 f6 94 d8 9b bf
       -0.03176437644920936 -0.02719338182249185
0003c0 92 50 5f c0 c2 00 b9 3f 43 85 0c 35 22 43 b0 bf
       0.09766785809125825 -0.06352437777652135
0003d0 2c 54 2f 55 cd ee 8f bf 54 9a 10 f7 9e 5a b0 3f
       -0.015592197572837994 0.0638827660737687
0003e0 7c 6c e9 f2 6e 9d a5 3f 6a 97 88 0c f1 1b bc bf
       0.04221674647552562 -0.1098013549422753
0003f0 ef f5 5b b0 5a f7 c1 3f e0 b3 b1 26 7a 50 99 3f
       0.14036115275659664 0.024721058475211666
000400 61 f1 84 bb 83 eb 98 3f 8d 96 f2 f5 84 58 af 3f
       0.024335916824598573 0.061222224257375314
000410 07 dd 7b e7 d6 03 9a bf 14 21 26 9e a8 a9 b0 3f
       -0.025405271414425303 0.06508878575380478
000420 39 77 8e 10 cf 8b a5 3f 9f 9b 76 9f f0 cf ac 3f
       0.04208228184800906 0.05627395578931459
000430 65 9f 3d 6d 4f 99 c0 bf 76 38 86 79 88 a9 ab 3f
       -0.12967865785617075 0.05402780993891636
000440 3b 63 06 27 a2 a1 aa 3f bd 76 3e 01 db 16 73 3f
       0.05201441503886036 0.004660468566638873
000450 d0 6a b7 9a a5 02 a4 3f c6 ce dd 31 01 21 a7 3f
       0.03908269418362453 0.045173680627070875
000460 1e ae 86 08 0d 36 96 3f ab 4c 1c 09 dd b5 ab bf
       0.021690562863723277 -0.05412188278401094
000470 7e 31 23 aa 6c 50 a4 3f 2a 8c fa 18 17 91 b0 3f
       0.039676090019926655 0.06471390113669942
000480 33 15 76 b1 aa 70 c0 3f 06 d5 9a a6 6a 61 98 3f
       0.12843831696606287 0.023809114855528633
000490 da 59 9f 88 5e 4e b0 3f 90 ac 78 d7 45 66 69 3f
       0.0636958201933803 0.003100525292912666
0004a0 0f ce 10 7f 14 0d a3 3f 6a 58 a7 ff 9a f4 59 3f
       0.03720916796774187 0.0015841973932899885
0004b0 36 9a 22 4c ae 68 9f bf 12 fa 22 18 a0 b0 83 3f
       -0.03067276324932263 0.009614229904738845
0004c0 6a 5a 50 c9 07 1e 90 3f d9 a5 f5 43 87 30 c7 3f
       0.01573955694410715 0.18116846865022643
0004d0 45 96 6a 69 5e 70 c1 bf de cf 08 54 87 18 c5 bf
       -0.13624172351153355 -0.1648110542606664
0004e0 cd 96 56 f6 24 98 a3 bf 54 04 c4 9f e1 e8 c6 bf
       -0.038270144529901275 -0.17898197461184628
0004f0 e8 c9 b4 3f ba 62 93 bf 5e d1 cb 11 e8 12 96 3f
       -0.018931303156202534 0.02155649765605127
000500 ea 24 5c 50 36 8f ae bf 01 9a ad db f2 58 a2 3f
       -0.05968637209850576 0.03583487445466816
000510 db 1b 31 27 e7 f4 bf 3f bf bd c5 90 71 9a a0 3f
       0.12483067232925242 0.03242831127397094
000520 83 c4 d3 d1 ea 2c ac 3f 17 be ce fb dc 5f b2 3f
       0.05503019152991675 0.07177525661131089
000530 8c cb 8e 4d 1d 10 96 bf 73 99 0b 31 e3 74 64 3f
       -0.02154584680438236 0.002497142537652036
000540 24 5d f5 c4 e9 9d 9b bf 2b 77 49 a9 c6 73 94 bf
       -0.026969578405752107 -0.019972900469262072
000550 43 fb ca 79 61 92 c0 bf 90 22 44 f6 06 8a be 3f
       -0.12946718642157337 0.11929362785680042
000560 96 f6 40 c0 55 5f a4 3f 8e a3 e8 f1 66 1a 8b 3f
       0.03978984805915535 0.01323395181414513
000570 d6 5d 8e f4 f9 e5 99 bf ef de 96 01 d5 16 b8 3f
       -0.02529135279800506 0.09409838951875903
000580 46 1e 7b a4 54 50 aa 3f c1 af d8 e6 bf 8d 7a bf
       0.05139412410568105 -0.006482839218317994
000590 d9 66 16 f4 d6 0d 63 bf 13 ca 27 9a 36 0b ae 3f
       -0.00232593520258893 0.05867930061130635
0005a0 bc 68 60 e3 64 5a c2 3f a3 73 e5 32 76 7b c1 bf
       0.14338360884068446 -0.13658025250597658
0005b0 f4 76 a4 c6 bc 4c 8d 3f db fd ac 6e c8 a0 98 bf
       0.01430652123650187 -0.02405083823691521
0005c0 d0 8c d9 98 d5 91 96 bf d1 85 56 dd 72 c1 6e 3f
       -0.022040688947879528 0.003754352898525972
0005d0 46 c1 12 d6 7a fb a3 bf 18 50 a8 b4 be 19 8e 3f
       -0.039028013832082695 0.014697542083958168
0005e0 5c d4 c1 16 09 47 ad 3f 17 f3 89 51 c2 71 b6 3f
       0.057182582881900784 0.08767332544989546
0005f0 c3 21 93 f0 98 17 bd bf 27 e1 b9 33 63 08 d0 bf
       -0.1136413180676135 -0.25051193286300805
000600 ba 63 38 6a 0f 0f c2 bf c9 eb 22 99 82 97 be bf
       -0.14108460127388672 -0.11949936140710728
000610 30 2d b6 1a 3d d3 a9 bf 34 f2 7c da 84 05 9c bf
       -0.050439748297402054 -0.027364803157285247
000620 9d 49 cc 9d 74 b5 9b bf 57 6c 18 6d 40 34 a2 bf
       -0.027059385424828986 -0.03555489856463428
000630 98 5e 99 18 f9 da 82 3f 5b 90 9c 4e e9 42 c1 3f
       0.009206720412449784 0.1348544725270838
000640 69 41 46 08 b9 5f a6 bf 73 44 29 d9 d5 ba c0 3f
       -0.043699056873381555 0.1307017622334886
000650 ee d9 39 62 e7 fa 95 bf d8 0d 0c 59 ff da b5 3f
       -0.02146493470214666 0.08537288593293313
000660 6a 1a 32 fd 38 ce ac 3f eb ad 92 d5 18 27 a5 3f
       0.05626085367935192 0.04131391150562166
000670 ad 01 2d 7a 6f 53 c1 bf 1b 42 8d 71 e0 61 bb 3f
       -0.13535874810805862 0.10696223041782853
000680 a4 ad 42 4d 76 4d b2 3f 08 71 16 77 aa a0 7b bf
       0.0714944780944991 -0.006745019797929304
000690 cc 80 ab b1 7f a0 b0 3f fd f7 6e 40 bb 4b b3 3f
       0.06494901740689157 0.07537432025034714
0006a0 d5 65 f6 30 bf 06 b4 3f 05 b6 67 05 34 c8 95 bf
       0.07822794862149547 -0.02127152712812654
0006b0 66 ef f2 08 b9 fd a1 bf 54 82 86 0a 5d 62 4f 3f
       -0.035138876287844664 0.0009577707578963348
0006c0 69 25 2f 30 5a 39 c4 3f 03 f7 a4 18 f2 00 b9 3f
       0.15800025322668468 0.09767068006200579
0006d0 a1 29 30 bf 59 ff cd bf fb 37 56 74 8c 86 c0 bf
       -0.23435518107755818 -0.1291060989428273
0006e0 57 7f ca 13 68 15 bc bf 2d 4d c0 c0 bc 19 85 3f
       -0.1097016380613217 0.010302996284770128
0006f0 39 f7 a1 c7 7d 64 9b bf d3 a2 06 87 79 7e 82 3f
       -0.026750531491862992 0.009030293877758144
000700 a4 53 2c e1 22 0f c2 bf 50 8d 1f 11 38 58 c2 3f
       -0.1410869216421392 0.14331723056884949
000710 bc 8f 16 72 fd 2a a7 bf 75 f0 17 57 9c bc c1 bf
       -0.04524986283948304 -0.13856844189274722
000720 56 74 5f 19 84 a0 c4 bf 38 2b 32 4b f6 ba b6 3f
       -0.1611485599413835 0.0887903150161663
000730 63 d1 c5 36 41 e3 4e 3f 59 b3 d0 44 1d 94 b3 3f
       0.000942618220092711 0.07647879533824432
000740 54 77 f1 48 ae 1a 95 bf f3 b5 90 5f 31 17 ac bf
       -0.020609591676808606 -0.054864447513278146
000750 fe fb 37 c9 f8 76 bd 3f a9 58 4d a4 db d9 ab 3f
       0.11509661591115614 0.05439649944916997
000760 27 7f c2 1c 95 c6 98 3f 8a 83 bc b8 5c 65 b4 3f
       0.024195032005649566 0.07967166433492259
000770 22 e7 3f ee 7a dc a1 3f aa e1 c5 3d 2b 15 b0 3f
       0.03488525541611255 0.06282301195267928
000780 90 ad 3c 60 12 8b 9e 3f 16 5f d4 b6 b5 27 ac 3f
       0.029827391742555387 0.05499046189123484
000790 52 d4 b4 cc b9 b8 bd 3f e2 66 ef 5b f3 db bc 3f
       0.11609994170869811 0.11273118013869124
0007a0 11 6b 95 a5 7d 3d ba 3f 8e 58 a7 f1 f7 9b c5 bf
       0.10250077526636071 -0.16882228183266473
0007b0 35 25 95 42 af 37 b9 bf df 10 bf a7 5e 61 83 3f
       -0.09850592971374257 0.009463061804020288
0007c0 5c 6c 8b e1 55 90 a4 3f 22 29 72 cf ef cb b0 3f
       0.04016369226675273 0.06561182798956058
0007d0 6e 9e e8 cb 4a 39 97 bf 40 fb e4 a1 e3 46 ba bf
       -0.02267948979911554 -0.10264418318273005
0007e0 70 15 47 3c 27 8c b8 3f a7 fe 3c 8e 12 22 b8 3f
       0.09588856908438514 0.09426990482915674
0007f0 fe a4 7d 76 5f fc a5 bf ba f2 3b 03 19 cc a0 3f
       -0.04294107743664631 0.03280714191894192

3.bias f8 [64]
000000 d3 e0 ba 0c d3 50 ac 3f cc 78 b3 89 c0 31 a1 bf
       0.05530414133449004 -0.03358270340844313
000010 6d 51 b6 5a 06 f7 87 bf 88 38 ff d6 0a f7 81 3f
       -0.011701631205860175 0.008771977125345623
000020 8d 62 f0 50 10 ae 87 3f 23 b6 24 43 9d fd ac bf
       0.011562468977033969 -0.056622423597542125
000030 e6 75 48 12 fe 5f ab 3f 7b 5f 01 79 25 ee 99 bf
       0.053466739398782256 -0.02532251883562207
000040 45 37 53 9a d1 c6 a7 bf ee 01 cd 2e 00 58 a7 3f
       -0.0464387417683683 0.04559326716708144
000050 da 25 f5 1a b9 43 79 bf 86 a1 d3 ea 2b 23 b5 3f
       -0.0061681013751892725 0.08256792529176069
000060 8b 8f 29 09 f2 b6 b4 3f ae 97 ef 57 58 ce 80 bf
       0.08091652606668569 -0.008206072028723668
000070 0d f3 32 ed c6 43 bf 3f 21 97 14 3e 7c 86 7e 3f
       0.1221279458140538 0.007452473947784617
000080 02 cc c9 ce 03 f8 ac 3f 85 31 05 7e 79 fe b3 3f
       0.05657970332404007 0.07810172392527732
000090 43 e9 04 51 78 b2 ac 3f ce b0 f5 52 74 81 8f 3f
       0.05604911793712344 0.015383633405427945
0000a0 84 74 83 d5 b3 aa 9a 3f bb 10 e2 f2 c7 79 77 bf
       0.02604180327113116 -0.005731373834468363
0000b0 86 24 48 40 6a ed a2 bf d9 41 af 5f c9 25 c0 bf
       -0.03696758303346663 -0.12615315601443802
0000c0 e5 c2 00 b7 8a 64 c1 bf 45 93 d8 21 d7 4a 9e bf
       -0.1358807939118584 -0.029582368317409253
0000d0 c4 7f 98 a5 e8 77 70 3f 0d b8 eb 76 05 09 93 3f
       0.004020603920736169 0.018589101203296866
0000e0 f1 2a e4 27 3e ee ac 3f 7a fa 4a 97 3a 79 a3 3f
       0.056505148286381764 0.03803427788578957
0000f0 c7 3f 15 bb e4 56 7d bf 74 f1 8a d1 d0 ee 7a 3f
       -0.007162946204815008 0.0065754086469350555
000100 3d a2 3b 52 31 ca 96 3f df d3 e9 21 7a 8b a7 3f
       0.022255678791142087 0.04598600067121316
000110 4c 37 38 56 ce bb 94 3f 3b 27 36 49 77 e3 a5 bf
       0.020247673046518685 -0.04275105255790242
000120 9b 2f e4 e6 49 dd 97 bf 5b 84 bc 6d 05 ae 94 bf
       -0.023305086820115766 -0.020195088217523565
000130 d3 4b 3b 71 d5 f6 a0 3f 38 a1 35 20 4f b2 88 3f
       0.03313319213125223 0.012058847589927355
000140 f1 f7 04 77 ce 70 92 bf 33 00 b3 be 6c 17 aa 3f
       -0.018008447660797292 0.0509599669253479
000150 a7 61 45 31 67 fc 83 bf dd ea c4 eb 71 ae a8 3f
       -0.009758764449245684 0.04820590975801562
000160 cd ad 92 b6 9c 05 a2 bf bb da f8 df ba fb a3 bf
       -0.03519906738923915 -0.039029922333090515
000170 6c b0 65 a5 91 50 9f 3f d6 3e 68 77 f5 97 75 3f
       0.030580783577008594 0.005271872380504047
000180 7a 7a 02 e8 64 ca 74 bf b4 9e 7c 95 da cc 8d bf
       -0.005075830617129124 -0.014550883948302264
000190 51 a5 0c de 3a e3 a3 3f 03 63 18 19 1c 2d 4d 3f
       0.03884300194324431 0.0008903872678188432
0001a0 f4 67 5d 17 25 ff a1 3f 25 e9 5e d8 39 69 ae 3f
       0.03514972601142566 0.05939656034702726
0001b0 fe 3e 25 28 fa 8f ab 3f 6b 13 93 eb 8c c6 a9 3f
       0.053832833672116095 0.05034294486680476
0001c0 57 a3 f0 5c e2 ff b0 3f 67 c9 a2 2f fa b9 a4 bf
       0.06640448349993498 -0.04048139411442513
0001d0 d7 36 78 2e 56 cc a5 3f 75 87 08 73 9c 88 99 3f
       0.04257458989387224 0.024935192605091545
0001e0 92 59 7f 30 d9 26 aa 3f 22 95 b1 07 d5 a9 a2 bf
       0.0510776397419931 -0.036451966466112276
0001f0 b3 68 54 9b 3f bb 7a bf 48 87 ea fd 58 b6 66 3f
       -0.006526230300801727 0.0027724969980490767

7.weight f8 [1, 128]
000000 b4 0a 0d 0d 51 4f b5 bf 8a 72 8f 14 75 44 a8 3f
       -0.08324152535082413 0.04739728809338313
000010 a4 2e 76 e4 6c 62 95 3f b8 41 bb b9 6a 9c 94 bf
       0.020883275455658393 -0.020127933107518564
000020 ed 7b dd 85 cf b9 b8 3f 1c d5 de 89 f9 94 b9 bf
       0.09658524530594521 -0.0999294244382622
000030 79 a4 b3 ab 9b e4 b0 3f 7f e2 1d 48 b8 d5 b3 3f
       0.06598828260361413 0.07747985611593754
000040 2d b1 2c 9f 7a 4b c9 bf 35 3b f2 48 50 39 b1 bf
       -0.19761593601413932 -0.06728078633225894
000050 a0 88 cb 72 bb 36 b3 bf 54 95 70 22 56 2f b0 3f
       -0.07505389740575419 0.063222297104024
000060 a4 5f a6 bb f9 c6 c3 bf a4 9f 1e 21 7b 9a a3 bf
       -0.15450975096314068 -0.038287971299097806
000070 47 0b dd 5a 85 86 cd 3f a7 ab 55 f6 44 1c b4 bf
       0.2306677526158529 -0.07855635656384995
000080 aa 97 ba 61 24 fb cb 3f 04 5c 12 2d 27 80 a4 bf
       0.21860174915235336 -0.04004023003761151
000090 22 59 a8 f3 2b cd a6 3f e3 85 d3 d1 46 42 71 3f
       0.04453408574424801 0.004213596953577678
0000a0 4e 85 94 f3 bd 93 a6 3f d5 cb 9e a9 c8 b8 97 bf
       0.04409593199148763 -0.023165831902314544
0000b0 80 d9 39 ae b4 38 bc bf ac 0e 10 d8 87 0a d3 3f
       -0.11024026158870548 0.297517739294771
0000c0 d8 05 4a 01 8d 9c ca 3f db 17 4f 8c c3 48 b9 bf
       0.20790255129763469 -0.09876653838645615
0000d0 c2 e7 58 79 59 63 c2 3f de ea ef 9a c3 e3 96 bf
       0.1436569063678786 -0.02235322602426037
0000e0 a9 95 3c 57 9a 46 c1 3f 5b 73 54 51 42 1c b3 bf
       0.13496712932207558 -0.07464994893639469
0000f0 d8 c6 a3 77 89 c4 88 bf 93 0d 1b d9 6c 86 b2 3f
       -0.012093614543548112 0.072363665584865
000100 76 96 2d 2b ae 21 a3 3f 27 29 8b e5 9a f0 a0 3f
       0.03736633565021645 0.033085670967539386
000110 79 cc b1 41 eb d3 c8 3f 9f c1 a5 72 b7 bf a0 bf
       0.1939672537588171 -0.03271268152718964
000120 7f 1b 71 7e 3c d7 c1 3f be 68 cc 29 1e bf 9c bf
       0.13938099073331142 -0.028072806645561547
000130 d9 62 a7 89 fe a7 91 3f 97 2f 13 0f 8c b7 b1 3f
       0.017242409850811356 0.06920695655861518
000140 20 20 53 fd ab e8 c8 bf ef ed c3 e0 17 32 a5 bf
       -0.19460058087702325 -0.041397806346107895
000150 12 e5 c5 86 a1 6f be bf 37 c1 a7 a0 d2 98 63 3f
       -0.11889085331303686 0.0023922075099493084
000160 74 14 18 ac 4b 7f b3 bf 72 54 d1 8a c3 36 63 3f
       -0.0761611266280669 0.002345449369878732
000170 3b 70 f8 62 c6 39 b4 bf 6b da 51 62 e1 eb a9 3f
       -0.07900657573958451 0.050627749683305044
000180 7b 38 8a be ad 00 b3 3f 40 6f e7 cc 86 0a b5 3f
       0.07422910596707936 0.08219187262096472
000190 3f 2d 38 9f 34 f7 c2 3f 0c 67 d3 9a 11 f2 57 3f
       0.14816911482226122 0.0014615222856292935
0001a0 a4 30 51 0f bc 16 80 3f 4d 18 ce 54 ce 2e a7 bf
       0.007855862824861788 -0.04527897629945752
0001b0 50 9d 20 ee 04 80 b9 3f a3 2f dd 0d af 32 b3 3f
       0.09960966886193501 0.07499212349392663
0001c0 d9 56 eb 1f 26 6b 88 3f ac 88 98 be aa 9a c9 3f
       0.01192312035474734 0.20003256136357572
0001d0 6e 31 1e 5e e5 6f cd 3f 07 19 b4 be cf e0 c2 3f
       0.22997729392626404 0.14748570262617752
0001e0 13 70 f4 83 e0 19 c9 3f 6c be a0 7d 0a 39 b1 bf
       0.19610220378024276 -0.06727662627303638
0001f0 6e 04 56 3b c7 02 b1 bf 31 c5 cd e9 2b ae ad 3f
       -0.06644864271767556 0.057969448366643646
000200 56 a5 68 0d fb e5 b4 3f 63 20 32 bc 82 48 b0 bf
       0.08163422658312433 -0.0636064252340716
000210 a6 a0 b4 24 d7 1f c0 3f 6a 6e 94 00 38 e5 a3 3f
       0.12597169201149433 0.038858175345208704
000220 5a 78 89 05 2b 00 ba 3f 87 36 99 dd 1c 70 a3 3f
       0.10156506428890691 0.037964727449986184
000230 20 0d c5 e6 45 1c aa 3f 8f cd 05 3c c8 54 aa 3f
       0.050996956272252314 0.05142808659266073
000240 d1 4f c9 b0 e6 83 cb bf e8 0b 15 02 0a 3e 85 bf
       -0.21496280319354225 -0.010372236431640716
000250 9b a8 cd 73 43 26 bb bf f9 b4 34 2a dc 1d b8 3f
       -0.10605260445814439 0.09420562773148679
000260 28 a7 02 fc 7c 91 bd 3f 88 8b b8 5a 83 fc a5 3f
       0.1155012240657497 0.04294214708740812
000270 0f 1a b2 7d a5 31 b1 3f 4c 6c 9f 67 19 83 ad 3f
       0.06716379469626353 0.05764083280492879
000280 72 7d b5 3f 66 81 d0 3f 05 9f a7 ac 74 1b b5 bf
       0.2578979131848974 -0.08245019164280272
000290 54 f0 0f d3 0e c1 bd 3f 8b da 2c ed 54 f0 b0 3f
       0.1162270798958514 0.06616717138681787
0002a0 3c b5 32 d1 6a 11 c6 bf 54 5c d3 cb f0 d8 ab bf
       -0.17240653242826365 -0.054389500504549076
0002b0 2c cb c9 e1 92 ea bc bf b0 5e 69 5d 7c c9 ae 3f
       -0.11295431148918728 0.060130964663298925
0002c0 b0 02 50 84 a6 cd bb 3f 9d 3a 05 db dc 94 88 3f
       0.1086067269352593 0.012002683099720907
0002d0 77 42 90 5f c8 14 c2 3f de 75 05 36 1e 7e 9d bf
       0.14125923792063919 -0.02880141453475981
0002e0 e5 84 5e f0 e0 fa ba bf 78 50 ce e8 33 a2 b2 bf
       -0.1053906046713738 -0.07278751786935966
0002f0 e7 c1 5b 0f 4f ee a2 3f 9e 0c 2a 91 93 f9 c3 3f
       0.036974402069862404 0.15605396831606283
000300 09 cb 23 a3 fc c4 bc 3f 07 df bc a2 f9 55 b6 bf
       0.11238078101068195 -0.0872493765172032
000310 0c 57 94 83 c6 b5 c4 bf f7 65 00 1c 15 db a5 3f
       -0.16179734635141363 0.04268709151092403
000320 d5 18 b4 f5 f6 04 cb 3f 0d f6 e1 d3 d2 11 b0 bf
       0.21108901021233942 -0.0627719657222416
000330 6e cf fd 26 e7 9b a5 3f bc c9 7c 7d ce b4 51 bf
       0.042205070028017086 -0.0010807053094593474
000340 3b 5f 15 a2 bc 93 c3 3f 65 da 68 82 e1 57 82 bf
       0.15294607080681452 -0.008956682007107373
000350 a1 60 63 ae 7b f9 a5 bf 9b ed 8f df d4 e8 9f 3f
       -0.04291903022539257 0.03116161932483195
000360 aa 4a 6f 58 68 ef c1 bf f5 f1 e4 d6 0d 67 aa bf
       -0.1401186401186199 -0.05156749008390086
000370 bc 1b 80 02 e4 57 a0 3f 50 cd aa 94 c7 e3 c3 3f
       0.031920552544810715 0.15538878211155316
000380 ad ea dd ac ea f5 be bf a3 2b d4 3d 2a 4c b6 bf
       -0.12093989105589271 -0.08709968575946773
000390 f8 76 da 6e 9c c3 86 3f d8 b0 3a 23 43 e3 b3 bf
       0.011115286000229471 -0.07768649683083895
0003a0 ca f4 98 24 91 28 d4 3f 9d c0 fd 03 b7 b5 ab bf
       0.31497601102803385 -0.05412074969979239
0003b0 dc 23 e0 a1 26 09 d0 bf c7 d9 87 80 52 c9 a3 bf
       -0.2505585270706072 -0.03864534205415598
0003c0 0a 11 09 9f 08 53 c6 bf 3a 2b a4 16 e1 f4 b0 bf
       -0.17440898671532806 -0.06623656084790933
0003d0 45 f8 b1 46 14 13 b4 3f 3f c2 67 98 b8 37 b1 3f
       0.07841612554509066 0.06725648613770206
0003e0 6d b1 8e 91 09 16 d0 bf 3f ca 95 88 48 22 a8 bf
       -0.2513450547655996 -0.0471365610818748
0003f0 fa db c3 e6 1b a9 c1 bf 7f 01 1c b7 6a ca 60 bf
       -0.1379732968123049 -0.002049644878639067

7.bias f8 [1]
000000 7e 38 42 55 b8 05 a6 3f
       0.04301239052539162
