models/run2/6.pt (torch, 153868 bytes, 6 tensors)

0.weight f8 [32, 1, 9]
00000000: 41c7 5918 fe90 a23f 6558 fd4d 7a77 c63f
00000010: 47b1 723c cac3 cbbf ac59 9258 fdad ca3f
00000020: 4457 2d95 b83b b53f e4ed 6b53 b6bc d03f
00000030: ca80 b560 d10d d13f 18c5 ab25 faee d13f
00000040: f401 ba11 a895 d13f 63e9 fdd4 8f3b bd3f
00000050: c2a8 56e0 5534 d23f 3900 32ed 175a b2bf
00000060: 2cf6 2d50 26e3 d5bf 6c39 841c f870 d33f
00000070: 5bd7 d171 3e57 c63f c6c2 5f4c 3ee6 d33f
00000080: ee20 a4b4 1f59 d5bf d276 5276 2564 c8bf
00000090: 6b24 6b40 459b cabf 97ea ca6e 5fe4 b33f
000000a0: ff57 d338 20e6 ce3f 1ced ce9a 2fee d2bf
000000b0: b7ed 7d73 359e 9f3f c2f8 cb31 239e d33f
000000c0: 2e2d 84f9 4ad7 a6bf 84ea 9552 57ca c53f
000000d0: 512d 8f75 5dc1 cfbf e2a1 35b0 5431 a6bf
000000e0: 4ffd 1db3 8a03 c43f 987f dc33 ac49 c6bf
000000f0: e7f6 a35a 61d8 b93f eec6 cf3a a81b a73f
00000100: 2bbc 4d5f ad98 d43f 4c7e c1b4 409f c4bf
00000110: 1857 afaf c452 c9bf a2a1 2dca 1c4d c7bf
00000120: 739b a811 878d cebf 4cb7 aa51 0485 c53f
00000130: 6044 246d 4173 d2bf 6954 5805 9f73 d23f
00000140: 7cf7 b97f 3c53 a43f aeef 9117 50b8 d2bf
00000150: 4f6f 5f11 abf3 c33f 6ba0 c0fc a305 91bf
00000160: 4ef6 2dfc ac6d c63f 5e3c e348 dfab c0bf
00000170: 6c4f f21d 73f7 d03f bfdc 0afd 59cb ce3f
00000180: 6327 2489 bd21 a03f d978 de8f 5d5d c23f
00000190: badf de6f f164 953f e54a d651 ad5f d4bf
000001a0: 8b67 697e 85d9 763f 87d0 aa50 d974 b53f
000001b0: 0ebc 2ed3 1828 d23f 03ad 4bc8 339f d13f
000001c0: 1c9a e565 ea73 d13f 1af9 1609 60a1 a4bf
000001d0: ea4d 3fb8 5e1d d4bf 0e40 e11d 7612 abbf
000001e0: d331 9228 a447 d43f 7507 bd23 92ca 95bf
000001f0: afe1 0a10 a5c6 afbf fd0a 72c9 dd75 a13f
00000200: efb3 a2cd f796 c2bf ae3a b5f9 bf1a 83bf
00000210: f104 e8f3 ba80 ce3f 684b 3d14 00c6 c1bf
00000220: f7ee 1783 5a9f d3bf 4f1d cc8c 935d d03f
00000230: 2a89 3cf1 f017 b73f 24c1 c331 584d c6bf
00000240: 573b 9140 c480 c73f 6453 a2a0 dabc c73f
00000250: 0820 f13d 3a2d bbbf b7f2 7b65 84bb d03f
00000260: 303b 8be7 aa90 d4bf bf65 cc6c c31f c63f
00000270: 6f24 ac8a b0fe c7bf 0cef 676e 9a99 c0bf
00000280: d01e a23b 9a3c d13f d76d 2428 7a87 cdbf
00000290: 7cfc 8ff1 a9b9 c8bf 0c7c 6d34 0e77 89bf
000002a0: 696f ccdc fb2a cc3f 0966 984e 42d7 d0bf
000002b0: e37b a876 7376 ccbf 9764 855a ef31 c93f
000002c0: 7445 d0b9 9e13 79bf ebe8 7ff3 87e0 c43f
000002d0: 0716 d7cb ac76 c73f 1c38 27a8 0139 89bf
000002e0: 2481 6758 ab32 bbbf 34e9 71b3 b1ca b7bf
000002f0: 827a 21eb d409 d03f ac95 f56e 3705 d3bf
00000300: c57b c2db 06d2 c13f 7487 de00 5fc0 c83f
00000310: c423 0cc8 293e d23f baad 98e5 23f0 a43f
00000320: 1da4 bc64 1cc2 babf 276a b605 5ea6 c6bf
00000330: 6e1f 111a 80d8 bc3f 6ed8 f6d2 ab4b c83f
00000340: 15ee 1024 5f04 c9bf 85a9 1452 da28 d03f
00000350: e6c3 391a c403 d13f a932 063d a3cf d2bf
00000360: c148 94bd f963 d2bf 6361 c209 8ce1 d03f
00000370: 4a99 4b42 3f97 d13f 0486 ee0d 6c83 c0bf
00000380: a55a 24c8 2bf1 bfbf 63ae 9df0 daf8 833f
00000390: 87f2 1e13 b872 d33f 524c ded4 8a20 b1bf
000003a0: 0852 9833 e3a3 c53f 69ff 2708 8007 af3f
000003b0: ef4a d13a 2a5f d3bf 9490 64e0 0d19 bfbf
000003c0: 217b 69de a6b4 cc3f a61a 31f1 9347 b3bf
000003d0: 86ec 1f9b 2aef c53f bc60 f8aa 8748 d5bf
000003e0: ee35 5d9f 7ea4 ba3f b9a9 7207 39ee d23f
000003f0: af5f 9b20 bfa3 c03f 5d22 e976 ab14 c93f
00000400: 9042 fd37 49a3 d43f e815 f348 cf77 d0bf
00000410: 3a98 f7f1 5827 c03f 460e b879 90d7 b13f
00000420: 68e4 44d2 05e3 d23f a96d cfd3 d495 d13f
00000430: 3f21 c0ec 807d d23f fe9e 8868 95b0 cfbf
00000440: 6716 649d 1890 d23f c61e b765 9bc9 37bf
00000450: 45bf bf8e 052d 893f e3fc cf46 9691 d23f
00000460: e714 99e7 285f d13f 9d04 831a c46e c53f
00000470: 19ac cea7 01fc c1bf c902 c460 aaa1 bb3f
00000480: 3654 40ec 07a4 a83f ec0f 6762 6dc5 c2bf
00000490: 13de 373f 5f9e d3bf da3f 4881 e096 c4bf
000004a0: 089d 5a36 faa5 babf 89c9 8b2b d042 c33f
000004b0: 3ae2 3ef0 e81b c13f d577 c9b1 29ad c6bf
000004c0: 6ed6 0db1 cb49 b7bf 1771 75b7 74c7 c6bf
000004d0: 8469 a8bd 1f0c b1bf 38f0 43b5 7b4f c5bf
000004e0: 03ee cd15 aa62 cb3f 3c44 7cef ef06 bc3f
000004f0: 4959 c2cb 9666 a63f 70de d98f dce6 bc3f
00000500: 4cae eb78 f9a6 b23f 0f86 db90 ec85 ca3f
00000510: d6be 500a b387 cf3f 5541 ab86 1e05 d1bf
00000520: f5e3 a62c 6183 c1bf 3bcf f347 4929 d5bf
00000530: ffee 28f8 47d8 c8bf dbe8 5b9c 247e d03f
00000540: 50b2 32f3 6fc1 d0bf 843d f88e 251b c7bf
00000550: 9bf2 5e77 ed97 d33f 419c 5fd5 b85f a93f
00000560: 17e4 1ce1 0f23 c2bf 9e03 6f78 0622 d03f
00000570: a3aa b36f c68e d3bf 2cef d9d6 0ac1 cebf
00000580: 5f3c 1ac0 b062 bb3f 4121 f293 2581 cf3f
00000590: e6c5 8a3e b982 babf 4605 9358 4eca 9fbf
000005a0: 1e40 3110 9c7b d6bf 47fa f96b f0bb babf
000005b0: 5743 8160 4bf3 d1bf 1564 0a79 4560 c33f
000005c0: 4eec a94c 3181 cf3f 8b8c 9053 214b 9c3f
000005d0: 85bd 23d4 13d3 c93f a5fd e854 79ba cdbf
000005e0: eaf1 16d9 0e3c c03f d72a 09b5 c1c6 aa3f
000005f0: 4fbf 94e5 a9a0 c83f 5e97 7046 88ba d5bf
00000600: 136e 8fcf efeb 9a3f 8ae8 da1c bd44 a23f
00000610: dc0f 7f03 0775 d43f 1009 f334 4fc0 cebf
00000620: a322 fbac f54d cf3f ef1c cd3b 243a cf3f
00000630: dade 35d3 9335 c83f 425f 60a3 104d c3bf
00000640: 8cb4 b318 6c97 9e3f 10f4 e8c5 092f cfbf
00000650: 5259 84ea a73d d1bf 096c 335f 5111 c8bf
00000660: 0461 5f81 814b 5dbf 8632 7985 fe0e c5bf
00000670: 824d ee06 8f13 d43f 0ea6 8414 a8f2 be3f
00000680: a4ee f572 8503 7bbf bfe5 3eb1 2f81 c83f
00000690: 90e5 6a6f b73f ce3f 5b62 4cc2 cad7 ba3f
000006a0: 02e7 9737 bf16 c13f ad77 3e6f acfe bc3f
000006b0: ec77 9c22 02f9 cebf bb21 6837 1e71 d2bf
000006c0: 969f 4f39 df6f c23f ddbf d784 562f c9bf
000006d0: b63c 5f75 ca0c babf 17c4 273c b68d b5bf
000006e0: fe50 51a5 cd26 c03f 5dc8 0b27 ab60 d43f
000006f0: 9b8c fc39 7537 cebf e872 63d0 e7b8 c93f
00000700: 6e2f a2d9 43c1 d13f cf50 24e2 f78e c0bf
00000710: 10df 476a d880 d03f e9e9 7ce2 6917 c93f
00000720: 3901 7405 d8b3 d33f 13d9 698e 1394 b13f
00000730: d7d6 3eef bcf6 d13f df74 bc7f f98b c83f
00000740: eb8a 0788 ed82 d3bf b40b 48be 9607 acbf
00000750: 5cf3 9ef1 205a d2bf c360 e8c6 db35 a4bf
00000760: 926c 2860 36bb b13f 1ae4 55f4 0d7c c9bf
00000770: 9e41 32e5 4017 c63f 1505 c69c f4a7 a73f
00000780: 6b74 ca34 52d3 cfbf 5b49 f0cb 4498 b33f
00000790: e954 70f5 5189 cfbf cf78 79c0 5a30 ca3f
000007a0: f892 0869 7773 cdbf b73c bcc7 3265 aa3f
000007b0: 193d df89 06a0 c13f aa8c 1129 8b1b bdbf
000007c0: f0ca 007f d770 d0bf 1c47 7ca4 80b2 d13f
000007d0: 8a02 e392 64db bf3f 24e4 087f bccc d2bf
000007e0: 3c75 45dc 78b7 d33f 59f0 9f89 bd01 d33f
000007f0: 4848 0ae9 d816 a0bf 8382 d1c0 2947 d0bf
0.03626245543718066 0.17552117164695172 -0.21691253615916592 0.20843474221028424 0.08294252054232937 0.26151807924881454 0.26646837658155376 0.2802110069161059
0.27475930911171464 0.11419009160991815 0.2844443026357447 -0.0716872171487929 -0.3419891150477692 0.3037700918656785 0.1745374732742516 0.31092793901829585
-0.33356468811736206 -0.19055622365424668 -0.20786348004756702 0.07770344214342582 0.24139788412747973 -0.2957877170371874 0.03087695615202587 0.30652694571461947
-0.04461130424359748 0.17023746044636223 -0.24808853378486131 -0.04334511424059763 0.156358087024254 -0.17412331135073766 0.10095795119192595 0.04513288228907962
0.32181867892262755 -0.1611100084874003 -0.19783838823666922 -0.18204078552231545 -0.238694079992651 0.16812185275687808 -0.28828464182249114 0.2883069565007817
0.039697542754750764 -0.2924995641876603 0.15587366436272496 -0.016623079587731498 0.17522203744367676 -0.13024512347189704 0.26510312962022087 0.2405807958182091
0.031507418623802484 0.14347428822379163 0.020892879918136244 -0.3183396624746549 0.005578538379802721 0.08381422252097269 0.2836973249749811 0.27534193573110616
0.272699927815127 -0.0402936946006653 -0.31429260247133917 -0.05287522425408052 0.3168726345254786 -0.02128055899743893 -0.06206241436797499 0.034102373924744335
-0.14523217716978773 -0.009328365142804298 0.2383035365055899 -0.1388549898934699 -0.3066011696061958 0.25571144819010255 0.0902090634304257 -0.17423536710658383
0.18361714508724944 0.18545086711369685 -0.10615886699918076 0.261445139985692 -0.32132980930048216 0.17284434139655322 -0.18746001025309364 -0.12968759909551186
0.269323881374004 -0.23069693527291577 -0.19316601080933882 -0.012434111571279181 0.2200617626302759 -0.2631383674175543 -0.22236483854155073 0.19683639450048382
-0.006122226736822046 0.1631021441424488 0.1833091731370333 -0.01231576246655313 -0.10624190243061499 -0.09293661719303686 0.2506000801276188 -0.29719339214201557
0.1392220089955726 0.19337070028728542 0.2850441411579221 0.040894624497322465 -0.10452439746281113 -0.17695212630208454 0.11267853390120106 0.18980930138576774
-0.19544591198960917 0.25249345794386385 0.2658548599347895 -0.2939231964053684 -0.28735202325436765 0.2637662978463792 0.2748563907065501 -0.12901068382511494
-0.12477372776298042 0.009751997440353216 0.3038768946387695 -0.06690280625325443 0.16906394976889794 0.060604096408495796 -0.30268340820218403 -0.12147604683247187
0.22426305637323998 -0.07531094206306452 0.17136128019760494 -0.3325518769866098 0.10407248869633864 0.2957899639829083 0.12999714939246362 0.19594329172311378
0.32246618716912057 -0.25731260417918955 0.12620078863909773 0.06969550105719077 0.2951063683900146 0.27476998028370275 0.288910132600467 -0.2475764046114292
0.2900449311276589 -0.0003629688632966584 0.012292903345922599 0.2901359263923508 0.2714330922793366 0.16744281096001581 -0.14050312703815918 0.10793557035868696
0.048126456822651084 -0.14665000252546123 -0.30654126332908155 -0.16085439980133637 -0.10409511401177352 0.15047647596618344 0.13366424303764451 -0.17715951138501276
-0.09096978256806107 -0.17796191175410378 -0.06659124737089966 -0.1664881358227619 0.21394849838894467 0.10948085400401991 0.043751442311235574 0.11289766799915824
0.07286032869495179 0.20721203873749558 0.24632871631319259 -0.26593745375887085 -0.13682188682813004 -0.330644912973401 -0.1941003762930151 0.25769915837703444
-0.2618064761143488 -0.18051595192853764 0.3061479249698011 0.049558425947730196 -0.14169500820006029 0.2520767379865506 -0.305589303096591 -0.2402661847189561
0.1069746464729504 0.24612874721447933 -0.1035571839991217 -0.031045173793932145 -0.35129453259742316 -0.10443022380966581 -0.280474514239406 0.1513754693048958
0.24613014453265908 0.027630348897343764 0.20175407274608062 -0.23225323339464157 0.12683282470778973 0.0522976430407504 0.19240306577693864 -0.3395100295914427
0.026290652316545215 0.03568068482623328 0.3196427854675201 -0.24024381719034027 0.2445666403421188 0.2439618389127882 0.18913505375871048 -0.15078933694234747
0.029874505050362418 -0.24362299121449427 -0.26938817884492494 -0.188028499111937 -0.0017880215359494253 -0.16452008740670382 0.3136937682804374 0.12089014531070338
-0.006595155034456877 0.19144245295119153 0.2363194746047097 0.10485522502529802 0.1335066815807338 0.11326101032179166 -0.2419741314888023 -0.2881541768151938
0.1440390615309723 -0.19675714003051228 -0.10175767293479762 -0.08419360130916718 0.12618418285513394 0.3184001809414719 -0.2360674412858302 0.2009553687593304
0.2774209618880751 -0.12936304609377777 0.25786409739474525 0.19602702673894548 0.3078517964604717 0.06866571642772028 0.28068469394507417 0.19177168595425706
-0.3048662022030572 -0.05474539826175065 -0.28675101848403073 -0.039473407774666146 0.06926288459401267 -0.19909834318585312 0.17258464041925675 0.046203273904220556
-0.24863650872876816 0.07654218653650473 -0.24637817844692414 0.20460066221398285 -0.2300862562998629 0.05155333221602503 0.13769609195740243 -0.11370153191232882
-0.2568873157753577 0.27651992857964713 0.12444141946890333 -0.293746112878184 0.30807324896689514 0.2969812244407471 -0.0314243111107691 -0.25434345083161974

0.bias f8 [32]
00000000: 5eab 1f16 4355 cfbf dc38 0ecf 46a3 a9bf
00000010: 5ad2 9e68 7b13 cf3f 5987 67db f091 d0bf
00000020: a710 f815 8fe4 d23f 1415 2040 d778 ba3f
00000030: 0b5b d9d5 9afe bfbf 8db0 95b2 c7f4 79bf
00000040: 5669 3812 4465 a1bf 6c21 a72e 72b3 d43f
00000050: 228b f4b1 dc4f d13f e89e 03e5 f007 9dbf
00000060: ca60 719f a1f4 a1bf 037f 10d2 c7d1 b93f
00000070: 48bc a4ad e21a d23f 949f 0a1e eb6e d13f
00000080: 0a71 1596 8258 d03f 6d19 d1c3 a1f1 c3bf
00000090: 91b9 b468 aaa0 d43f ea11 8c81 1faf d33f
000000a0: 7aee 57ea c644 af3f a046 ecda 585e cebf
000000b0: 67a0 9b76 d1f0 c63f 5570 c239 49a2 cf3f
000000c0: 513e a6e1 e46b b0bf d90b 50f4 3c19 cebf
000000d0: a02a eff0 92f2 d23f dc19 cb48 4fdd 51bf
000000e0: 090c 617d 2f1f c33f 922a 9948 13b9 b03f
000000f0: b522 e4a2 0751 bdbf d68a 9448 ab83 c93f
-0.24478949146517953 -0.05007382657559997 0.2427820454446586 -0.25890752245151344 0.295200129942041 0.10340638461646662 -0.12497871132778131 -0.006336956089722301
-0.03397572252670737 0.3234525161356234 0.2704993951648921 -0.028350604989923506 -0.03506951400112397 0.10085724714781112 0.2828909583794865 0.27239492353191364
0.25540222794167333 -0.15581152020804315 0.32230625367346827 0.3075636639698859 0.06107160196912971 -0.23725424470517442 0.1792241887226311 0.2471400768307627
-0.06414633282678862 -0.23514520577745548 0.2960555413125494 -0.001090362001535553 0.1493892061426723 0.0653240253679235 -0.1145176670726283 0.1993307213206978

3.weight f8 [64, 32, 9]
00000000: 5f8f bb1b 888e a13f 5f56 f661 9f51 9dbf
00000010: 1a81 d190 c81e 83bf bb90 6be7 3273 ab3f
00000020: 38ba 25bd 2326 b13f 39d8 5175 9404 b33f
00000030: 669a 5936 3970 933f ab8c a203 a528 9f3f
00000040: cb0b 0235 ebfd abbf 12ef e25a d901 813f
00000050: c4d4 536f c825 a0bf 15c4 8fea cd84 9abf
00000060: d826 88ba c8fa 663f dde0 9fe1 9422 a63f
00000070: 01c3 46ae e632 a2bf 275d f27e d317 803f
00000080: 89c1 2d0e e59f a4bf c748 53d2 a64c a9bf
00000090: 15cc b342 e1d5 7ebf f29a 6eb0 ae13 97bf
000000a0: b15b 3eda 5a43 973f cba1 b742 7753 8f3f
000000b0: 6b51 2661 0b38 abbf 7e3b 68bd a92d 5fbf
000000c0: 1d22 db6d b02d 8bbf 8edc 7713 2d21 943f
000000d0: 893e 09ce 117f 9b3f 6288 286a 7486 713f
000000e0: 758a 01cc 755c 89bf 176e f4f3 c1ab 94bf
000000f0: 4052 dda4 8ba6 a23f b139 fac1 e337 a3bf
00000100: 4c12 7aea 6575 9c3f e3dc 12df 1ce0 733f
00000110: cda4 b4f8 e333 98bf cf8a b935 af6e 963f
00000120: 4f5f 8adc 0213 abbf 5633 81ec 7723 a33f
00000130: 63cb 5307 10b7 a7bf 8b54 4327 ad2b a6bf
00000140: eed9 f34f 838c 69bf 7f79 b1ec 720f 9d3f
00000150: b7c5 e7d3 a14b a5bf dccb af1b 06cd ab3f
00000160: f018 12bf d6fd 81bf 9603 7ad2 dfb7 a83f
00000170: 7cbd d7a5 35d2 abbf d918 606d fc3f a4bf
00000180: 2174 3f91 76f3 99bf 9d72 1877 ecb4 93bf
00000190: 4536 c2ae 832f a7bf 15a1 5722 9738 843f
000001a0: 1968 0837 397a 9abf 4df5 b8fb 00d7 973f
000001b0: bf73 0659 d48c adbf a53a de72 551a 863f
000001c0: 62d2 9810 d170 aabf 78f2 2f71 6a6d a33f
000001d0: 20a6 4fa9 7774 6e3f f4dd 8b0d 269a 763f
000001e0: 6e10 ca71 89d9 69bf fdb0 d7a6 86af 43bf
000001f0: 607d 936b fb92 a7bf 2101 3978 c2aa aa3f
00000200: dea9 4ad9 7e94 a8bf 384b 4195 651c ad3f
00000210: 2f9a eed8 fc09 93bf f231 39fb 0c0d a83f
00000220: 88f3 3140 7465 a03f ddcf da33 2b92 a4bf
00000230: 1987 5634 ef1d 93bf 103d c8eb 8f38 9bbf
00000240: 162d 55a8 4729 65bf 4da4 5129 5af6 8cbf
00000250: 2c8e 8995 4bb3 a5bf 00fc 02b2 8fb6 aabf
00000260: f193 5efc ac24 7fbf d1ff 36ee 2304 a1bf
00000270: d255 d8d9 bc17 a93f dd19 51fd 6190 acbf
00000280: 1e1d 72e5 244a a6bf 4891 4164 dc1a a73f
00000290: 7d6a 2767 f1b6 a9bf 714d 82bf b306 a93f
000002a0: 5a8f 9d39 b044 aabf b7dd 519c 38bc abbf
000002b0: 780b 72b4 3472 a53f 2a7d 9991 93dd a0bf
000002c0: e178 7fda ede5 ac3f a342 9867 5a19 afbf
000002d0: 99c2 b23f 3a8f a63f 9dff 3ddf dc84 9abf
000002e0: 81e0 da00 261e 723f a321 ec4e 9dcc 91bf
000002f0: 0665 7b7a 233c a6bf cadd adfe 02e4 88bf
00000300: b926 20ff a8af 65bf c0fe 5639 1379 a8bf
00000310: b6fd 1a3b 97e4 883f 21e9 514f d7da a93f
00000320: 7860 b9dd 5a5d 813f 6e7d b591 acf2 ac3f
00000330: 18a6 08a0 53be 9b3f 9d37 7000 0d90 ab3f
00000340: 8696 a584 d6ad 8a3f d1ca 2475 800f 80bf
00000350: 3844 63ca 6334 abbf ab6a a582 637a 5fbf
00000360: 0292 5163 2384 a53f 90a5 82f0 77a6 a83f
00000370: 7a5d a6f3 988d a3bf 8c62 dd9b 8ba2 9ebf
00000380: 68e4 7be9 7541 993f 7233 a4ca 6843 ac3f
00000390: f311 74cd c31c 94bf 621a d25d 8764 adbf
000003a0: 034f 3682 e284 aa3f d1ca 0e08 103b b03f
000003b0: 6858 aca4 d029 7abf 1920 5c9a eaf5 633f
000003c0: 937a 691c c4f1 ad3f 92db 1fff 84e1 7a3f
000003d0: 7e83 aa82 b5f7 97bf 258e ecea 7519 af3f
000003e0: 2648 668f ca0d a53f 9d3f 9686 02ab 86bf
000003f0: 161a 1999 88c7 a43f d7e4 1daa 48ef 8fbf
00000400: b43a b168 c653 933f 9111 2ac6 aeb0 9a3f
00000410: 5d99 0475 e08e 86bf 0c02 2e71 14ac 9c3f
00000420: 8ff6 8fe3 af24 a53f cee4 cc5e 2415 ac3f
00000430: beba 5459 5401 a3bf c9af f2d6 be00 663f
00000440: 5d91 cd78 fc66 a83f d65b 29e0 94ac 8fbf
00000450: ec1f cc46 7cb3 893f 3537 0895 8a9b 8e3f
00000460: da6b 7443 30b7 9dbf 157b 16f1 73a0 acbf
00000470: 5e87 712f ed21 a43f c7b3 fc95 4f51 773f
00000480: beb6 acd0 1102 aa3f ff80 4588 c5a9 98bf
00000490: 368c 9c88 820c 963f a062 3b7f c66c a0bf
000004a0: 6966 ee8e aea5 94bf db2f 0ab9 a7c4 a5bf
000004b0: 2d2b fc95 535d a0bf 8322 ad7b 3637 703f
000004c0: 323f 7d32 8bb0 a23f a743 2b80 cd35 b33f
000004d0: 7d34 8d40 8520 86bf 660e 76b4 a16a a23f
000004e0: c0b6 5ffe 3c8a 933f 807f 3639 464f a4bf
000004f0: baed 791d e9d4 ab3f ed81 dea6 cde6 8c3f
00000500: 5005 83ff 0acc aebf 0aea df53 fb9c a83f
00000510: a949 5d90 70c0 a83f e6f3 bf0e 9af5 9abf
00000520: 6bcd 4eae 258b a53f 7313 7698 06d8 9f3f
00000530: e5ee 99d2 6921 8fbf 8cbd 29a1 d638 9fbf
00000540: 60f7 39a3 323a 9dbf 9055 09a5 1cb1 96bf
00000550: cfc4 a9d6 3ddb a1bf 8cd5 9e72 f705 753f
00000560: 9a8f b065 3466 74bf 51f0 48b4 eafe 94bf
00000570: 5918 ef77 4ca3 abbf f026 e258 f169 a63f
00000580: 42af 2c17 e8eb 763f 6a9c 2489 cdd6 81bf
00000590: 8656 1396 71f0 73bf 535a 0d28 8a15 ac3f
000005a0: 0df6 99a3 3340 ad3f 33af cdaa 0203 a1bf
000005b0: cd25 36b9 f682 a03f 8dcc d418 17bc 75bf
000005c0: a9a4 0527 d8df 99bf 8120 5ea3 5d2c a7bf
000005d0: 45b3 fcfa a624 a6bf b31f 5c8d 0739 8c3f
000005e0: 4a9e 3d66 cbb0 883f 71e4 15ca 790c 79bf
000005f0: a7ee 8f5a 7509 993f f113 a3a0 c445 94bf
00000600: a3d0 5102 26b1 a2bf 8f70 4f14 cd52 7abf
00000610: ec26 39fc 5df8 99bf 4b1f 81db 8393 a1bf
00000620: 353f 4186 e3f7 9dbf f4c0 85e2 5b3f ad3f
00000630: 8734 b924 c622 a33f e68c d936 b66e b03f
00000640: b5a3 2064 ef5b a4bf 7e40 fee2 e5c0 a93f
00000650: fc3d d5e3 0aae a03f 497f 7fb3 fb71 91bf
00000660: cd72 0a09 a2e6 ab3f 661a 3a5e 8136 a43f
00000670: 9c24 f955 ff86 81bf 327a 81ae 5b28 9dbf
00000680: 8550 3a66 defc 993f 1d5a ba2b 3bf6 a3bf
00000690: b59f 3200 7305 a43f 84ad 9dca 13c8 9b3f
000006a0: 2872 0f4f b355 a93f 8636 64c8 f4f3 97bf
000006b0: 6341 9a22 805b a2bf b82e 8f4a 66f5 ac3f
000006c0: 7390 0a00 d6e3 ac3f 71b6 3f40 f5b3 a33f
000006d0: 7dee 0ce1 2046 a1bf f24a 6ea4 0039 aebf
000006e0: dd20 2d91 36d6 9f3f c4e6 1dd8 8471 b03f
000006f0: ac9a b1fb fcbe a0bf 96dc d03f 35ac 7c3f
00000700: 5178 56d5 c8c1 a9bf a1f7 87c5 71e3 9e3f
00000710: f2e3 276e 9864 7a3f ef11 b4f7 ef5e a93f
00000720: 8575 191d aecf a43f 817b e36f f879 a43f
00000730: f7a9 2294 3fb2 943f 10de a939 88a8 b13f
00000740: ced9 25ee 4ed0 96bf de88 8ce2 f04a 8f3f
00000750: 293e e754 2e07 5c3f 77cb bbd7 6c91 9a3f
00000760: ee54 a294 a123 8ebf 5ebd cf5c 9a71 a53f
00000770: 84b3 b6a5 b16d 81bf 4814 0f3a 4b7a 8abf
00000780: 8019 1712 fcd0 9a3f 701a 703b 5a55 ab3f
00000790: b669 52c9 5517 9d3f a03d 8cfa 29e3 953f
000007a0: cb35 1747 d1bb a33f d15f 6ba6 52d9 96bf
000007b0: e604 605b 219b a33f 5311 799f 20a9 693f
000007c0: c637 2fd8 af29 aa3f 3582 c962 e689 ae3f
000007d0: eae5 08bc 07f0 98bf f99b c065 267d 99bf
000007e0: d7fa 87d7 7f41 943f e7e5 e78d 8a13 993f
000007f0: 1ad2 34b5 1508 92bf 38cc 138f db4e 98bf
0.03429055536778835 -0.028631677965299192 -0.009336058539873227 0.053613272428067536 0.06698821418624668 0.07428863395929931 0.01898278612352513 0.03042848429380444
-0.05467162153310986 0.00830430801976648 -0.03153826102235649 -0.025897233430388484 0.0028051300507784087 0.043232586423927556 -0.03554459454915638 0.007857944785696859
-0.040282400112917456 -0.04941293065498225 -0.0075281905403583775 -0.02253601981979165 0.022717876024753007 0.015295917247343823 -0.05316196022900751 -0.0019029767623839062
-0.013270738937891708 0.019657806695218265 0.026851919365354724 0.004278616661880093 -0.012383384979505177 -0.020186453356570846 0.03642689120775744 -0.03753577940834719
0.027791588245707197 0.004852402476152681 -0.02363544660071142 0.02190660252962112 -0.052879418775033764 0.037379977817727436 -0.04631853188938952 -0.043301974337432624
-0.0031187596028943087 0.0283792454687215 -0.041592652432778925 0.05429858291599718 -0.008784940439238359 0.048277849619814336 -0.05433814668128442 -0.03955067477368041
-0.025342800727106266 -0.019244856614124662 -0.045284380991784924 0.00987356256060016 -0.025856870635927096 0.02328111206428689 -0.057715068690618924 0.010792415206905057
-0.05164197280501949 0.03794415122681455 0.0037176453720249164 0.005518101352883321 -0.0031554874861417425 -0.0006007583121437062 -0.04604325950799182 0.052084042716616936
-0.048007930779323735 0.0568572754570113 -0.01859278749511811 0.04697456900303 0.03202403339034904 -0.040177679138110746 -0.01866887814470095 -0.026582955137255004
-0.0025831603585736536 -0.014141754518464245 -0.042383539203708714 -0.05217408226007336 -0.007603336072780729 -0.03323471339126594 0.04900922927133035 -0.055789053127728506
-0.043534424789920076 0.045126807440086625 -0.05022386917308539 0.048879258277476086 -0.051305300744188556 -0.054170388299947296 0.04188694670394616 -0.03294049408281759
0.05644171993456993 -0.06074030413231426 0.044061489368123215 -0.025897456288930355 0.004423283052965244 -0.017382104818382548 -0.04342757101194121 -0.012153647801581697
-0.002647237845853603 -0.04779872965764076 0.01215475224614591 0.050497749741184934 0.008478841678126722 0.05653895643876693 0.027093226092040096 0.05383339529372153
0.013026882098255099 -0.007842067313139552 -0.05313407750657756 -0.0019212695866232348 0.04202375972161933 0.04814505396764013 -0.03818967794648649 -0.029916936290961746
0.024663774848680126 0.05520179246568703 -0.019640979208832076 -0.05740759868881608 0.05179508056167317 0.06340122410510253 -0.006387534153665532 0.002436598023340519
0.05848515364481446 0.006562728422060087 -0.023405872440551694 0.06074112408375879 0.04112084389193198 -0.011068362934366688 0.04058482045052274 -0.015593116466094887
0.01887426389685727 0.026064616055479887 -0.011014703341584104 0.028000182540838067 0.04129552510128775 0.05484880120497736 -0.03711951818910596 0.002685902341530853
0.04766072249074924 -0.01546589192473206 0.012549372587741879 0.014945109055613063 -0.0290191212817311 -0.055911658458390225 0.03932133869308417 0.005692778475162314
0.05079703972147119 -0.024085127298691052 0.02153209646997941 -0.03207989028095892 -0.020163276170569597 -0.042515984857430765 -0.03196202474472041 0.003958905052805608
0.03650317183803366 0.07503971461416246 -0.010804215462167694 0.03596978500266061 0.019082024598836567 -0.039667314990992075 0.05435875401323238 0.014112097411101277
-0.06015047425308728 0.04807267569409042 0.048343198416336115 -0.026327521467454228 0.04207723381787328 0.03109751039075399 -0.015200449695150062 -0.030490258776294563
-0.028542319500494684 -0.02216000325491546 -0.034875805334090175 0.0051326433112327645 -0.004980282475148723 -0.020503680471151423 -0.05398024524724638 0.043777029132867074
0.005596071818938788 -0.008710485217831205 -0.0048679768526277475 0.05485183466833079 0.05713044521415265 -0.03322609267237766 0.032249174221827916 -0.005306329939503429
-0.025267960912434138 -0.0452603589938585 -0.04324838460738659 0.013780650140247852 0.012055958802832074 -0.006115413417654301 0.02445014348266619 -0.019797394089227486
-0.036507785590317775 -0.006426621524010425 -0.025361507911191447 -0.034328575654000014 -0.02926593310286237 0.057124015237492914 0.03737467954906842 0.0641893276129398
-0.03976390931376931 0.0502998199073099 0.032577839194910724 -0.017036373930636093 0.054493964770903604 0.039478342773738004 -0.00855826836699896 -0.028474266553866374
0.025378680219163136 -0.03898796948231029 0.0391040742627519 0.027130421868986968 0.049481967354698064 -0.02339155648319615 -0.03585434362787756 0.05655975017688547
0.056425750260388784 0.038482345669632496 -0.033738162490831926 -0.05902864463054937 0.031090595827920054 0.06423216129578707 -0.03270712444719001 0.007000167851450764
-0.050306583444794335 0.030164506608336365 0.006443591528744174 0.04955243967745903 0.04064697365968598 0.03999306073978116 0.02021121350905194 0.06897784622002967
-0.022279008183852693 0.015279657281614008 0.001710696454768521 0.025945377986271247 -0.014716398571446434 0.04188234694435765 -0.008510005826644969 -0.01292856951648437
0.02618783817686099 0.053385562663653796 0.028409328854289227 0.0213743743107081 0.03854230873876537 -0.022313395888744317 0.03829292526644128 0.0031324040571993144
0.05109929574938081 0.05964584308526747 -0.024353142596941803 -0.02489147182509652 0.019781110315302577 0.024488606368299328 -0.017608966050106735 -0.023738318069217196

3.bias f8 [64]
00000000: 9383 c354 7813 833f 5cf2 f0f1 c031 a1bf
00000010: 4ee7 e584 ef9e 98bf aa06 b78d dd2c 9a3f
00000020: 2b67 98ca a9f2 84bf 77b3 6240 1784 8c3f
00000030: 7f0c 46ce fa49 a13f 0285 e2bf 7ce5 92bf
00000040: 528b 15c5 e2bc a0bf a7e1 0330 d45f b03f
00000050: b340 ba31 a1b1 79bf 7d94 d57c 9722 a23f
00000060: 91b7 6d52 8ccf a93f 45b2 9850 10f4 833f
00000070: 4e15 85f1 d62e b63f 2e98 fd7a 2eca 983f
00000080: 139d 980f 94bf b23f d6b1 d961 8d20 a53f
00000090: d8e6 c1c1 38e1 b23f eec0 a9d8 04c1 a03f
000000a0: 8386 48e4 9c13 653f 0a3f 1fdf 02ee 97bf
000000b0: df14 8c95 f19f 933f 91db fdb6 d84a b2bf
000000c0: 3543 919f 4412 adbf 7296 20a6 2ce1 86bf
000000d0: 9f76 e523 b59a 703f 85c0 8a7f 4b55 a23f
000000e0: b8b3 c05a 5e93 b23f ea37 8b1e e04a a03f
000000f0: 2e95 7506 70d8 99bf bf89 0fe5 6ee9 8e3f
00000100: 674d eb2c e89b a43f 7804 6478 7c32 b03f
00000110: 88ec bca8 754a a33f 8d02 53b5 2a1b 9abf
00000120: de59 81dd 8144 a5bf 0213 6b84 b82e 96bf
00000130: 11a4 d1a5 245e a93f 8cd3 07b6 d591 9d3f
00000140: 3bda e0a8 0065 4dbf 2643 920a 3748 b13f
00000150: bfc2 fc26 93e2 9cbf 2664 3ef2 6737 a03f
00000160: 96d5 4e3c 3cac 94bf 7dbb 27aa 6243 94bf
00000170: d34b 12c4 aa18 823f a701 2354 c427 983f
00000180: 3633 88ca 698e 9ebf b3e9 6d99 d5a3 a5bf
00000190: 68ab 58de a2be 8c3f 0363 1819 1c2d 4d3f
000001a0: a8cc a229 2562 8ebf ebd0 6634 cd19 ad3f
000001b0: 673a b1c9 e390 a13f 49d6 e50c 498b b13f
000001c0: 2826 6485 82ca a83f 67c9 a22f fab9 a4bf
000001d0: 4713 7f7a a3e0 813f 7037 f12d 8f7d 773f
000001e0: 0841 c3d9 0048 a03f 2295 b107 d5a9 a2bf
000001f0: 1cab 23b8 61e6 98bf dd99 8a88 3665 96bf
0.00931447991064419 -0.03358271554359213 -0.02404379128117933 0.02556177308520683 -0.010228468413561473 0.013923818256751137 0.03376754539478898 -0.018453549586983982
-0.032691084440350196 0.06396223232503094 -0.006272916474373047 0.0354201640973679 0.05041159158905296 0.009742858371361804 0.08665221592408054 0.0242087614600665
0.07323575382962515 0.04126397914373896 0.07374911051183675 0.03272261757672533 0.0025728287021287723 -0.023368878238954095 0.01916482424987442 -0.07145456759995585
-0.05677999923557878 -0.011171673602869723 0.004053790644631099 0.03580699855717832 0.07256116595881579 0.031821254471296204 -0.025239706415409895 0.015093675961854623
0.04025197552041498 0.06327035845971973 0.03767745671071859 -0.025494258229402923 -0.04153829411432118 -0.021662600595635524 0.049546380273405195 0.028876628146423708
-0.0008970502110575215 0.06750816352929387 -0.028208064322088996 0.0316727145393048 -0.020188275509743635 -0.019788304934930324 0.008836111172319782 0.023589198718356432
-0.029840138422559913 -0.04226558206478916 0.014035484705422 0.0008903872678188432 -0.014835634549262913 0.056837475439722805 0.03430854641975572 0.06853157582175941
0.04842002752600322 -0.04048139411442513 0.008729245353501404 0.00573497704961122 0.03179934175716609 -0.036451966466112276 -0.024316336502049216 -0.021870472034288702

7.weight f8 [1, 128]
00000000: 2e57 2dcc 5416 a8bf a0cc 1b03 be84 9b3f
00000010: a42e 76e4 6c62 953f dcd0 b4fc 569c 94bf
00000020: c562 b192 9491 893f 39f9 a4a7 ebfc a0bf
00000030: ed88 895a 5397 a33f 23c2 a83d af29 b43f
00000040: 18d9 7f14 a4ba acbf 9dbb f93f 2d41 afbf
00000050: a088 cb72 bb36 b3bf 1a04 4e82 9b9a a43f
00000060: e9ea 7378 d837 b1bf 8efe 5938 f006 a4bf
00000070: f187 bd89 6eee a63f edce 86f3 69d9 b3bf
00000080: e394 ecbd d8f1 b33f a49d e42e 9cb0 a4bf
00000090: 3e1a 4b9e 3661 a03f 9d43 05a0 b188 763f
000000a0: 4e85 94f3 bd93 a63f 06d0 62b0 77b6 97bf
000000b0: 228d 7027 f6e3 b0bf 0bb9 da43 9726 ab3f
000000c0: 2154 133c d58f af3f f4d8 4ed6 d0c2 adbf
000000d0: bcf7 1152 db3d b83f 4346 08a6 d80e 97bf
000000e0: fb77 8139 6fee ba3f f534 dcef d592 b3bf
000000f0: 9d16 0440 1cba 89bf 28f8 ef7c c707 b33f
00000100: 969c db18 ff63 a03f ddee 2c7d ef21 a13f
00000110: bfa2 2ee4 44d7 a73f 0d40 f42a b153 a1bf
00000120: 0e6a eae5 4d5a b43f 77e5 7140 37ad a0bf
00000130: 3de4 54bc f83d 423f 7c40 7269 5801 b23f
00000140: a842 5b6f 1fac b7bf 56f6 60ce e688 a5bf
00000150: 50b4 9642 109a a7bf 2a8d 3a2e 6099 6b3f
00000160: 7414 18ac 4b7f b3bf 5002 615f 5fe0 663f
00000170: 3b70 f862 c639 b4bf 72a4 fac7 7606 a53f
00000180: 7b38 8abe ad00 b33f 29cf d807 c42c b43f
00000190: 4d3d 1e7f 539b b33f 5ab9 cc2e c1e7 60bf
000001a0: a430 510f bc16 803f 576c e792 112f a7bf
000001b0: 31c3 fd18 db3d aa3f 1d21 37c7 8c77 b33f
000001c0: f23e 1bf6 ee5b 033f 822b 5e6c a749 b33f
000001d0: 1e3f 1bdd 887c b43f 2027 5d08 afd0 ac3f
000001e0: 6ed6 c9ff 3d5c 893f ee53 b0fa fc89 b1bf
000001f0: 1c8b edb9 6eb6 91bf 9b97 949e ae32 ad3f
00000200: b192 efd3 8f0d 893f c75b 9c3f 3453 b0bf
00000210: 5608 0949 1f45 b53f adde 7169 3672 a43f
00000220: f805 16ca 35cb ab3f 2ce7 4f31 448b a43f
00000230: be76 0e84 b95d a23f 248a 0361 00ff aa3f
00000240: 7af5 e3e7 5280 a8bf b634 fe00 8683 85bf
00000250: 125f 3516 dd08 a9bf 239a 4cc1 85a5 b73f
00000260: 90cf 79c4 88ab b83f 9786 235b f389 a63f
00000270: b6e7 f143 10a4 a43f d5b9 62fb ac10 af3f
00000280: 6f9f 7487 7624 b93f 2072 efa8 6214 b5bf
00000290: 1710 4888 305d b53f e142 15a2 1342 b13f
000002a0: 1842 a4c7 d0f1 b2bf 1775 bb96 ca3b acbf
000002b0: 4b50 771c b644 a0bf 5845 e250 f632 af3f
000002c0: 8b47 366b 0d62 b33f 3a73 88b1 8a66 903f
000002d0: 2aed 5890 c4b5 b33f 7c78 3a11 52ef 9ebf
000002e0: 5d9f fc4f f4d0 a5bf f776 347b c8b9 b5bf
000002f0: 3d5e 5c80 07a7 963f 22a9 975e d58d b43f
00000300: 0857 7b66 fbd0 ab3f 72a0 c6e0 3a52 b6bf
00000310: ab67 1929 9570 b4bf d85e d46c 6516 a63f
00000320: a48a 813f c2f9 9c3f 60d8 037b 428c b0bf
00000330: 6ecf fd26 e79b a53f bcc9 7c7d ceb4 51bf
00000340: 094f a282 2cb9 a43f 5776 696f e1e2 83bf
00000350: 024e f71b 9a21 83bf a663 eee9 f45e a03f
00000360: 07bd aa54 a05c abbf 12d1 9a1f fb21 aabf
00000370: a9d5 fd57 8754 923f 2426 46ba fc5d ad3f
00000380: 8879 0b53 522e b2bf a64f 0a6d e956 b6bf
00000390: f876 da6e 9cc3 863f d8b0 3a23 43e3 b3bf
000003a0: d40f 5051 6b54 c53f dc53 7072 fc34 aebf
000003b0: 3a3f 0a0d a1a6 b8bf 00de 7820 bd0c a7bf
000003c0: b3d0 d7a8 2ba8 9ebf 2766 7590 4e02 b1bf
000003d0: 45f8 b146 1413 b43f 3fc2 6798 b837 b13f
000003e0: 78a0 51d3 ad46 bbbf 208f 5b73 f648 a8bf
000003f0: f73d 314b b09a acbf b2f4 dc4a 752d 62bf
-0.04704537384411221 0.026873558940633147 0.020883275455658393 -0.020127638982743487 0.012484703757011837 -0.03317963048401613 0.03826389770689951 0.07876105552055228
-0.05611145735012907 -0.06104413419676933 -0.07505389740575419 0.04024206128725201 -0.06725838604681268 -0.03911543548474326 0.04478784018898797 -0.07753622241471776
0.07790903698749534 -0.040409928058859707 0.0319916790227137 0.0055014551620197446 0.04409593199148763 -0.02315699590754152 -0.06597841704256216 0.05302880004215823
0.06164423330634628 -0.05812695137085369 0.09469385865847263 -0.022517571576889727 0.10520072130154283 -0.07645928483926297 -0.012562008575069778 0.07433745193699848
0.03201291254463816 0.03346203234693033 0.04656424794604196 -0.03384164475767202 0.07950293410468864 -0.03257153188401223 0.0005567039994850486 0.07033302854893181
-0.09247013538994031 -0.04206010121604879 -0.046097286346914346 0.003369033672997586 -0.0761611266280669 0.002792536043699813 -0.07900657573958451 0.04106494132185724
0.07422910596707936 0.07880807105612732 0.07658883908719823 -0.0020636342145713806 0.007855862824861788 -0.045280980284325416 0.05125317268437469 0.07604293693214399
3.692458154846795e-05 0.07534262080859658 0.0800252475557923 0.056279630442601425 0.012382969254058209 -0.06851178284007606 -0.017297487352503457 0.05702729879185072
0.012232898383396447 -0.0637695937442536 0.08308597119415259 0.03993387257736223 0.05428474513884035 0.04012501813845257 0.035871312494447846 0.052726756899364596
-0.047854033286038836 -0.01050476732759829 -0.04889574905490525 0.09236942261905105 0.09636740490696938 0.04402122962507098 0.04031420545011548 0.06067410057709181
0.0982126312925382 -0.08234230636976081 0.08345321013627004 0.067414500304277 -0.07400231241286581 -0.055143671894010086 -0.031774226164686135 0.0609356855139917
0.07571491115075284 0.016016165815119644 0.07699230693917927 -0.03020981054452719 -0.04260982014085244 -0.08486607559140312 0.022121541223070407 0.08028920707116474
0.05432878137587066 -0.08719223010723612 -0.0798428750362336 0.04313961938367833 0.02829650414094921 -0.06464019301697155 0.042205070028017086 -0.0010807053094593474
0.04047526449826761 -0.009710084164164785 -0.009341434458213452 0.031974462085776964 -0.053441057524986894 -0.051040504081728014 0.017900576348855477 0.057357690561797875
-0.07101931121312621 -0.08726366912952574 0.011115286000229471 -0.07768649683083895 0.16663876982067782 -0.058998002023294055 -0.09629255836830178 -0.045019064153560606
-0.02993839471851407 -0.06644145037480396 0.07841612554509066 0.06725648613770206 -0.10654722603942612 -0.04743166120695563 -0.05586768072009456 -0.002218941771302407

7.bias f8 [1]
00000000: 6ac8 4c43 79ff ad3f
0.05858973452122103
