models/run2/66.pt (torch, 153942 bytes, 6 tensors)

0.weight f8 [32, 1, 9]
0.03580304160448423 0.1516631531684541 -0.0037632267365179063 0.2083685399863214 0.1604296786372216 0.2622651282603112 0.2567178957352132 0.2639117431875975
0.313997359778613 0.1134602287800288 0.30676137148237614 0.032142788903266654 -0.5596692878981314 0.30423611659804733 0.2687254339689299 0.31009511108447635
-0.38128914801485814 -0.27217925328509035 -0.2298190614451827 0.08526961173478693 0.2390147437666334 -0.38749264442895714 -0.06293289270183976 0.30485112253392954
-0.07646141482082268 0.16870849360614162 -0.22641046239430998 -0.025833494081409673 0.15848498275870115 -0.09761247111191525 0.16506683536205255 0.08908569553617199
0.32401920316945887 -0.1291919025755295 -0.11462400198191172 -0.44092804709273425 -0.3057306863878768 0.1836611845796368 -0.2476924710183616 0.28640677826799316
0.009634012817715506 -0.370130636876696 0.17723581493019283 -0.0951780655704417 0.1763281932771581 -0.043005704474623825 0.2664315808803979 0.2512174605561915
-0.029997074300081236 0.2665525496555435 -0.13752160765103955 -0.30058364212649163 -0.007362209200160347 0.08248570671177144 0.28593015864703236 0.27404654095387176
0.27968318801006453 0.0259613662850469 -0.38110569494685176 -0.011246173969557224 0.31987161792960106 -0.09296250899534862 -0.12837952908374603 0.023440491696503297
-0.11413814982682915 -0.03629637680004023 0.23716768151927045 -0.17412324307177113 -0.37854005170761107 0.25683931047426295 0.10960528677771252 -0.1144100918944769
0.18318816164164584 0.26225066344573666 -0.11544693560234984 0.2594263449301973 -0.2649085915061653 0.2704320800348584 -0.21536152651919088 -0.11301241530255103
0.2679320352630786 -0.2690635188904779 -0.16799505659141548 -0.000263661074783661 0.21973072606493083 -0.345093220573659 -0.29597316713477456 0.19611180211998488
0.05302374514933405 0.18679051364776023 0.18176241916317298 -0.0387716545409279 -0.15639314669228127 -0.05412668440432476 0.25408381826637383 -0.21735663669015273
0.16458840535096964 0.22905726093760806 0.28620136154585946 0.0407207099507922 -0.12295215006459183 -0.12469281170542641 0.15270312981701 0.19506074360197484
-0.11297982932074921 0.23919022516442282 0.2726574428445635 -0.3637177259907365 -0.26912910071621654 0.2798021799094203 0.2634306180520547 -0.044478895957399865
-0.1313528922164706 0.012855879061858071 0.31072164307592576 -0.08071744526551712 0.21130632096742732 0.054949912068589964 -0.43645242661549327 -0.15273263111265278
0.22654464047749873 -0.04932984218510398 0.1271369286384998 -0.40377985185797666 0.08856333077739079 0.29792588562753974 0.128945412635192 0.22437321632484203
0.32374997275465717 -0.21768467942833902 0.20164397225015912 -0.0017720801270396502 0.29812712762744076 0.3005627997971165 0.2872699849726589 -0.2744640144076991
0.28791646933354614 0.04948694386114202 -0.09194068755920229 0.2922657634159907 0.26756948476102443 0.16141576561397974 -0.17452117323605704 0.08707562090437057
0.04750711229484873 -0.06568684673025478 -0.2144351381595051 -0.32501800730554503 -0.1393760039798801 0.14993249422856814 0.13253676846800358 -0.2148434278133046
-0.1548466989811761 -0.032628861812887405 -0.00011370834438257693 -0.2579135936403177 0.21591760434560192 0.14808061301687567 0.08686276239439811 0.1142900674071512
0.11856600239694198 0.20724181876381254 0.2424301499259635 -0.18938433740718863 -0.04389639880083673 -0.3871612460706279 -0.1809877661572324 0.2578890014797782
-0.29505847077189457 -0.2351247411667258 0.30306628379017886 0.05365135560274406 -0.14555659861027564 0.2492314423877417 -0.3547254437994648 -0.3011546408337401
0.10952375920409921 0.2451807362063552 -0.11551139138965802 -0.044839188869125836 -0.5824152655048082 -0.32493985839603 -0.20823787617778086 0.18149047226878467
0.2454145118171244 0.023521479394361014 0.20065482719161656 -0.24538834819040511 0.11465099830308668 0.05259222510067879 0.19431324573465655 -0.42342232266030233
-0.04790912133369393 0.0003756743091492307 0.32101444058441964 -0.21139108627652067 0.23954166583412353 0.23931072569818854 0.1888119847785177 -0.14532760825742805
0.03247759521403821 -0.2054465276928213 -0.3999137263498416 -0.43842700167988335 -0.1927002113993601 -0.1926783836312725 0.31274313013505495 0.11968617658395715
-0.02935471501250942 0.23605369969379594 0.23551659041601478 0.015002643746954652 0.13441445133205393 0.11343176040169059 -0.19753438178625815 -0.43969273741161313
0.13895518210745667 -0.1912354463086104 -0.14029023955630063 -0.10181071722546596 0.15135901609434838 0.3218438779259482 -0.25045174264390835 0.21478009693786898
0.2786223698334941 -0.0604673774703301 0.27401588690433837 0.23575931823939492 0.30944842036244863 0.10549831338609365 0.2852416570278737 0.19020317086311403
-0.33168219372986685 -0.05576685416313925 -0.1878949165648406 -0.02690817197513377 0.1670030866753398 -0.207875937854456 0.17506826780287257 0.04774124728154546
-0.26813435458399965 0.07662792363855925 -0.3178149856597164 0.20736590668699129 -0.2826532271892995 0.038674288645889676 0.13759459669854532 -0.11639022275827281
-0.24682246475443514 0.2766678015141333 0.11190927373592192 -0.3872899924177676 0.30967205934591796 0.2960002193444058 0.008865420910927757 -0.4094927800077965
00000000: b1c1 93b9 c654 a23f a3f1 6ebd b269 c33f
00000010: 7649 58f8 0ed4 6ebf 9bd5 6000 d2ab ca3f
00000020: fdfe 86af f588 c43f 1398 30ad f3c8 d03f
00000030: 70c3 9ee5 106e d03f 6959 8114 eee3 d03f
00000040: 24e3 d161 8818 d43f 4fc4 01c4 ba0b bd3f
00000050: ae58 8c72 faa1 d33f 0795 4806 0575 a03f
00000060: 7f23 0391 cfe8 e1bf f33d c3c2 9a78 d33f
00000070: 5eff 9f29 cc32 d13f d177 302a 99d8 d33f
00000080: 04c9 4299 0a67 d8bf 2396 e087 626b d1bf
00000090: cfc5 7304 b66a cdbf d557 beb1 3ad4 b53f
000000a0: 46a8 defd 0898 ce3f ced3 d0f2 adcc d8bf
000000b0: 8f40 ffbb 5e1c b0bf caa7 5b48 ae82 d33f
000000c0: dfb2 0fac f992 b3bf 4943 4c6b 3d98 c53f
000000d0: a157 ba9d 04fb ccbf a15e e270 1874 9abf
000000e0: 1089 ed64 3c49 c43f ed7f 1b83 21fd b8bf
000000f0: b761 c4f9 e820 c53f 9a88 def4 51ce b63f
00000100: 30e2 380a bbbc d43f 4126 3c3a 5c89 c0bf
00000110: ca54 d9a3 ff57 bdbf 9ac1 8945 2a38 dcbf
00000120: 20da da70 1791 d3bf 6136 a8ae 3582 c73f
00000130: 15a1 3e0b 63b4 cfbf 59e1 8018 7d54 d23f
00000140: 11c5 d94f ffba 833f 1284 2869 38b0 d7bf
00000150: 150d 67c6 a9af c63f 5eed ebf6 965d b8bf
00000160: 107c be17 ec91 c63f 3118 85fc d704 a6bf
00000170: 512f a00b 370d d13f 0979 5166 f213 d03f
00000180: bccc 6094 8db7 9ebf 05e7 db6c 320f d13f
00000190: 2a62 addb 4e9a c1bf 9955 292c c33c d3bf
000001a0: c721 dbfb d527 7ebf dee9 b684 c81d b53f
000001b0: e70f 1502 ae4c d23f b9a4 be80 fa89 d13f
000001c0: bca1 6f50 54e6 d13f 8b71 9dcc 9d95 9a3f
000001d0: de6d 0724 0964 d8bf d828 3ceb 3b08 87bf
000001e0: 9447 7bce c678 d43f e79d e317 64cc b7bf
000001f0: 33fe 718b bd6e c0bf 5d5e f4c4 c800 983f
00000200: 1a70 bb64 2838 bdbf 0991 a34e 7095 a2bf
00000210: 778e e5b5 825b ce3f 56bd 3ba1 ab49 c6bf
00000220: 96dc 930d 003a d8bf 071b b425 0e70 d03f
00000230: 67d1 2d92 170f bc3f e6e5 04d3 fa49 bdbf
00000240: 13f3 a1ad b572 c73f b4a3 b601 b7c8 d03f
00000250: 06e4 d52c ee8d bdbf 798b ccf4 709a d03f
00000260: a4b2 3c2a 43f4 d0bf 827e e25a c24e d13f
00000270: 4ab8 9b6c f790 cbbf 8934 c4b3 61ee bcbf
00000280: 6e5c 4068 cc25 d13f 1b9a 8b31 5638 d1bf
00000290: 0193 f9ac dc80 c5bf cd3c 84b1 7f47 31bf
000002a0: f806 30ed 2220 cc3f fcd9 1be0 0116 d6bf
000002b0: f197 5570 39f1 d2bf c383 3b08 311a c93f
000002c0: 1fd9 a7a6 ed25 ab3f 64fb a865 c0e8 c73f
000002d0: 4e4d f9ae fd43 c73f 90ba 87d8 e0d9 a3bf
000002e0: 0a52 2ecd b004 c4bf ae08 b726 7eb6 abbf
000002f0: 8866 79c6 e842 d03f a18d 139f 57d2 cbbf
00000300: 1840 249d 3b11 c53f f1b5 5192 bf51 cd3f
00000310: b53f fa83 1f51 d23f 3a61 044b 58d9 a43f
00000320: 1114 80c7 ca79 bfbf 1d33 523c deeb bfbf
00000330: 96cb 47b2 c68b c33f 8e80 401d c0f7 c83f
00000340: c64f 0a00 3fec bcbf 3d52 4d09 c99d ce3f
00000350: 22d1 0134 3873 d13f d4c3 86b6 2647 d7bf
00000360: 3698 7e43 6939 d1bf b7de 0367 47e8 d13f
00000370: f41c 5318 0cdc d03f a399 ff16 f0c5 a6bf
00000380: 2f02 27ec 2bd0 c0bf 165c 0ee1 2e54 8a3f
00000390: 3ee9 ca07 dde2 d33f 15cf a103 e6a9 b4bf
000003a0: 8120 ffe4 150c cb3f e95d 8116 6522 ac3f
000003b0: 51b2 a428 d6ee dbbf 9497 d42b be8c c3bf
000003c0: f2ab f72e 6aff cc3f f5c0 cdd5 c241 a9bf
000003d0: 08e1 4edb 0546 c03f 07e1 a072 87d7 d9bf
000003e0: 3250 5021 16ac b63f 54bc d9bb 3711 d33f
000003f0: 4c62 1e85 4881 c03f f254 1bf5 42b8 cc3f
00000400: 29fa 43ce 51b8 d43f 2c13 7e71 17dd cbbf
00000410: dafe 1f3d 78cf c93f b8f9 418c a408 5dbf
00000420: 2a75 cdcd 8314 d33f bb75 e1c0 6b3c d33f
00000430: 6a1e a5a5 a162 d23f 10d6 7383 d190 d1bf
00000440: 8d1c f132 396d d23f fbd8 ec4a 5a56 a93f
00000450: 2a10 3dc6 6c89 b7bf 852d e775 7bb4 d23f
00000460: e531 9dc2 db1f d13f d477 2f95 45a9 c43f
00000470: c213 c1b5 b556 c6bf 9e2b 1080 964a b63f
00000480: 227e 442b da52 a83f e5da 7b6a dad0 b0bf
00000490: 8010 c150 9c72 cbbf 0742 ff53 18cd d4bf
000004a0: 866a 78a9 12d7 c1bf 64e2 a8eb fc30 c33f
000004b0: 7536 0bff f6f6 c03f b5fd 1b4c fd7f cbbf
000004c0: 4044 0242 04d2 c3bf 64bb c8ec bab4 a0bf
000004d0: 8792 4b7b d6ce 1dbf 8141 7804 a881 d0bf
000004e0: 78c3 a524 30a3 cb3f 5f20 0a37 4ef4 c23f
000004f0: 7462 b953 a33c b63f 3077 c525 1d42 bd3f
00000500: d45a b66e 575a be3f 1021 fa60 e686 ca3f
00000510: b689 bf7e f307 cf3f b8ed c4f7 be3d c8bf
00000520: 6006 86ba 9679 a6bf a3b9 89f6 3fc7 d8bf
00000530: 528a 4f6c 9b2a c7bf baa3 d6de 4081 d03f
00000540: 33e0 97ec 3ce2 d2bf 9551 e548 9118 cebf
00000550: 6a8a 5920 7065 d33f 0453 66c3 3078 ab3f
00000560: d2c2 5f3f 99a1 c2bf 665a 18df d0e6 cf3f
00000570: de60 0b59 d2b3 d6bf bed9 5a1d 1e46 d3bf
00000580: 52a5 eac3 bf09 bc3f a9c8 ce15 1562 cf3f
00000590: 7683 5590 2792 bdbf cd4b 8b83 29f5 a6bf
000005a0: 0d19 c156 25a3 e2bf 9a94 3e8c d0cb d4bf
000005b0: ab6c fce9 89a7 cabf 100b 776d 143b c73f
000005c0: 0df3 1b23 be69 cf3f c45f 02c3 0316 983f
000005d0: 7d48 49b0 0eaf c93f 500c 26a9 e268 cfbf
000005e0: c95e 2a90 c459 bd3f 489e a93d 5eed aa3f
000005f0: 3713 cea5 41df c83f 1e3b 0ef1 5919 dbbf
00000600: fcda 9d5a 8b87 a8bf 4d92 2adf c49e 383f
00000610: f2a4 f626 808b d43f f79d 1cf5 dc0e cbbf
00000620: d5b9 6422 4da9 ce3f e755 3ade bba1 ce3f
00000630: 01b9 dbb9 fd2a c83f 73f5 5556 189a c2bf
00000640: 0913 9842 e7a0 a03f 023b c262 124c cabf
00000650: 5538 f9bd 2f98 d9bf fa7f 7920 300f dcbf
00000660: b03e f288 66aa c8bf a2d5 2b6e afa9 c8bf
00000670: 90a3 fec2 fb03 d43f cd1c 36d6 c0a3 be3f
00000680: 2238 d993 290f 9ebf b36f 24f4 0137 ce3f
00000690: 6f48 c05a 6825 ce3f a342 f9c1 b4b9 8e3f
000006a0: be5c 4a24 7e34 c13f 92c2 4025 dd09 bd3f
000006b0: 6cc4 cd7e ce48 c9bf 992e de01 ed23 dcbf
000006c0: aa70 618d 48c9 c13f 02a0 dd31 677a c8bf
000006d0: 09d1 6bd3 07f5 c1bf 379d dd64 4410 babf
000006e0: 423c 0a74 bb5f c33f 5f06 8710 1799 d43f
000006f0: 546f f8be 6607 d0bf 8e05 170a ea7d cb3f
00000700: a29b 97eb f2d4 d13f 387f 6b81 94f5 aebf
00000710: 19ab 35ee 7989 d13f e960 c880 5c2d ce3f
00000720: 615b 50bf 00ce d33f 33c4 c6fd ef01 bb3f
00000730: 6b0f 1939 6641 d23f f9ed 39d7 9358 c83f
00000740: 640f aff3 473a d5bf 57b8 a91d 798d acbf
00000750: 9485 ddcc f00c c8bf 6b6c 83da d08d 9bbf
00000760: 7802 cd6d 5b60 c53f 63e8 5ac1 ad9b cabf
00000770: 39ee 6312 a368 c63f 5b2d 7d6f 8a71 a83f
00000780: 85d4 f7fe 1c29 d1bf 64ed fc39 e39d b33f
00000790: 8994 65aa 1457 d4bf 7854 c34d f78a ca3f
000007a0: f6c2 b88f fd16 d2bf f83d dcc9 1dcd a33f
000007b0: 9399 7622 b39c c13f e728 52e8 bfcb bdbf
000007c0: acea 04e7 e097 cfbf c400 d7dd ecb4 d13f
000007d0: 0d9d d00e 16a6 bc3f 5227 e0f6 5bc9 d8bf
000007e0: 490b d8c1 aad1 d33f ec5a 6ce7 aaf1 d23f
000007f0: 6d8c 05a7 0828 823f 1339 8534 2135 dabf

0.bias f8 [32]
0.012660067038150232 0.015545396982471975 0.2716070220199772 0.009723125455299247 0.3306296565884415 0.1070440573422982 0.0156302072335204 0.004726902405536417
0.026751848278354803 0.3557901442854991 0.32600424328375843 0.00640174573102143 0.02757949825559975 0.13664467501136854 0.3065804744300901 0.31352858176792153
0.2887766878179134 0.0102999850856585 0.3523285652523984 0.34351331914368055 0.05178245308163666 0.02332372373843934 0.1980973807449613 0.29495339207876337
0.013927569196663618 0.007965932944533217 0.3460134566022917 0.01788880273516305 0.17190303537651316 0.06967570792848644 0.033685380122582424 0.23273282913483342
00000000: 71f5 266f 85ed 893f 9cf9 24dd 43d6 8f3f
00000010: ee24 3c6b 0262 d13f 2369 c3ce b7e9 833f
00000020: f1a4 884a 0929 d53f 832d 8445 3d67 bb3f
00000030: 8737 9773 5d01 903f 82fe e333 845c 733f
00000040: af33 da25 d664 9b3f 7380 7c06 44c5 d63f
00000050: bcb3 d0e6 40dd d43f c72c d588 b738 7a3f
00000060: 120a 31cc cc3d 9c3f 0f56 2c9d 927d c13f
00000070: df3d d1b5 039f d33f ae7c 432f da10 d43f
00000080: e39b 8137 517b d23f a5ce bc98 2818 853f
00000090: 6c29 4d1c 8d8c d63f e899 dd49 1ffc d53f
000000a0: a20c fccc 3a83 aa3f f3cb b59a 2ce2 973f
000000b0: f886 dc45 415b c93f baa4 3431 84e0 d23f
000000c0: 8917 b3b1 0e86 8c3f 14c9 d46b 7150 803f
000000d0: e94b 05a0 1525 d63f 2836 d93a 7151 923f
000000e0: 8f3b 832d eb00 c63f 31e5 e066 44d6 b13f
000000f0: f7aa f5cb 353f a13f 297a eb78 30ca cd3f

3.weight f8 [64, 32, 9]
0.12488157783285837 -0.22730825581226127 -0.26646846131022545 0.027373152072012158 -0.11336893704601213 0.04553586630781701 0.026979805176336916 0.03113487736204778
-0.15991621986433086 0.10353039121894005 -0.021670801760878378 -0.2157462447051355 -0.17551006202312766 0.09019137617676318 -0.054591064395590236 0.015687852170798343
-0.038561770732595965 -0.1442651158887681 0.08541285611123978 -0.0016830082650129098 0.04685322065932729 0.03938403396655286 -0.0010122540342544556 0.007405239386521993
-0.01071884364197011 0.022421016689135397 0.11899566632552919 0.10340579410121996 -0.2183560247079669 -0.19051597439362883 -0.15379138529318134 0.1275143887423154
-0.029191240361175534 0.011388575651547883 -0.023924484639289905 -0.058084382549070966 0.038359015270576495 0.01634577932867113 -0.02742502725361751 -0.009558831022047467
0.014952986869845858 0.034719002778875845 -0.03911827747359423 0.0568325052917271 0.030402734207502276 0.12118503473748034 -0.06843322521652954 -0.06975025902592902
-0.029668029386914443 -0.03985003108008826 0.13192408898679114 0.013879998788475007 -0.02413471030487636 -0.05927853144355258 0.08588375175666371 0.07933795025153735
-0.2489551126673635 -0.148853169279811 0.0629285917526907 -0.004380837026327239 0.003494599042398615 -3.046860739357658e-05 -0.1458512681479184 0.14028274734391652
-0.13714375573614426 -0.036584223390488536 -0.15049498548688847 0.16751305230673955 -0.014408478361868505 -0.032984700496135506 -0.01565668402816665 -0.0196928338746407
0.09796735058269564 0.01267393796151354 -0.2743529515615389 -0.0957823771301696 -0.17894931842971853 -0.08936385990723904 0.056245472824593044 -0.053297192835427575
-0.15632031972780536 0.11494557477086406 -0.08763638203423744 0.0798609935658053 -0.009603704360849119 -0.02675868975604219 0.06216044538197307 -0.030916059106427893
0.06004532675645839 -0.03547400690053234 0.11134052475872382 0.01792754653233931 0.013260812942660165 0.027246083002756806 -0.0546600656971546 0.01384860083830693
-0.000346329167231653 -0.04538901740771931 -0.09121054764036512 0.1231385560154972 -0.09191928897386363 -0.055062204019168344 -0.03784779797802787 0.10411648708980302
-0.04847829824234467 0.00014637937243290063 -0.051501006099158614 -0.024818924787684434 0.08800348081059563 0.020490355471437467 -0.27023430922710584 -0.12480602108166215
-0.10602339266122696 0.015293498017898878 -0.012977768090350679 -0.05578879000863228 0.03910688684846859 0.11905958207560435 -0.04777267848306125 -0.03490474171091593
0.10964139054166458 -0.07416882079749668 -0.038457696926516925 0.06465338583201428 0.04298772259240694 -0.1301561936356059 0.14140377689517192 0.02114511909950802
0.017892377328365447 0.06488874733724788 -0.031869889387846476 0.05253483095443141 0.042813403108786 0.0570574234128681 -0.13937946155240144 0.0547423595661886
0.046060756588040104 -0.00031197295145496027 0.03800080325369134 0.04731477292018426 0.009501894993818382 -0.05335884958323941 0.04040693277840521 0.06057368776156002
0.12878923788039676 0.02115136597782209 0.06169937556316588 0.000856498159988367 0.04055350633287464 -0.008778087411095372 -0.029898587065061405 0.010550739221686698
0.007979061871555226 0.18021744295544542 -0.15743112185807878 -0.17555279895062922 -0.019206100407993743 -0.18370705722608607 -0.04578107944513835 0.02232931448948657
-0.05894275905151013 0.004814294862553958 0.1247170910170494 0.0300641585995222 0.0497917904729633 0.07529244339406724 -0.02885524231705662 -0.0099914740790895
-0.026203638131583943 -0.01916679016106754 -0.14033063155427566 0.11916328755702872 0.03709685457161209 0.009566880270529758 -0.02778484047223795 0.0985347272809192
0.04056338707275121 -0.005696741794673516 -0.0014741380181791692 0.052370789708663934 0.1425733090530382 -0.15973934069768617 0.007871578610425525 -0.018913290436487366
-0.013888135568946662 -0.019770309741332637 -0.03823152757168454 0.015450307071810002 0.040556385065254684 0.08789201042066837 -0.12171256006522875 -0.2713169210612622
-0.12590638499828433 -0.12214543131276966 -0.07324400701214291 -0.02659110200553589 -0.026205015478922237 -0.045518770766376046 -0.006969073063671612 0.13461791839977497
-0.05112311119362598 0.14126925013012062 -0.040341363451340255 0.08780853266702728 0.05702923556472724 0.04211125977760469 -0.1473324824775221 0.11468896608472268
0.06880362969071059 -0.010724176942177156 0.06207644961295553 0.07963362058941938 0.06751650293873301 -0.020501072037831424 -0.03439758787374874 -0.006386773220572495
0.15857787674778578 0.09207358776067907 -0.25204231873792476 -0.11107143326417926 -0.11403044555152636 -0.015152895831572259 -0.025967983180362312 0.009786470120219968
-0.15377361740195172 0.14702150225492286 -0.0559832475764109 -0.16971489246604535 -0.16998697760724596 0.11899564394942914 -0.019223903424266914 0.07725319592519823
-0.01986836248648153 -0.06306311226272583 0.1150776855021415 0.05165316814062891 0.021251465808069702 0.07793573447188452 0.03658770847866605 0.06113581712200667
0.030720657933364134 0.055795613982786554 0.11611045406478941 0.11587116648178637 0.09881353171843078 -0.1979697570863362 -0.10256622304787383 0.040727122687141584
0.01950606914369658 0.06640037801542525 -0.021859946013505882 -0.10986324570435377 0.0911457615067556 0.09264780893835074 -0.0534227711126291 0.042860993174703994
00000000: c93d aa34 3df8 bf3f 0a88 69da 6f18 cdbf
00000010: 038b afbb d10d d1bf 783b c023 b507 9c3f
00000020: 17b2 fe24 bf05 bdbf ad98 2c21 7a50 a73f
00000030: e10d 8a13 98a0 9b3f 1ece 2340 d2e1 9f3f
00000040: 5668 357b 2278 c4bf 416c 6dbc f780 ba3f
00000050: f041 5de3 de30 96bf c126 9fac 929d cbbf
00000060: d30e 411c 1d77 c6bf 6e78 0f33 c816 b73f
00000070: 5e3d 7728 5cf3 abbf b67e 12f0 7910 903f
00000080: 363e 5850 5ebe a3bf 8b13 5981 4777 c2bf
00000090: d4dd a7ef 9ddd b53f 6c96 415d 0c93 5bbf
000000a0: c05e e334 25fd a73f 4de6 bde3 242a a43f
000000b0: 9742 3b7e b395 50bf c521 bfcf f454 7e3f
000000c0: 9945 25d7 c2f3 85bf 760e b1f5 88f5 963f
000000d0: 52df 3bff 7f76 be3f c7b3 e157 cd78 ba3f
000000e0: 34ad 8018 17f3 cbbf 4e6f b1d3 d362 c8bf
000000f0: dfd0 1ea5 6faf c3bf 6276 b538 6452 c03f
00000100: 2e44 b9fa 4ee4 9dbf e077 c5bf e452 873f
00000110: 4bca 65fc a87f 98bf 2bc9 e976 3cbd adbf
00000120: 6f12 30f8 caa3 a33f eabc 93ae f2bc 903f
00000130: 61b4 956c 4e15 9cbf 417f 0595 9493 83bf
00000140: dd04 abec ab9f 8e3f 8f52 f86a b0c6 a13f
00000150: d591 d994 4f07 a4bf 3dca 276f 2619 ad3f
00000160: df53 85f4 e421 9f3f 514c f680 fb05 bf3f
00000170: bbc9 4300 d784 b1bf 9865 6729 27db b1bf
00000180: 3473 d0bf 4b61 9ebf 8695 7728 3967 a4bf
00000190: c65d e077 e3e2 c03f 7d8f ebe6 1d6d 8c3f
000001a0: 03de d4fd c4b6 98bf b457 cf73 c159 aebf
000001b0: ae7a 0d41 7afc b53f a97a a9ed 7d4f b43f
000001c0: 7106 8ad9 c2dd cfbf 113b fbe2 9e0d c3bf
000001d0: fea6 8f93 161c b03f 3a6a 1dfc a3f1 71bf
000001e0: 6407 3193 b4a0 6c3f 9d35 c8c1 daf2 ffbe
000001f0: 7d41 631d 41ab c2bf df7f 04fa c8f4 c13f
00000200: 8d61 de34 ed8d c1bf 65fe 05d6 2abb a2bf
00000210: 3968 7070 6b43 c3bf 35c1 a754 1171 c53f
00000220: 6d77 cb3a 3182 8dbf 696b cce3 5ee3 a0bf
00000230: 3b89 7547 4e08 90bf 3c1d d4b5 5b2a 94bf
00000240: ed14 d466 6314 b93f 952a 7328 cbf4 893f
00000250: f924 a1ae ff8e d1bf c2a5 4ea1 3185 b8bf
00000260: 6508 26af cfe7 c6bf 6ff4 bec7 8ce0 b6bf
00000270: 53cc a8e4 34cc ac3f a3be 6408 c549 abbf
00000280: 2831 77e2 4d02 c4bf eef5 75bc 126d bd3f
00000290: 23dd c682 566f b6bf e558 9723 c571 b43f
000002a0: 40d0 3361 1bab 83bf 9446 8b45 a166 9bbf
000002b0: c06d 0a70 7ed3 af3f 391c 229b 75a8 9fbf
000002c0: b6ab 64d5 42be ae3f fbe1 fd26 a629 a2bf
000002d0: 01e6 8e08 d080 bc3f a335 3748 995b 923f
000002e0: 16bd 412f 7c28 8b3f 4a86 c3ad 65e6 9b3f
000002f0: 090b 2275 67fc abbf ea2c 91bd a75c 8c3f
00000300: 1bc0 6872 70b2 36bf b53a bab2 3a3d a7bf
00000310: f465 2a0f 9359 b7bf e295 f626 0286 bf3f
00000320: 53aa 03c4 0588 b7bf 9919 04fb 1c31 acbf
00000330: 041e 155d c960 a3bf 9f6d 06cb 60a7 ba3f
00000340: 6780 08c3 25d2 a8bf 3af1 1c3c ad2f 233f
00000350: 0c60 d001 575e aabf ffd3 23d9 216a 99bf
00000360: 1103 0468 6587 b63f b26f 887a 6cfb 943f
00000370: f5cd 18d8 844b d1bf 7fbe e392 49f3 bfbf
00000380: 9847 175c 5924 bbbf 6764 a08e 3252 8f3f
00000390: 045e 2f8c 1694 8abf e616 2429 5990 acbf
000003a0: e905 2060 d105 a43f 2c47 4a53 b07a be3f
000003b0: a542 7417 a975 a8bf 0d57 3fc8 08df a1bf
000003c0: fa16 aa4a 7511 bc3f 3248 b553 bafc b2bf
000003d0: a361 282d bab0 a3bf 4763 b9d1 1f8d b03f
000003e0: c5eb 539d 7c02 a63f e7b4 8449 f5a8 c0bf
000003f0: a8d7 a5da 8419 c23f 4578 02ec 10a7 953f
00000400: bc5f e41d 6152 923f 7d1f b187 8c9c b03f
00000410: 8abe 4b09 4051 a0bf a949 b369 d8e5 aa3f
00000420: ef8a 5d6c a3eb a53f 2cc6 1a6f a136 ad3f
00000430: fc02 8daa 2fd7 c1bf 96d6 15c8 3007 ac3f
00000440: 916b 5986 4695 a73f ba23 ad9f 0972 34bf
00000450: fb85 645e d774 a33f afa5 9e54 a439 a83f
00000460: 06e1 fcc1 ba75 833f 6b0b d3e3 d951 abbf
00000470: 4c3d a1ad 37b0 a43f 4f37 deaf 8303 af3f
00000480: e8f3 626e 2a7c c03f 23d8 8f24 b4a8 953f
00000490: 4570 7480 0f97 af3f 00b9 09cb d310 4c3f
000004a0: a92a e0de 6dc3 a43f 6111 d1f2 3efa 81bf
000004b0: b86e 9036 bc9d 9ebf bf03 3f3f a09b 853f
000004c0: 2027 548e 5357 803f fdc8 d47b 5d11 c73f
000004d0: 9663 e0f7 b326 c4bf 6b6b 1b9d 8378 c6bf
000004e0: 3d4a 8b94 c3aa 93bf dd4b 6a7d b683 c7bf
000004f0: 0522 fc1d 9e70 a7bf 95d4 e5ed 7edd 963f
00000500: 3eab eccc be2d aebf b3b9 ce6f 27b8 733f
00000510: bfa4 2b93 75ed bf3f ebe7 dd87 23c9 9e3f
00000520: 6b9e 613f 4f7e a93f 7671 0396 5d46 b33f
00000530: 6497 4788 3a8c 9dbf b9a6 44f3 6876 84bf
00000540: 31d8 3e63 20d5 9abf 11f2 a483 75a0 93bf
00000550: b289 93a8 5af6 c1bf ddf7 f036 7c81 be3f
00000560: 36ce 56e2 5bfe a23f fce7 17ef cc97 833f
00000570: e081 9c14 a173 9cbf 921b 3167 9239 b93f
00000580: f1ef c869 b9c4 a43f 94e5 3a7b 7755 77bf
00000590: 8dd1 fba4 fb26 58bf b0f9 201a 58d0 aa3f
000005a0: 8b28 d599 d73f c23f 6130 17b6 5672 c4bf
000005b0: fbec 9865 f91e 803f 9eb0 896f 015e 93bf
000005c0: 8f7d 9100 6271 8cbf 3d50 1507 ab3e 94bf
000005d0: 6b69 3131 1593 a3bf a251 b11c 69a4 8f3f
000005e0: eb9d ff76 cec3 a43f 5d22 563e 1780 b63f
000005f0: 951a fee8 8d28 bfbf 6bcf b3a5 415d d1bf
00000600: 7c6d f64e b31d c0bf df1a d848 ec44 bfbf
00000610: 0dc2 be86 1ec0 b2bf 92db e9a5 b23a 9bbf
00000620: 1180 e4d1 7cd5 9abf c666 977f 3c4e a7bf
00000630: 3c3d 454e 9a8b 7cbf d3c6 7df2 283b c13f
00000640: 4df4 4af5 ce2c aabf c5a1 9e5c 1c15 c23f
00000650: 372c 6689 9fa7 a4bf 6158 1db8 9e7a b63f
00000660: 3b30 559b ef32 ad3f 548b 1367 9b8f a53f
00000670: d591 f070 cadb c2bf 88c2 8b8e 415c bd3f
00000680: 5d21 5e5b 1d9d b13f 2702 f2a9 8ef6 85bf
00000690: bdfd e001 7cc8 af3f 09f8 1774 de62 b43f
000006a0: d0e8 0ff4 c248 b13f 53e0 bda7 3bfe 94bf
000006b0: 5744 f585 8f9c a1bf 27ce bf61 0429 7abf
000006c0: 241c 40a5 474c c43f afeb 4178 2292 b73f
000006d0: 47fe 0b1b 7621 d0bf 0ab6 636d 2d6f bcbf
000006e0: 9c61 646a 1931 bdbf 6256 4a40 7b08 8fbf
000006f0: c1cc 02da 5997 9abf 9283 e0c8 ed0a 843f
00000700: d84f dd98 daae c3bf 0931 ffbf 99d1 c23f
00000710: 4bda ed12 d6a9 acbf cd95 64b4 37b9 c5bf
00000720: 2ed5 c81e 22c2 c5bf 1517 219f 7f76 be3f
00000730: b8e5 0852 6eaf 93bf eb9c 028e ddc6 b33f
00000740: 0a05 6b3c 5f58 94bf 3d9c c074 e724 b0bf
00000750: 7927 bb2f bb75 bd3f 3e2e ccb7 4872 aa3f
00000760: e306 8dba f1c2 953f 9119 bfa6 98f3 b33f
00000770: 98f1 b3c6 9fbb a23f 8177 4e9e 314d af3f
00000780: cca6 8a74 3c75 9f3f 32f3 a122 3e91 ac3f
00000790: 4b96 ee2a 6ab9 bd3f 5db1 9696 bba9 bd3f
000007a0: f906 22f7 d74b b93f 5b35 24b0 1257 c9bf
000007b0: 3c34 aaad c741 babf 6abe 0078 2fda a43f
000007c0: c3c9 2e24 66f9 933f 94ae 047c 9dff b03f
000007d0: 109f e124 7462 96bf 0e26 5567 ff1f bcbf
000007e0: 0a2d d720 5455 b73f 95af 6f4d c4b7 b73f
000007f0: f7b3 94bd 3a5a abbf c93a eb47 e0f1 a53f

3.bias f8 [64]
0.05399969205264972 -0.03358270340844313 -0.013172573481808949 0.011977752100697639 0.008194264423165325 -0.051271794611595395 0.05017130568333109 -0.021612598214648924
-0.04311536230698509 0.04853972602917511 0.0007584103855268705 0.08776066024477955 0.08472204853911751 -0.004886341327566356 0.12873792045549234 0.01062220751280512
0.0600588844588202 0.0844236614823603 0.06811159270061921 0.018776796372799193 0.022773997969953223 -0.008983680753209903 -0.03420553612032732 -0.12102041601605451
-0.13128874309755667 -0.02616516376272961 0.004020603920736169 0.02180687491278482 0.06012481982226722 0.04195376330616457 -0.0030147984238275615 0.0014066958585380702
0.028326864377472706 0.04929818615840121 0.023554203285853607 -0.03943239503535167 -0.02665014808248489 -0.024321017531335032 0.03652147177789276 0.01544374439797576
-0.014726945690984445 0.054256947822109165 -0.013166137948731841 0.04442344522854097 -0.03131761351319824 -0.03565796781762122 0.027192588827535353 0.008592309410939043
-0.0032065996424645526 -0.011675798150762678 0.04339351189845781 0.0008903872678188432 0.046205517564351976 0.05507667004746128 0.05045924680029998 0.05364897432691969
0.06311986003972997 -0.04048139411442513 0.04847186464736249 0.021580126610956263 0.047672734359236586 -0.036451966466112276 -0.00987393655978379 -0.0005340701661559123
00000000: 5a6c b8fe d8a5 ab3f cc78 b389 c031 a1bf
00000010: a1dc 77e2 38fa 8abf 08af 6aac ca87 883f
00000020: 56bb b28d 27c8 803f b4c8 20f2 4b40 aabf
00000030: a50d 37aa 0db0 a93f 49d4 0dea 9c21 96bf
00000040: 3f9c 207e 3713 a6bf 6047 b4ef 32da a83f
00000050: d3a5 c1e6 01da 483f 1e6f a08d 7b77 b63f
00000060: 2bc3 b91b 58b0 b53f e510 2f43 b303 74bf
00000070: ff41 0ef3 7b7a c03f 9cd4 078f 18c1 853f
00000080: ca74 2bc1 09c0 ae3f ac47 1301 ca9c b53f
00000090: 7bac 20e7 c26f b13f 8819 6179 393a 933f
000000a0: 71a4 eb21 1152 973f cf0d 4338 0966 82bf
000000b0: 4539 f555 6383 a1bf d8f0 efa8 31fb bebf
000000c0: 08ee f7cc 11ce c0bf 4523 9f6a 0acb 9abf
000000d0: c47f 98a5 e877 703f 2f41 509a 8a54 963f
000000e0: 1c0a a12d aec8 ae3f 182e b0b2 f67a a53f
000000f0: eec5 4c94 7db2 68bf b13e 4d2d 1c0c 573f
00000100: 2adc 65b0 b701 9d3f 21db 9aa2 9c3d a93f
00000110: ce2e 2fd3 971e 983f ffd9 289e 7b30 a4bf
00000120: df93 ca29 2d4a 9bbf f02f 9cdb 9be7 98bf
00000130: 7d92 c63d f1b2 a23f 69cc ef48 f8a0 8f3f
00000140: 8ae7 e630 2929 8ebf e916 f410 91c7 ab3f
00000150: a244 3c1f d9f6 8abf 584d dd78 abbe a63f
00000160: 9ae9 a7bb dc08 a0bf 82ac 3cdb c241 a2bf
00000170: d5d3 d4be 5fd8 9b3f 8a36 563f d898 813f
00000180: 7363 1013 ba44 6abf f6a1 b219 7be9 87bf
00000190: f9c7 eca4 ac37 a63f 0363 1819 1c2d 4d3f
000001a0: 8fd3 aae5 3fa8 a73f 4cbb 4061 0233 ac3f
000001b0: 5c7f 935d cbd5 a93f 9a68 65dc e077 ab3f
000001c0: dc46 9986 9f28 b03f 67c9 a22f fab9 a4bf
000001d0: db84 dfe2 4dd1 a83f b07f 26c8 1919 963f
000001e0: d1b6 f785 8f68 a83f 2295 b107 d5a9 a2bf
000001f0: 193d db54 c938 84bf b94b def2 1a80 41bf

7.weight f8 [1, 128]
-0.08152661296733783 0.04993097004586977 0.020883275455658393 -0.020127933107518564 0.10693315800720442 -0.1099652065554677 0.07593130469863447 0.0777346991414902
-0.20572884383580173 -0.06733015146948175 -0.07505389740575419 0.06309681393597809 -0.15672821514527846 -0.03832393997952421 0.24755486328291834 -0.07544773937234663
0.2452094303691317 -0.04076902832974727 0.05749021495693132 0.0028418682888951704 0.07038424105344751 -0.0359080457034404 -0.10633959214195306 0.31192843746290155
0.23225330378272455 -0.10121689215379097 0.15806482906291774 -0.023510370191049713 0.14763077662355745 -0.07620126732615425 -0.004448346717400422 0.06819245053167461
0.0480392799200617 0.03199770680927128 0.22170190579848117 -0.032450252057630566 0.16754192956657551 -0.027176661889843006 0.026831348012639516 0.06868269190079011
-0.19336498804111885 -0.042086800325113166 -0.12408205579344551 0.0014830363173671051 -0.0761611266280669 0.0017667617918383958 -0.07900657573958451 0.05000326064455525
0.07422910596707936 0.08074196073493543 0.1636140055353783 0.001972782197548082 0.007855862824861788 -0.04527897629945752 0.10998344183962573 0.07237049001199564
0.020496078607626648 0.2062372696236674 0.24001748109244686 0.14955704095797104 0.22564148887737728 -0.06841083091521953 -0.07523544047216697 0.057997589230673316
0.10680365567963934 -0.06484298697243865 0.14288882420799826 0.03766925845658873 0.11618428948241215 0.036225523383396 0.057502097106367965 0.049808460659102896
-0.22389078337676097 -0.0106660731732493 -0.11777641812063848 0.09551793587316953 0.13348958198803054 0.04178948114470605 0.07829456154570949 0.058127042600503324
0.27998275986107596 -0.08315155717380301 0.12979932816592674 0.06500481094837388 -0.18216038263685927 -0.05501832600608872 -0.12273640605575135 0.05937322831410003
0.11526353011238757 0.012402389961149247 0.15637312623119248 -0.02919585794402898 -0.10303618684008393 -0.07417668452011436 0.04598148312025442 0.15661463266786707
0.1144088678072847 -0.08777576824615435 -0.1729872404799866 0.04173699384161439 0.23909754867558447 -0.06242596677135083 0.042205070028017086 -0.0010807053094593474
0.17745442519511842 -0.00959204091291124 -0.0455212034504211 0.030030961242256377 -0.13680969161280485 -0.05152849732798119 0.03926238832257276 0.15442325753923505
-0.12560202721631708 -0.08795882177172992 0.011115286000229471 -0.07768649683083895 0.3464227869593094 -0.05376686809520351 -0.25806245068768235 -0.03939206086423031
-0.1825135947738061 -0.06629713556618273 0.07841612554509066 0.06725648613770206 -0.2586117875881719 -0.04769388511321508 -0.14157693604460153 -0.0027510657719130804
00000000: 15c8 7298 edde b4bf 5023 cf56 8d90 a93f
00000010: a42e 76e4 6c62 953f b841 bbb9 6a9c 94bf
00000020: c3ba 7fb0 f85f bb3f bf86 da05 ae26 bcbf
00000030: dd59 6ce6 3b70 b33f cebc 93d6 6be6 b33f
00000040: 3d30 0fa0 5255 cabf 519d 987e 8c3c b1bf
00000050: a088 cb72 bb36 b3bf 073a 56e0 1c27 b03f
00000060: f867 348f ab0f c4bf 505a bb09 329f a3bf
00000070: 8908 e2b4 e0af cf3f e94e 2905 8b50 b3bf
00000080: 4998 0dca 0563 cf3f 605f bb96 addf a4bf
00000090: b3f9 2882 5b6f ad3f a3f0 876b d447 673f
000000a0: 5674 7a9d b304 b23f 1e4a eb13 8a62 a2bf
000000b0: e508 854e 1239 bbbf 621d 66b1 a2f6 d33f
000000c0: a73f 11ec 79ba cd3f 4b71 9aa9 59e9 b9bf
000000d0: 4c8d bce3 773b c43f 7a82 593c 1a13 98bf
000000e0: f299 bdb6 90e5 c23f bd5f 141f ed81 b3bf
000000f0: 4f93 c2fa 6d38 72bf ac1d de78 0f75 b13f
00000100: 1a30 5cc0 9a98 a83f 11ec 95e0 0062 a03f
00000110: c5c3 6e61 ba60 cc3f f640 abc6 519d a0bf
00000120: 1b3d 1992 0372 c53f bb13 20e8 32d4 9bbf
00000130: db34 e348 ad79 9b3f 0fe0 835b 3095 b13f
00000140: 1afd e915 2fc0 c8bf 84b2 faad 668c a5bf
00000150: 653e a773 d7c3 bfbf a1fd d61e 4e4c 583f
00000160: 7414 18ac 4b7f b3bf 51bf 6807 56f2 5c3f
00000170: 3b70 f862 c639 b4bf 1ace 5202 079a a93f
00000180: 7b38 8abe ad00 b33f a77e c550 81ab b43f
00000190: e093 78c1 4df1 c43f 61c1 a860 3929 603f
000001a0: a430 510f bc16 803f 4d18 ce54 ce2e a7bf
000001b0: 717e cdf5 df27 bc3f 3c09 cc57 df86 b23f
000001c0: f195 438d ecfc 943f 88ff 1f9c fb65 ca3f
000001d0: 6653 e18f e4b8 ce3f c387 e663 af24 c33f
000001e0: c2ae acff d1e1 cc3f 0b1a 7949 5f83 b1bf
000001f0: 25ff 533c a142 b3bf ee33 fc29 dcb1 ad3f
00000200: 68bf 3c00 7c57 bb3f 8aec 6bcc 8c99 b0bf
00000210: aaf7 7755 2e4a c23f fd6f 4592 6249 a33f
00000220: 13ce a2eb 40be bd3f 6da1 6cdc 268c a23f
00000230: 9be9 0b35 ea70 ad3f 3a9d 309b 7e80 a93f
00000240: 2950 3d04 74a8 ccbf ff93 a51b 18d8 85bf
00000250: 3373 1168 9826 bebf 54b6 c10a dd73 b83f
00000260: 0d66 7fc6 2f16 c13f 11a9 aa4d 6e65 a53f
00000270: 9a21 4bc5 1c0b b43f f7f7 f6e5 d3c2 ad3f
00000280: 6304 43cf 3ceb d13f fc46 aca2 6b49 b5bf
00000290: 83f9 c1ae 439d c03f 221e 1bc1 27a4 b03f
000002a0: 13ad 060b 0851 c7bf 34ee c0ad 5c2b acbf
000002b0: 3bbc 0932 a76b bfbf 89e7 bbf3 2a66 ae3f
000002c0: 4a14 4124 e981 bd3f aaf7 339a 6c66 893f
000002d0: b070 91db 0804 c43f b66c 31dc 84e5 9dbf
000002e0: 6d5f c85c 9460 babf debc 2342 3efd b2bf
000002f0: 1236 728c e28a a73f ea17 b1c2 f20b c43f
00000300: fbcb 9a49 e649 bd3f 3c9e ff05 7978 b6bf
00000310: 7050 3e26 7224 c6bf 688a 2a1f 8d5e a53f
00000320: 8ac5 0e9c bf9a ce3f 5284 68db 4bf6 afbf
00000330: 6ecf fd26 e79b a53f bcc9 7c7d ceb4 51bf
00000340: 672b 5f9c d3b6 c63f ceca 2ef0 fda4 83bf
00000350: a030 3020 8e4e a7bf e89a 9cb1 6fc0 9e3f
00000360: 235d a0df fa82 c1bf 36e1 ab75 f161 aabf
00000370: cdd9 9d23 331a a43f e9b7 6f2c 24c4 c33f
00000380: 044a 9a2b ba13 c0bf 6c7e e726 7884 b6bf
00000390: f876 da6e 9cc3 863f d8b0 3a23 43e3 b3bf
000003a0: 0a15 257b ca2b d63f a48c 27b8 5487 abbf
000003b0: 8dde 815e 1884 d0bf f18f 443a 322b a4bf
000003c0: 977f 5000 9b5c c7bf 7d42 135d d9f8 b0bf
000003d0: 45f8 b146 1413 b43f 3fc2 6798 b837 b13f
000003e0: 7348 8374 188d d0bf d695 8f39 556b a8bf
000003f0: 20f8 166b 311f c2bf f3d6 9f30 6789 66bf

7.bias f8 [1]
0.046236953808245065
00000000: ea36 f2b8 5eac a73f
