models/run2/7.pt (torch, 153868 bytes, 6 tensors)

0.weight f8 [32, 1, 9]
00000000: 92d4 9a52 2f95 a23f 4576 df62 507f c63f
00000010: c95e 9d5f 07e3 cabf c41b a16d e8ae ca3f
00000020: 25f5 7409 bf5a b53f 5ca4 de52 03be d03f
00000030: c340 6493 0708 d13f 8526 bf9d 05ef d13f
00000040: ad19 b78f 1ecd d13f 3eb2 0732 9b3b bd3f
00000050: e745 3d78 e659 d23f 7544 dda4 d327 b2bf
00000060: 1033 181e 5851 d6bf 5b4d 498c 8071 d33f
00000070: 799d 3680 6f6c c63f 9899 7ea4 14e6 d33f
00000080: 66e8 e57a 6460 d5bf 242a 9e6a 4f6e c8bf
00000090: 79e1 5203 2a94 cabf 493e 5ba7 3283 b43f
000000a0: 275c e0a4 84e6 ce3f b705 41e1 aaf1 d2bf
000000b0: 1e18 4ace 482d 9e3f 063c 05f3 8e9e d33f
000000c0: 7a4c fbb0 44b1 a7bf 608f 0319 b8c8 c53f
000000d0: 9395 55d3 dcb1 cfbf 807d 9409 2d2e a5bf
000000e0: be9c 24e1 2204 c43f a109 c2b0 bd38 c6bf
000000f0: 993f 1380 4be9 b93f 8eb7 1f5d d95e a83f
00000100: c8dc afc8 9599 d43f b9fe cd6c e08e c4bf
00000110: bbed 0e8f bb3f c9bf 19c9 ac62 12c5 c7bf
00000120: 5aa0 2078 0590 cebf 7f88 bcb8 6e8b c53f
00000130: a342 0d8a 4b79 d2bf 301e e112 cd73 d23f
00000140: 9738 ec74 684b a43f cc3a 47c5 a4bd d2bf
00000150: 48f9 b9c8 e4ee c33f 3807 6350 fdbb 90bf
00000160: 3299 aa36 4a6f c63f 231b 9548 3e71 c0bf
00000170: 1866 cf93 45f9 d03f 7b40 ca52 6ff6 ce3f
00000180: 6ee0 3877 ec29 a03f d8e6 c560 d230 c33f
00000190: 1c79 dca6 608b 8e3f a653 95ae 5b47 d4bf
000001a0: e532 a450 b43e 6d3f 201d 0555 f073 b53f
000001b0: ecab 1a90 f527 d23f dfca cc05 7ea1 d13f
000001c0: 27d1 0cf2 3274 d13f d64a 1395 f925 a7bf
000001d0: d675 2452 8321 d4bf 2ed8 246d c8b6 a9bf
000001e0: de70 9304 de47 d43f 8dad 07d9 53bd 95bf
000001f0: 4af5 75bb ffd0 afbf 909d 5c55 226d a13f
00000200: 7794 96ab 0d86 c2bf 610d ce0e c35f 87bf
00000210: 5a8e d0d1 3a80 ce3f daba 1ed5 4fcc c1bf
00000220: bdb7 ce22 97a3 d3bf 64c5 dee3 795e d03f
00000230: f840 8cf6 e206 b73f 599e 39a3 7945 c6bf
00000240: 6cd4 0900 7e80 c73f 99d2 f858 9bcf c73f
00000250: a403 b47f d4ca bbbf a398 fcd9 e3bb d03f
00000260: abb5 0827 5482 d4bf 5fc1 5574 c944 c63f
00000270: b7ce 7a23 6cf0 c7bf ddd3 eaa8 b877 c0bf
00000280: 01c9 7bd3 2d3c d13f 37f5 5bbc a350 cebf
00000290: 81a8 e001 0bae c8bf 3cb9 f1d0 7f4f 86bf
000002a0: e7bc fd1c 612b cc3f 5e97 1e44 d8e2 d0bf
000002b0: 676e 84ea d885 ccbf 810a 0b58 a633 c93f
000002c0: bcc2 166c 264d 74bf 3c80 3503 63e1 c43f
000002d0: 3107 dcfc e777 c73f 706b c9be b959 8abf
000002e0: 5faa 6d54 8d3f bbbf cb04 d3bc df23 b7bf
000002f0: 6d03 36ea 5c0a d03f 45ef 1595 87e1 d2bf
00000300: 4af9 ef54 58cd c13f 2f25 264f 6f0f c93f
00000310: b54f 7579 4d3e d23f 8435 7e1e 4deb a43f
00000320: 5038 5909 e082 babf 07c5 964c 0887 c6bf
00000330: cefd 49a4 f413 bd3f 6158 4715 174c c83f
00000340: 3c36 d205 48ff c8bf 10d7 945b 2819 d03f
00000350: 0d3d 585a db04 d13f e36f 373c 7ade d2bf
00000360: 8e4a f675 a073 d2bf fbfe 6fc8 64f4 d03f
00000370: 2e55 c221 db98 d13f a1fe 3c25 6a70 c0bf
00000380: e0ab c7bd a5e2 bfbf 871a 7abf 1588 7e3f
00000390: 8187 83f3 5472 d33f 07a2 1b3c 3e5a b1bf
000003a0: 5549 7aef bed0 c53f b80e 89ae 7505 af3f
000003b0: 7bf9 7f3c 4581 d3bf e06f b8f6 bb97 bfbf
000003c0: 672b 6e9f b8b5 cc3f 6a54 f278 3d82 b2bf
000003d0: 3b18 db9c cfef c53f 997a b0df 1c56 d5bf
000003e0: ef0b a2c1 1c21 bb3f 68b2 c8b2 f7ee d23f
000003f0: af7c 6968 cea3 c03f 813b 5f97 cc07 c93f
00000400: 7019 a152 8da3 d43f 5e98 3bf0 046e d0bf
00000410: 0b8e f7a2 2c31 c03f 411d 40f9 5923 b13f
00000420: e4e5 a93c dfe2 d23f 2054 b3a5 5b99 d13f
00000430: f8df 9ec4 d0c1 d23f 46ff 2659 87a7 cfbf
00000440: dace 936a 8d91 d23f f1a3 30f3 6c85 ffbe
00000450: 2626 76d3 c6a9 803f 8c5c 74f1 0d93 d23f
00000460: 5243 f76e 7c5e d13f 22e5 c61c 536d c53f
00000470: e078 dcbd 9204 c2bf 6474 ff1f 7ef9 bb3f
00000480: 0bff 5216 94a7 a83f 996d c4b4 69b6 c2bf
00000490: 5cdf 1478 3a95 d3bf d87d d718 ed65 c5bf
000004a0: c7e2 4451 7fb4 babf e8f4 d029 1142 c33f
000004b0: a861 0f5f 831e c13f e4ed a035 28b9 c6bf
000004c0: 7892 9b16 244d b8bf b507 a032 31eb c5bf
000004d0: 5325 dc00 7a18 b1bf afff 47e2 c06a c5bf
000004e0: 9fc5 3ae4 8963 cb3f d196 91a4 9433 bc3f
000004f0: e913 9b2e c368 a63f 08dc 2f42 940d bd3f
00000500: e9c0 7e76 1f75 b33f 98fc 8bdb 9a89 ca3f
00000510: 67ac f274 a187 cf3f 0bcd 3d66 a3fe d0bf
00000520: 4667 6970 5860 c1bf 5695 6680 4536 d5bf
00000530: b3c8 ee41 cc9c c8bf bcd9 4ca5 2b7e d03f
00000540: 56da c13e 1fc5 d0bf b238 3c13 274a c7bf
00000550: 0592 09cf f997 d33f c61d 3413 db58 a93f
00000560: e065 0319 1222 c2bf 2e83 9ed5 ea21 d03f
00000570: 0c48 2150 209b d3bf 7181 0044 c4cc cebf
00000580: 05f6 a4d8 2970 bb3f 10dd aea2 a081 cf3f
00000590: 67b8 7bdb 8002 bbbf 6337 2114 f31a a0bf
000005a0: 3bd0 47d9 b8c2 d6bf ea2c c4c7 1450 bcbf
000005b0: e0dc ae81 d5db d1bf 4e4c a02d 812e c33f
000005c0: e403 7b06 4881 cf3f 3f9b 1426 4719 9c3f
000005d0: 1beb de4e e9d2 c93f 4f24 dc8b 7cb9 cdbf
000005e0: 1c2e 2edb 8832 c03f ee39 9051 63c9 aa3f
000005f0: 5d26 17c0 df9f c83f 8d5a 6c4b c9c0 d5bf
00000600: c7ff 68d9 64ab 9a3f be8e 1315 22d2 a03f
00000610: 21bb c8bf d075 d43f 4c3d ec47 50bb cebf
00000620: feff 305d 2047 cf3f 7dcc 1f66 9a3d cf3f
00000630: d95c 17e0 2036 c83f 8251 5e51 e449 c3bf
00000640: 9307 90a1 f19a 9e3f b6f2 b364 2f63 cfbf
00000650: ab1c 0c92 e137 d1bf 85d7 79fb bc09 c9bf
00000660: 5e04 dd33 15f3 7fbf 2dc1 d684 c381 c4bf
00000670: 90ee d269 7f14 d43f 0a30 a227 8df3 be3f
00000680: 0363 2db9 a54d 7bbf 0e44 39ec 3fe3 c83f
00000690: 665f 4b46 f23f ce3f 22d7 a2c4 fcb6 ba3f
000006a0: 88b5 94d3 5417 c13f 5613 492d a9fd bc3f
000006b0: 6e31 ed95 6ceb cebf 3f12 ef1b 52a4 d2bf
000006c0: 146a 1cba 4970 c23f c99d 89c9 7b38 c9bf
000006d0: 6ecd d491 363b babf e110 502c 635f b5bf
000006e0: 2800 ae1c 9f28 c03f ebb8 7fe0 0861 d43f
000006f0: faea 32d1 323a cebf cea2 8705 e2fa c93f
00000700: b58b 29b6 29c2 d13f 2c5c 7f02 9140 c0bf
00000710: 7bb7 210f 7a80 d03f f23d 1696 9c6f c93f
00000720: db2a bef0 7cb4 d33f b940 4b1f 6e9b b13f
00000730: 270e 76b3 a1f6 d13f f753 8ae4 f88c c83f
00000740: 5bec 4527 6e85 d3bf ec82 eafc 5b41 acbf
00000750: ce04 60f4 0839 d2bf 7ea6 c577 000b a3bf
00000760: 6c19 7357 c5b3 b23f 2fe0 e212 c186 c9bf
00000770: e386 c18d 7e16 c63f 9e10 bd85 765b a83f
00000780: 96a6 4ba5 a7e3 cfbf 6f7e 7663 ce92 b33f
00000790: a0bd 6f9a e788 cfbf 6336 2fc0 9531 ca3f
000007a0: 731a a082 7e75 cdbf 28a6 f4cb bc06 aa3f
000007b0: 74f8 4faf 8e9e c13f aa48 eea8 192f bdbf
000007c0: 22f7 72b0 da7b d0bf b663 401c 91b2 d13f
000007d0: bb77 b6b7 cd05 c03f 717f f365 52d5 d2bf
000007e0: feda 124a dfb7 d33f 9088 a36e 8302 d33f
000007f0: 47c3 9626 9206 9fbf 4d2c 369d 7687 d0bf
0.036294440110773554 0.1757603152063202 -0.21005336922347898 0.20846276619906068 0.0834159277046252 0.2615974721216554 0.2661150874491904 0.28021374134969107
0.2781444934338662 0.11419076892315957 0.2867370771610624 -0.0709202077389522 -0.3487148565189253 0.3038026208862072 0.17518419037262925 0.3109180075065523
-0.334008331315664 -0.19086640077542072 -0.2076466099004042 0.08012692056512906 0.24140985537153023 -0.2960002135988264 0.029469621268184303 0.30655263645616093
-0.04627432499332769 0.17018796178228524 -0.24761543578203468 -0.04136791936820838 0.1563762282687317 -0.17360659724006403 0.10121604801974939 0.047598641030943786
0.32187409017883484 -0.16061024964073115 -0.1972574661757401 -0.18570165460693813 -0.23877018323514926 0.16831764240584232 -0.2886532638704386 0.2883179363602464
0.0396378176429703 -0.2928249289079019 0.15572795678230933 -0.016342123061583197 0.175271298115328 -0.12845591110291207 0.26521434244713893 0.24189559500200972
0.03156985240315256 0.1499274227642704 0.014914279071998986 -0.3168553547778238 0.0035699388291788752 0.08380033565218925 0.28368891785311123 0.2754817062988603
0.2727172244806461 -0.04521160073058687 -0.3145454694912052 -0.050222647975190035 0.31688642927998767 -0.021230039712390392 -0.062141410478015205 0.03403575222028643
-0.1447159850914976 -0.011413120164212644 0.23828826184136426 -0.13904760271312605 -0.3068597640911966 0.2557663655562321 0.08994883078799265 -0.173995213222258
0.18360877038836365 0.1860231575425544 -0.10856369130853111 0.2614678982521445 -0.32045463382641043 0.17397421055239712 -0.18702460987480204 -0.1286536049643975
0.26929803517045064 -0.23683592507578918 -0.19281137077024726 -0.01089382034680552 0.22007383266052402 -0.26384550716681143 -0.22283469630280026 0.19688872622471723
-0.004956388556295262 0.163128258292092 0.1833467468896344 -0.012866450438357296 -0.1064384776233651 -0.09039114341705383 0.25063250419775934 -0.2950152355112901
0.13907913348516338 0.19578353275964264 0.2850526510348986 0.040857706043520486 -0.10355949619517557 -0.17599586238569762 0.11358574877703306 0.18982208765982292
-0.19529056820140223 0.25153550094124544 0.2659214384338647 -0.2948289478351837 -0.28830729980214975 0.2649166066548642 0.27495458885944657 -0.12843062227510862
-0.12455211528110466 0.007453999474484114 0.303853261763031 -0.06778325049857169 0.17043291753050008 0.06058852916296814 -0.3047650423831311 -0.12340903066109332
0.22429569039044425 -0.07229980662153115 0.17138095053650368 -0.33338090748467547 0.10597400405281097 0.29583542308208743 0.12999897096867616 0.19555051223002454
0.3224824244429305 -0.25671504459604033 0.12650068242429344 0.06694567046371437 0.2950971691530795 0.27498522931756675 0.2930795593379112 -0.24730007031575435
0.29013381393381865 -3.006095284888497e-05 0.008136323288243718 0.2902254922823395 0.27139197193632925 0.16739882378696175 -0.14076456327979425 0.1092757061118888
0.04815352222931154 -0.1461918003704852 -0.30598317839348055 -0.16717303956009633 -0.10431667074306993 0.1504537061863751 0.13374368802648218 -0.17752554529748388
-0.09492707778879061 -0.17123999568872042 -0.06677973290438403 -0.16732035683525967 0.21397517818472253 0.11016205804625236 0.04376802390974161 0.1134884511555897
0.07600590365359818 0.20732436866817205 0.24632662020062243 -0.2655418871356267 -0.13575273026327234 -0.3314374689019436 -0.19228509158489757 0.25770083563420676
-0.2620313752044344 -0.18195045890064915 0.3061508676385361 0.04950604066294377 -0.14166475507117493 0.252070149052133 -0.30634315324016437 -0.24062398262413923
0.10718022860688599 0.24614341681965657 -0.10550694807509019 -0.031455608565564196 -0.355634891689309 -0.11059694172961412 -0.2790426031528579 0.14985670783844046
0.24613285366470372 0.027440177630661863 0.20174900389778191 -0.2322230990323839 0.12654219343345197 0.05231771822592522 0.19237896804252133 -0.339891742377781
0.026044441003477716 0.0328531885841392 0.3196908829585699 -0.2400913573442075 0.24435810613977077 0.24406747805150877 0.18915186826664046 -0.150692500811271
0.02988793896293591 -0.24521438996443629 -0.2690357137912069 -0.19560968665217274 -0.007800181219694028 -0.16021007524751366 0.31375108084078196 0.12090379922500474
-0.006665847164946784 0.19443511041984646 0.23632648880333845 0.104354665762767 0.13352451640222918 0.11324555736162031 -0.24155957527763 -0.29127934196393207
0.14405175769282208 -0.19703624096585617 -0.10246602115949141 -0.08348674613813813 0.12623967075705989 0.3184225265857907 -0.23615107741155567 0.20296883840571528
0.27747576512609423 -0.126970411509974 0.2578416011591497 0.19871861771069593 0.3078911162380515 0.06877792610180479 0.2806782009649588 0.19180213126369924
-0.30501893840091093 -0.055186152099173075 -0.28473113884690526 -0.037193312283148025 0.07305558571815646 -0.199424871656221 0.1725614730994983 0.04757280714560007
-0.24913497515745026 0.07645883491795201 -0.24636549988597967 0.20463821300511417 -0.23014813783830199 0.050832652947360224 0.13765128669905702 -0.11399994253432291
-0.2575594638000088 0.27652385481774944 0.1251771113429053 -0.29427013355415627 0.30809766992335585 0.29702840618677673 -0.03029850349929866 -0.2582680259008086

0.bias f8 [32]
00000000: dd36 775f 73c3 cdbf 741e a450 8c4d a6bf
00000010: 954b e763 da28 cf3f 1a04 bf75 8c12 d0bf
00000020: 9bf9 448f 71f7 d23f 9f4b c725 9aa0 ba3f
00000030: 20a3 bff4 bf45 bebf b7db 9f0c 4efe f2be
00000040: 145d c007 605c 9bbf 92bd b2ca 7bbf d43f
00000050: 163a aa88 da70 d13f a63f 2b73 57fb 95bf
00000060: f771 0016 bbd4 9cbf 48bc cf42 ce1e ba3f
00000070: aa6a ef02 e12b d23f 1784 a88d 0582 d13f
00000080: cfac 0136 4163 d03f d78f 0088 92ce c2bf
00000090: 6074 a669 29aa d43f 2f57 231c 16c5 d33f
000000a0: 8369 6ffa ad6a af3f f997 ee0a 0b85 cdbf
000000b0: 9373 9d13 6415 c73f 60c3 4756 42d2 cf3f
000000c0: 873a 0525 8d8c acbf 30e2 a12f 91f2 ccbf
000000d0: 32f3 e161 2105 d33f 228d fa42 73d3 283f
000000e0: 6bc6 eb82 9a42 c33f ca53 4b3b 9ded b03f
000000f0: 4d13 caed 0caf babf 5b73 00cf 9fa5 c93f
-0.2325271812573452 -0.043560395091898935 0.2434342372713131 -0.2511321210732277 0.2963527583232463 0.10401309416128733 -0.11825179791743468 -1.811349719812633e-05
-0.02671957061110415 0.32418722910639375 0.27251304002939614 -0.021466604618410344 -0.02815525361812551 0.10203255778445552 0.2839281586326857 0.2735608943349361
0.25605802797390437 -0.14692908898098153 0.32288585011867177 0.30890419719559054 0.06136077577658041 -0.23062265428342224 0.18034029920354708 0.24860409939676753
-0.055759821671576275 -0.22615256143377982 0.29718813475465133 0.00018940717699420748 0.15047007935168052 0.06612570474256 -0.10423355870632385 0.2003669510603697

3.weight f8 [64, 32, 9]
00000000: 54ff 0860 5c1d a63f eee9 d557 b6c6 a5bf
00000010: f968 8024 5907 99bf 06ae 7e74 02ad af3f
00000020: 5f98 2852 8263 af3f 251a e98d 87ae b63f
00000030: 8e65 3b76 91a2 9a3f 0087 acdf 6069 9f3f
00000040: 9ebb f9bb e960 acbf 302c 12e9 1611 883f
00000050: 9581 5948 f30c 96bf 7b5f c62c 55c3 a2bf
00000060: 47cf 7723 c83b 84bf 4709 d704 9e64 a43f
00000070: 4fe5 a57b 4478 9ebf 8f6f c799 e704 8b3f
00000080: f005 defd 2cf6 a3bf f56c 0913 949f a9bf
00000090: 2709 6c56 29a4 63bf 9f74 b9ea 47b9 91bf
000000a0: 40f3 09a6 13c4 963f 29b0 bdb0 459b 8e3f
000000b0: d95c 75f7 3e69 abbf 5751 d38f 1eec 30bf
000000c0: 04b3 ed83 0d7d 88bf 9337 9f43 d193 943f
000000d0: e424 3fd6 96e7 9b3f e15f 4bf9 c728 903f
000000e0: 9ea5 3a41 fe23 92bf 875e 660a 209e a0bf
000000f0: 9cbc a17d 6bb8 a03f 52c7 22a9 59fa a3bf
00000100: 2c32 fd82 8b7a a33f f71a 0eb4 8b6e 833f
00000110: 65a9 ad75 cacd 99bf 7ecc d1a9 d42b 963f
00000120: d699 39df 4693 a9bf 1b81 6897 67b6 a43f
00000130: 6524 5f7e 22e8 a7bf 3cfa f13a 1227 a6bf
00000140: 1222 7381 1555 6bbf 9227 bb35 3f71 9d3f
00000150: 42a8 f19d a4a4 a4bf 3e1a 18f2 6a19 ac3f
00000160: 7297 082b 1379 83bf 17aa 853f 5269 a83f
00000170: 7011 919a ca11 a8bf 8bcd 30d3 e0a8 a4bf
00000180: 6ee3 ce4f 4219 9bbf 501b 4173 043f 94bf
00000190: dfdd 730b 44d4 a5bf 1c1b 096d 48d1 893f
000001a0: 356f 5d43 fbd0 99bf 8a87 9f7d f73a 973f
000001b0: ff04 3f91 4ae6 aabf c885 a269 c7ee 953f
000001c0: ad2f fef8 d923 b0bf 49eb adb7 c822 9a3f
000001d0: ce03 aca3 9bb0 443f 52ba 1255 fe5d 8a3f
000001e0: 37a1 b9eb e488 5f3f 3efa 315d e1f2 2fbf
000001f0: b7e5 f6d2 4a17 a8bf e494 48f7 f7ee af3f
00000200: 7653 e7fc 38eb a5bf 3dab aacc aede a63f
00000210: 99cb ce98 e1a6 97bf aa4c 67cd 7d66 a63f
00000220: b6da 026e 26ed a23f cf56 6f25 0d9a a1bf
00000230: a6d1 adce 83a7 92bf 3348 a4ed a3c2 9abf
00000240: 149e 4215 b309 683f 1028 529f a4f9 73bf
00000250: 99bd 6f11 174b acbf 003d 2110 ba61 abbf
00000260: 27b3 bdc4 0041 8dbf 57f4 4f28 3cad 9cbf
00000270: aeec c601 731d ac3f d3d0 7ca4 9330 acbf
00000280: 3d65 5720 47c7 a7bf 181c 7b4e 5476 a93f
00000290: 74a3 51f2 0492 a9bf 6a6e 0f04 9ff1 a83f
000002a0: 630c 8e53 cf19 aabf 986b e65b 16d6 abbf
000002b0: edd9 db5d 3ac6 a53f 7dcb 1c17 3b50 a0bf
000002c0: 0689 7178 0832 ad3f bf1f 1a7a e66e afbf
000002d0: c59e 5bbc 47c6 a73f 8b21 8ea7 1155 96bf
000002e0: 6eda 1d9e aa5d 703f 42b9 b3ed d99c 91bf
000002f0: 9c4e a305 d6ab a6bf b9d3 08f4 71bc 85bf
00000300: 0ffa 2f2f dfb6 5bbf 1ef7 80e3 1e38 a8bf
00000310: 3f1c cd7a 0efc 843f 5269 f612 b11f af3f
00000320: c4f0 8e14 1bcb 8a3f 6452 d46f 048b a63f
00000330: abeb 86be f13f 9c3f 13ae 4800 3154 a93f
00000340: 6a2b 05ab a7c9 933f 12cb 33f2 5bec 60bf
00000350: f0d1 7b35 9b0f abbf b3ae 522f 2213 59bf
00000360: 1f86 6215 776f a73f 2a85 f8ba de89 ad3f
00000370: ce67 0282 d5cc a9bf 0e65 2ffc 7ee9 a3bf
00000380: 3116 596e d3fc 933f dfaf 193b b86f af3f
00000390: a7b9 b1d2 7dfa 8cbf b313 eba7 e614 adbf
000003a0: 5534 ee41 e12a aa3f 16fd 4b9a 20dd b13f
000003b0: 6d41 d7c0 40ad 6abf 171f 35db 0cb6 4c3f
000003c0: 1e52 2117 516d ae3f f4d1 e2a9 fec5 6a3f
000003d0: 662e cf03 cc49 93bf e404 5c5e 1d33 b03f
000003e0: 5468 0d56 9a58 a53f b5a0 c080 cabc 8bbf
000003f0: 1c85 afa4 1a3e a63f f83a b158 9d82 84bf
00000400: fbdb 3918 2dce 923f d9a9 f8c5 fc90 9a3f
00000410: 5d3b a38b 6626 88bf d894 cb42 2a29 9e3f
00000420: c631 b346 06cc a53f 476f 5116 b355 ac3f
00000430: ede6 474f 2fbd a3bf 00d5 fa45 68f1 6f3f
00000440: c21f ebf6 03ea aa3f 7dff 9132 7a49 90bf
00000450: 8dfb 4da2 ad23 893f 9003 869e 73dc 8d3f
00000460: d153 6e24 0a19 9cbf 619e f825 7df0 abbf
00000470: 09a2 771b bd6e a43f 618f a83f 31ff 753f
00000480: c662 f1f9 79c3 ab3f 1115 9bd5 5fe3 96bf
00000490: db5f d62e d3f8 953f b9a0 bca3 0d62 a0bf
000004a0: 7f63 dbb5 919c 94bf 50dc 3f30 e143 a5bf
000004b0: dfdc e287 e208 a0bf 7fdb 8ec2 0203 723f
000004c0: 98e3 3d05 3ccf a23f 548f 1c55 0754 b63f
000004d0: 5109 461b 46cf 84bf c7c3 cf0e b6ae 963f
000004e0: ce50 5c56 4683 9a3f dd80 4bc9 1f8e a7bf
000004f0: 27fa 8335 81ed ad3f 9377 a3d1 5075 953f
00000500: 9a32 5cbc df9a aebf 1f09 a51a 9a3f a83f
00000510: 8d92 6fa3 04b2 a93f 1b24 e090 8944 96bf
00000520: c4b3 4037 f45d a53f f23f b16b f0f4 9f3f
00000530: be37 85d6 c15a 90bf 470a fbad a3eb 9dbf
00000540: e4f1 641b 8337 9cbf a8b4 7f15 2711 96bf
00000550: c50a d811 9ce7 a2bf a6a9 e4d7 4bc6 833f
00000560: 97d0 4701 04e8 09bf 5a84 0b54 3d3d 95bf
00000570: 383e 92e5 16cc abbf 8e86 1687 da5a a63f
00000580: 1a3b ae37 4977 7b3f c50d e78d 36b6 7ebf
00000590: 2eb7 a750 a0c0 71bf ef2b 5fb8 c233 ac3f
000005a0: 8ed1 737f 59ff b03f 091d 3c08 284b a1bf
000005b0: afc1 a326 3182 9e3f 1a54 0746 d0f6 72bf
000005c0: 3b27 d4c9 320c 9cbf b5a0 fbba d00f a4bf
000005d0: 66ec 3c6b 9488 a4bf 63fa c997 5cad 8d3f
000005e0: 237b ae56 2fb2 873f 12a2 e148 b83a 713f
000005f0: e8bf cf88 fd92 933f 1dda 3533 3298 a0bf
00000600: e9ad a68f fca5 a3bf 6748 beaa bff0 7fbf
00000610: bcf5 0800 70e8 8dbf 4f65 a7a1 a1b8 9cbf
00000620: 0ba6 bd98 82a9 9dbf e151 0434 bef3 ac3f
00000630: 04a9 8dec 5c42 a23f 71dd fec9 d1e5 b13f
00000640: 41a2 33b0 8a66 a4bf 6d28 0abb dff8 a93f
00000650: 5b24 1d41 db12 9f3f 70c2 ee9a 2430 8bbf
00000660: c868 8b2b 9782 ac3f 73e8 01d7 a18b a43f
00000670: 512c fb97 6f1f 8bbf d68d 2ac6 8d5e 99bf
00000680: 1e3f 516f 5ae5 9e3f dfc0 239c 1b1d a4bf
00000690: fccf 7d92 85df a33f 9b34 4e30 eaea 9b3f
000006a0: 04ca 0901 e587 a93f a331 d610 93ac 96bf
000006b0: d21a d921 1610 a2bf a8a9 1859 48f7 ac3f
000006c0: 9669 8a40 1cdb b03f bd43 e9fb 1dbf a83f
000006d0: 26e7 483e 0c65 a8bf 2e2f 9b63 f574 adbf
000006e0: c415 ac15 2dc1 993f 50e7 efd7 e95f b23f
000006f0: a670 f6da 6e2d 9cbf de7b 1399 6c7b 7e3f
00000700: ff4e 1f8f ca62 aabf 753c fb1e 7dd3 a43f
00000710: e85d 849b f917 913f 915c c9c3 59dc a23f
00000720: 45f0 5442 3dfb 9d3f f492 6028 c4aa a43f
00000730: 3895 a8ce a938 983f 1558 3c5d 0169 b33f
00000740: 5146 1976 4f11 95bf b19d 9b79 bcc8 8e3f
00000750: ce6f b8dd 1f03 7a3f eecd 1426 c53a 9c3f
00000760: 9460 a431 734d 8ebf dad8 3faf 7478 a53f
00000770: 7e73 9c9c a518 81bf d1bc 6eac d7e6 87bf
00000780: 852c 3f15 fe89 9b3f 49d2 651e 5095 ab3f
00000790: 634c 9213 cdbc 9d3f 9b1d 95ee 4bfc 9a3f
000007a0: 1bc7 0fdc 2c13 a93f 156c d44d 4150 a1bf
000007b0: 6267 2c9b 93f2 9b3f 1816 308d 0677 4abf
000007c0: 48e0 85c6 6abe ad3f fac6 27f5 d594 b03f
000007d0: 9c49 569f 988e 98bf 97ae e941 0587 99bf
000007e0: c43b d1a8 ba79 933f cf1b 36a6 ee66 a03f
000007f0: 0a7c deb2 618d 92bf 2cc4 5028 5270 98bf
0.043192755435028346 -0.04253167936527179 -0.024442093708878485 0.06186683342033565 0.0613060689250211 0.08860060896504558 0.02601077350741359 0.030675424243901794
-0.05542688769934688 0.011751345622789428 -0.02153377656066054 -0.03664652034348045 -0.009879649717710172 0.039830148783510703 -0.029755659148098797 0.013192948704208422
-0.03898754691091344 -0.050045611690359516 -0.0023976142286993465 -0.017308353139345752 0.022232348450859307 0.014944595771986329 -0.05353733797772415 -0.00025821443689479556
-0.011957269276274392 0.020095128776851445 0.027250630213335195 0.015780567732548326 -0.017715428096072842 -0.03245639922095927 0.03265701206771007 -0.03901939572950987
0.03804431890475643 0.00948819297060542 -0.025199092323796708 0.02165157591339239 -0.04995175814547152 0.04045413707013009 -0.04669292252180738 -0.04326683969064901
-0.003336469653366211 0.02875231519173089 -0.040318626671095106 0.05488142209292278 -0.009508275748043114 0.047678537611165854 -0.04701073777008247 -0.04035093858729074
-0.026463543053725606 -0.019771642241063703 -0.04263508453180597 0.012606206729413531 -0.02521126364386746 0.022685877840451542 -0.05253823302292381 0.02141868192905408
-0.06304704979828442 0.025523315630816588 0.0006314048726779821 0.012874590846277876 0.0019247279696178018 -0.00024374962831426485 -0.04705270600556893 0.062370060859658044
-0.042810231086753456 0.04466768501636984 -0.023097538901946633 0.043750697444602096 0.03696556179914039 -0.03437844354600161 -0.01821714352577577 -0.026133118991374892
0.0029343126025940334 -0.004876750045818681 -0.05526039207313289 -0.05347997137925553 -0.014284139637049954 -0.02800458904311073 0.05491217991535656 -0.05505811102776339
-0.04644224424164143 0.049730906086147 -0.04994216402048482 0.048718423123969526 -0.05097816367108334 -0.05436773177935733 0.0425279845784877 -0.03186211259016767
0.057022347166610074 -0.061392977147135756 0.04643463300982157 -0.021808887340314647 0.003995577311676086 -0.01719990266149663 -0.04427975481817478 -0.010613336810914352
-0.0016915492567474188 -0.047303166648346315 0.010246384737582768 0.0607886634490621 0.013082706036464116 0.04402936806778682 0.027587678197715054 0.049470454487473024
0.01932394009899544 -0.0020658298322983127 -0.05285344150425775 -0.0015304406963804584 0.04577228675885813 0.05769248993261507 -0.050390884514129305 -0.038890808376615835
0.01951914177904807 0.06139922830047317 -0.014149649612787153 -0.056800086973033535 0.05110839776816848 0.06978038565647568 -0.0032564415657604846 0.0008761942648698198
0.05942777068472459 0.003268239393117373 -0.018836200459004714 0.06327994874665738 0.04169161129421242 -0.013543684057438868 0.043442566493249596 -0.01001475264470518
0.018364624599112016 0.025943708022319576 -0.011791993271257512 0.029453907324655443 0.042572208528870045 0.05534133574903293 -0.038552740505066165 0.0038992916668926236
0.05256664647237087 -0.015905293785635422 0.012275082126277837 0.014580634379628227 -0.027439268563813905 -0.05456915939822405 0.03990736923498523 0.005370323541260409
0.054225742111787364 -0.022351739323103696 0.021457004293182407 -0.031998087155729 -0.02012851402728044 -0.041533505573106866 -0.03131778630034331 0.004397402554721873
0.0367373234175325 0.0872196753303432 -0.01016096850139961 0.02215084519770352 0.02589139844992943 -0.046006196329246164 0.05845264223352258 0.020955336375542876
-0.0597753446037121 0.04736024451496434 0.05018629546228679 -0.021745824306013 0.041732436890334706 0.031207806180020677 -0.015971211164746306 -0.02921920537370173
-0.027555511996284823 -0.021549807250199976 -0.03692329137631626 0.00965556385616113 -4.941236707969967e-05 -0.02074142289609813 -0.054291453861079864 0.04366190814040492
0.006705556875103347 -0.007497990706215989 -0.004334093313884497 0.05508240223533522 0.06639632569915063 -0.03377652264139825 0.029793518050554798 -0.004629911011268662
-0.0273902831732251 -0.03918316156870231 -0.04010452088410758 0.014490817434532127 0.011570329506694293 0.004206390249330132 0.019115411258041975 -0.032411164046539855
-0.03837575200608596 -0.007797955226026421 -0.014603495598857978 -0.028048062793322 -0.028966942379531384 0.05654711136790858 0.03566255939115773 0.0699130170968283
-0.03984483147525398 0.05072688253592692 0.03034536919520679 -0.013275419214410195 0.05568382650899789 0.04012780904391002 -0.013243552995296922 -0.024774756641489613
0.03017178825785926 -0.03928457528115969 0.038814710743196174 0.027263316343625204 0.04986491811441243 -0.022142694380407623 -0.03527897990402597 0.05657411658860961
0.06584335876178779 0.04833310794914023 -0.04764593372642727 -0.057532947930296494 0.02515097088600783 0.07177602311994957 -0.027517063249988503 0.007441925249820762
-0.05153496739481333 0.040676031143100845 0.016693019978530815 0.03683739199612391 0.02927871434552311 0.04036534302603015 0.02365365337222622 0.07582100416433975
-0.020573846419500722 0.015031311474969696 0.006350635983405751 0.02756794018678293 -0.014796161606270432 0.04193462981486258 -0.00834779152096998 -0.011670765828823456
0.026893587157058824 0.053873542509709944 0.029040531463192198 0.02635306018535531 0.0489744204168245 -0.03381542277403341 0.02729254374126045 -0.0008076459874934465
0.05809339211822412 0.06477105365027205 -0.023981461262857814 -0.024929124973296437 0.019019047311583895 0.03203531054446495 -0.018117453138639696 -0.02386597033563846

3.bias f8 [64]
00000000: 4a4e c439 4481 833f 5cf2 f0f1 c031 a1bf
00000010: 6a05 51c3 4da6 98bf 764b e5a7 e349 9a3f
00000020: bdf7 52e3 bb40 84bf fc0d 85a8 316b 8c3f
00000030: 0051 b7ed b95e a13f 64bc fabc bc23 93bf
00000040: e267 938a f154 9fbf ecbd 326e fd6a b03f
00000050: b340 ba31 a1b1 79bf 862f 9557 ce0c a23f
00000060: 960d 2b77 b544 ab3f 9a6d 207c 7035 843f
00000070: 96f4 b5bf ca39 b73f 9078 4584 47ef 983f
00000080: 2e20 71c1 b7c7 b23f d42b fd40 2f3f a73f
00000090: 44c5 d5e4 5deb b23f d5d2 3e37 0dd3 a03f
000000a0: 63e2 cf48 1fba 663f 154a cecc a5bd 98bf
000000b0: 37e3 e26d 3977 903f 71ea 51c5 954b b3bf
000000c0: 69c7 1cec 3ba1 afbf 3471 beba 2ba0 86bf
000000d0: c6ae e918 6d90 703f 8df6 5625 ff64 a23f
000000e0: 09a2 0dde 66b3 b23f 8c34 288f c413 a03f
000000f0: 7bea 1470 5b2d 98bf ebb7 3236 8c39 8f3f
00000100: fef7 ab4b 43fe a43f d445 6acd c93a b03f
00000110: a921 364c fc59 a33f 9477 e714 a3f2 99bf
00000120: 827e c201 d5a5 a5bf ac51 570c 570b 96bf
00000130: 759e d8c0 ec6c a93f 6711 54a3 16b0 9d3f
00000140: a219 d894 dfbf 3d3f d6b8 3b48 484f b13f
00000150: 5572 6b94 4de7 9cbf 5f80 1543 464a a03f
00000160: 7c3f 177c a88d 94bf 01d7 872e 301c 94bf
00000170: eba1 a481 08d4 843f a697 956c d151 983f
00000180: 3379 aab0 6d09 9cbf 82b3 169e 5ee2 a5bf
00000190: 9ead 20ec 8f3a 903f 0363 1819 1c2d 4d3f
000001a0: 7870 d811 b0bd 81bf cb0c 4aca 3e31 ad3f
000001b0: 2d5b 1a61 059b a13f a78d c169 0297 b13f
000001c0: 7597 7773 94d5 a83f 67c9 a22f fab9 a4bf
000001d0: 6115 3df7 9732 893f 68d0 9832 d4b8 783f
000001e0: 6d9f 7dec 3659 a03f 2295 b107 d5a9 a2bf
000001f0: 88ea ddca 0491 99bf 17d3 9f53 a2a0 96bf
0.009523900044349127 -0.03358271554359213 -0.02407189850442163 0.025672490236796595 -0.009889095187073477 0.013876331286730263 0.03392582918937315 -0.018691014322652313
-0.03059747131633362 0.06413253727327345 -0.006272916474373047 0.03525395220876164 0.05325858192147874 0.009867552555127546 0.09072558575094755 0.024350278328136243
0.07335995171263285 0.0454039351303305 0.07390391194146156 0.03286019610769634 0.0027742968582027835 -0.02416094839606771 0.016079804737020722 -0.07537208621389781
-0.061776993343655225 -0.011047689091178904 0.004043985520734322 0.035926793392247004 0.07304995461675658 0.031400816416955996 -0.02361052390663552 0.015246482280726744
0.04100237177588893 0.06339703812616132 0.03779591017070356 -0.02533964934433859 -0.04228082319718586 -0.02152763378929172 0.04965915540770719 0.02899203655125984
0.00045394142657109217 0.06761600268848453 -0.028226101096935647 0.03181666916748393 -0.020071632932569625 -0.019638779487613615 0.010170046287911702 0.023749611141645886
-0.027379716785270247 -0.042742687986311104 0.015848397051895106 0.0008903872678188432 -0.008662581963158042 0.057016336625588325 0.0343858414682273 0.06871047098098036
0.048504485221015615 -0.04048139411442513 0.012303530914901275 0.0060356415720442605 0.03193065296983275 -0.036451966466112276 -0.024967265016565793 -0.02209714541818916

7.weight f8 [1, 128]
00000000: 85d9 9519 2cf0 aabf 83c2 ec92 6c80 a03f
00000010: a42e 76e4 6c62 953f dcd0 b4fc 569c 94bf
00000020: c562 b192 9491 893f 202e 0aa8 06fd a0bf
00000030: a34d 05f5 e350 a33f 45a3 e5a8 2c2c b43f
00000040: 9a79 6d07 fe77 abbf f2c1 0268 6f46 afbf
00000050: a088 cb72 bb36 b3bf f31b 7487 42c2 a43f
00000060: f4c9 6736 5739 b1bf b2ec 2639 0300 a4bf
00000070: 3468 8a8b 404a a83f a2ec 9dd9 dbe7 b3bf
00000080: abef 47e5 6a3a b53f aa10 3bbe f6b1 a4bf
00000090: 04d3 3889 95d4 a03f b6d9 735c 658c 763f
000000a0: 4e85 94f3 bd93 a63f 06d0 62b0 77b6 97bf
000000b0: c71e ca1a d8ff b2bf 4157 3389 d94f b03f
000000c0: 1bef e0c6 99b9 b13f c847 f2f0 d7d5 adbf
000000d0: 6ac5 6bc0 b172 b83f 7a4a 24ac 4310 97bf
000000e0: 1bbc 1134 2e8a bb3f afae 7eab c894 b3bf
000000f0: 8baf f969 f88a 8cbf d9cc 20b6 9008 b33f
00000100: 5919 6d0e 4a83 a03f 2a34 31d4 b921 a13f
00000110: 34d9 926c 69ab ad3f 7ca1 2d0d 9657 a1bf
00000120: 234f e96c 1b90 b43f f917 7472 c9b8 a0bf
00000130: 1ff9 13dc 95ed 51bf 1bd0 e524 9501 b23f
00000140: e615 9066 c640 babf 4204 6d54 5f8a a5bf
00000150: 5adb b703 be33 acbf 89d9 9fae dfa5 6b3f
00000160: 7414 18ac 4b7f b3bf 18ca 8204 de31 673f
00000170: 3b70 f862 c639 b4bf 3105 03f4 cd78 a53f
00000180: 7b38 8abe ad00 b33f 94f1 0f0a b234 b43f
00000190: aee1 f0c4 b1a6 b33f c199 fe07 48cc 60bf
000001a0: a430 510f bc16 803f 4b73 88fd f12e a7bf
000001b0: 0671 ba0a 2e8c aa3f 546b caf1 b97a b33f
000001c0: 727a 9f0e 054a 49bf 8849 3422 aece b43f
000001d0: b714 b7ac 9eb9 b63f d617 684d dbef b03f
000001e0: 2bb7 1f62 9fd4 993f 9047 6afc 758a b1bf
000001f0: 77e3 221c ba68 93bf f811 0ac5 d635 ad3f
00000200: 4e08 fd2e 70d9 8a3f 19c1 3921 cb53 b0bf
00000210: 3502 142e 1045 b53f 09d6 0644 9373 a43f
00000220: 1cbd 311f 141c ac3f 4e56 2f0b 5c8d a43f
00000230: b1b6 e7d0 b47a a23f d1b8 1fb4 4b02 ab3f
00000240: 096b 4f16 9894 aebf d1a8 c052 be80 85bf
00000250: 665a 1a66 e7ef a9bf 9bd1 48bd c7a6 b73f
00000260: 3c0f b284 e6d9 b83f 578a 5ac7 e48b a63f
00000270: ee40 73dd 52a8 a43f 9075 2c3d f910 af3f
00000280: c7b7 ab6c 660d bb3f 9019 996e f815 b5bf
00000290: 845c 1180 206a b53f 6e21 1491 5442 b13f
000002a0: 7fcc d7c9 92eb b2bf eb32 b5be 253c acbf
000002b0: f718 360e 2227 a1bf 5d58 4f28 0834 af3f
000002c0: 2dd3 d59c fa47 b33f 39df d069 6365 903f
000002d0: c223 8f63 8bec b33f 8ab5 cbc2 49ee 9ebf
000002e0: cc47 426c b8f9 a6bf 2d83 8066 f5c6 b5bf
000002f0: 5f4a 65ec 8176 963f abe5 260a 105b b53f
00000300: 77ac e558 653c b03f a700 1d9c 0653 b6bf
00000310: 3534 eef5 d863 b6bf c16a 47c4 0917 a63f
00000320: c7cf 7870 edc5 a53f d9e6 aeb7 3e8d b0bf
00000330: 6ecf fd26 e79b a53f bcc9 7c7d ceb4 51bf
00000340: 7782 bd3b 7a10 ac3f 63c2 d7f2 40e5 83bf
00000350: 2e72 7676 1d9a 86bf e1c2 a7f3 305f a03f
00000360: 2727 c8f2 4048 acbf df9c f38c c12f aabf
00000370: cd35 3f55 1544 923f 1d3f 8918 1583 ae3f
00000380: 1a52 bb3a db12 b2bf cfe7 07d9 6b57 b6bf
00000390: f876 da6e 9cc3 863f d8b0 3a23 43e3 b3bf
000003a0: 13f6 87c5 05e8 c63f b499 3029 e73a aebf
000003b0: 9b2a 22b1 6d85 babf 533d 25a5 9309 a7bf
000003c0: 178d 2ba5 0d38 a0bf ac08 bc2b 5703 b1bf
000003d0: 45f8 b146 1413 b43f 3fc2 6798 b837 b13f
000003e0: aff3 b223 0b24 bebf 6363 fcfa 204a a8bf
000003f0: 741f 107b 7463 adbf 3cda 7a16 d830 62bf
-0.05261361896821185 0.032229798255120755 0.020883275455658393 -0.020127638982743487 0.012484703757011837 -0.03318043519274405 0.0377265202138475 0.07879904864752259
-0.053649843603795946 -0.061084252783420015 -0.07505389740575419 0.040544585261208875 -0.06728119924790815 -0.03906259606034136 0.04744149878861528 -0.07775663435852434
0.08292263124161418 -0.040420256349109465 0.03287188816140055 0.005504985753978555 0.04409593199148763 -0.02315699590754152 -0.07421637205163299 0.06371841048834616
0.06923829179225686 -0.05827212158432321 0.09550009677675111 -0.022522981054019266 0.10757721682760783 -0.07648901163946208 -0.01393693993960434 0.0743494457863564
0.03225165773487743 0.03346043315159648 0.05794839334832816 -0.03387135420672657 0.08032390030831187 -0.03265981218468989 -0.0010942424271998608 0.07033664847205083
-0.10255088809943622 -0.04207132249440139 -0.05508226199520179 0.003374993209031622 -0.0761611266280669 0.002831395748296172 -0.07900657573958451 0.04193729022655147
0.07422910596707936 0.07892906900082713 0.0767623048603869 -0.0020505339488920697 0.007855862824861788 -0.0452800390232598 0.05185073739014183 0.0760914054211928
-0.0007717632954572075 0.08127868971886276 0.08876983372381884 0.066159922025775 0.02522515331650436 -0.0685189954040466 -0.018954189269354296 0.05705138354554501
0.013110042985889827 -0.06377858697101536 0.08308507084803625 0.03994426923183531 0.054901722724816276 0.04014098774466089 0.03609242487060039 0.052751889932424974
-0.05972743294088018 -0.010499464893730355 -0.050658446515787145 0.09238861437990524 0.09707489719044998 0.04403605397717019 0.0403467078518832 0.060676373212326884
0.1056732192334656 -0.0823664922728311 0.08365061880737029 0.06741837064703812 -0.07390706470305196 -0.05514638855911421 -0.03350168632009514 0.06094384662689898
0.07531706170068438 0.016011765798082698 0.07782813244479228 -0.030205872072590213 -0.044873965468596205 -0.08506711723795198 0.021936445287176528 0.08342075584268709
0.06342156811085596 -0.08720437346801423 -0.0874610519806119 0.04314451714500001 0.04252569196651695 -0.06465522751286858 0.042205070028017086 -0.0010807053094593474
0.05481321315051429 -0.009714610491728231 -0.011036138704008183 0.031976251357155545 -0.05523875201840971 -0.051145599800116896 0.017837842300471075 0.059593829388744114
-0.07060022529487534 -0.08727144287686815 0.011115286000229471 -0.07768649683083895 0.17895576615403339 -0.05904314401441316 -0.10359845709369113 -0.04499493971763493
-0.031677652752273903 -0.06645722215401645 0.07841612554509066 0.06725648613770206 -0.11773748036917085 -0.04744055808823224 -0.05739940645440714 -0.002220556303508729

7.bias f8 [1]
00000000: 1a86 59ac 6b0c ae3f
0.058688511647016564
