models/run2/70.pt (torch, 153942 bytes, 6 tensors)

0.weight f8 [32, 1, 9]
00000000: af62 17e0 acd9 a23f 756f 8dee 1e5c c33f
00000010: 7977 796a 6017 65bf accd 4c7d 8ab0 ca3f
00000020: 6f0a 2176 8aaf c43f a2d9 a39a ebba d03f
00000030: 3ca1 d60c 766d d03f 3f00 82a6 eae3 d03f
00000040: fc76 cfc2 0f05 d43f 8a1a 9c97 9e34 bd3f
00000050: 79b5 9f88 13b7 d33f b544 35c9 8fa8 9f3f
00000060: eb77 4556 36cc e1bf f4c8 a1f4 e275 d33f
00000070: da8b 631f 5433 d13f 7a6d 5008 07e4 d33f
00000080: 6c31 2fe9 5567 d8bf 6c5f 0978 4991 d1bf
00000090: c291 34a3 8063 cdbf 5fcd 183a 0bdd b53f
000000a0: bf78 a434 aa99 ce3f 5d72 5d9e d3fc d8bf
000000b0: 34da a93b 6855 b0bf ebb5 83a0 0293 d33f
000000c0: 1b92 7091 3991 b3bf 82cc 9178 4190 c53f
000000d0: 83d7 72b2 c8fb ccbf 8f47 53da 9787 9abf
000000e0: bde3 8990 8f3d c43f 1c64 c299 9a81 b9bf
000000f0: 50f2 08b5 7a22 c53f f745 75ba 81d7 b63f
00000100: 8855 4aa3 0cac d43f cf42 b61d 7889 c0bf
00000110: bb51 d800 921c bdbf 14ff 54aa 2914 ddbf
00000120: b945 a4a7 c081 d3bf c0d4 150a cf76 c73f
00000130: f544 8bdd bbae cfbf 26d3 f169 2963 d23f
00000140: c014 8792 81c7 833f de55 c323 aed3 d7bf
00000150: 48b6 4d89 efd1 c63f 044d f53b 027d b8bf
00000160: 628d 5235 5392 c63f b5e0 764a 9510 a6bf
00000170: d1ff a569 ef07 d13f a335 6566 f514 d03f
00000180: b576 6ac0 bf30 9fbf 0f7c 03c2 3422 d13f
00000190: ab45 bd87 b311 c1bf bfee 8732 b228 d3bf
000001a0: acb1 fa9d e391 7dbf e99d e27e 0f4a b53f
000001b0: 00c3 75d5 d43c d23f 7271 5ce1 288a d13f
000001c0: 2bd3 201e 91f9 d13f 9e28 911f 0f70 a03f
000001d0: 78ea f3cc 5933 d8bf c660 3e6d f57b 86bf
000001e0: a7ae 9cb0 126c d43f a084 14af 14dc b7bf
000001f0: 99d3 fff5 8697 c0bf 5d7f 7796 2787 963f
00000200: aa82 25e9 8c31 bdbf 85a6 4dab 756c a2bf
00000210: 2359 fc30 4a75 ce3f 184e 12e4 a349 c6bf
00000220: c5a0 a242 9241 d8bf 17b5 e28c a36d d03f
00000230: a95d d0ae 791a bc3f d213 b20a d814 bdbf
00000240: 7fc9 9127 2a86 c73f 68a6 4276 c9c8 d03f
00000250: bd78 5d23 d98b bdbf 37f8 5807 c39a d03f
00000260: 9f33 636c 14c7 d0bf 12f5 da7e 2161 d13f
00000270: d610 b51e abf5 cbbf a421 4eaa a7f3 bcbf
00000280: 96eb 1f43 2e25 d13f c659 de82 130b d2bf
00000290: 7c4a c9a3 1c81 c5bf 4deb ddfe 4df8 30bf
000002a0: d669 590f 6dfd cb3f fc67 04d9 3b16 d6bf
000002b0: 79c5 6b37 24e8 d2bf 11db bf4f 0f0f c93f
000002c0: 5dff 130b 6d5b ab3f 34b9 9f63 bae1 c73f
000002d0: 7606 5229 0563 c73f 90c4 ef11 c0d7 a3bf
000002e0: 00cf 60d4 458d c4bf 3937 492e d634 acbf
000002f0: eb2c e132 a52f d03f d81c 0eba ead1 cbbf
00000300: 42e9 f3c4 2b1f c53f eb87 0c19 a23d cd3f
00000310: ba02 7385 ef41 d23f 2e2a 5c2e 2ea0 a43f
00000320: 0862 ae5e 197f bfbf aea6 172a d2e3 bfbf
00000330: a28c 003c 638f c33f 8296 43b7 b3d8 c83f
00000340: 718a 21a5 e1ce bcbf ba57 7923 3a9c ce3f
00000350: e0d6 a432 fd60 d13f a9d0 0cce d93c d7bf
00000360: 41a4 15f3 2436 d1bf 4002 260a 2fd6 d13f
00000370: af2c 0c29 21dc d03f 4b4b 836c 3597 a3bf
00000380: 7dac 6b75 34ce c0bf de76 58ed 1bed 8a3f
00000390: 529f 10be 25f3 d33f 7b78 5aad 5ea9 b4bf
000003a0: ae7a 3e8b 6f12 cb3f 3485 3e4b 9474 ac3f
000003b0: b5f5 8225 ecf1 dbbf cc71 e25a 52b5 c3bf
000003c0: 8226 9627 40dc cc3f d10c bccc 2236 a9bf
000003d0: bc4b 8057 573a c03f 8c6c 93e1 b604 dabf
000003e0: 615f b166 447d b63f a3a7 e1fd 1303 d33f
000003f0: c16d 2d79 aa9d c03f 6526 24f8 9fb6 cc3f
00000400: c7e5 2563 12ab d43f e1a2 b33f 10dc cbbf
00000410: c796 2a07 b2e4 c93f 1c38 8be9 755a 62bf
00000420: 949e fb32 1820 d33f 141f 90c4 de25 d33f
00000430: c99d 5460 3d65 d23f df22 0e2d e28b d1bf
00000440: dad4 e21c 9478 d23f bbff a6ba 31c1 ab3f
00000450: 3120 9521 8698 b7bf 3918 90d3 cfc3 d23f
00000460: 9d5f fd0b 0216 d13f 8ef6 abec 478d c43f
00000470: 34fa ef7b 0f58 c6bf 3eec b1c7 2d39 b63f
00000480: 4eb6 933c bcbe a83f 5e5f af24 28cd b0bf
00000490: fb92 c7b7 4fff cabf f1d1 07a2 17b8 d4bf
000004a0: c19c 47b2 72d0 c1bf 743b a9a5 8731 c33f
000004b0: 7111 4ce3 df14 c13f 7f25 f17a 1980 cbbf
000004c0: 1968 2d40 11aa c3bf 734e 4c2a 0746 a3bf
000004d0: e540 0195 0990 40bf df47 7247 3986 d0bf
000004e0: 0db6 f679 2d83 cb3f 186a be71 a8f2 c23f
000004f0: b187 e640 dd17 b63f b98a 822f ed25 bd3f
00000500: 00c9 4d08 1060 be3f 1dee 2a19 bb63 ca3f
00000510: b97a 7060 f129 cf3f f231 2e02 543c c8bf
00000520: dd49 667a 4c90 a6bf f297 9f25 6005 d9bf
00000530: 3e8f 7596 9140 c7bf 7db1 65eb e971 d03f
00000540: bd0b 3ae0 82e2 d2bf 7faa aa71 881a cebf
00000550: 54ed dbff 5b72 d33f 4ac0 d5a6 c2e8 aa3f
00000560: 0cdf efdd f7a1 c2bf e8d3 d296 f603 d03f
00000570: 33cc 05a6 dcb3 d6bf 9751 b003 4570 d3bf
00000580: e157 c810 fa13 bc3f 3f9d e20a f03c cf3f
00000590: a80b ff03 4891 bdbf 390a 6d5e d5e8 a6bf
000005a0: 664c e679 88ce e2bf ce68 8f03 7e8b d4bf
000005b0: 5a75 1fea 7f2c cabf 0414 3ab9 385b c73f
000005c0: dc02 c252 4280 cf3f 7d7e 5c63 2016 983f
000005d0: 4e08 0992 10cd c93f f9ed 8fa3 a768 cfbf
000005e0: 01f2 04ff be66 bd3f 738b 21bd 24c6 aa3f
000005f0: 08a1 a55c 06d6 c83f f0eb db8a 0a41 dbbf
00000600: 2adb 39a0 117a a9bf fe0f b1c3 3626 26bf
00000610: 28bf a373 6683 d43f 1c52 2758 8f0d cbbf
00000620: bf5f 6e1f 4fa9 ce3f 22d3 3b03 7de7 ce3f
00000630: 4c4c 58b2 831b c83f 6c63 a184 f497 c2bf
00000640: cc93 1e92 e915 a03f 7bef cfb2 2e4c cabf
00000650: ba2a fb0b 818b d9bf e654 692b a2b7 dbbf
00000660: 988a 3142 300b c9bf d2a8 8130 c30d c9bf
00000670: d66d 64e5 e30f d43f ee74 77a5 7a9d be3f
00000680: 0515 0745 06e7 9dbf 3e56 f8a1 3057 ce3f
00000690: 6494 0c70 4124 ce3f d04a 86f8 ba13 8a3f
000006a0: bf90 710b 9839 c13f 878d d5cb 2bd3 bc3f
000006b0: 2dc8 a005 bc48 c9bf 2d05 5d4c 959c dcbf
000006c0: 4a58 92b7 add9 c13f f306 7547 0979 c8bf
000006d0: 228b 416e 4981 c1bf cefc 0d0b cf2b babf
000006e0: 9291 d726 a45e c33f 8fbf 9143 e283 d43f
000006f0: 0fa2 6d07 1a07 d0bf de7b 895e 9c7b cb3f
00000700: 9394 3800 8fc8 d13f f261 0d10 6ab2 aebf
00000710: 20f1 4f93 a775 d13f 028f 401a 1e2c ce3f
00000720: bb89 d82a e5c0 d33f 34f7 c9fb 6901 bb3f
00000730: d517 3302 f450 d23f 9131 1d28 3a6e c83f
00000740: 0431 6753 f839 d5bf e5c7 f601 8dab acbf
00000750: 4bcb 714e b3e0 c7bf 35a9 9236 64e0 9bbf
00000760: 7aab 45fd 8065 c53f 5f93 c5c5 13a0 cabf
00000770: c137 3dce 4c50 c63f ceb4 451f 448c a83f
00000780: 160a d2d6 be37 d1bf de08 5039 7c55 b33f
00000790: fc79 b892 a858 d4bf fb70 6dd2 9774 ca3f
000007a0: 5dc4 7b9d cc16 d2bf 7c94 bc49 bbb3 a53f
000007b0: c939 24a3 0977 c13f 2f03 9d6f f3cb bdbf
000007c0: 4909 bc59 a299 cfbf d36c 2c4d f1b4 d13f
000007d0: f01b 2cbe 40a4 bc3f 5cfe cf7e 58f2 d8bf
000007e0: 3af5 9923 88c5 d33f 34af 3dbf 60fe d23f
000007f0: 6cc5 b459 bb41 823f ead1 98eb 90a7 dabf
0.03681698070039851 0.15124880455084236 -0.002574623405776796 0.2085126029793235 0.1616070820619657 0.26140871144834865 0.2566809773802736 0.2639109254887479
0.3128089334912685 0.11408415986452716 0.3080490907876406 0.030916449218527393 -0.5561782536494752 0.30407022371140546 0.26875784936254166 0.31079269229822837
-0.38130710384282085 -0.2744926140053312 -0.22959907502185045 0.08540411156063986 0.2390644795459078 -0.39043131318411445 -0.06380320984485693 0.3058477942966806
-0.0764347057416405 0.16846483599838186 -0.2264338370638904 -0.025907871914405297 0.15812868650007586 -0.09963384870424402 0.16511472549054185 0.08922587206077269
0.3230010599739548 -0.1291952271535792 -0.11371719856862843 -0.45435563692079595 -0.3047944676519268 0.18331325523801034 -0.24751995389537 0.287302354299117
0.009657871517342875 -0.3722949361084299 0.17828172878528137 -0.09565748180220984 0.17634048560749266 -0.04309526952732893 0.2661093265269275 0.2512792110399806
-0.030459400290615963 0.26771277376786967 -0.1333527004995124 -0.29935889181772873 -0.007219208840677654 0.08316132400306454 0.28496285291389256 0.27405759818954956
0.28085735265931316 0.03210494289722131 -0.3781342030994561 -0.010978619953491264 0.3190962528922036 -0.09320191645066922 -0.12962424289403598 0.02199994903446566
-0.11403732959798654 -0.03598373142342574 0.23795440093881223 -0.17412232052139198 -0.379002156327726 0.25669182546956065 0.10977898137968246 -0.1135993028747884
0.18378188068488652 0.2622550635229346 -0.11541516412168824 0.2594459125283523 -0.26215086540906357 0.2715533961125668 -0.2184347057283335 -0.11309287937013451
0.2678943305506264 -0.2819260385525947 -0.16800268170716837 -0.00025894073666392765 0.2186714482257474 -0.3451070422466953 -0.29541879093365925 0.1957720889474435
0.053431899645146365 0.18657617439698415 0.18270935552213857 -0.03875541895821144 -0.16056130285289072 -0.05509061160101542 0.25290803879461404 -0.21734365544055012
0.16501376263460982 0.22844339583485804 0.285274391480964 0.04028457942884632 -0.12303312837173774 -0.12457002189298791 0.15281334333221702 0.19411322067678688
-0.11253176003951083 0.23914267284516005 0.2715447420663235 -0.3630890381057364 -0.26892970789646503 0.2786977385622187 0.26343564041662665 -0.038263005729865705
-0.13129287465503472 0.013147562199317727 0.3117155414679377 -0.0807093785501553 0.2115001134779581 0.05557692926891847 -0.4366407743762822 -0.1539709991237842
0.22547151501594348 -0.0492411494178896 0.12678043148534168 -0.4065377428903012 0.0878489256587023 0.2970628718672918 0.12981158177249877 0.22432326904554425
0.32294139559197926 -0.21765330419955034 0.20229173040313794 -0.0022404005979757124 0.2988338945274134 0.29918641276934577 0.28742918402937484 -0.27416281127857006
0.28860953160194713 0.054208330187520436 -0.09217108077894022 0.29320140514790044 0.2669682614409739 0.16056155258404597 -0.17456239272719787 0.08680997968069534
0.048330194849637395 -0.06563044448500707 -0.21091648553478834 -0.3237361032800257 -0.13917382912697998 0.1499490317241584 0.13344954107754917 -0.2148467874815587
-0.15362754472408893 -0.03764364615758788 -0.000505451849685226 -0.2581923673361625 0.2149407239461855 0.14803033403298183 0.08630163988575991 0.11385996255789167
0.11865329935770674 0.20616854409114263 0.24346749504998913 -0.18934106928317324 -0.044069662038186165 -0.3909530990043769 -0.18165798041001752 0.2569527434159438
-0.2950751485552095 -0.23518472242479402 0.30385494219054476 0.052557070603939396 -0.14556787812011185 0.2502418969045821 -0.35472789967679147 -0.30372739181736946
0.1096798220608828 0.24404716998581397 -0.11549806687894082 -0.04474512841854445 -0.5877115612842203 -0.32101393077540485 -0.20448302203923668 0.1824713615825716
0.24610165635024017 0.023521905960591106 0.20157057886723567 -0.2453813122409512 0.1148490307431942 0.052292965018543656 0.19403152011660318 -0.42584479866462654
-0.049759436425054496 -0.00016898554335587063 0.3205200318616215 -0.21135131649374805 0.23954190287326857 0.24143946321387327 0.18833967407462848 -0.14526230312437904
0.03141717823681453 -0.2054499028307609 -0.3991396538737423 -0.4330830978336294 -0.19565394622903365 -0.19573249691467837 0.3134698619994344 0.11959044017517659
-0.029201600993265426 0.23703582676596285 0.23548143359326723 0.012732945165031678 0.13457012709398516 0.11259721495075868 -0.19753217959220262 -0.4470570798622074
0.13945552314243265 -0.1911937331115535 -0.13675802119822672 -0.10223096866501466 0.1513257207544823 0.3205495509964686 -0.25043345189490734 0.2147098027807876
0.2778661253126497 -0.059954943141466446 0.27280606637920535 0.23572136194081145 0.3086483877579231 0.10549032590094215 0.2861909886818215 0.19086386641209832
-0.33166320938904925 -0.05599632882093867 -0.18654481249140029 -0.027223172980179917 0.16716015211872187 -0.2080101695711631 0.17432556219358555 0.04794514543287108
-0.26902743319092914 0.07552315139040242 -0.31791128471550656 0.20668313765316512 -0.2826415574955428 0.042386868239455006 0.136445240649165 -0.11639329409537134
-0.24687604314392278 0.2766688588760193 0.11188130038145494 -0.3897916067507816 0.30893138386439356 0.296775995978112 0.008914436030496652 -0.4164774227859015

0.bias f8 [32]
00000000: 601e 6822 54cf 713f 59f1 09a1 ad75 65bf
00000010: 72b0 5e6d fc4f d03f e2f0 64e4 32a8 793f
00000020: 260d fb22 fb82 d43f 30a3 5139 4774 b73f
00000030: aa9f 07fd e1d3 703f 497c 9270 b624 653f
00000040: c734 7e6d bf30 8b3f 2506 c72b 6cbf d53f
00000050: 1a1a 4b94 8fe8 d33f 4ca3 b8b2 dd05 703f
00000060: 61b8 f7e9 2f74 873f 1feb 1d3e 5469 be3f
00000070: 7405 e722 4505 d33f 6303 5f5e b8f6 d23f
00000080: 58c3 90a1 bd79 d13f ff6c 5da1 e4e5 663f
00000090: 84fd db24 8989 d53f 05cb 9597 9168 d53f
000000a0: 73da 628f c15e a43f 0b66 2527 eb9c 883f
000000b0: 7420 1b96 5a20 c83f 1246 b89e c9d8 d13f
000000c0: 395b 25d9 4e14 813f 638c 8848 0721 6d3f
000000d0: c3f0 345b 8759 d53f 7287 bf8b 8efa 853f
000000e0: 1f14 b230 da5c c43f b60e d156 485f af3f
000000f0: d822 87c6 3156 983f 9a57 bd56 118f cc3f
0.0043481146335647425 -0.002619589919332349 0.2548819606843217 0.006263922498245674 0.32049444595414156 0.09161801480662457 0.004108317153146782 0.0025809825206830933
0.013276572731934512 0.3398085048212088 0.3110693882157719 0.00391184426147435 0.011452078178049331 0.1187946941044342 0.29719665916862614 0.2963086053460328
0.27305546548727966 0.002795168441407036 0.33651951407951963 0.3345073681186224 0.03978543162650263 0.012018048412460144 0.18848736123459597 0.27885666370375006
0.008339515687720943 0.0035557882549866345 0.33358940035737933 0.010731805457854657 0.15908362748828694 0.06127382335446667 0.023766305677585503 0.22311608062107952

3.weight f8 [64, 32, 9]
00000000: e19c 667c dee2 bf3f 17b5 a60a b718 cebf
00000010: 47be 4dec 9b22 d1bf 6bf8 6ce1 6796 a13f
00000020: 353e 6ada 902d bcbf 30c7 434e 85ff a33f
00000030: 84a3 00c5 9d7e 9b3f b0bd b0b6 b3b9 9f3f
00000040: a63a acf0 3c2f c5bf 8ebf 02e0 6a54 bb3f
00000050: 88f3 5cd8 1471 98bf 5a59 9a94 d700 ccbf
00000060: 111d 720e 1370 c6bf edea 6d0e 89c9 b83f
00000070: 1790 97fc 99c7 adbf efdd e4fe dce9 8f3f
00000080: 7c7e 8e3f 83d0 a3bf 5deb c896 7ce6 c2bf
00000090: 9e86 1565 0345 b63f 2cdb 25f4 74d6 6ebf
000000a0: b28e b12f b395 a83f 555b 44c0 3421 a53f
000000b0: 19de 1f3e 1b11 673f c747 c6ef a5d7 733f
000000c0: 7811 aba2 513a 86bf 0675 6d8b 87da 963f
000000d0: 7799 3ed7 6c4b be3f ea8b 22f5 d0fd ba3f
000000e0: 4b96 67c0 289a ccbf 63ac 5284 49be c8bf
000000f0: c2ea 7ad6 e790 c3bf 27dc c52f ef30 c13f
00000100: 257d 17ba 6c4d a1bf 11fa 4151 9813 873f
00000110: aea6 b97f 1aa9 98bf ee18 c37a a4e7 afbf
00000120: befd 2c2f bd4a a73f 37cf 2d48 a515 853f
00000130: 03c0 a334 50b4 9abf fadb b96a 913a 7cbf
00000140: 091d 2b80 352d 933f f26f f4c4 a877 a13f
00000150: 32d1 2891 5f19 a4bf 5ac7 cf27 fe09 ad3f
00000160: de73 d0ae 5d18 9c3f 1052 885f 1192 bf3f
00000170: c17d 713b 0f6b b2bf 4961 4a29 7dc0 b1bf
00000180: 54c8 cdd6 8c66 9bbf 4f1d 8487 066b a1bf
00000190: 0edf dabc 569c c13f bc4f 0101 bd23 8c3f
000001a0: d2ef 9965 1edb 98bf 9d45 43c2 c72b b0bf
000001b0: c33b c757 f026 b73f b462 daf8 a7ab b43f
000001c0: 488f c528 f61e d0bf cc98 0e92 fdff c2bf
000001d0: 08f5 8c45 eed5 b13f 4975 1ab2 f421 80bf
000001e0: c175 7d42 e59d 6b3f 9084 f2dd 4e3e 28bf
000001f0: 5b1c 39aa cd16 c3bf b814 b33e d225 c23f
00000200: 349d eb44 c78a c3bf 9bc5 4f40 f155 a4bf
00000210: df0e 680d e8fe c2bf c188 e132 cd45 c63f
00000220: d94e 9422 bac0 94bf 43b3 0fb3 d6f4 a0bf
00000230: 3676 d4af c922 90bf 81f8 1adf 95ab 9abf
00000240: 3149 350c 16de b93f afef 4325 0b6a 893f
00000250: a429 dc1e cea6 d1bf fb01 939e a8d1 b6bf
00000260: a11f 9d12 1576 c6bf d1b5 210b 8242 b8bf
00000270: 8034 c0d5 a7bc ac3f f46a 7eba 555b abbf
00000280: 3bc2 41e9 c481 c4bf e367 d602 7511 be3f
00000290: 9906 d45a 931b b9bf b11f ba16 63d3 b43f
000002a0: 1ca1 6929 096b 7cbf 7454 612f 7421 98bf
000002b0: 7848 0f5f 6002 af3f 0060 77ee 24ce 9fbf
000002c0: abde 52d2 c1b2 ae3f 7167 07b3 4cdf a3bf
000002d0: 0efb 749c 68d1 bc3f 5f0a 82c9 5dd5 933f
000002e0: c2dc ffac 45d5 8d3f b976 ed1f c669 9f3f
000002f0: 56a1 4758 8926 aabf fa17 c77d 2683 873f
00000300: b5b3 fc21 7448 3fbf f7fa 3d9a 294d a7bf
00000310: 7adb 3a56 87a2 b8bf 9fe4 abe1 6f99 bf3f
00000320: 9ff1 f00b faf0 babf 1048 d4a2 52b2 adbf
00000330: 1025 e4fa d046 a1bf 8f39 507e 5c32 bc3f
00000340: 8ffc 03b5 a929 acbf c85c 8ef9 56df 023f
00000350: 162c 686c b56f aabf 9511 d415 9479 9fbf
00000360: 93e5 0331 8cb5 b63f 9446 6988 d4a2 903f
00000370: 1141 fd3b 8e68 d1bf 2d0c 40e6 8d6d bebf
00000380: 764a 1216 2cf6 b9bf b138 2997 4d6b 853f
00000390: fb98 c5ec dedb 8abf 6b6b a975 e3a2 acbf
000003a0: 9369 9221 2708 9c3f d40c 2902 10db bd3f
000003b0: 328a bc83 3634 aebf 7240 feed ed50 a1bf
000003c0: 7648 7794 f786 bd3f f408 000f 59e7 b1bf
000003d0: 127f 5ddb 75fd a6bf d77d 3069 8484 b03f
000003e0: 94e5 27eb 62f1 a53f 0805 5b34 0ddc c1bf
000003f0: 6e9c 8c0a 778b c23f 833a 2e95 1ee1 943f
00000400: f2ab f35c 8483 933f 339a e174 7583 b13f
00000410: 684d 3638 7487 9cbf 1cca 95ce ebe5 a93f
00000420: d24e 026a cbd7 a53f 1f5c e04a 3926 ad3f
00000430: 8eb2 dc21 6560 c2bf d04f 1994 3c01 ad3f
00000440: e7c1 0890 425c a63f a8d2 23f8 d77e 4c3f
00000450: 2203 ae28 1e93 a43f fd36 bfc4 8d31 aa3f
00000460: a0f2 4e21 19d7 813f 5ed6 5296 7263 abbf
00000470: 35b0 020d 9a9c a43f aa53 4420 4af3 ad3f
00000480: eda0 37f7 f1c5 c03f 431c 1fe7 a623 973f
00000490: da62 9970 ef28 b03f 642b a5eb d716 643f
000004a0: 9065 dad3 8821 a63f d450 149e feb2 82bf
000004b0: abb5 1a82 50bf 9ebf 99e3 f646 197d 853f
000004c0: 1363 5887 2585 743f ee47 b268 a65b c73f
000004d0: 5191 16fb a13d c6bf 4ecc 22b4 6c87 c6bf
000004e0: 7b6d c0b8 31c5 89bf 47b6 52e6 7cfd c6bf
000004f0: 787c 422f bf1f abbf 5d9a 6f34 1cbb 963f
00000500: ef01 82a4 7240 aebf 1a01 41f9 d6a1 80bf
00000510: 0f58 c2e4 f113 c03f 12ad 8496 b529 a03f
00000520: 26dc 3bc5 cf24 aa3f fbee fb8f 7123 b43f
00000530: e367 4708 cf01 9abf 81d6 5fd7 8840 89bf
00000540: f4a0 5443 caf7 9abf b3a9 7ce0 c4be 93bf
00000550: 2b54 2401 2892 c2bf a707 80d5 1417 bf3f
00000560: 5714 b7aa 8b84 a23f 618a 6f44 1437 863f
00000570: a8bb 1f60 a6cc 9abf 637d 7513 df0b ba3f
00000580: 301e c9f7 8b94 a43f 81af 3d08 b1d4 77bf
00000590: edaf 40fb 2fb4 59bf 0977 7d1f d74a a93f
000005a0: e45a bbe7 fa62 c23f f6e9 3f15 946f c6bf
000005b0: 5504 b75c 4ab8 813f d3d5 8741 8767 8cbf
000005c0: 7ef5 a273 6835 7abf 9bc3 1436 cf62 99bf
000005d0: fdfa 1d4d 20a3 a3bf ff5e b4e7 e55a 8f3f
000005e0: ab91 e717 c371 a03f 73b8 f8a7 652a b73f
000005f0: cc87 cb89 d9dd bfbf 3ce2 34f1 1a73 d1bf
00000600: 093a 8535 0394 bebf b88c 18a0 b920 bebf
00000610: 106d e68d 532f b4bf 1140 3f77 b85c 9bbf
00000620: d514 93fe 49ee 9abf b8ad 8550 1daa a9bf
00000630: de73 615e cc2a 95bf a571 dfb3 4273 c13f
00000640: 215d f650 7492 a9bf 9640 000d 00a8 c23f
00000650: 60b5 d822 9e70 a4bf 26c7 739a 26af b53f
00000660: a721 e0ff b421 ad3f 0e76 c66d 1c80 a53f
00000670: b548 77f8 c88c c3bf a792 2f40 4b90 bf3f
00000680: feec 618d 1097 b13f 010b b7d9 5f66 83bf
00000690: 4626 45d9 0749 b03f 1ab1 11f6 263f b53f
000006a0: 97d7 ac53 458a b13f 2cfa 0212 881f 95bf
000006b0: 299d b8b2 b1af a1bf cb0c 9239 c57b 83bf
000006c0: 2bc3 4ca0 d69d c43f e44a cf41 e0e0 b73f
000006d0: 7214 8d24 8435 d0bf 2144 b70a 77b8 babf
000006e0: 25d7 8230 5627 bcbf 1bb3 634b 040e 96bf
000006f0: d009 bbd5 5eb8 9abf 3958 7a49 bdc1 833f
00000700: 1719 4a10 c677 c4bf c518 f1c0 c34a c33f
00000710: 0277 973f 2ede afbf c677 f3ca 5213 c6bf
00000720: 860a 6575 f5af c5bf 321c 7443 dc1c c03f
00000730: 8577 4c16 495e 97bf 1c96 bd71 4cbe b33f
00000740: c117 d374 547e 94bf a3a6 9b06 8927 b1bf
00000750: 6c11 8041 f0d8 bd3f 1824 fc1f 13e6 a93f
00000760: f474 b0c4 a126 973f 94ca c98f 7b5f b43f
00000770: 33f9 6406 9e09 a43f 02cc 6191 632d b03f
00000780: 0b77 2f78 0763 9f3f 8ebb 6940 4d82 ac3f
00000790: ad15 7d39 b704 be3f 15a4 597a ed31 be3f
000007a0: 5f96 1683 48a8 b93f 435d 7b82 4e9f c9bf
000007b0: d8ed d649 ebb2 b9bf 1032 586f f343 a83f
000007c0: 9df4 4e78 cbe1 8e3f dd95 3cb3 92f7 b03f
000007d0: b2e7 1b2e 707f 96bf 8c08 4ddb 9e0d bdbf
000007e0: 6618 a684 7940 b63f 8eea 4c92 141f b83f
000007f0: 3fee 0d0b faee aabf 6ee5 3acb b963 a83f
0.12455549752359076 -0.23512924213483963 -0.2677373702672167 0.03435063006189484 -0.11007027943036791 0.03905884342556332 0.026850190304830615 0.030981834435974853
-0.1655040908012399 0.1067568585301599 -0.023868871408228937 -0.2187756991958832 -0.1752952404533308 0.09682518579749529 -0.05816346367262797 0.015582777527568729
-0.03870020056569687 -0.14765889513531763 0.08699055879471948 -0.0037643703701023736 0.04801711995312753 0.04126896712312226 0.0028157741626235852 0.004844330015105264
-0.010853421952000217 0.022317998776419955 0.11833839659684552 0.10543542847385337 -0.223454564998223 -0.19330710373955914 -0.15285966847098648 0.13430585701618833
-0.03379382869365547 0.011267843227185133 -0.024082578702666772 -0.06231416700897961 0.04549208832622352 0.010295192017771277 -0.026078465664738825 -0.006891792330512731
0.018727146098879852 0.03411605266794017 -0.039256082982691246 0.0567168639753521 0.027436698717895662 0.12332256872498015 -0.07194609833958678 -0.06934339769430155
-0.026758385286889855 -0.034019664804925236 0.13758358212884797 0.013740040391134183 -0.024273371649982618 -0.06316803448432613 0.09043790953658885 0.08074426484598513
-0.25188974362957994 -0.14843721038523083 0.06967057416928324 -0.007877265630038226 0.003371188900856054 -0.00018496239406310235 -0.14913340388941063 0.1417792135381768
-0.15267268052341765 -0.03971818838170834 -0.14840412764180308 0.1740051744882916 -0.02026644550376386 -0.03311797080809822 -0.015757705075080085 -0.026045171491880573
0.10104501531649103 0.012409293246029877 -0.27580597890541925 -0.08913663741532922 -0.1754785862815398 -0.09476483127374215 0.056126828043582044 -0.05343120481048472
-0.1602102412175713 0.11745387381816345 -0.09807702033506373 0.08135051064357303 -0.006938014782101012 -0.02356511630235443 0.06056500587841723 -0.03105981545908776
0.05995755855968573 -0.0388130157986798 0.11257032222509286 0.019368615554876786 0.014566940633797269 0.030676933001237503 -0.05107526018747659 0.011480618203574256
-0.0004773410346270949 -0.0455105782302691 -0.09622999053213546 0.12343501338536321 -0.10523951331646807 -0.058001119972814874 -0.03374341070782283 0.1101434524900695
-0.0550053628412509 3.59962861644025e-05 -0.05163351963354772 -0.03073722251157703 0.08870769688282669 0.016246147943383152 -0.2720065675575976 -0.11885916587202479
-0.10141253985265472 0.010458570647781636 -0.013114682770446686 -0.055930240738880276 0.027374850677554696 0.11662387898200005 -0.05899210317717908 -0.03382056741895746
0.11534068464905708 -0.06993633857931397 -0.044902499225598316 0.06452205246068075 0.04285725708536883 -0.13952794128821489 0.14488113417721443 0.020390012603054074
0.019056385205583788 0.06841215232416502 -0.0278604659375338 0.05058228394309003 0.042662007036737074 0.05693224944132446 -0.1435667434065135 0.0566500597748526
0.04367263801794135 0.0008696131265240785 0.04018491980150986 0.051159315363845416 0.008711048439971336 -0.0534931000233143 0.04025727661914439 0.058496776999312175
0.13104080744893257 0.02259693895009841 0.06312462328913729 0.002452298850731992 0.043224597798324216 -0.009130467604827087 -0.03002668184369887 0.010492513158952653
0.00500979098935585 0.18248443710450551 -0.1737558818832761 -0.1760078315324755 -0.012583149386094608 -0.17961083647007767 -0.05297658397579935 0.02219814367335925
-0.05908544786598557 -0.008121184808374472 0.12560866994743988 0.03156821691876578 0.05106210024489881 0.07866582646596136 -0.02539752471952984 -0.012330121109680238
-0.026335869178326157 -0.019282413674923848 -0.145085335309575 0.12144594395070261 0.036167492474796496 0.010847242678157789 -0.026171302430096383 0.10174364304611098
0.04019582175947922 -0.005818072826382693 -0.0015688389367012293 0.0493991113605557 0.1436456328871919 -0.17528010404187427 0.00865228743976069 -0.013869339644751932
-0.006398590101693967 -0.024790990520333272 -0.038353928960523455 0.015310093053400474 0.03211793581775465 0.09049067831867479 -0.12447890867363681 -0.272650466492937
-0.11944599205637742 -0.11768684538451424 -0.07884714331014586 -0.02672088840319026 -0.026299625552174206 -0.050125995711677473 -0.020671075115718078 0.1363299730572979
-0.0499454830962185 0.14575195917905565 -0.03992170501110581 0.0847038390236575 0.056897789225391286 0.04199303474454662 -0.15273391849638576 0.12329550091778661
0.06871131374093761 -0.00947260745204437 0.06361435942121671 0.0829948759798679 0.06851609509325694 -0.02062809572157158 -0.03454356485991134 -0.009513417071735827
0.16106684519902478 0.093275085512953 -0.25326636857454965 -0.10437721263521428 -0.10997523006775774 -0.021537844754607165 -0.02609394244678659 0.009646872334354227
-0.15990520282157014 0.150719136438232 -0.06224197889581086 -0.17246470365256367 -0.16943233711397826 0.12588074964171053 -0.022820608125690995 0.07712247635716846
-0.020013160353094642 -0.06700951014831928 0.11659146880271515 0.05058345570984829 0.02260830653186914 0.07958194981055505 0.03913587406212784 0.06319258021703436
0.030651203833136836 0.055681623566548585 0.11725945619135443 0.11794933545174076 0.10022404861828126 -0.20017415400682567 -0.10038633873676106 0.04739342436014138
0.015079106911679846 0.06627766490836202 -0.021970513166685364 -0.11348908285165943 0.08692130554672559 0.09422424861706188 -0.05260449776593789 0.0476358471473287

3.bias f8 [64]
00000000: 587e c71c 1374 ac3f 6d72 b189 c031 a1bf
00000010: db1b ef81 b1cb 87bf 750f 1906 936f 863f
00000020: 002c f50f b8c1 823f 28d3 e923 ef9a a1bf
00000030: 2961 2bd6 902d aa3f 1836 88d8 b85f 97bf
00000040: 5cde 6087 c2a2 a6bf 1f67 dd56 3836 a83f
00000050: e7f4 3a8d c26b 483f d2ba 99a8 ac35 b63f
00000060: 0319 e1f5 be69 b53f f893 e885 bd6b 78bf
00000070: 6fed ded1 bd0b c03f 05b2 55a9 1da2 833f
00000080: 4a7e ee4d 0239 ae3f 2b3c 5fea ec56 b53f
00000090: 9e56 af0c 8699 b03f 996e 1024 561f 923f
000000a0: 3177 1ca2 1a42 983f 05a8 4972 e749 80bf
000000b0: 88b2 393f c2af 95bf 99db 553f bab3 babf
000000c0: f641 c43d 094c bdbf 6469 4c47 66e2 9bbf
000000d0: c47f 98a5 e877 703f e55d 6a5f 964c 953f
000000e0: 1a8b c6bc 234f ae3f ded3 30b6 5217 a53f
000000f0: 1685 b11f c706 7abf 1b8e c2ac 3cf1 683f
00000100: 00cf 0503 6cc5 993f e974 0ab6 50b2 a83f
00000110: ea0d dca2 4808 973f 84b1 7109 b5b0 a4bf
00000120: 47d6 759c f44a 9abf eb63 5c8c 1927 97bf
00000130: 5564 5cfb 6d2f a23f bcd9 9dfe 5f8a 8d3f
00000140: f222 59f6 9d2f 90bf 9ae8 3b60 1742 ab3f
00000150: 309b b283 e0f5 88bf c44a b7ef 1754 a73f
00000160: fed3 1763 1888 a0bf 0ce4 1478 e1d1 a2bf
00000170: f9b1 1001 8db5 9c3f 65d0 9253 195b 7f3f
00000180: db0b cfa9 9afe 71bf cec2 5923 f017 84bf
00000190: a264 4e43 9cae a53f 0363 1819 1c2d 4d3f
000001a0: af96 9cd5 abc8 a53f a70c e904 c6f0 ac3f
000001b0: 5765 aa80 e14d aa3f 2561 fbd9 92fb aa3f
000001c0: d391 e35e 4268 b03f 67c9 a22f fab9 a4bf
000001d0: b098 6d28 f460 a73f d729 0363 1d12 973f
000001e0: 5332 b8c3 22e7 a83f 2295 b107 d5a9 a2bf
000001f0: ac2f a0ed 0948 82bf b42a 8462 4f5f 3f3f
0.05557307936009853 -0.03358270340752232 -0.011618983056804246 0.010954998611061953 0.009158552157392919 -0.034385178693730645 0.051128889220935676 -0.022826088157719665
-0.044210509324724895 0.04728866634714123 0.0007452678641680894 0.08675650707457841 0.08364480498230269 -0.005962124180347132 0.12535832164381186 0.00958655522364272
0.05902869416536001 0.08335762712452836 0.06484258470239943 0.017697664214309048 0.023689666885835684 -0.007953460860523629 -0.021178279026957486 -0.10430492445253349
-0.11444146879171754 -0.027230833150590952 0.004020603920736169 0.02079997022027937 0.05919753722561989 0.04119356607444734 -0.00635412008986804 0.003044718270830205
0.025167167362680765 0.048235437604697236 0.022492537441406592 -0.04041066875729185 -0.025676557588175688 -0.022610091392468872 0.03551810925836977 0.014424085576803296
-0.01580664459314369 0.05323861169559159 -0.012187723177999737 0.04556345750065341 -0.03228832444793993 -0.03675751295890714 0.02803631133081017 0.007655238086204806
-0.004393200067116044 -0.009811283186736654 0.042347796646205596 0.0008903872678188432 0.0425466249710501 0.05652445611897266 0.05137543388009174 0.05270060454285134
0.06409087006210905 -0.04048139411442513 0.04566157334811416 0.022530039947733584 0.048638426200430594 -0.036451966466112276 -0.008926465572606755 0.00047870338541204237

7.weight f8 [1, 128]
00000000: 5430 4109 f29f b5bf 9f83 900c a3bc a93f
00000010: a42e 76e4 6c62 953f adcd bbb9 6a9c 94bf
00000020: 05de 3387 0bc5 bc3f cd2e c11d 6418 bfbf
00000030: 87c9 573d 944f b53f 3c69 de16 87e0 b33f
00000040: c3e8 f16b 490a cbbf 4723 e472 e8f0 b0bf
00000050: a088 cb72 bb36 b3bf 84fc a566 7755 b03f
00000060: 3c8f 8168 6904 c5bf 5763 a264 832c a3bf
00000070: 50da d211 7a7e d03f cd10 2677 8f03 b3bf
00000080: 1d29 a227 ce97 d03f a878 b66e fd69 a4bf
00000090: 9df4 6732 e735 b13f 60b7 b49f 9975 6d3f
000000a0: 7696 6d8f 99e7 bb3f 0969 0d62 3a82 adbf
000000b0: 51ee e111 87a6 bbbf 5384 d9cd eff6 d33f
000000c0: 3c0a 63df 5783 ce3f 6751 ff76 229a b9bf
000000d0: d55f 2c84 4529 c53f c83c 0dd0 4a2a 97bf
000000e0: 9152 42da 7b9b c33f e4dd 2d51 813a b3bf
000000f0: 2deb 00e4 02e1 66bf 10a3 d410 4da4 b13f
00000100: 0baf 0a9c 64b9 a93f a386 bc10 76ce a03f
00000110: 6e74 b64e d63b cd3f 2bfe 6771 362c a0bf
00000120: ae8e 2ac1 7db6 c63f e320 60e2 1bf5 9abf
00000130: 390b cba3 92fc a03f f4d6 c54d 0cc0 b13f
00000140: 8797 99ac bb3f c9bf 5933 c7c9 af06 a5bf
00000150: 2d63 993d 3bff c0bf a2f7 b2d4 ce7e 613f
00000160: 7414 18ac 4b7f b3bf bb72 1a1b db7c 613f
00000170: 3b70 f862 c639 b4bf 475c 8f52 18fb a93f
00000180: 7b38 8abe ad00 b33f 2649 eca6 71dc b43f
00000190: 4bb1 9241 1926 c63f b7b1 2597 d91c 603f
000001a0: a430 510f bc16 803f 4d18 ce54 ce2e a7bf
000001b0: 4a4f 7f8f 03f6 bd3f 33b9 0c8e b3b2 b23f
000001c0: b3e3 91c2 c7fe 953f d433 744a 2b20 ca3f
000001d0: b354 c178 fe1c cf3f dd30 2a9e 6f23 c33f
000001e0: d737 58e4 77e7 cd3f 1a5e cf1d 263b b1bf
000001f0: b75e b573 a309 b4bf a2d2 ec39 3a0e ae3f
00000200: 1773 7f4b fb1e be3f 0902 0062 475b b0bf
00000210: 144b 2d91 01a2 c33f 3ecb 7af9 aeae a33f
00000220: 0930 8e83 55ec bf3f 4f24 9be9 5be9 a23f
00000230: e52f 832b 1d34 ae3f 7541 772c 4ae0 a93f
00000240: f251 c173 0662 cdbf b73d 7562 dfc6 83bf
00000250: 46c8 c61b c8a7 bfbf 3b4e 0e1d cf61 b83f
00000260: 2a48 c885 41de c13f a6e3 f924 67d1 a53f
00000270: f948 fbe4 3d32 b53f 99ae 1a00 22b0 ad3f
00000280: 11aa 7c2c d2b5 d23f 82a0 1588 0308 b5bf
00000290: 309c adf8 768c c13f f48e 9ddb a8d5 b03f
000002a0: a3b4 8c78 e70c c8bf 871e 41c1 86b9 abbf
000002b0: 24c0 03a6 9b5c c0bf 2a59 e323 01cb ae3f
000002c0: c40b 26ec ca8f bd3f e2f0 3303 16f1 883f
000002d0: f212 8f00 3506 c53f 72ba 4c84 f504 9dbf
000002e0: 3016 db76 2440 bbbf fbfd 3e7c feaa b2bf
000002f0: 1259 cedc 902b a83f 03d0 015e b804 c43f
00000300: 2986 fc2d 6a11 be3f d922 045e aa40 b6bf
00000310: 7564 31c6 c4a5 c7bf f382 1899 10c9 a53f
00000320: 4f72 543d 6d8c cf3f 4ff8 3967 3a87 afbf
00000330: 6ecf fd26 e79b a53f bcc9 7c7d ceb4 51bf
00000340: 407b e8ac fd93 c73f a8ad f9a5 0de1 81bf
00000350: a71f 1c12 c7bb a9bf 6f07 0472 9997 9f3f
00000360: 89e7 de87 30c1 c1bf b881 785b 97e7 a9bf
00000370: bf1a 6288 a7b0 a43f bc2f 3d8a b7df c33f
00000380: b02e f45e 8bdc c0bf 1b67 920f d84a b6bf
00000390: f876 da6e 9cc3 863f d8b0 3a23 43e3 b3bf
000003a0: 0cee a337 12a8 d63f cad5 23dd fd11 abbf
000003b0: 2af5 f7ea d8c9 d0bf df4b 526d beb4 a3bf
000003c0: 48d7 53b3 42f7 c7bf ab6a dd52 bac1 b0bf
000003d0: 45f8 b146 1413 b43f 3fc2 6798 b837 b13f
000003e0: ba2d fa84 2ed1 d0bf c5ec c1c9 24fa a7bf
000003f0: c76d 9858 7f02 c3bf 2c17 99a3 ea52 5cbf
-0.08447182393973779 0.05026731041312548 0.020883275455658393 -0.02012793310764287 0.11238166857571492 -0.12146592832976495 0.08324553010587553 0.07764477070160053
-0.21125142832517527 -0.06617596440277139 -0.07505389740575419 0.06380411392273017 -0.1641971359523441 -0.037448984178985505 0.2577195333537121 -0.07427307757285746
0.25926545973256215 -0.039871139302009084 0.0672287462293348 0.003596115156731125 0.10900268317853964 -0.05763418623856082 -0.1080097597750236 0.3119468221903549
0.23838327796518566 -0.10000815777977366 0.1653220076921104 -0.022622269581287907 0.15318248898679035 -0.07511146766579874 -0.0027928406198304474 0.0689132848825802
0.05024256138616864 0.03282517389585606 0.22838858455080263 -0.03158731588700577 0.17744419032998365 -0.026325641338218807 0.03317697762897471 0.06933667086363099
-0.19725747993214446 -0.04106664026367097 -0.1327890444543071 0.0021356620469239066 -0.0761611266280669 0.0021347312366074267 -0.07900657573958451 0.05074382789433023
0.07422910596707936 0.08148870778339709 0.17303767873580464 0.001966881734168004 0.007855862824861788 -0.04527897629945752 0.11703512433387889 0.07303926675806309
0.021479722262003963 0.20410672316975698 0.24307232757806715 0.14951892111674328 0.23362635278357288 -0.06730879047187735 -0.07827207159913994 0.058702296801503864
0.1176602420159266 -0.06389280455187686 0.1533815344688142 0.0384421042957883 0.12469992124368913 0.03693663813243885 0.05899134784849006 0.05053931992336206
-0.22955399181468256 -0.00965666312427414 -0.12365389516961142 0.09524244746563053 0.13959521324483265 0.042613242400825244 0.08279787865038547 0.05798441172859476
0.2923474726145808 -0.08215353081107149 0.1370991434334612 0.06576018678384427 -0.18789380441868272 -0.05414982899725112 -0.12782617193397627 0.06014255107008844
0.11547535195681663 0.012178585026497438 0.1642519238213463 -0.02833922977441223 -0.10644748594048603 -0.07292166264868875 0.047207381204474555 0.15639404859723535
0.11745322821345695 -0.0869242171794541 -0.1847463577021561 0.04254962796063024 0.24647298330900688 -0.06157858381355707 0.042205070028017086 -0.0010807053094593474
0.18420382445125405 -0.00873003638044774 -0.050260754547763846 0.030851743301361475 -0.13870817789375803 -0.05059502593599369 0.040410266302435265 0.15526479959441797
-0.13173048149507371 -0.08707952861950867 0.011115286000229471 -0.07768649683083895 0.3540082496035388 -0.052871640438677384 -0.26231978365088315 -0.0384883411835728
-0.18723329311586157 -0.06545605204648079 0.07841612554509066 0.06725648613770206 -0.26276743875561304 -0.04683032000408497 -0.14851371599148264 -0.0017287532231348808

7.bias f8 [1]
00000000: cdd3 bb19 2136 a73f
0.04533484877712333
