models/run2/71.pt (torch, 153942 bytes, 6 tensors)

0.weight f8 [32, 1, 9]
0	0x3fa2ef821acac7bc	0.03698355271389128
1	0x3fc35aded9410c6e	0.15121064766035225
2	0x3f53fb3994f0d5e7	0.0012195646593345878
3	0x3fcab7c3de414bb0	0.2087330661039153
4	0x3fc4b4e16af4703a	0.1617700359573762
5	0x3fd0b8b10091d1d1	0.2612726693689896
6	0x3fd06e51376ca719	0.25673323071042514
7	0x3fd0e470b9d667bb	0.26394289158053724
8	0x3fd401d6dccfeb4a	0.3126122623795494
9	0x3fbd3b4ab7929848	0.1141859720397359
10	0x3fd3bbac0806740b	0.308329589688413
11	0x3f9d8d8df582c465	0.028860300168791393
12	0xbfe1ea5ada3ccf39	-0.5598577749683279
13	0x3fd373ab37848daf	0.3039348642507446
14	0x3fd132427f6688da	0.2686926120897063
15	0x3fd3e588d926f9af	0.3108846779467979
16	0xbfd86a6686a83866	-0.38149417066677527
17	0xbfd19bdd515db764	-0.27513821550279816
18	0xbfcd5daac4a2db6c	-0.22942099191069631
19	0x3fb5dff5e2c0a464	0.08544861589383995
20	0x3fce91d0cfa75a2e	0.23882494105665003
21	0xbfd908abbd443bb4	-0.39115422709522396
22	0xbfb0574004566099	-0.06383133035558543
23	0x3fd395cf655430e6	0.30601868529698917
24	0xbfb39cd575287832	-0.07661184416107927
25	0x3fc58f96649a3fec	0.1684444419120149
26	0xbfccf3330f61a2d6	-0.2261718583206604
27	0xbf9a4ded6906cad0	-0.02568789437800484
28	0x3fc43cd5bce5ece2	0.15810653422872806
29	0xbfb8e81fb4d7c2a7	-0.0972919289122368
30	0x3fc529feb17c52c4	0.16534408251086152
31	0x3fb6c4c655d447ab	0.08894004435958773
32	0x3fd4a99fb03af703	0.3228530140876133
33	0xbfc0839da0328147	-0.12901659319050848
34	0xbfbd07419212b9eb	-0.11339196983565329
35	0xbfdd3fc6a468fe60	-0.45701757484127903
36	0xbfd38c7067d63ee2	-0.30544672146150564
37	0x3fc77052e3d49df9	0.1831153500036036
38	0xbfcfa85a8e2cd5a5	-0.24732524816651594
39	0x3fd265674a62e74d	0.2874391771725769
40	0x3f8377f43b17c44d	0.009506137898798306
41	0xbfd7d7909cf528d0	-0.37253203704734705
42	0x3fc6d9a6eadfc336	0.17851721256695335
43	0xbfb88a093ac43cce	-0.0958562630150823
44	0x3fc68e2bccb288ca	0.17621371741285535
45	0xbfa5dd22338d8589	-0.04270274047190543
46	0x3fd1022f069dfc38	0.26575828214840014
47	0x3fd011c86779d8ec	0.2510853777415736
48	0xbf9f25c04ecb9d7f	-0.030417446908271636
49	0x3fd126f588254d00	0.2680028752849495
50	0xbfc1733cecc44127	-0.1363292842947967
51	0xbfd31ddc3373c5ea	-0.29869751953728374
52	0xbf7c75691ee578ba	-0.006947909000102276
53	0x3fb551083443963e	0.08326770091988409
54	0x3fd23a6a0f78039a	0.284815325838332
55	0x3fd1894a1561c099	0.2740044792944985
56	0x3fd1fe19738a3060	0.28113399775680215
57	0x3fa20ddbd6bc9bb9	0.03526198383615715
58	0xbfd82dc8c0e49718	-0.377794445392611
59	0xbf8673a63612b638	-0.010962770962886656
60	0x3fd4699eae9aa048	0.3189465241544025
61	0xbfb7d3f15a9b89bd	-0.09307774030779732
62	0xbfc09e71f30c9fcf	-0.12983536117212544
63	0x3f964d15bff74de7	0.02177843078773192
64	0xbfbd2590d2c5239c	-0.11385445733789229
65	0xbfa22f75234242b9	-0.03551832251935622
66	0x3fce7949f224d384	0.23807644198828026
67	0xbfc64ec8c8c82837	-0.17427930644800124
68	0xbfd843cf4bf4dd82	-0.37913877885463176
69	0x3fd06d671e48501d	0.25667741734764765
70	0x3fbc1e7bc0f31885	0.10984013996776028
71	0xbfbcfcd36a755f6c	-0.11323281621059572
72	0x3fc789441b590d6a	0.18387652716965458
73	0x3fd0c7c292d271d5	0.2621923860367848
74	0xbfbd969f22b5e166	-0.11557955357955549
75	0x3fd09ae5b366de7c	0.25945417899809065
76	0xbfd09f0a17107a05	-0.2597069955099019
77	0x3fd1655660962e1b	0.2718101447323719
78	0xbfcc227e1068001c	-0.21980262566648967
79	0xbfbcf66329902156	-0.11313457264634982
80	0x3fd1250c94968886	0.2678863001875772
81	0xbfd1cfb651c43167	-0.2783027456760209
82	0xbfc581076c7b52e0	-0.16800015255889544
83	0xbf2dfb514b1be756	-0.00022874228812224767
84	0x3fcbf89158c087c2	0.21852318605038873
85	0xbfd612e8c740b10e	-0.34490413149139065
86	0xbfd2e4cfa53b2a27	-0.2952155221543386
87	0x3fc91772f49fdd1f	0.19602810806802837
88	0x3fab6f9cb2542688	0.05358590771545574
89	0x3fc7dff489c0adee	0.18652207113460356
90	0x3fc768280ea46aea	0.18286610331491399
91	0xbfa3eaff9156a9ee	-0.038902269832153155
92	0xbfc4b15dba436688	-0.16166278452765348
93	0xbfac911d3eb50802	-0.05579463377445394
94	0x3fd02cfd70b84cb1	0.252745971754119
95	0xbfcbcc8624a348a8	-0.21717907704311767
96	0x3fc51e717feabf7f	0.1649915575594569
97	0x3fcd48bf38cd73c0	0.22878256105005157
98	0x3fd23ff2031802d5	0.28515291502121204
99	0x3fa4978e6d425dc5	0.040218783223447775
100	0xbfbf6fac301e7634	-0.12279773878841455
101	0xbfbfcec278e6ab22	-0.12424865199743043
102	0x3fc391f77fbba82e	0.15289205300297354
103	0x3fc8d504c8396939	0.1940008142144707
104	0xbfbca17b04148e0d	-0.11183899736038701
105	0x3fcea0996b3510b9	0.23927610144358427
106	0x3fd15d91b7581839	0.27133601097773724
107	0xbfd7389932157b70	-0.362829493436883
108	0xbfd132b86591ac02	-0.26872072142458603
109	0x3fd1d3726a23b867	0.27853069653691026
110	0x3fd0de1372fcdd37	0.26355444173119075
111	0xbfa432337acc2381	-0.03944550394050506
112	0xbfc0caf477a8d4c8	-0.1311936935686957
113	0x3f8c414121366d0f	0.013796337915485539
114	0x3fd3f5ac62e2ebdc	0.31186971337200275
115	0xbfb4b3da00c9f898	-0.08086931723844015
116	0x3fcb15f4cace8897	0.21160755064653777
117	0x3fac8698c4aa639d	0.055714391715077506
118	0xbfdbf91897c602c5	-0.43707861730221637
119	0xbfc3c2551be55cb9	-0.15436805593592398
120	0x3fccd6b5976aa6c3	0.22530240910901086
121	0xbfa91c73f41d6ab5	-0.049045203732665334
122	0x3fc049d6ae28d3eb	0.1272533750904182
123	0xbfda1520e777a305	-0.4075395832465321
124	0x3fb65ec115066d82	0.08738333476360619
125	0x3fd3013742f5820b	0.29694921053854334
126	0x3fc0a24dc84b451c	0.12995312004071813
127	0x3fccb67ada0eb34f	0.22431884429297574
128	0x3fd4a92a85b9f730	0.3228250795290135
129	0xbfcbd837ed34b747	-0.2175359638435401
130	0x3fc9ed839c5cc2b0	0.20256085524444734
131	0xbf633d1a635939da	-0.0023484721557800294
132	0x3fd325f61d49036a	0.2991919790256846
133	0x3fd3220fb3004797	0.29895393829894473
134	0x3fd26709a1ab327b	0.2875389174267082
135	0xbfd188c62f48301b	-0.2739730321634412
136	0x3fd27a1efcf89bb5	0.2887036772175933
137	0x3fac7ae5df8adcc2	0.05562513688840333
138	0xbfb7869e35570b9b	-0.0918978576874409
139	0x3fd2c6d19b98d79e	0.2933849353315682
140	0x3fd1124466a857a4	0.2667399408832074
141	0x3fc48ab17c87aaa9	0.1604825838142763
142	0xbfc65afc3d8346fa	-0.17465165141634725
143	0x3fb63d51bd17982b	0.08687315813548994
144	0x3fa8d35321980ddf	0.048487279749703786
145	0xbfb0d7abb154e806	-0.06579087333093989
146	0xbfcae92439100919	-0.21023991380941068
147	0xbfd4f8dc43e7182d	-0.3276892340767315
148	0xbfc1cab687dc878c	-0.13899881013736282
149	0x3fc33047fa5a074a	0.14991092418864077
150	0x3fc119d8269d005e	0.13360120664038083
151	0xbfcb85729ba3acbd	-0.21501000022485597
152	0xbfc3a60189f4f03a	-0.15350360141917624
153	0xbfa18d05cee2ba29	-0.03427904272517807
154	0xbf3f93776ddb2363	-0.0004818121504795351
155	0xbfd08d12e7037d44	-0.25861046371388263
156	0x3fcb7e413a15092f	0.2147904904941895
157	0x3fc2f73d6ec630e2	0.14817016514678644
158	0x3fb60f2c068f32cf	0.08616900596752973
159	0x3fbd19c1391811c0	0.11367423671624177
160	0x3fbe30493c2eeddd	0.11792428702658904
161	0x3fca5f2df1d8d9d7	0.20602964695872458
162	0x3fcf304e8319352c	0.24366170312206614
163	0xbfc840eb8e2fc6cb	-0.18948120539385224
164	0xbfa661cabcb34741	-0.043714843306260416
165	0xbfd9164ee2d9dbf3	-0.39198658135813885
166	0xbfc7510eedd823eb	-0.18216120351306073
167	0x3fd06f5f2d63bdf7	0.25679759438113997
168	0xbfd2e002b07e54b3	-0.2949225162095203
169	0xbfce17bb92559827	-0.23509926457626415
170	0x3fd3750f055c29ed	0.30401969455183925
171	0x3faad136ea4b178e	0.052377430057773386
172	0xbfc29c393e7ea5f3	-0.145392566218376
173	0x3fd0068559005a27	0.2503980034975108
174	0xbfd6b6742b9d6c06	-0.35488609561224427
175	0xbfd37b7a51fc97bd	-0.3044114876414559
176	0x3fbc0b621958ef2d	0.10954869383652684
177	0x3fcf38d8e22b036a	0.2439223388992347
178	0xbfbd84914c6658a4	-0.11530407061795472
179	0xbfa6f61c8e3a734f	-0.04484643207727023
180	0xbfe2d7e8b0ecc760	-0.588856072956542
181	0xbfd4cfc0c0407fe5	-0.32518023275951996
182	0xbfca03b56eedb319	-0.20323818127089835
183	0x3fc75df599643080	0.18255491246998545
184	0x3fcf83bb28f891ed	0.24620761395011873
185	0x3f97e5fee2b57f3a	0.023338301264970364
186	0x3fc9d1b914e38b8c	0.20171273727381978
187	0xbfcf6dce5747f286	-0.24553851377267594
188	0x3fbd6aa855b2bba9	0.11490871517410874
189	0x3faac01cdf6c86ef	0.05224695422499603
190	0x3fc8d24786ae4d98	0.1939172179814761
191	0xbfdb44d64fbe6c7a	-0.42607648646816865
192	0xbfa9c3e4efb55710	-0.050322679768823986
193	0xbf367f58ba31fc73	-0.0003432838077017171
194	0x3fd4823006f7138d	0.3204460208910909
195	0xbfcb0a0cc2439d6b	-0.21124419675400516
196	0x3fcea7cc76393ed9	0.23949580929410422
197	0x3fcef6c1030ec8b2	0.24190533303550904
198	0x3fc81a24cad78a26	0.1882978430213182
199	0xbfc2939d07f27da7	-0.14512980354355173
200	0x3f9ff9ece417f438	0.031226827069975566
201	0xbfca481e0081e275	-0.20532584213994523
202	0xbfd98852aa20e946	-0.39894549001805435
203	0xbfdbf3c012cce230	-0.43675233684510584
204	0xbfc90c94b9eb4979	-0.19569644048767623
205	0xbfc90ab6a08b05e9	-0.19563944663063573
206	0x3fd411fc9028834e	0.31359781339601944
207	0x3fbe9cc967bb302d	0.11957987577915281
208	0xbf9e1cd528cb0fbb	-0.029406862845249054
209	0x3fce5c3ef2ff8e4f	0.23719012131833714
210	0x3fce23d7e7fd0e78	0.2354688532596929
211	0x3f88e31c6a28c787	0.012151929845547261
212	0x3fc141a15821c1ad	0.13481537631333876
213	0x3fbcca96ce7042bc	0.1124662641525544
214	0xbfc942442faf66db	-0.19733478859307393
215	0xbfdcbafbf21e796d	-0.4489126076167825
216	0x3fc1dc9ee62fd8b7	0.13954530944437746
217	0xbfc87dbc9b8adc59	-0.19133718104214628
218	0xbfc159a398e343bd	-0.13554806676122935
219	0xbfba37e7e39cd5a6	-0.10241555506657693
220	0x3fc36549df5260be	0.1515285816610738
221	0x3fd4826824876cbe	0.3204593998650117
222	0xbfd0018ce56c58c9	-0.25009462742435723
223	0x3fcb7a2245d100ed	0.21466473015789891
224	0x3fd1c68f10f36488	0.2777440705809302
225	0xbfae69ee979743b9	-0.05940194702601027
226	0x3fd172600eb0ec91	0.2726059096782559
227	0x3fce23e310862084	0.23547018343765924
228	0x3fd3bf13b7db3ffb	0.30853741602641066
229	0x3fbb0d2051d0cdb4	0.10566904065563315
230	0x3fd252d1d35f7a8f	0.2863049091519451
231	0x3fc87219a11b5792	0.19098205915969096
232	0xbfd53bdbcb6f2b43	-0.3317784773504863
233	0xbfacb1b1e1f7944b	-0.0560432041491273
234	0xbfc7be4b01f4c207	-0.18549478145133966
235	0xbf9be6aaba448925	-0.027247111910704853
236	0x3fc565c10b2f0902	0.16716778799133897
237	0xbfcaa73402af94d7	-0.20822763568063493
238	0x3fc64d70db62eeb1	0.17423830711583357
239	0x3fa8acd38461eea9	0.048193559560755724
240	0xbfd1461e5647c050	-0.2699046938496439
241	0x3fb34b136046587d	0.07536431408365903
242	0xbfd453c2c41bf5e5	-0.3176123538140401
243	0x3fca71b7fc038906	0.20659541898118777
244	0xbfd21256ee728309	-0.2823693588816672
245	0x3fa6d663f04d3f70	0.044604418834409354
246	0x3fc17125f037faee	0.1362655089323747
247	0xbfbdc44c6d090d1e	-0.11627652799602514
248	0xbfcf989ae596fd49	-0.24684463701667372
249	0x3fd1b48b49542fbb	0.2766445366003116
250	0x3fbc9d0506dc8941	0.1117709295035967
251	0xbfd8fc6fb74507b4	-0.39040749452044143
252	0x3fd3c3755e76830a	0.3088048384179706
253	0x3fd300bcf009e4d7	0.2969200462462828
254	0x3f81f7f55d17bf2f	0.008773724463906866
255	0xbfdac0004d55a29b	-0.4179688220233772

0.bias f8 [32]
0	0x3f6ec4e63b4735bb	0.0037559982976975415
1	0xbf6646cba14de1bd	-0.002719304766682222
2	0x3fd043a554a4a2e3	0.2541287733643413
3	0x3f73fbf76bf1e1cf	0.004878965845926022
4	0x3fd48fed029b686e	0.32128453497501297
5	0x3fb77240e230bed6	0.09158711931444982
6	0x3f773fb69a6b00d4	0.005675996106845289
7	0x3f50443a0f12a107	0.0009928290349226503
8	0x3f9014efbe090e92	0.015704866384352707
9	0x3fd5b08dfd474b2e	0.33890104040362956
10	0x3fd3ed374740096b	0.31135351140996786
11	0x3f61f9b8ed2d789e	0.0021942722172943593
12	0x3f8a5630d9d62cf3	0.012859708450170681
13	0x3fbe56ea3aae4552	0.11851371700892813
14	0x3fd31d46871a209e	0.29866183465538565
15	0x3fd2f2d63317abc9	0.29607157697199377
16	0x3fd170953349e924	0.272496509634623
17	0x3f595360a341eea7	0.0015457576492100918
18	0x3fd58d610ba63049	0.3367540944825618
19	0x3fd57cf44dc4be6e	0.33575160593588904
20	0x3fa3a58420348219	0.038372162753379686
21	0x3f8839ef0bfeee3a	0.011829249909957363
22	0x3fc7c1d5bf51b647	0.1856028732467385
23	0x3fd1d107b86358d5	0.2783831883110797
24	0x3f85930213beb4b6	0.010534301974838161
25	0x3f63c56567d2b971	0.0024134617402388693
26	0x3fd56298f55c2bb9	0.3341429134458696
27	0x3f845d13f22d786e	0.009943157032179264
28	0x3fc482138e7b48bd	0.1602196164809068
29	0x3fb0304c98791b4f	0.06323698732840664
30	0x3f95d81bd22d855f	0.0213322016746863
31	0x3fccaaeda874f78c	0.2239663193267315

3.weight f8 [64, 32, 9]
0	0x3fc04c424f46a242	0.12732724066633422
1	0xbfcdebe4fea2b23f	-0.23376142915130235
2	0xbfd122baaddf64b9	-0.26774470309971893
3	0x3fa0b7afd84e7d34	0.03265141978703881
4	0xbfbc72fd6e043b62	-0.11112960754347292
5	0x3fa4aba93717756c	0.04037216947083774
6	0x3f9b3f8df57faac5	0.026609628781367762
7	0x3f9f7bb00f59afa8	0.030745268761549177
8	0xbfc54eec269c672d	-0.16647102246570836
9	0x3fbc2175ff6b36aa	0.10988557325182549
10	0xbf974bba6e8cd60f	-0.022749817845769068
11	0xbfcc07f7b1158666	-0.21899315020259563
12	0xbfc66bd19d0b9a52	-0.17516536873081862
13	0x3fb89d3a31b211b3	0.09614909852286395
14	0xbfad5a17393fadcc	-0.05732796262585857
15	0x3f8f740f54669a17	0.01535808540650145
16	0xbfa3ef464b4d6e07	-0.03893489522189602
17	0xbfc2fe37c8a5e002	-0.14838311478865768
18	0x3fb6f45526a832c4	0.08966571992659583
19	0xbf62a042696b2c54	-0.002273683271913943
20	0x3fa97e262f59ed77	0.049790566711602695
21	0x3fa632fa2e9468f6	0.043357675729753284
22	0x3f711a851dc6185b	0.0041756820541022045
23	0x3f7c6cd6f19b8900	0.006939735054148466
24	0xbf86b357d34d3581	-0.011084257255471243
25	0x3f969faf2b844839	0.02209352210145019
26	0x3fbec9c0f64ed03b	0.12026601804137808
27	0x3fbb9ecc1ccb284a	0.10789180472343776
28	0xbfcc7e6534abdb68	-0.22260727950898773
29	0xbfc8baba92ea1979	-0.1931985108714789
30	0xbfc38053ad9bb678	-0.1523537252136753
31	0x3fc112108af6ba5d	0.13336378846493604
32	0xbfa0bb6064253324	-0.03267956945874165
33	0x3f869b853b4aff9c	0.011038819190957665
34	0xbf98e7b6a59e51de	-0.02432141671995846
35	0xbfb01dcbbb75c0d9	-0.06295464827212828
36	0x3fa85a626b43e960	0.04756457862272856
37	0x3f884f9057a3784d	0.011870505976215773
38	0xbf98d52f1fe413d2	-0.024250732728450526
39	0xbf75f754d90993da	-0.0053628267638474395
40	0x3f94995433ee538d	0.020116153401960758
41	0x3fa2968c654e34cb	0.036304843298333354
42	0xbfa43780158ef3c4	-0.03948593390621327
43	0x3facec35322bc829	0.05648962247313733
44	0x3f9d57160253974a	0.028652519123077348
45	0x3fc0239021c7ae56	0.12608529710211042
46	0xbfb22e4472de88f4	-0.07101848415780748
47	0xbfb158c23e401add	-0.06776060123238943
48	0xbf9a331c1fd8c79d	-0.025585593646787797
49	0xbfa16c2f789026ce	-0.03402851435391839
50	0x3fc200cbda842df1	0.14064930124037248
51	0x3f8bab74fb18febf	0.01351062194146324
52	0xbf9917f662e36a76	-0.02450547197882221
53	0xbfb05598d77b1113	-0.06380610714683525
54	0x3fb811443a83b71a	0.09401346615387887
55	0x3fb520068d646d8a	0.08251992179832804
56	0xbfd01dc663f57912	-0.2518173195038723
57	0xbfc2f3ad1fecea57	-0.14806140955791378
58	0x3fb1ada8618665d8	0.06905605679494131
59	0xbf7ba0a4f0ba071f	-0.00674499921626806
60	0x3f69bcf75dc798d9	0.0031418639539309953
61	0xbf3bab26cbd33ee3	-0.0004221887318864704
62	0xbfc32f08601fcdd9	-0.1498728246075263
63	0x3fc26211ff6a88bb	0.14361786815158503
64	0xbfc350b28d594880	-0.15090019132418675
65	0xbfa498196c50e3a3	-0.0402229256364486
66	0xbfc2cfcd9e538b05	-0.14696665030268022
67	0x3fc62aa5bc603597	0.17317649553335165
68	0xbf92e15107577c10	-0.018437639306167652
69	0xbfa113259307fa01	-0.03334920329870173
70	0xbf905db1bd0e1543	-0.015982415355684464
71	0xbf9ad6f482349bce	-0.02621061367713278
72	0x3fbab19472a0e5be	0.104272153840518
73	0x3f8c7a3d55c055d6	0.013905028514311118
74	0xbfd1a0775c6ee5bf	-0.2754190828960325
75	0xbfb7340798ba805c	-0.0906376598236433
76	0xbfc6954e6383bb3f	-0.17643146380529548
77	0xbfb81261c6bbb763	-0.09403048612486269
78	0x3fac9e97196e6064	0.05589744744719452
79	0xbfab79c660af1fdb	-0.05366344385362228
80	0xbfc49c633d0dac5e	-0.16102257233737566
81	0x3fbe7d60fbbf9d83	0.11910062929347558
82	0xbfb896c983aea3d8	-0.09605082955262334
83	0x3fb549e5bd555ad9	0.08315883514783752
84	0xbf7630ba1a5c86be	-0.005417563404792323
85	0xbf968c4383eb4ace	-0.02201943867369032
86	0x3fb0295b07ddfa04	0.06313103620593813
87	0xbfa00562fa987d4c	-0.03129109677342487
88	0x3fae95db122b7bb8	0.05973705860900885
89	0xbfa34f01e971c744	-0.03771215414680154
90	0x3fbd8087ab06c041	0.11524246144722473
91	0x3f95b69e8742ab47	0.02120444965900539
92	0x3f90c5f584b6242c	0.016380153870645994
93	0x3fa05ef4e40173c8	0.03197446139595389
94	0xbfa96f87ada08300	-0.049679031319334044
95	0x3f8c8ad2cc94d076	0.01393665968735312
96	0xbf472e76ecc02cb0	-0.0007074433028732199
97	0xbfa76b2186b759c4	-0.04573921937451389
98	0xbfb8cb643d0fbdf0	-0.09685350886115152
99	0x3fc008c081cabfdc	0.12526708924769892
100	0xbfba78559265a521	-0.1033986551680255
101	0xbfadca4e9db2f693	-0.0581841056350473
102	0xbf9f597a9428105f	-0.030614772122149577
103	0x3fbbe1478fedf4be	0.10890624298004334
104	0xbfab660acf356fba	-0.05351289538768307
105	0xbf293558893e3e57	-0.0001923246933270724
106	0xbfaa8e6b1e1a5d5c	-0.05186781637638191
107	0xbfa001882ac4eb0c	-0.0312616874893675
108	0x3fb75dae85c5d194	0.09127321973739405
109	0x3f916c4ce2f4c4fe	0.01701469550352374
110	0xbfd163a4b7b08407	-0.2717067521899143
111	0xbfbec576f0b1f618	-0.12020057083460534
112	0xbfba37ba14cbe9f7	-0.10241282470443723
113	0x3f875e08b6e0eed5	0.011409824448598208
114	0xbf8b559b9212eea1	-0.013346877475093168
115	0xbfacc1a0eb7d188b	-0.056164768930600927
116	0x3f9b293d807d6297	0.02652450653781332
117	0x3fbe703e5630f012	0.11890019993092008
118	0xbfad303b6b38d942	-0.05700860675681209
119	0xbfa0750ef9871109	-0.032143085441505966
120	0x3fbd96cd50bae9f7	0.11558230610800267
121	0xbfb1cb19717fef4a	-0.06950530072202557
122	0xbfa5cedf5883c9f8	-0.04259393649580895
123	0x3fb0756686363bf7	0.06429138924271159
124	0x3fa5d31860218fa6	0.042626153692963784
125	0xbfc1f86ca9e39fdb	-0.14039381308907548
126	0x3fc2f29fdd25b94c	0.1480293111630523
127	0x3f96836fd25289b5	0.021985766613065134
128	0x3f955f69d6b46307	0.02087178585961438
129	0x3fb1d71e4d6e8ae0	0.06968869581627812
130	0xbf9b31a74ea2cdd2	-0.02655660073714989
131	0x3fab0be27b8f0730	0.05282504804882959
132	0x3fa5b8debc95c865	0.0424260716635139
133	0x3fad0826c0f20a36	0.05670281510630952
134	0xbfc276bba05c9ff8	-0.14424844103018564
135	0x3fae4da33efef8c8	0.05918607849115315
136	0x3fa6f62d83dd06da	0.04484693751011344
137	0x3f65e5421b253cb8	0.002672795403817565
138	0x3fa571d7f899d5c0	0.04188418302230046
139	0x3faaf43cd2a41c68	0.05264463492681487
140	0x3f86a15111fa7597	0.011049874650150211
141	0xbfab81c5cc9bc85e	-0.05372446177160904
142	0x3fa47dc42bda5acd	0.040022020676749294
143	0x3faec9bffd222f5a	0.060132980012979245
144	0x3fc1104c82e50451	0.13330990210855245
145	0x3f9908cc812a16db	0.024447627433366797
146	0x3fb09e74bcfac6da	0.06491784681091009
147	0x3f71990b265a0acd	0.004296344331694524
148	0x3fa6fdc1aac338fe	0.04490475854400876
149	0xbf7b7361767d0403	-0.006701832498777985
150	0xbf9efb529db31b92	-0.03025559508821691
151	0x3f850ea804461277	0.010281860952781259
152	0x3f76e843fffbfa18	0.00559259951091786
153	0x3fc79140014f4cad	0.18412017883256251
154	0xbfc6067a5cc0e214	-0.17207269219376597
155	0xbfc688f8577af4b5	-0.17605499526499604
156	0xbf8d42cc731b5a38	-0.01428756452825751
157	0xbfc725980fb2eaac	-0.1808347775130036
158	0xbfaa46d8f0607009	-0.05132177290235524
159	0x3f967eaf72d1d7b5	0.021967641242063702
160	0xbfae5f300982fbe9	-0.059319974099245894
161	0xbf83222db5c1280d	-0.009342534169395145
162	0x3fc07487f6dae1ce	0.12855624726741016
163	0x3fa11ce4d603f1f7	0.03342356789105232
164	0x3fab124f89ae1d7f	0.05287407451310865
165	0x3fb478ba186d9663	0.07996714683903287
166	0xbf988bb6acb105d2	-0.023970464983227142
167	0xbf84bcc7f66f129f	-0.010125696380677339
168	0xbf9b341569b56030	-0.026565870835242034
169	0xbf93fa1ef78661d5	-0.019508823259089276
170	0xbfc2a5e89ff53337	-0.14568813143196177
171	0x3fbfdd2343d621c9	0.12446804433978466
172	0x3fa368490def26a9	0.03790500922293678
173	0x3f89ed55302fabb8	0.012659707577730703
174	0xbf98e3360575cda0	-0.024304241259825
175	0x3fba7b5c868ad46c	0.10344484600757803
176	0x3fa5b3c587e9c63d	0.04238717350098085
177	0xbf78c34ab9da8cb5	-0.006045619867708731
178	0xbf5d56af7e62bb31	-0.0017906869702916767
179	0x3fa9c38d3a89ac8f	0.050320065875745994
180	0x3fc29690675ae4e6	0.14521985098489337
181	0xbfc6368ac09861c9	-0.17353948978485637
182	0x3f84758540ddb7da	0.00998977760511004
183	0xbf8c4a51b7899873	-0.013813627637500247
184	0xbf7ccb636bf3e219	-0.0070299037608881005
185	0xbf966991bb80d76b	-0.021887089795391484
186	0xbfa3c1070002a23e	-0.03858205676198566
187	0x3f8ee0509f4308ea	0.015076284275327773
188	0x3fa05b572d884f50	0.03194687300506749
189	0x3fb7da6b1c5e7464	0.09317655031778
190	0xbfbf980eb8945faa	-0.12341396337831037
191	0xbfd16dd0a898dcd4	-0.2723275801140066
192	0xbfbef07e8ca7851e	-0.12085715230889035
193	0xbfbe6afebba64ecb	-0.11882011491098436
194	0xbfb3e61ade9839b4	-0.07772987303199025
195	0xbf9b993bf0d3f60d	-0.026951729368184064
196	0xbf9b287efd895a15	-0.02652166769470384
197	0xbfaa1a64141fc799	-0.05098259683280943
198	0xbf9295c1496c73c5	-0.018149395090506965
199	0x3fc1af56379ddea0	0.13816335406931035
200	0xbfa8ad2d5ea2cfb2	-0.04819623737549196
201	0x3fc2bfd41ad6b605	0.1464791422890103
202	0xbfa34ae0f3cb9ee8	-0.037680654297046534
203	0x3fb62438182fe570	0.08649015989785425
204	0x3fad037249591353	0.05666691918717128
205	0x3fa5624001389437	0.04176521315483977
206	0xbfc3a7d7381d1003	-0.15355959167402497
207	0x3fc026af26d108dd	0.12618054766978207
208	0x3fb20bfbb1871946	0.07049534877942162
209	0xbf7f6e3a4d41cd99	-0.007673480740879945
210	0x3fb0c0ea38ca7db2	0.06544364820955798
211	0x3fb5a241a5a016a7	0.08450708669269123
212	0x3fb201f96ae28dfb	0.07034262523171002
213	0xbf955b580395c6f4	-0.0208562614620353
214	0xbfa1ce80be9f68da	-0.034778617162105355
215	0xbf83d759001512f7	-0.00968808681012366
216	0x3fc4f61de014eb8d	0.1637608856343288
217	0x3fb8543254f51eb8	0.09503473829419817
218	0xbfd03230f835fbc9	-0.25306343306868634
219	0xbfbb1c45935c4748	-0.10590014312427087
220	0xbfbc74ad5f4dfcda	-0.11115535332463669
221	0xbf94ef8f24353de9	-0.02044509562011668
222	0xbf9af4962dcdf490	-0.026323648973165137
223	0x3f834720f03ffeff	0.00941301091370361
224	0xbfc497662ed39c8c	-0.1608703354497475
225	0x3fc3a5ad68a762a8	0.1534935723309634
226	0xbfaf63c824a4b031	-0.06130814978891442
227	0xbfc614d26c92d710	-0.17251043607182526
228	0xbfc5a75927b1b6bd	-0.16916956365769478
229	0x3fc003416dd43c36	0.1250993524813297
230	0xbf969974f5110369	-0.022069766481084416
231	0x3fb3af08710c35e0	0.07688954124406377
232	0xbf94bbe5ed6bb2ed	-0.020248024574288804
233	0xbfb1545fca9f3ed9	-0.06769369789912662
234	0x3fbe8bc85cc39624	0.11932041420694667
235	0x3faac83a9e973ed9	0.052308875903347825
236	0x3f9901ab43df8536	0.0244204292465657
237	0x3fb4dd80f22f2064	0.08150487816522084
238	0x3fa4db7191cea876	0.040736722038972425
239	0x3fb0c11ed200ff6a	0.06544678332374834
240	0x3f9f2ba5c6228067	0.03043993970698047
241	0x3fac649e398dbc3e	0.05545515492018936
242	0x3fbe85dfd769dd39	0.11923026093596868
243	0x3fbef9ff6a7ba104	0.12100216245346834
244	0x3fba1d8ffa2d70f1	0.1020135865960048
245	0xbfc98eada78f083a	-0.1996666973264512
246	0xbfb93fba6e64af9d	-0.0986286658778099
247	0x3fa7e70c5d519c97	0.04668463362832503
248	0x3f909bfedbeee5b5	0.016220075772911808
249	0x3fb0e88daf11c28d	0.06604848407892856
250	0xbf96baed1bab66b0	-0.02219744187718814
251	0xbfbd3a58674010b6	-0.11417152901418856
252	0x3fb738c547fa4750	0.09071000106112348
253	0x3fb897010728d6c8	0.09605413842003963
254	0xbfaa09ebfe36d2e8	-0.050856947690965104
255	0x3fa8baeb5a80a75f	0.048301081464457545

3.bias f8 [64]
0	0x3fad652c8f9ef5d6	0.057412521869519104
1	0xbfa131c089ac1700	-0.03358270340508618
2	0xbf837b5af089ae38	-0.009512625184661436
3	0x3f8349b90edc5fa0	0.00941795899011294
4	0x3f85db9151ac480f	0.010672698311768895
5	0xbfa1e95ca17d2258	-0.03498353453921216
6	0x3faaf4322dcf2190	0.05264431771462619
7	0xbf9900f0471919a7	-0.024417642917137574
8	0xbfa777901af8172d	-0.04583406762325946
9	0x3fa756d209d93fb7	0.04558426256392017
10	0xbf6079759feb01fc	-0.002011041389181621
11	0x3fb5cd0de4633dc7	0.08516012979384079
12	0x3fb4fb4189050f03	0.08195886225899689
13	0xbf7ef065edb2e48c	-0.00755348029923043
14	0x3fbf337fa26922e9	0.12187955584625922
15	0x3f80854cf350dcc9	0.008066750693713225
16	0x3fad69bfaa3c136d	0.05744742348728136
17	0x3fb4e525b73f4ea3	0.08162151073275452
18	0x3faf074552508720	0.06060234670463971
19	0x3f9079f260ed55a7	0.01609019009204862
20	0x3f99c58aecd24a0b	0.025167628006395087
21	0xbf7a212bdac25e54	-0.006379290873290328
22	0xbf95edcee54bc35e	-0.021414978737939953
23	0xbfbadb01ca09d250	-0.10490428145005493
24	0xbfbd660051354afe	-0.11483766539212678
25	0xbf9d867274be190a	-0.028833187461281752
26	0x3f7077e8a5987fc4	0.004020603920736169
27	0x3f93bd700bdcdb50	0.019277334903758103
28	0x3fad84d41b0e3479	0.057654026320144554
29	0x3fa4730018550254	0.039939883203719134
30	0xbf805c35f7771fd4	-0.007988378157179378
31	0x3f747279937577ce	0.004991984278005247
32	0x3f956f9cefb1af02	0.020933582429662152
33	0x3fa7e223007fb6ac	0.04664716130342347
34	0x3f956a2f82959400	0.020912878365738408
35	0xbfa5763aa471a89b	-0.04191764123318472
36	0xbf98bd38c6b5d9ee	-0.024159323814695037
37	0xbf94f782b0643a88	-0.02047542764290225
38	0x3fa16272562eb2a7	0.0339542131617681
39	0x3f8a5f307955a9bb	0.012876871779288082
40	0xbf91d3d3094ad07e	-0.017409608308938555
41	0x3faa778f8b8f4a31	0.051693425928210586
42	0xbf85d42e8dc956df	-0.010658611013393436
43	0x3fa83440a6d99388	0.04727365528814348
44	0xbfa14ee4706df442	-0.03380502579145929
45	0xbfa3a6093354f471	-0.038376128688903395
46	0x3f9e3b4839f41147	0.029523018395609026
47	0x3f79429dfa9320bf	0.006167046646801732
48	0xbf77eae1697f1df6	-0.005839233890533082
49	0xbf80bfc8b6bb96f3	-0.008178299023210189
50	0x3fa4d1415b6967b9	0.04065899124971346
51	0x3f4d2d1c19186303	0.0008903872678188432
52	0x3fa42c0f2ad0001b	0.03939864537824197
53	0x3fadfd8e7d47f760	0.05857510833082702
54	0x3fab0fe4928e4944	0.0528556279088144
55	0x3faa382bbdbb4ca1	0.05120979968128237
56	0x3fb0cad008917653	0.06559467515168053
57	0xbfa4b9fa2fa2c967	-0.04048139411442513
58	0x3fa5d19141cfa447	0.0426144974551979
59	0x3f989b11a46cdde8	0.02402904096672201
60	0x3fa9adff96be7a4d	0.05015562739503263
61	0xbfa2a9d507b19522	-0.036451966466112276
62	0xbf7e6ed298076dea	-0.007429907448080789
63	0x3f609bcfcfeb823b	0.0020274218398841615

7.weight f8 [1, 128]
0	0xbfb5fbf034b388ec	-0.08587552343991306
1	0x3fa9aaacc2fcfee9	0.05013027076938476
2	0x3f95626ce4762ea4	0.020883275455658393
3	0xbf949c6ab9c525f6	-0.020127933109767647
4	0x3fbcacb290d756ef	0.11201015506898292
5	0xbfbfa88a5e2c337f	-0.12366547392976023
6	0x3fb500cd21e3e481	0.0820434768428573
7	0x3fb3e72a4a95c5e0	0.0777460510342034
8	0xbfcb0a03425c9d0b	-0.2112430643112265
9	0xbfb0e6cbb009a3b0	-0.06602166221422467
10	0xbfb336bb72cb88a0	-0.07505389740575419
11	0x3fb05eedcf03e896	0.0639485006721848
12	0xbfc5335b4d2be40c	-0.16562978046548016
13	0xbfa31e48759f4f89	-0.03734041629618818
14	0x3fd076cca8c8a269	0.257250943019733
15	0xbfb2fd6183a3a15a	-0.0741787859329909
16	0x3fd07cb60442449f	0.25761175552276855
17	0xbfa4595f87003eb8	-0.03974436305008794
18	0x3fb0e15f9e2adafa	0.0659389268065346
19	0x3f6e7a91ea86005a	0.0037205552982300496
20	0x3fbb6cefcb9f9619	0.10713099213861489
21	0xbfaa8f49d242fa94	-0.05187445346517908
22	0xbfbc04eb4070c54e	-0.10945005725149778
23	0x3fd40569fe8e09e6	0.3128304468047233
24	0x3fce5d46371dd276	0.23722150508151046
25	0xbfb98e937e15ce51	-0.09983178928615045
26	0x3fc501de1b594c89	0.1641194947756939
27	0xbf9708e17552e820	-0.022494814668540752
28	0x3fc35974f4f670c5	0.15116750680033966
29	0xbfb3310097f4b25a	-0.07496646604404003
30	0xbf70c0be74e348d9	-0.004090064974848506
31	0x3fb1ad8348288277	0.06905384551692771
32	0x3fa9353fe742e288	0.04923438737882174
33	0x3fa0dfc59e8dc39b	0.032957244496066816
34	0x3fccfa0e873742d7	0.22638112642609684
35	0xbfa01f457bd9db29	-0.03148858200886757
36	0x3fc67c3b035825f8	0.1756662145929082
37	0xbf9ae0ca12edbd9d	-0.026248128323855025
38	0x3fa0ccfb097001f1	0.03281387796596736
39	0x3fb1c7382c06cfde	0.0694460971342887
40	0xbfc9732241d0c349	-0.19882610524794078
41	0xbfa4f4eba4eddd59	-0.0409310950116672
42	0xbfc12038bbb13c5d	-0.1337958256212656
43	0x3f626939a6ba838c	0.002247440910494841
44	0xbfb37f4bac181474	-0.0761611266280669
45	0x3f62459aeca891d6	0.0022304559581860324
46	0xbfb439c662f8703b	-0.07900657573958451
47	0x3faa100e5f5452a5	0.050903748642814585
48	0x3fb300adbe8a387b	0.07422910596707936
49	0x3fb4e6ded9d69719	0.08164780443493348
50	0x3fc60db5e2e0ed72	0.1722934110456254
51	0x3f60160fee4532f1	0.001963645090802373
52	0x3f8016bc0f5130a4	0.007855862824861788
53	0xbfa72ece54ce184d	-0.04527897629945752
54	0x3fbdaf39ddcdd8ab	0.11595498719347812
55	0x3fb2bd7accee531d	0.07320373061368142
56	0x3f94d6b26239010a	0.020350253338848247
57	0x3fca5cab21e5e793	0.20595301776102967
58	0x3fcefd604b5bc20f	0.24210742644892533
59	0x3fc3238102144be7	0.14952099420096873
60	0x3fcdccf0a6a8c7d0	0.23281677377377585
61	0xbfb13182b32083ad	-0.06716172097414015
62	0xbfb40d3eb22cccc0	-0.07832710123038833
63	0x3fae21071be75273	0.05884573188419475
64	0x3fbdc6ea762f3f6c	0.11631646523823996
65	0xbfb052209d338b94	-0.06375316465304898
66	0x3fc384d58ecd4b60	0.1524912783885055
67	0x3fa3c0e339e5884e	0.03858099061723462
68	0x3fbfa251f3b2b969	0.12357055854474698
69	0x3fa2f987d7b62b00	0.03706001766393818
70	0x3fadab1d6732d26d	0.0579461277460823
71	0x3fa9f1aa21607bbc	0.05067187936241832
72	0xbfcd5b5302f1d0fc	-0.22934949535159166
73	0xbf837e1b91ae4bd2	-0.009517875083281089
74	0xbfbf91a1e166e9e0	-0.12331592324236551
75	0x3fb864f91613ad53	0.0952907256029694
76	0x3fc1bbf472a2691e	0.13854842755683533
77	0x3fa5e3529164d49c	0.04274995827510361
78	0x3fb4e1109ba0a52e	0.08155921744823466
79	0x3fada2821a3e862e	0.057880464271203955
80	0x3fd29e1a1f3e9581	0.2908997826692357
81	0xbfb4ff693e087acb	-0.08202226414185103
82	0x3fc16d3fe680286c	0.13614653353608064
83	0x3fb0de1e16eb0e36	0.06588924464727416
84	0xbfc811534aa5b5a1	-0.18802872795951678
85	0xbfabaa685329b508	-0.05403448119327875
86	0xbfc060656febece4	-0.12794177975579324
87	0x3faedc9697cdbc50	0.06027670481750447
88	0x3fbd57900d61a159	0.11461735083287773
89	0x3f88a1641f06799c	0.012026579090897375
90	0x3fc4e24de6ce02dc	0.16315625924837363
91	0xbf9ce75c8fa9bca6	-0.028226324337478424
92	0xbfbbaa1738a6cdb1	-0.10806412823767776
93	0xbfb29f218f680a19	-0.07274064780362045
94	0x3fa79e261167856c	0.046128453850324685
95	0x3fc40ba8f6814519	0.1566058353078368
96	0x3fbd83cff81fd19d	0.11529254729959466
97	0xbfb63950d2db19e3	-0.086812068441851
98	0xbfc7c3145a683b78	-0.18564085401927932
99	0x3fa5da50afc65c26	0.0426812376564885
100	0x3fcf6defac7040a2	0.2455424873337551
101	0xbfaf7dcc548bf18b	-0.06150663883269932
102	0x3fa59be726fdcf6e	0.042205070028017086
103	0xbf51b4ce7d7cc9bc	-0.0010807053094593474
104	0x3fc7524aa11c1339	0.1821988379162123
105	0xbf81a47b37d23c56	-0.008614504471806377
106	0xbfaa1d1cec4c8a78	-0.051003364415255825
107	0x3f9fba98858d9b8f	0.03098524394172447
108	0xbfc1f8d6989aba4c	-0.14040644122492763
109	0xbfa9d89a4cd5bab5	-0.05048067272115501
110	0x3fa41bb6659b6958	0.03927392950363878
111	0x3fc3e3fb17da4e05	0.1553949228733559
112	0xbfc0da83225af8c1	-0.13166846444614147
113	0xbfb642eecc821f5f	-0.08695881359937861
114	0x3f86c39c6eda76f8	0.011115286000229471
115	0xbfb3e343233ab0d8	-0.07768649683083895
116	0x3fd68785b25099f0	0.3520216218334147
117	0xbfab0731bbf3bc73	-0.05278926295601929
118	0xbfd0cb284b3195c9	-0.2623997434914967
119	0xbfa3a52650557893	-0.038369366938000436
120	0xbfc8016e6a93e4ae	-0.18754368022908835
121	0xbfb0bc2061b148e5	-0.06537058243819478
122	0x3fb4131446b1f845	0.07841612554509066
123	0x3fb137b89867c23f	0.06725648613770206
124	0xbfd0d2923d059675	-0.2628522487560539
125	0xbfa7eb9ddfbf8f4b	-0.04671948772718667
126	0xbfc330a91f650614	-0.1499225047391951
127	0xbf5a0c12abb3bfe6	-0.0015897924739043333

7.bias f8 [1]
0	0x3fa67860d93275ce	0.043887163651770686
