models/run1/run1_36.pt (torch, 153992 bytes, 6 tensors)

0.weight f8 [32, 1, 9]
0.068822552698109 0.17088723403027115 -0.4552816909855856 -1.525594200416395 0.10283299502120832 -0.3751685574152128 0.014633185881945367 -1.097907895386288
-0.8280504070938257 -0.11685343679484418 -0.2290631716143143 -0.0482637750551754 -0.03713010437453414 -0.48448071509472224 -0.44040334363650874 -0.0066494080811521465
-0.19963141497109688 -0.11942409337797762 -0.0021280291040945503 -0.004726471093082165 -0.7281011230471819 -0.061451234711761706 -0.001903425914686725 -0.24898517841001275
-0.45968595599658574 -0.87596051833245 -0.040517671088139154 -1.2269545711395995 -0.9067887601341029 -1.2353111096371754 -0.008716125425371282 -0.004974984408931184
-0.002158594981783308 -0.7013096390823762 -0.31155578173532916 -0.003741378869912063 0.14493963988008254 -2.1037477886135134 -0.8004502986259112 0.1385955574604286
-0.3838824675724537 0.08475222214065316 -0.16182637699466673 0.14833852298779257 -0.8011780012007844 -0.009417563989904636 -0.4797318563137908 -0.9338663709952916
-2.0859368267536307 -0.07264001861528979 -1.4562122866295095 -0.30171268789975847 0.028006051747776112 -0.02030114056744564 -0.7495325666378017 -0.8278421622388232
0.012405469821553052 -0.6312144102603416 -1.5249439449103563 -0.3522494912698874 -1.565232295625032 -1.0850661385756217 0.012530730353906172 0.05651405689170877
-0.1061265582377226 -0.3655536866839624 0.021521999778840475 -2.1598243761188467 -0.0006042663023317771 -0.23657851470379476 0.03678281435912196 -1.1940407827836108
0.12248361927343351 0.14683861771425935 -2.1150664617159345 -1.2606789846563908 0.01653215285479772 -0.24247509739402823 -0.1699387555372108 -0.7776866567331756
-0.10257851666906857 -1.2546669880791927 -0.7751170532928885 -0.005403751518285304 -0.4844068292839798 -0.5318175815653681 -0.37944150108127617 -0.5305612041331775
-0.37750214004583826 -1.596180633960787 -0.551053520441725 -0.15703476232224692 -0.2765104743509551 -2.3858732975216386 -0.11247197921895888 -1.343921773988416
0.0359839287818979 -0.7071533676489941 -0.18786293516365257 0.015382436562339548 0.021149768013323276 -0.7406848334804422 -0.9028002027281986 -1.1030645179110996
-0.38046631925563007 0.009785651812827964 -0.7409899993128294 -0.44067501463959535 -0.011720754098176338 -0.9007541633646432 -0.008526776122555087 -0.6710655355220602
-0.9067354297132575 -0.0005559224316693156 -0.45144160921231696 -0.2764456979666442 -1.0961424038907421 -0.006556079322886018 -0.3522056870879794 -0.15241559199968027
-0.8362071689859678 -0.5360580762495069 -0.17922104479536385 -0.572678793957901 -0.0056293875351809625 -0.09272678167740507 -0.29341567893329523 -0.5610346059640037
-0.32392156464229543 -1.0563332571536261 -0.3865665698461345 -0.5235875750367311 -0.5136183606436239 -0.013103344200670317 -0.16358639818363824 -0.014905851809107832
-0.20874662011022044 -1.6262259455347636 -0.6945455354637569 -0.39099847911042007 -0.013255844063955104 -0.5220599203831533 -0.5623235034306404 -0.0011448083853772034
0.058455545895232004 -0.011170426653866403 -0.02226938390665058 -0.4197755496419874 -2.719069487920523 -0.3072549033642162 -0.4823139457701634 -0.8852533273099678
-0.0014307933277826906 -0.0013540242817531034 0.077276771244705 -1.372263502916966 -0.6678590905259496 -0.5986253398009328 0.07847624542242955 -2.066665660440936
-0.8325670573544773 0.08676293922625722 0.03947833375183196 0.031309671489592864 0.03328397384406696 -0.02171413764105746 -1.6465591745525692 0.033342873142211446
-0.03528123962917211 0.03782415128191367 -1.0767078981914537 -7.266602907095021e-05 -0.0004030119745232139 -0.6137508706856675 -0.2567060836422406 -1.8246168513123098
-0.9043140802686682 -1.2746448142141793 -0.5319695908481928 -0.0009124217778329919 -0.06782075247944569 -4.031791650342256 -0.585825141354589 -2.3901533860137807
0.1989569706371086 0.2615353080120668 0.05372634092820524 0.07974089841579021 -0.12481888854041938 0.014229322625704352 -0.31255356487819236 0.17867385991390644
-1.8397390469801476 0.16209660532640183 -0.11790203866165315 0.03624542804591006 -1.0327316719133186 -1.094710597479221 0.19453236752069603 0.11758038609505178
-0.029060134546695218 -0.8582157336102075 -0.25585063197688174 0.1259433522776946 -0.01759383646540606 -0.002879752461681775 -0.006958229039306137 0.022333370380697302
-2.642841119171382 -0.9345806203075746 0.10040597999701661 -0.03820757871067824 0.03648735504892136 -0.25065940419341703 -0.22921786476426748 0.04669964395511053
-0.7644496540827814 -0.757058928634224 -0.0032031361272210172 -0.7709687151061396 -0.981703983008508 -0.2787120588239996 -0.36590205535944575 -0.27428524349890265
-0.9036988280191794 0.25092883614525385 0.05343078427689978 -0.009183070338061141 -0.12449424563286203 -2.0814417257776276 -0.06947801422396657 -0.41831129397155187
0.06445770281815856 -0.30617545227284226 0.019365193473434055 -0.28897640523760776 -0.20715594623169287 -0.22963387543875424 -3.323518689533537 -0.135484373148402
-2.0603049386137897 -0.2943969978163191 0.08801253591744912 0.10757666261636084 0.3991453396796506 0.034720518476187553 -1.0200440354059406 0.3523983163432922
0.11369841508640394 0.03144545031908144 -1.19659148660473 -1.0081361578258683 -0.007461019972899487 -0.005093130177490936 -0.3539822743972054 -0.16014747822305614
00000000: 20cc 10d5 5a9e b13f 7f61 bb04 a2df c53f
00000010: f20a 50d1 5523 ddbf 4a17 dc76 d568 f8bf
00000020: 9ed9 905e 4353 ba3f 5c7e 25fb c202 d8bf
00000030: 2eda 64f6 00f8 8d3f cc44 8bde 0791 f1bf
00000040: fa09 3d91 637f eabf e184 7559 1bea bdbf
00000050: 0f98 6627 f151 cdbf ac0f e38e 07b6 a8bf
00000060: 72ac f88f b702 a3bf 3af8 b766 bb01 dfbf
00000070: 55f1 7d81 912f dcbf 2cdf f0e3 683c 7bbf
00000080: 660c 47af 858d c9bf 75b1 69cf 9392 bebf
00000090: 9353 06ed cc6e 61bf 420e 536c 105c 73bf
000000a0: 8064 f5b9 9a4c e7bf 5d8c c546 8976 afbf
000000b0: ecb9 7303 8c2f 5fbf 6fd8 3a0f bfde cfbf
000000c0: a7e4 dba4 7e6b ddbf 1167 5a5a de07 ecbf
000000d0: fa9f 7770 bbbe a4bf 7b8e cb1d 9ba1 f3bf
000000e0: e800 a5dc 6904 edbf 296f 0495 d5c3 f3bf
000000f0: 4ecc 328d c2d9 81bf 82fc 5935 a660 74bf
00000100: 4226 44db e6ae 61bf cd4e 87e9 2071 e6bf
00000110: 80b5 5ba9 87f0 d3bf a147 6c7c 3da6 6ebf
00000120: 8de8 96d2 618d c23f d604 79b8 79d4 00c0
00000130: c07e d5f1 499d e9bf 43eb 54cd 7fbd c13f
00000140: 64d0 eec4 8791 d8bf b180 5b56 52b2 b53f
00000150: d43f 690a bab6 c4bf 0319 7cb8 c1fc c23f
00000160: 17d3 2d0c 40a3 e9bf 29cc c10a 8449 83bf
00000170: 02e5 6d3e edb3 debf 9149 48ba 3be2 edbf
00000180: 4f6e a3a5 ffaf 00c0 5060 5548 8998 b2bf
00000190: c5b6 3141 a54c f7bf 7c55 d4bb 424f d3bf
000001a0: d51a 6351 9ead 9c3f 1016 3c7b d2c9 94bf
000001b0: aee1 9fb8 2bfc e7bf fc19 a2d8 ae7d eabf
000001c0: 2193 66f9 0968 893f 84a0 1a90 e832 e4bf
000001d0: a7f8 399f 2b66 f8bf ff5a 4273 418b d6bf
000001e0: e8a3 0505 310b f9bf 69de b24f 6e5c f1bf
000001f0: 002a 8528 b6a9 893f d474 3a14 69ef ac3f
00000200: 0c39 de30 1c2b bbbf b059 4f4a 3b65 d7bf
00000210: 774f c7f4 dc09 963f bc45 a400 5247 01c0
00000220: 83ef d700 f4cc 43bf 1c66 cb6b 3448 cebf
00000230: 795c 7471 32d5 a23f 6555 0282 ca1a f3bf
00000240: 8e3a 1323 165b bf3f 09b1 6f9a 9bcb c23f
00000250: b27d 0ff7 a7eb 00c0 b1a8 1dba bd2b f4bf
00000260: c614 60ff cded 903f 126d b38a 6c09 cfbf
00000270: 2379 ad9a 8dc0 c5bf d18b a620 cfe2 e8bf
00000280: b7a7 5dee 9542 babf 3bbc 12b1 1d13 f4bf
00000290: 03e0 4e47 c2cd e8bf 7278 bf80 3e22 76bf
000002a0: bcf5 6e80 8500 dfbf ac5a 084e a604 e1bf
000002b0: 24e9 7801 c548 d8bf 78e8 887d 5bfa e0bf
000002c0: 48ae 6abc fe28 d8bf 0aec 55b4 f489 f9bf
000002d0: 7192 14fe 3aa2 e1bf ed2c 4110 b719 c4bf
000002e0: e2ae 15fd 58b2 d1bf 7a0a 4abd 4416 03c0
000002f0: d639 76b0 f6ca bcbf ce99 3a1e b480 f5bf
00000300: 3b85 994a 7c6c a23f d2e0 6919 00a1 e6bf
00000310: 4b48 5485 e40b c8bf 578d beaf d380 8f3f
00000320: c9a7 bde7 48a8 953f 7322 0eae b0b3 e7bf
00000330: e745 3140 bde3 ecbf 1ce6 dcfa 26a6 f1bf
00000340: dfac 9b67 8f59 d8bf b892 0cf4 7f0a 843f
00000350: f5c5 b6a8 30b6 e7bf 06a6 02fa 0434 dcbf
00000360: 16fc 49fc 0c01 88bf 2c62 2c65 fad2 ecbf
00000370: 5e89 b184 7c76 81bf 7947 116e 5e79 e5bf
00000380: 3ac6 1705 fa03 edbf a386 e154 6a37 42bf
00000390: 7fb6 e758 6be4 dcbf 8ebe f84b 49b1 d1bf
000003a0: 5283 079e cc89 f1bf e228 8224 8cda 7abf
000003b0: 6684 e0b8 898a d6bf 6d01 85a7 5a82 c3bf
000003c0: 1c37 6f89 35c2 eabf 20f2 4744 6327 e1bf
000003d0: 3d55 1317 b7f0 c6bf 582e 657a 6253 e2bf
000003e0: 1905 c335 d70e 77bf ad8d c43e f1bc b7bf
000003f0: a6bc 498e 52c7 d2bf c044 91d8 fef3 e1bf
00000400: 57e6 a683 21bb d4bf 856e 92b3 bde6 f0bf
00000410: b9d3 cdb5 81bd d8bf 98fd ebba 3ac1 e0bf
00000420: 2bdd b2c5 8f6f e0bf 181b 7b16 edd5 8abf
00000430: d673 222b 66f0 c4bf ef28 5090 f586 8ebf
00000440: 3a10 4391 35b8 cabf e2a7 3f7f 0505 fabf
00000450: e2c9 0c8f b739 e6bf da28 247c 1e06 d9bf
00000460: ce6e e245 e125 8bbf e022 9301 b7b4 e0bf
00000470: 4037 20dc 8dfe e1bf 920d d3a4 acc1 52bf
00000480: 399a c7a3 e2ed ad3f 1829 4949 85e0 86bf
00000490: 8514 530e c9cd 96bf 4edb 5744 9add dabf
000004a0: 645c f180 a7c0 05c0 6709 5f78 10aa d3bf
000004b0: 5634 df4f 3bde debf 7d16 2fc9 fe53 ecbf
000004c0: 45d9 35a3 2e71 57bf 8507 8580 302f 56bf
000004d0: 088a 3c15 69c8 b33f 445d 2893 caf4 f5bf
000004e0: f2a5 0407 1a5f e5bf 830f 2054 f027 e3bf
000004f0: 152a 9aeb 0417 b43f 68e1 7a01 8888 00c0
00000500: dd0f 62ab 63a4 eabf d04a 7b92 1836 b63f
00000510: d0b8 ba10 8136 a43f e24e 313e d207 a03f
00000520: a949 48d6 980a a13f 82e2 1d1c 3b3c 96bf
00000530: d61c da6e 4e58 fabf a6a4 662b 5112 a13f
00000540: 9640 bdf4 6110 a2bf f671 82e9 af5d a33f
00000550: 2d3c a10f 323a f1bf 339b a1df 880c 13bf
00000560: 8109 1f40 6b69 3abf 2391 afdd d8a3 e3bf
00000570: d95e 7b5a df6d d0bf aede 8170 a131 fdbf
00000580: b61e 0215 24f0 ecbf e90d f1f5 f164 f4bf
00000590: 891a 6517 e505 e1bf 1aeb 14d9 f2e5 4dbf
000005a0: 24ab e369 b35c b1bf ff05 8afd 8d20 10c0
000005b0: 765c e95d 14bf e2bf a4d2 0abd 081f 03c0
000005c0: 684b 1909 6c77 c93f b04f aa96 febc d03f
000005d0: abd6 70da 0482 ab3f 5677 d946 e669 b43f
000005e0: 8344 3474 21f4 bfbf 58b4 925a 4324 8d3f
000005f0: 6d9a d9aa e000 d4bf ea7a 7df8 c8de c63f
00000600: 5843 ff35 926f fdbf adb2 55e1 94bf c43f
00000610: affb 2ef8 d32e bebf 9564 2cc0 c28e a23f
00000620: e393 46a5 1186 f0bf 4120 6c42 ef83 f1bf
00000630: 58e6 41c6 6fe6 c83f a4e6 ed88 bf19 be3f
00000640: 444e fb9d f0c1 9dbf 7797 98d7 8076 ebbf
00000650: da1a 4054 db5f d0bf 0435 9769 e91e c03f
00000660: 0b9d eb60 1e04 92bf 9f8a 9754 4797 67bf
00000670: af21 9762 3b80 7cbf e904 941d 8fde 963f
00000680: c6eb 7ae2 8924 05c0 2049 f69d 15e8 edbf
00000690: d8f6 68d0 34b4 b93f 6d1d 0b9a f18f a3bf
000006a0: 2729 4e79 78ae a23f 3e84 dcbd cd0a d0bf
000006b0: 3e26 69d0 0257 cdbf 5449 0b07 04e9 a73f
000006c0: 7e2b f71e 5f76 e8bf 0c1f 74a5 d339 e8bf
000006d0: 1853 279d 763d 6abf 21d7 3395 c6ab e8bf
000006e0: c1fb ab78 1e6a efbf 1198 691a 6bd6 d1bf
000006f0: 4ab6 5374 f06a d7bf 8f9a a6b1 e38d d1bf
00000700: 35d4 f8cd 19eb ecbf 5680 37d2 370f d03f
00000710: e748 239e 475b ab3f 9b10 3bd6 92ce 82bf
00000720: 8788 88d9 dade bfbf 2bf5 65eb caa6 00c0
00000730: 9e09 e2a6 4fc9 b1bf bcef c9bb 9cc5 dabf
00000740: 914b 94cd 4c80 b03f 3664 96ec 6098 d3bf
00000750: cbb0 9822 78d4 933f 2fea 73e4 967e d2bf
00000760: d457 1e07 1684 cabf 8416 8890 a464 cdbf
00000770: d287 79f7 9096 0ac0 244e e54b 8d57 c1bf
00000780: 7011 d927 817b 00c0 de58 6a81 66d7 d2bf
00000790: c449 6753 fd87 b63f 4406 c0e7 248a bb3f
000007a0: 2298 11e5 988b d93f 96f5 b546 e3c6 a13f
000007b0: 2bc6 c8b1 1952 f0bf a408 f7aa b18d d63f
000007c0: 0c34 67de 561b bd3f 14f7 7439 9e19 a03f
000007d0: ba3a 5a1d 3d25 f3bf 686f 3c61 5321 f0bf
000007e0: f559 744c 728f 7ebf 9cd9 beb8 88dc 74bf
000007f0: 9c94 f944 a5a7 d6bf 82a0 c06a b67f c4bf

0.bias f8 [32]
0.00351888743245287 -0.001505725478713315 -0.047818561689853704 -0.07323517308060296 0.006023378561098018 0.052192093024496594 0.348678915196449 -0.005734488795199321
-0.05951378697791322 0.581750614110578 0.05290012208834422 0.00487049381768253 -0.0019253290371359574 -0.03953752440946021 0.42298718079454733 -0.3540260449318659
0.21045783714516533 -0.10200650007795573 -0.011067240793382846 -0.0007709176944128201 0.16259156784271367 -0.012350307304224435 0.006524758320199592 0.11129580235207097
0.35812481824737014 0.008516476759407286 0.08313261084700885 -0.015095194637765002 -0.02503409166392996 -0.21268938986366354 -0.027498402773254767 0.10038265156733815
00000000: ef22 1a4e a4d3 6c3f 305e 056c 78ab 58bf
00000010: 4709 33ad ac7b a8bf 944f 4c51 8abf b2bf
00000020: 78c8 e65e f8ab 783f 24cd 4c09 ecb8 aa3f
00000030: 52b4 645e c150 d63f f2c3 5a1d 0c7d 77bf
00000040: 2266 7651 9778 aebf 190d c176 b39d e23f
00000050: 19cf a58c b915 ab3f 59d9 983a 15f3 733f
00000060: 600c e84f 6a8b 5fbf 9d5b 9b2c 433e a4bf
00000070: d0f2 08d3 3812 db3f a788 3adb 5ca8 d6bf
00000080: 39d9 dc4b 48f0 ca3f 1e72 d015 191d babf
00000090: 45c5 1dea 6baa 86bf 3057 8824 ed42 49bf
000000a0: 70b2 3eed cccf c43f 24d0 bc2f 1e4b 89bf
000000b0: 6dcd 9779 b4b9 7a3f f3c2 48b7 e17d bc3f
000000c0: 9b89 905b 84eb d63f 1238 4529 1671 813f
000000d0: d8a9 d1c4 2d48 b53f c91d 5eba 3aea 8ebf
000000e0: 7434 ed73 89a2 99bf 2ad7 d5ea 6739 cbbf
000000f0: 7fd8 6992 8a28 9cbf 6746 916d adb2 b93f

3.weight f8 [64, 32, 9]
-0.24475851111592903 -0.09747759020715856 -0.06869674299106045 -0.13306076419429297 0.005500411152162351 -0.1942689313708217 0.03114060646161374 0.056921296637156886
-0.0641955262699736 -0.162834478328716 -0.1666304012242237 -0.3167133675475266 -0.19055954667681177 -0.19483269253011895 -0.3732650120623886 0.010941661021109066
0.06852698295578578 -0.4047794780076785 -0.34601549089877587 -0.09634958345505198 -0.19540894802528316 -0.25764460619427026 -0.1468012170147363 -0.6294510977430032
0.005000299597286375 0.05960605912891483 -0.1824245439916677 -0.0763919293801583 -0.010462681495762858 0.003570157370447564 -0.023336721759492234 0.17324685481864613
0.09602425453964825 0.1638399148422363 0.11398167781626425 0.026874947311426034 -0.21784862170176927 -0.18117530155989978 -0.22327450485406936 -0.1541830673657779
-0.06726136415864033 -0.34730768351242536 -0.06751130281253374 0.031648053576415376 -0.0973690877704163 -0.08132964203231455 -0.046346599872945385 -0.18228600319777247
-0.1112404540289068 -0.09721672566615697 -0.47364150841644614 -0.10391423144430677 0.008243576040625644 -0.1414492129892336 -0.7033985858284563 -0.6014284285413457
-0.5469058179858616 -0.521982697969195 -0.4905368635032199 -0.5633865997161039 -0.03921406885798594 -0.006806320333993946 -0.44945152705113095 -0.25950227101775325
-0.2030821169843928 -0.07430957084247716 -0.2490950800901918 -0.10260032202824526 -0.7644724221720554 0.03380498248838844 0.1282556268238609 -0.09198016033783044
-0.1864181335316566 -0.12524997091724407 -0.18080662103839248 -0.1846835089007193 -0.07932153318424034 -0.4130032918514052 -0.08407048943288736 0.002958111846666763
-0.12687732519481754 -0.7844965465574542 -0.48975179020644904 -0.6093364607523069 -0.6361687683656853 -0.6407642757117938 -0.5601238558567551 -0.6793625513988288
-0.10572883471763304 -0.29934440921561345 -0.34687384573270824 -0.16110331809652453 -0.23712687351414205 -0.22751236272409459 -0.09228610632299375 -0.5274157219406566
-0.03494261297953019 0.04345858535440734 -0.027214698858899343 -0.044738592481972254 -0.0677502600485306 -0.22149667256036615 -0.033276072929833055 -0.09689341208477634
-0.15667073910050824 0.006381205713790845 0.11268320984638742 -0.04362722692333759 -0.1807050478551938 -0.2111998404866582 -0.3480548800777467 -0.36224802310057025
-0.4306215489926885 -0.3431529857705736 -0.026653552923035034 -0.003016565897421211 -0.31593772371476 -0.3449093631859159 -0.16487020301193492 -0.22266695164653513
-0.34270801038605503 -0.10818958836721125 -0.9233522321781144 0.1182295314639881 0.10400173570751618 -0.14078798655286004 -0.6938859269323572 -0.7582108559455063
-0.7014520092432985 -0.6659782206013781 -0.7727455382885811 -0.6990453344604232 -0.2868602106431917 0.15821870196870771 -0.6226787239919005 0.028747965724504134
-0.029174450246965564 -0.007837619618047027 0.13772135428254248 -0.054491608245571845 0.0027113673198592603 0.05334410842529773 0.09299759770296863 -0.11552190061146833
-0.28485176298904086 -0.2481516106501271 -0.2958483226968628 0.073126384933508 -0.1488574193581396 -0.5443024307282065 -0.053541154890197895 -0.06496534853752
-0.09939744469173292 -0.2912113483009199 -0.38004008584993526 -0.2596475051806499 0.13583804417475745 -0.24145703696265197 -0.6589295786512092 -0.0651138299300375
0.019640110141545812 0.0966264968149891 -0.1482927844444684 -0.08574001160296758 -0.23838962416298462 -0.2423330430995021 -0.16018163038204 -0.74278496472876
0.0011683456387411272 -0.09573520431705074 0.12121658715635614 -0.585930782332682 -0.29687250241634056 -0.4336353902226278 -0.2874159998589896 -0.27262258668967077
-0.5630736693170144 0.020619418350788093 0.06439562159427148 -0.11127997413649253 -0.13818308732949508 -0.1212278819429816 -0.20713123769669578 -0.013366905654239812
-0.28311578410218213 -0.3001673083606848 -0.05750957881726108 -0.043859803702155406 -0.08844108520271102 -0.3670217875208687 -0.1370908861778032 -0.07572520391755037
-0.16490768869999933 -0.013780807602663385 -0.25647665675539716 -0.03485688256441716 -0.07847960829290812 -0.00843738058430318 -0.14638670471216292 -0.11852414987292029
-0.11767816666793432 0.052189423754171446 0.014325952617754373 -0.31027177514124543 0.053787140367353846 -0.03744085113281111 -0.11704915927127334 -0.17166795920539926
-0.3866005318006628 -0.41666488745256236 -0.34391166401383494 -0.009745093493329797 -0.2633518316690889 0.10901136101195459 -0.13727582779590972 -0.20269954360384285
-0.7324013361582793 -0.4760329470941484 -0.5706704194432627 -0.6129785736605584 -0.6246498991515834 -0.603001987632659 -0.5549048663667043 -0.05402822659532485
-0.4323011752299599 -0.28262698582458423 -0.05666187776333082 -0.13119253952390753 -0.15614734616990045 -0.03714366450195822 -0.4019571403767121 -0.03066999020742423
-0.004775200154189004 -0.15711270936791416 -0.1606287938688059 -0.27508140891755545 -0.3413317718150417 -0.1902256338801973 -0.15192924820544118 -0.4935971118916675
-0.004041017009324588 -0.003666088379090608 -0.10928677321188665 -0.38741302556621704 -0.0662011915299065 -0.01885604017302787 -0.092268270684267 -0.08281036999425094
-0.1783691977684399 0.018608953123221167 0.005000465696180608 -0.09741657793590644 -0.34341228470810903 0.08847855819650596 -0.21736957640384813 -0.18800046548322874
00000000: 7b8d 5434 3f54 cfbf d35a 0896 4af4 b8bf
00000010: a902 7d18 1c96 b1bf 5a31 4c97 2208 c1bf
00000020: e29e 3560 9987 763f 09eb 6ee9 cddd c8bf
00000030: ba29 52b9 52e3 9f3f 2748 01c7 c924 ad3f
00000040: 2009 e135 1e6f b0bf 94a1 8a9b c2d7 c4bf
00000050: d181 e31d 2554 c5bf 5fa6 f424 0845 d4bf
00000060: 6170 7556 4164 c8bf d1e2 4d15 47f0 c8bf
00000070: e422 e3ee 92e3 d7bf 8924 ffe1 9468 863f
00000080: 534b b0fe fb8a b13f b3a2 082f e8e7 d9bf
00000090: c974 5428 1e25 d6bf 2a34 ecc5 5daa b8bf
000000a0: 2fa3 8e10 2903 c9bf 9717 66cd 3f7d d0bf
000000b0: 6eaf 0bdd 61ca c2bf 9699 e7a0 7624 e4bf
000000c0: c247 d9b3 317b 743f 934a 3475 af84 ae3f
000000d0: 5a49 37fd af59 c7bf 23ba 5de6 6b8e b3bf
000000e0: e576 d256 756d 85bf 5c83 b9a4 293f 6d3f
000000f0: 8bf0 02e3 94e5 97bf 695c caf3 f32c c63f
00000100: 98dd dea8 0b95 b83f 2a6f 03d2 b4f8 c43f
00000110: 7a66 903a e72d bd3f 001f 232f 1b85 9b3f
00000120: 0209 d8b0 76e2 cbbf 6f77 8595 c030 c7bf
00000130: 367d 304c 4294 ccbf eb6b f74f 45bc c3bf
00000140: 3d80 586f 0a38 b1bf f476 9501 4a3a d6bf
00000150: fbaf b0b5 6b48 b1bf 397e 2f76 2c34 a03f
00000160: bf83 9d37 2eed b8bf ba63 b9f8 04d2 b4bf
00000170: ca5e 78d5 bdba a7bf c961 20d3 2555 c7bf
00000180: 57dd 0b20 417a bcbf c43f 5c01 32e3 b8bf
00000190: ca4f 2b79 2450 debf f76b a481 1f9a babf
000001a0: 00fd f80b 02e2 803f 93b6 eaff 011b c2bf
000001b0: a3f2 45c0 3d82 e6bf 3708 efd4 e63e e3bf
000001c0: 95b9 47a1 4080 e1bf 9260 1b0f 15b4 e0bf
000001d0: c4a3 8eba f464 dfbf 4121 9955 4307 e2bf
000001e0: 4e87 93ce dd13 a4bf 5d83 d9b3 f1e0 7bbf
000001f0: 7799 7456 d0c3 dcbf 1c93 d069 af9b d0bf
00000200: 57da 6c45 98fe c9bf 1a59 8cb8 f305 b3bf
00000210: dd7a 4afb 58e2 cfbf 249e abc3 0344 babf
00000220: 4288 7dde 8e76 e8bf 8a7e 75fc e24e a13f
00000230: 6b44 5e2d ae6a c03f 3a25 8804 038c b7bf
00000240: 802d 73a5 8cdc c7bf cf0e 75e8 3008 c0bf
00000250: f74c 21de ab24 c7bf 1968 6b8f b5a3 c7bf
00000260: 9417 e57e 6a4e b4bf a318 e95b a56e dabf
00000270: 6c47 acc2 a485 b5bf 5e81 7534 9c3b 683f
00000280: cc68 2825 843d c0bf 2f41 6980 981a e9bf
00000290: 9506 86e4 1758 dfbf 2421 662d af7f e3bf
000002a0: 3fc0 db9a 7e5b e4bf b112 1415 2481 e4bf
000002b0: 5fa7 53dd 88ec e1bf a652 8c88 56bd e5bf
000002c0: 8f3e 5b7f 0b11 bbbf 7893 f473 7528 d3bf
000002d0: 6f9f d05b 2e33 d6bf 5336 4095 089f c4bf
000002e0: e77b 5f63 2c5a cebf 6cf7 aa06 201f cdbf
000002f0: ca4d 88f0 0fa0 b7bf 0434 a4ef 96e0 e0bf
00000300: 74bd f787 ffe3 a1bf b9bb a725 3440 a63f
00000310: d620 4786 2bde 9bbf 5785 280f fae7 a6bf
00000320: 0a35 34bf 1458 b1bf 6ee8 68c2 005a ccbf
00000330: b325 f2b9 8f09 a1bf 6a1a 1ab4 01ce b8bf
00000340: 69a2 566a c90d c4bf eeb2 98dd 2d23 7a3f
00000350: dd39 198d ced8 bc3f e8a9 b3d1 4e56 a6bf
00000360: 544d 61cf 5721 c7bf 31c2 e7ab 9808 cbbf
00000370: 7b6a c9f9 8746 d6bf 8c7c 1055 122f d7bf
00000380: e717 78af 4d8f dbbf 1233 daf0 37f6 d5bf
00000390: 18ae 81a8 114b 9bbf 6c59 057c 32b6 68bf
000003a0: 6f5d bbdb 5238 d4bf b8ee bdb8 fe12 d6bf
000003b0: c1b4 0281 771a c5bf 9f66 9cc5 5980 ccbf
000003c0: 86dc 2b94 edee d5bf 3f0c ce17 50b2 bbbf
000003d0: 5f98 fcfa 198c edbf d229 0f63 4a44 be3f
000003e0: eb4c 9795 db9f ba3f 3705 f53a 5705 c2bf
000003f0: 2688 6a42 5034 e6bf 7e42 b869 4343 e8bf
00000400: 0a3b ed7b 4b72 e6bf 2199 aa8e b14f e5bf
00000410: 368a e2d9 54ba e8bf 8bb9 3d52 945e e6bf
00000420: 911d cfed ea5b d2bf 1d1c 49ab 8240 c43f
00000430: 26ba 6eee fbec e3bf 27fe 7352 1b70 9d3f
00000440: 4c0b c236 e8df 9dbf 2406 817f 2b0d 80bf
00000450: 535b 4d74 daa0 c13f 0d71 a4f6 52e6 abbf
00000460: 696d eb3e 2636 663f c6ea 3d42 eb4f ab3f
00000470: 0da6 bdc8 b0ce b73f c417 19e1 d792 bdbf
00000480: 65bc 8fe3 023b d2bf 2794 1896 6ec3 cfbf
00000490: 86ce a3cd 2def d2bf a19d c327 69b8 b23f
000004a0: 5980 f489 c20d c3bf ec8c 63ee ec6a e1bf
000004b0: 28a8 7c0a bf69 abbf 1886 57af 91a1 b0bf
000004c0: 3ec8 4166 1c72 b9bf 0a4c 4bec 34a3 d2bf
000004d0: 8f3f f9a6 9352 d8bf d749 cf91 109e d0bf
000004e0: 753f a41a 2463 c13f 3c63 926e 10e8 cebf
000004f0: 6f91 d57b f315 e5bf ec1a 11ca 4cab b0bf
00000500: 4eb9 fd7a 891c 943f 5557 bf9b 83bc b83f
00000510: 89fc b509 42fb c2bf ad1c cbb1 0ef3 b5bf
00000520: 112d be1b 8d83 cebf 601f 6de7 c404 cfbf
00000530: cf95 f4e7 d480 c4bf a50e 6ff9 e4c4 e7bf
00000540: f0a9 c393 6524 533f c01b 9e33 1a82 b8bf
00000550: 8cbc 91dd 0c08 bf3f 84d5 7ae9 f1bf e2bf
00000560: 686e 3d86 f5ff d2bf 993d d9a6 aec0 dbbf
00000570: c074 ef13 0665 d2bf 78ea 7e01 a672 d1bf
00000580: c891 5e12 b304 e2bf 68ad eabd 411d 953f
00000590: c8c3 c040 3b7c b03f a3af 9d29 d87c bcbf
000005a0: 1662 78c0 fbaf c1bf e7f6 4e5c ca08 bfbf
000005b0: 6693 f1c1 4683 cabf 7fc5 11b5 1b60 8bbf
000005c0: 35d1 6caa 911e d2bf 0333 2ff1 f035 d3bf
000005d0: 6528 7440 e571 adbf 46fc 04cd ca74 a6bf
000005e0: 3a82 9130 13a4 b6bf f794 94f3 487d d7bf
000005f0: 2d4e 5bb4 318c c1bf 2b0e 4f1a ba62 b3bf
00000600: 36a8 e9f4 b11b c5bf a92d baaf 1c39 8cbf
00000610: 15eb 3c11 1d6a d0bf c832 4fe5 c2d8 a1bf
00000620: b85b 0557 3d17 b4bf 6e4d 630d 9e47 81bf
00000630: de6a a7ae ccbc c2bf 8a8a 7d43 9957 bebf
00000640: 82c1 4a05 2820 bebf ee47 7178 92b8 aa3f
00000650: fd82 d1cf ec56 8d3f fd9f c625 7edb d3bf
00000660: 6b73 a5f1 fc89 ab3f 4ab6 4c7e 722b a3bf
00000670: 872b 1807 eff6 bdbf cd74 4737 37f9 c5bf
00000680: b2cd 2c28 10be d8bf 8604 4034 a3aa dabf
00000690: 49c0 6911 a602 d6bf 5c71 cd4e 3cf5 83bf
000006a0: 5911 17a4 c1da d0bf d554 7026 2be8 bb3f
000006b0: db16 751b 4192 c1bf 22a8 5803 0ff2 c9bf
000006c0: a016 4bed d46f e7bf 979f e5e4 5277 debf
000006d0: 95b5 899c ee42 e2bf 9aaa e03d 859d e3bf
000006e0: b2c8 09c9 21fd e3bf bfc4 09d3 ca4b e3bf
000006f0: b9f5 add9 c7c1 e1bf 375a 9374 96a9 abbf
00000700: 8ca4 688c d2aa dbbf 705a 457f 8f16 d2bf
00000710: 29cf d81f c902 adbf d8ff 5dc9 eaca c0bf
00000720: bc15 94e0 a2fc c3bf 383a 9490 7e04 a3bf
00000730: 3bf2 1371 aab9 d9bf 225b a333 f467 9fbf
00000740: 22d1 e707 298f 73bf dab4 42ee 441c c4bf
00000750: 7431 3bfc 7b8f c4bf d776 c20d ef9a d1bf
00000760: 7401 4237 61d8 d5bf 282b 3046 5059 c8bf
00000770: 0493 2ce8 6a72 c3bf 8b62 3e57 1897 dfbf
00000780: 0db0 5c3e 508d 70bf 8977 2836 5808 6ebf
00000790: 8a96 d4cc 37fa bbbf ee7b b600 60cb d8bf
000007a0: 1cc2 93b0 8ff2 b0bf db38 806f ff4e 93bf
000007b0: 8f22 0cb5 e49e b7bf 971c e576 0f33 b5bf
000007c0: 02bd 8347 cdd4 c6bf 78e1 4eb4 390e 933f
000007d0: efed 134a 5e7b 743f 12ad 52f8 4af0 b8bf
000007e0: 0a6c f784 77fa d5bf f0e9 d9e1 87a6 b63f
000007f0: 2863 e62a c4d2 cbbf 260e 7135 6610 c8bf

3.bias f8 [64]
-0.6510662380697594 0.0815219800782197 -0.3684753153737127 -0.1403502550593778 -0.041658616205991046 0.1985712879821841 0.04034320819865048 -0.17192064963720458
-0.2691665977611396 0.14755718358754913 -0.03715349353089786 -0.636390894115363 0.0013126131744992259 -0.02209293016171934 0.10358135352284044 0.007514380051375035
0.06937729639991023 -0.014403814221366447 0.016656331817514247 -0.7585033313468601 -0.05819458086535296 -0.06286214092355083 0.03450166140311593 -0.8052619029568552
-0.023622326672094088 0.13900581368300116 -0.011208221903227839 -0.052333683990293534 0.02694417460430936 0.20244082848946596 -0.18001853225833137 -0.05906982798840384
0.11100508199889414 -0.7560455601685527 -0.05695201630042098 -0.04260298274103661 -0.06190103890880559 -0.28508007885880066 0.028715838137729134 -0.07457664326221008
-0.07088619442182983 -0.31826165077788116 0.093296269144227 -0.08149996956433601 -0.10304338583943205 -0.010918402682829266 -0.16373220150290227 -0.02121677358194887
0.06891336185711132 0.20821268056825804 -0.02863339650036305 0.03222479968276225 -0.08912201601996353 -0.20234594774464407 -0.06547036926523414 -0.17847819575793708
-0.42184413392681297 -1.6022170434258836 -0.10552020419337042 -0.03906140324563732 -0.2167422409413483 -0.08215048984814545 0.17133750169872705 -0.022920922161248483
00000000: 7e42 01dd 88d5 e4bf 7453 57de 9fde b43f
00000010: da74 3a7d 1995 d7bf 7f8e bb45 fff6 c1bf
00000020: f916 6734 4754 a5bf 1e6f e7b1 c86a c93f
00000030: 9568 a86f dda7 a43f 8174 d9ef 7e01 c6bf
00000040: d2d1 a389 063a d1bf b131 e65e 27e3 c23f
00000050: f871 4b5f c805 a3bf 6b53 b66f 505d e4bf
00000060: 4591 08aa 7f81 553f 67d0 1172 879f 96bf
00000070: bd23 dbbd 4e84 ba3f e53c 2009 66c7 7e3f
00000080: 035d 1fe3 b5c2 b13f e4bd 2538 bf7f 8dbf
00000090: 20cf b581 5b0e 913f 8e56 41c7 a845 e8bf
000000a0: 3903 3e1b aecb adbf 7256 6cb7 bb17 b0bf
000000b0: fea1 c4a6 33aa a13f eb42 3d9c b4c4 e9bf
000000c0: c45c 0c82 7330 98bf 4576 dc47 f1ca c13f
000000d0: 5d57 2a14 56f4 86bf 685d 6f0a 7bcb aabf
000000e0: 4e0f f9f2 4097 9b3f 2b63 dec0 94e9 c93f
000000f0: 269a 5ce6 d80a c7bf dbf4 c786 663e aebf
00000100: 3003 e03c d46a bc3f c8b7 6675 8631 e8bf
00000110: cb33 e78e d028 adbf 856b 2be3 0ed0 a5bf
00000120: ee4a 6733 7eb1 afbf 3923 dc83 c03e d2bf
00000130: 1a11 b746 af67 9d3f 7c4d db73 7417 b3bf
00000140: 9697 c7fe 9825 b2bf c25d 6a1d 665e d4bf
00000150: 6432 d0a8 43e2 b73f a760 e797 2edd b4bf
00000160: 47dd 3f24 0d61 babf 7417 9433 635c 86bf
00000170: ede6 6041 2df5 c4bf 47f9 a492 d9b9 95bf
00000180: 6b07 6f5b 4ea4 b13f d89a d38e b6a6 ca3f
00000190: ad7a 2bb6 1252 9dbf 1ee6 83d9 c47f a03f
000001a0: f2c9 2850 b3d0 b6bf a74b 05d6 78e6 c9bf
000001b0: d4e9 d986 aac2 b0bf 9f2a ea9e 5fd8 c6bf
000001c0: 2268 ce89 7eff dabf 4bba a956 aea2 f9bf
000001d0: 9be8 1342 5f03 bbbf 9da6 f332 dbff a3bf
000001e0: b49e 40b2 35be cbbf b987 3f83 d007 b5bf
000001f0: 97eb 2f23 63ee c53f b490 4e0c 9578 97bf

7.weight f8 [1, 128]
0.014890804478969445 0.0022114229653528547 -0.15201397991472443 0.3125553232357191 -0.030648926607853153 -0.01577658468364306 0.432941386094359 -0.4194178486242053
-0.4735098251188842 0.14161596619671873 0.3016878665460458 -0.12823294927325019 0.1920263960234253 0.06195052848934668 0.2404884318000607 -0.16882954519508578
0.4475483742527568 -0.18858804574969443 0.39120828718744727 -0.17373408641365887 -0.03775668912418479 0.03622399899588067 -0.04092260291616349 0.10151109827141801
0.4844499068475723 -0.014481164163898793 0.3252610833596383 -0.044553833437724316 0.5352728838809931 -0.22087422450905633 0.4553757467263335 0.0016587758081308712
0.3410336143767341 -0.3684236224903537 -0.43021416337192553 0.18056207541623198 -0.3659027813057614 0.33726236869179677 -0.09204530102404174 0.025515933871644022
-0.4457199255567813 -0.16136194748241225 -0.0739930382204344 0.036442498197564094 0.23975078693969487 0.05959773861185755 -0.015733180880757456 -0.006424263396821162
-0.672019175561564 -0.05273328950303562 0.4662115185379686 -0.17648826680485602 -0.4499893670308105 -0.06568574912155205 -0.044772000145865895 -0.010069570380094258
0.3160103850081291 -0.1514999034438727 0.42071547614514976 -0.1886539471329287 0.374778972420897 -0.35864479822510104 -0.05629892180108132 0.010072463465261515
0.3876794769838445 -0.08348882456030177 -0.037015508712418814 -0.023498507602379426 -0.0005034529454400248 -0.027375607700841412 -0.4773051766634499 -0.17976955141273976
0.450638245676689 0.167559394607675 0.46502471180799276 -0.2183651781089294 -0.3008968520273483 0.11686525838380346 0.41097359055038957 0.0012122184142671062
0.01130011190872414 0.024030217936228736 -0.31187920314820844 0.48943503661792975 0.13790871242038344 1.1576877593491885 -0.26896093419003014 0.13973863642590542
0.07783896947173034 0.05403899882223892 0.4792878053626246 0.025151758802665677 -0.029982152559583038 -0.001890147074834674 0.47311995341183577 0.0181910224600155
-0.4277953225288442 -0.08365856681440745 0.5107807334954889 -0.2761228529352361 0.31460287006100945 0.1041857467769691 -0.07825633473825566 0.37450147308234816
-0.0727482321316731 -0.055559429656918256 -0.24976548589546319 0.03929071947034761 0.48332602706027766 -0.25842658757670195 -0.14663033238429576 0.13735428991123239
-0.0027249833131936184 0.008994789904624734 0.012184790012600394 -0.48514740842731846 -0.2651074855035027 0.153116963740694 -0.03432997534876485 0.03378216925873863
-0.02727745612985613 0.013362613971717514 -0.39671236421307515 -0.21254105322959635 0.37116396461090634 -0.05172060475080665 0.007224850005470878 0.06387515341300261
00000000: da86 fcf1 117f 8e3f 59c3 0aaa b01d 623f
00000010: 985f 22b0 3175 c3bf 663d df0a e800 d43f
00000020: 49c0 c0a5 6e62 9fbf 7d08 09ad bc27 90bf
00000030: 350d 97c9 4fb5 db3f e8c6 ccf5 bdd7 dabf
00000040: 2e19 4e27 fc4d debf 3a03 b4d3 7820 c23f
00000050: ef93 1aa0 da4e d33f 6af9 b2f1 ef69 c0bf
00000060: 6cd6 7129 5294 c83f 60cf a9cb fab7 af3f
00000070: 22e4 d22e 53c8 ce3f b510 9bdf 349c c5bf
00000080: abc9 b2ef a1a4 dc3f afab 7430 a723 c8bf
00000090: 963b d97b 8e09 d93f dd6d ac25 eb3c c6bf
000000a0: c9ba fc41 d854 a3bf ad08 09b6 f38b a23f
000000b0: 155d 62b2 cef3 a4bf 7fbc 419f a1fc b93f
000000c0: f879 9d2e 3a01 df3f cb84 eff3 4ca8 8dbf
000000d0: 3c3c ecdc 13d1 d43f cc8b 0d93 c2cf a6bf
000000e0: 078b 5699 f420 e13f 6bdb 6549 9b45 ccbf
000000f0: 1432 e550 e024 dd3f 8a75 3af6 682d 5b3f
00000100: 846c 25a7 7ed3 d53f f5df 6aac 4094 d7bf
00000110: c656 7dfc a088 dbbf cec1 6778 a81c c73f
00000120: dd50 ce7f f36a d7bf 0bfa ece6 b495 d53f
00000130: 7813 a6e5 4790 b7bf 8fbe 0556 d920 9a3f
00000140: 9648 dcdd ac86 dcbf 0bbf a01f 82a7 c4bf
00000150: 74d7 492f 35f1 b2bf f4da e253 97a8 a23f
00000160: 0852 8c5e 27b0 ce3f bcc8 8144 9883 ae3f
00000170: f92e 61e5 5b1c 90bf b435 0b13 5450 7abf
00000180: 2f4c aa5b 2e81 e5bf 77ee a693 dbff aabf
00000190: 92e6 48d6 68d6 dd3f 72fc 06e3 2a97 c6bf
000001a0: 0e7c bc33 a0cc dcbf db52 4a00 c8d0 b0bf
000001b0: 2e56 ce08 5bec a6bf befa bcdb 5a9f 84bf
000001c0: 259a 339f 8339 d43f 5abd 514d 5964 c3bf
000001d0: 25ba bd9a 00ed da3f 383f 9902 d025 c8bf
000001e0: e5ad 71f1 60fc d73f 0f78 d04f 09f4 d6bf
000001f0: d114 df57 36d3 acbf 593b 6329 dfa0 843f
00000200: bb76 be94 bdcf d83f fc66 110b 865f b5bf
00000210: 57b2 ba5e b2f3 a2bf b0cb a026 fe0f 98bf
00000220: 3252 c6f7 447f 40bf 9109 22ef 5908 9cbf
00000230: 07c9 fe02 2b8c debf 0031 114c b002 c7bf
00000240: 3a86 e0cb 41d7 dc3f 781f fd13 9672 c53f
00000250: 9204 4302 f7c2 dd3f 9312 48e1 63f3 cbbf
00000260: e450 bbde e441 d3bf e009 ccae e1ea bd3f
00000270: 65c0 bb2c 644d da3f f903 799c 69dc 533f
00000280: 787f b658 8324 873f e37f 9ba0 609b 983f
00000290: fbbd 7430 d4f5 d3bf b698 f254 e752 df3f
000002a0: fee9 d620 fea6 c13f 0626 9699 e385 f23f
000002b0: c1db 0fec a736 d1bf 47ec b7a4 f4e2 c13f
000002c0: c344 3c34 41ed b33f bcd9 4ce9 ffaa ab3f
000002d0: 8cdc 59c2 a6ac de3f 6f31 faf5 61c1 993f
000002e0: e20f d432 a4b3 9ebf 7c33 bff7 d9f7 5ebf
000002f0: c849 bfe9 9847 de3f 88af 2fda aaa0 923f
00000300: 8029 e9a1 ff60 dbbf 3284 7fd8 a56a b5bf
00000310: d147 39d6 5058 e03f 5e3e c22f ffab d1bf
00000320: 0bf2 8813 7422 d43f aecd 1dc7 eaab ba3f
00000330: d0d7 676e 9b08 b4bf 1452 cc06 d5f7 d73f
00000340: 15ec d8cd a09f b2bf cbc4 b81a 4972 acbf
00000350: 9797 cbc0 50f8 cfbf 06aa 52c6 e91d a43f
00000360: 63e3 e149 d0ee de3f 9fc3 83ab 0f8a d0bf
00000370: b398 1861 c8c4 c2bf 6a28 914b d394 c13f
00000380: 3343 cb46 b452 66bf ed4b cc43 dc6b 823f
00000390: 70e7 e6d4 56f4 883f a5ce 3bb7 a70c dfbf
000003a0: c063 0a63 85f7 d0bf 1a53 dd2f 5699 c33f
000003b0: f675 cad2 b293 a1bf caf5 4e80 e54b a13f
000003c0: c8b4 fb17 9fee 9bbf 6415 fbaf db5d 8b3f
000003d0: 27b2 8d41 bc63 d9bf 77d9 5694 8b34 cbbf
000003e0: 6748 5d80 26c1 d73f b13c de83 1f7b aabf
000003f0: 5f3e dfe7 cd97 7d3f 7d92 ef3e 1f5a b03f

7.bias f8 [1]
0.008033655914091982
00000000: b7c3 580b f373 803f
