models/run1/run1_33.pt (torch, 153992 bytes, 6 tensors)

0.weight f8 [32, 1, 9]
0	0x3fb7d26848c8f574	0.09305431153275895
1	0x3fbafaae54a6a5dc	0.10538758818315536
2	0xbfd50d9046ce5bd6	-0.32895285524994955
3	0xbff8237d746f8679	-1.5086645649211319
4	0x3fc3b5f83630a748	0.1539907707786432
5	0xbfd6715aa7d483a9	-0.3506685866323616
6	0x3fa2bc1832c6675f	0.036591297338601995
7	0xbff072412910fea9	-1.027894173064775
8	0xbfe97f358e02846a	-0.7967784665708113
9	0xbfbdea1b597584e1	-0.11685343679484418
10	0xbfcd51f12766980f	-0.2290631716143143
11	0xbfa8b6078ee30fac	-0.0482637750551754
12	0xbfa302b78ff8ac72	-0.03713010437453414
13	0xbfdf01bb66b7f83a	-0.48448071509472224
14	0xbfdc2f91817df155	-0.44040334363650874
15	0xbf7b3c68e3f0df2c	-0.0066494080811521465
16	0xbfc98d85af470c66	-0.19963141497109688
17	0xbfbe9293cf69b175	-0.11942409337797762
18	0xbf616ecced065393	-0.0021280291040945503
19	0xbf735c106c530e42	-0.004726471093082165
20	0xbfe74c9ab9f56480	-0.7281011230471819
21	0xbfaf768946c58c5d	-0.061451234711761706
22	0xbf5f2f8c0373b9ec	-0.001903425914686725
23	0xbfcfdebf0f3ad86f	-0.24898517841001275
24	0xbfdd6b7ea4dbe4a7	-0.45968595599658574
25	0xbfec07de5a5a6711	-0.87596051833245
26	0xbfa4bebb70779ffa	-0.040517671088139154
27	0xbff3a19b1dcb8e7b	-1.2269545711395995
28	0xbfed0469dca500e8	-0.9067887601341029
29	0xbff3c3d595046f29	-1.2353111096371754
30	0xbf81d9c28d32cc4e	-0.008716125425371282
31	0xbf7460a63559fc82	-0.004974984408931184
32	0xbf61aee6db442642	-0.002158594981783308
33	0xbfe67120e9874ecd	-0.7013096390823762
34	0xbfd3f087a95bb580	-0.31155578173532916
35	0xbf6ea63d7c6c47a1	-0.003741378869912063
36	0x3fc4cea8e7b19b57	0.16255675614521678
37	0xc00262f58a6737a8	-2.2983198940991834
38	0xbfe4d775cf6c20f4	-0.6513012934892957
39	0x3fc47a3778d22590	0.15997975730378444
40	0xbfd3e0eef422552f	-0.3106038459894362
41	0x3fb839ecd7842627	0.09463386785150672
42	0xbfcdc3df19690a0c	-0.23254002323854228
43	0x3fc6f03bdbf8d479	0.1792063545305245
44	0xbfe858d6200438da	-0.7608442902872199
45	0xbf672a5f1d5332ba	-0.0028278215128011127
46	0xbfdb7a32733039a1	-0.4293333172689931
47	0xbfeb097e98ef9989	-0.8449089991598139
48	0xc0006774deaad4dd	-2.0505158801921497
49	0xbfb0a58e875ad97c	-0.06502619556963468
50	0xbff6531ff665f474	-1.395294153683861
51	0xbfccfbbe05860434	-0.22643256444647053
52	0x3fa86b8ca0f995d3	0.04769553627992775
53	0xbf8ee88d4e1a4dd0	-0.015091995187765855
54	0xbfe9a168f53ff7fa	-0.8009533681904479
55	0xbfeaa34381f5f6b3	-0.8324296510979451
56	0x3f9ac00f4d466f79	0.026123274890422963
57	0xbfdfba8cf3d2aaaf	-0.49576114474136096
58	0xbff7ecb89e83be4d	-1.4952932540872041
59	0xbfd3a7e5f6940be9	-0.30712269859230773
60	0xbff97f15aefe5481	-1.5935265384371464
61	0xbfef8a0898f260b2	-0.9855998027078583
62	0xbf80ee54a01027b2	-0.008267079481829007
63	0xbf5cf9bdfc27081c	-0.0017685275384882243
64	0xbfb1b0fb335c6be6	-0.0691067695992583
65	0xbfd3c48b805db887	-0.308871150357739
66	0x3fb0968cf77c9a3f	0.06479722063213787
67	0xc000cc37c214431a	-2.0997157251771457
68	0x3f646b3c56325acf	0.0024925402118002103
69	0xbfd209154e65db21	-0.2818043962101218
70	0x3fb00e937a035cd8	0.06272241333805384
71	0xbff1c567add6c76b	-1.110694579180257
72	0x3fc1b68af01d8be0	0.13838326191316153
73	0x3fc99cbe68f3fff1	0.20009594082512153
74	0xbfff83958d00a58e	-1.9696250446234873
75	0xbff3d11be36e1603	-1.2385519870744026
76	0x3fb6f87eaaa49d12	0.08972922960366628
77	0xbfbb223067ac5a2b	-0.10599043398938394
78	0xbfa2890d367c8b5d	-0.0362018708240359
79	0xbfe4d9db339be613	-0.6515937812793616
80	0xbfacfa41b997305a	-0.05659680738935498
81	0xbff384854f69ef80	-1.2198536970235807
82	0xbfe83466249c4201	-0.7563963618322874
83	0x3f9c7a780a6bdd84	0.02781093181235185
84	0xbfdfd12964d58337	-0.4971412167270048
85	0xbfe00b809c837076	-0.5014041001227401
86	0xbfd6d5252e904c8d	-0.356759353134472
87	0xbfdffdf930f0c8a5	-0.4998763063368961
88	0xbfd3695fe11984f4	-0.3033065508116828
89	0xbff959b9800cb8ae	-1.5844054223958142
90	0xbfe10f948ed3933f	-0.5331518926219373
91	0xbfad428936b68a7b	-0.057148254326667
92	0xbfc6b4b9cc7ed2d1	-0.1773903130066601
93	0xc0022f0804440890	-2.272964509321419
94	0xbfc22dda77e09146	-0.14202433446292612
95	0xbff479510d1940d6	-1.2796183120408862
96	0x3fb413f0c419d87b	0.07842926776524621
97	0xbfe4c841a2c040b7	-0.6494453600626205
98	0xbfc42c58bbd30ee7	-0.15760335131755385
99	0x3f9b57c59e7ca574	0.026702010916016275
100	0x3fac94578005741b	0.055819258096313905
101	0xbfe8fcb22a4dc303	-0.7808466745610477
102	0xbfeadf50343f6af9	-0.8397599239791297
103	0xbfefa4b363dd6637	-0.9888550711140799
104	0xbfdc1701216775b0	-0.4389040781223583
105	0x3f8d599e3edeed7f	0.014331089299836062
106	0xbfe2e11300219a08	-0.5899748804629903
107	0xbfda0494ead7fdfa	-0.40652964528996416
108	0xbf88010cfc49fc16	-0.011720754098176338
109	0xbfecd2fa652c622c	-0.9007541633646432
110	0xbf81767c84b1895e	-0.008526776122555087
111	0xbfe5795e6e114779	-0.6710655355220602
112	0xbfed03fa0517c63a	-0.9067354297132575
113	0xbf42376a54e186a3	-0.0005559224316693156
114	0xbfdce46b58e7b67f	-0.45144160921231696
115	0xbfd1b1494bf8be8e	-0.2764456979666442
116	0xbff189cc9e078352	-1.0961424038907421
117	0xbf7ada8c248228e2	-0.006556079322886018
118	0xbfd68a89b8e08466	-0.3522056870879794
119	0xbfc3825aa785016d	-0.15241559199968027
120	0xbfeac235896f371c	-0.8362071689859678
121	0xbfe127634447f220	-0.5360580762495069
122	0xbfc6f0b71713553d	-0.17922104479536385
123	0xbfe253627a652e58	-0.572678793957901
124	0xbf770ed735c30519	-0.0056293875351809625
125	0xbfb7bcf13ec48dad	-0.09272678167740507
126	0xbfcc0ea8f2e3bc11	-0.21919738635867295
127	0xbfe1f3fed89144c0	-0.5610346059640037
128	0xbfda16f40c7a0777	-0.4076509591906112
129	0xbff0e6bdb3926e85	-1.0563332571536261
130	0xbfd6f31fc4ab8543	-0.3585891171079149
131	0xbfe0c13abaebfdab	-0.5235875750367333
132	0xbfe06f8fc5b2dd2b	-0.5136183606436239
133	0xbf629128bbcaadaf	-0.0022664828851099643
134	0xbfcf9195c18cc31d	-0.2466304011409414
135	0xbf8e8473ded9a388	-0.014901070822092924
136	0xbfcab8359143103a	-0.20874662011022044
137	0xbffa05057f3fa7e2	-1.6262259455347636
138	0xbfe639b78f0cc9e2	-0.6945455354637569
139	0xbfd9061e7c2428da	-0.39099847911042007
140	0xbf8ac0842de9c7a0	-0.013062508250388849
141	0xbfe0b4b7017d1a90	-0.522059920222846
142	0xbfe1fe8ddc203740	-0.5623235034306404
143	0x3f564329e27c63d4	0.0013587864904762619
144	0x3fae2e96e06675d9	0.05894919862042131
145	0x3f8f783710dd4cbf	0.015366010858690491
146	0xbfa3408632d4d6df	-0.03760165567875417
147	0xbfd16b80bcd268e0	-0.27218645515098494
148	0xc004e865a37c6d2b	-2.6134751102778373
149	0xbfc7863b7de98713	-0.1837839474492787
150	0xbfde8a470e6d9a9b	-0.477189792718869
151	0xbfebecaaaa5a702b	-0.8726399733745941
152	0xbf6eee10c4fb8d49	-0.0037756278542119587
153	0x3f9372d401fe4659	0.0189927221504774
154	0x3fb62f27b48d861c	0.0866570297053148
155	0xbff54df5073c2969	-1.3315325052850204
156	0xbfe4bb2aa689cc73	-0.6478474857998563
157	0xbfe2c98aa596380e	-0.5871022447697685
158	0x3fbd1459e0b9e424	0.11359178291776623
159	0xbffe71d1e6c95e01	-1.902788068304176
160	0xbfe949d45fdca1b8	-0.7902624008466352
161	0x3fba6e5c3f659519	0.10324646518491355
162	0x3fa8d850a10d95ca	0.048525352153585624
163	0xbf9b6cff02752309	-0.02678297474384109
164	0xbf98bed312b544c5	-0.024165437714434263
165	0xbf91dfd2df11cbe0	-0.017455382218439897
166	0xbff9a17df9963a98	-1.601926779697953
167	0xbf6606d7eaae1aab	-0.0026888100741787233
168	0xbfa8b060a55b4da8	-0.048220653710497274
169	0x3f95a7ce54d310ad	0.02114794151999948
170	0xbfebaa03da09b4ef	-0.8645037897637432
171	0xbf130c88dfa19b33	-7.266602907095021e-05
172	0xbf3a696b401f0981	-0.0004030119745232139
173	0xbfe3a3d8ddaf9123	-0.6137508706856675
174	0xbfd06ddf5a7b5ed9	-0.2567060836422406
175	0xbffd31a17081deae	-1.8246168513123098
176	0xbfecf02415021eb6	-0.9043140802686682
177	0xbff464f1f5f10de9	-1.2746448142141793
178	0xbfe105e517651a89	-0.5319695908481928
179	0xbf4de5f2d914eb1a	-0.0009124217778329919
180	0xbfa3f5ed765be910	-0.03898565358936612
181	0xc00ea6f603e12cca	-3.8315239241688674
182	0xbfe702c9ea2436b3	-0.7190904210162529
183	0xc0039702deb63d4c	-2.448735942780024
184	0x3fc758ba7e8433f9	0.18239527871665454
185	0x3fcfc9f7b531b32e	0.24835106227274067
186	0x3fad3f3eb1c68105	0.05712314529523791
187	0x3fb60399dc314501	0.08599244714539013
188	0xbfd4156862f89218	-0.31380662598738374
189	0xbf69203b9860c96c	-0.0030671276063227084
190	0xbfd9891958b80c00	-0.39899285949667274
191	0x3fc8929c62736376	0.19197420890011657
192	0xbffd29135190d222	-1.8225281892929464
193	0x3fc38e88698c72e5	0.15278725770703896
194	0xbfbffdcb3e312077	-0.12496633785588239
195	0x3fadaf1189035958	0.05797629163287138
196	0xbfeea1723c2f5b6a	-0.9572077918518123
197	0xbff107fb2f8e59fa	-1.0644485337885485
198	0x3fc92a277b0f4b44	0.19659894474770045
199	0x3fc65d3663787aa3	0.1747196183868783
200	0xbfa69dbfcb177c24	-0.04417228082797234
201	0xbfe6e74f7d1512b8	-0.7157361453069688
202	0xbfc269c0dc5fd455	-0.14385233650651466
203	0x3fbfb624cc437bb4	0.12387304293541385
204	0x3fa476500d0abc98	0.03996515425876018
205	0xbf6493a58c361874	-0.0025118096688770356
206	0x3f661430b7c2a9de	0.0026951743621641397
207	0xbfb5c5cd0492a62d	-0.08504945146219063
208	0xc004997df4dda495	-2.5749472742214246
209	0xbfea6e8f32bf6a8d	-0.8259960166136168
210	0x3fac73645119a0ca	0.05556787004462789
211	0xbfb55897343e8434	-0.0833830359029129
212	0x3fb30d29d4360eee	0.0744196074575105
213	0xbfcfb3b7364ce631	-0.2476719870699511
214	0xbfcf35ca22405d1d	-0.24382902786667496
215	0x3fad885febfdb99e	0.05768108134985826
216	0xbfe71086aa0b796a	-0.7207673379123609
217	0xbfe79941c401f09c	-0.7374581173203469
218	0x3fa0de142c48a949	0.032944326787701934
219	0xbfe70bedd1a528d4	-0.7202061743385237
220	0xbfee72fd87190122	-0.9515369070650517
221	0xbfcb2a862a685a48	-0.21223523207364026
222	0xbfd5702be7ffc4a5	-0.3349714055648952
223	0xbfd372da1de39c74	-0.3038850108991433
224	0xbfed5a0d26b9362e	-0.9172425991361643
225	0x3fcf14485c5fff98	0.24280647764680618
226	0x3fb1fb0d29c1d386	0.07023699063740993
227	0xbfb0630dedede291	-0.0640114503747873
228	0xbfd00bcb4dc56a31	-0.25071985812033676
229	0xbffc4fbdd3420581	-1.769468140817793
230	0xbf9720786064e446	-0.022584801562718824
231	0xbfdf1dd41695e8c8	-0.48619558530448304
232	0x3fb7563b6c21fc1d	0.09115954771003527
233	0xbfcd9d400f6aa123	-0.23136139633903338
234	0xbf5095221ce8dcaa	-0.001012118638426244
235	0xbfd0b30c5efba0c7	-0.2609282424514387
236	0xbfc23d2805f13b49	-0.14249134340431116
237	0xbfca9b0cf964e07f	-0.20785677125400423
238	0xc009be988e7dd05e	-3.2180644161362997
239	0xbfc2ed3f3d1fc69e	-0.14786520466400516
240	0xbfffc5fc3884a65d	-1.9858362395993006
241	0xbfc563b3e1f3ae0b	-0.1671051839142453
242	0x3fb7957513f2de25	0.09212428795842038
243	0x3fbe9295b632459f	0.11942420671609576
244	0x3fdb34d5c0598693	0.4250997904219755
245	0x3fb0e46225011390	0.0659848537771508
246	0xbfebf641a6075050	-0.8738106005425923
247	0x3fd73118d509b136	0.36237164310911696
248	0x3fc0a29dde8e4ee5	0.12996266715037233
249	0x3f9afb167efb5c77	0.026348449230536333
250	0xbff1fb48f6be3a85	-1.123848880615385
251	0xbfeb48790ffd71d6	-0.8525967895798725
252	0xbf7e8f724c7459f5	-0.007461019972899487
253	0xbf74dc88b8bed99c	-0.005093130177490936
254	0xbfd6a7a544f9949c	-0.3539822743972054
255	0xbfc47fb66ac0a082	-0.16014747822305614

0.bias f8 [32]
0	0x3f811436124a30b0	0.00833933108631188
1	0xbf58ab786c055e30	-0.001505725478713315
2	0xbfa87bacad330947	-0.047818561689853704
3	0xbfb2bf8a514c4f94	-0.07323517308060296
4	0x3f85278ec92b4550	0.010329356683913687
5	0x3fb4303f3d8dea12	0.07886119129936045
6	0x3fd2b348e07abbd8	0.29219266816920486
7	0xbf9caa8d0099c9f7	-0.027994349633852136
8	0x3f71b48ff2cc0703	0.004322588251626905
9	0x3fe0d963c45737de	0.5265368304042075
10	0x3fa36f6f26da7d8f	0.03795955037389397
11	0x3f87692d0e7f9956	0.011431076054532124
12	0xbf5f8b6a4fe80c60	-0.0019253290371359574
13	0xbfa43e432c9b5b9d	-0.03953752440946021
14	0x3fd88539918ac696	0.38313140118689526
15	0xbfd61874f08d69a4	-0.34524272433704994
16	0x3fc59c4dee58dd9b	0.16883253229182746
17	0xbfbacdfa5e570a20	-0.10470547488424886
18	0x3f9794597ca6501d	0.02302684615422389
19	0xbf4942ed24885730	-0.0007709176944128201
20	0x3fb6284dfc76b212	0.08655249990142291
21	0x3f8970ee007a129a	0.012422427548935123
22	0x3f743b32981d738c	0.004939267762748122
23	0x3fb8012a3740ba30	0.0937677750486976
24	0x3fd4d1098a841fd6	0.32525862242664283
25	0x3f43152129922343	0.0005823528218949842
26	0x3fb72184bfd1f240	0.09035520251377083
27	0x3f7e3d8c35d5d318	0.0073829152073485935
28	0xbf99a28973ed3474	-0.02503409166392996
29	0xbfcb3967ead5d72a	-0.21268938986366354
30	0xbf9c288a9269d87f	-0.027498402773254767
31	0x3fb88ba12f78cd2c	0.09588057908040487

3.weight f8 [64, 32, 9]
0	0xbfcf543f34548d7b	-0.24475851111592903
1	0xbfb8f44a96085ad3	-0.09747759020715856
2	0xbfb1961c187d02a9	-0.06869674299106045
3	0xbfc10822974c315a	-0.13306076419429297
4	0x3f76879960359ee2	0.005500411152162351
5	0xbfc8ddcde96eeb09	-0.1942689313708217
6	0x3f9fe352b95229ba	0.03114060646161374
7	0x3fad24c9c7014827	0.056921296637156886
8	0xbfb06f1e35e10920	-0.0641955262699736
9	0xbfc4d7c29b8aa194	-0.162834478328716
10	0xbfc554251de381d1	-0.1666304012242237
11	0xbfd4450824f4a65f	-0.3167133675475266
12	0xbfc8644156757061	-0.19055954667681177
13	0xbfc8f047154de2d1	-0.19483269253011895
14	0xbfd7e392eee322e4	-0.3732650120623886
15	0x3f866894e1ff2489	0.010941661021109066
16	0x3fb18afbfeb04b53	0.06852698295578578
17	0xbfd9e7e82f08a2b3	-0.4047794780076785
18	0xbfd6251e285474c9	-0.34601549089877587
19	0xbfb8aa5dc5ec342a	-0.09634958345505198
20	0xbfc90329108ea32f	-0.19540894802528316
21	0xbfd07d3fcd661797	-0.25764460619427026
22	0xbfc2ca61dd0baf6e	-0.1468012170147363
23	0xbfe42476a0e79996	-0.6294510977430032
24	0x3f747b31b3d947c2	0.005000299597286375
25	0x3fae84af75344a93	0.05960605912891483
26	0xbfc759affd37495a	-0.1824245439916677
27	0xbfb38e6be65dba23	-0.0763919293801583
28	0xbf856d7556d276e5	-0.010462681495762858
29	0x3f6d3f29a4b9835c	0.003570157370447564
30	0xbf97e594e302f08b	-0.023336721759492234
31	0x3fc62cf3f3ca5c69	0.17324685481864613
32	0x3fb8950ba8dedd98	0.09602425453964825
33	0x3fc4f8b4d2036f2a	0.1638399148422363
34	0x3fbd2de73a90667a	0.11398167781626425
35	0x3f9b851b2f231f00	0.026874947311426034
36	0xbfcbe276b0d80902	-0.21784862170176927
37	0xbfc730c09585776f	-0.18117530155989978
38	0xbfcc94424c307d36	-0.22327450485406936
39	0xbfc3bc454ff76beb	-0.1541830673657779
40	0xbfb1380a6f58803d	-0.06726136415864033
41	0xbfd63a4a019576f4	-0.34730768351242536
42	0xbfb1486bb5b0affb	-0.06751130281253374
43	0x3fa0342c762f7e39	0.031648053576415376
44	0xbfb8ed2e379d83bf	-0.0973690877704163
45	0xbfb4d204f8b963ba	-0.08132964203231455
46	0xbfa7babdd5785eca	-0.046346599872945385
47	0xbfc75525d32061c9	-0.18228600319777247
48	0xbfbc7a41200bdd57	-0.1112404540289068
49	0xbfb8e332015c3fc4	-0.09721672566615697
50	0xbfde5024792b4fca	-0.47364150841644614
51	0xbfba9a1f81a46bf7	-0.10391423144430677
52	0x3f80e2020bf8fd00	0.008243576040625644
53	0xbfc21b01ffeab693	-0.1414492129892336
54	0xbfe6823dc045f2a3	-0.7033985858284563
55	0xbfe33ee6d4ef0837	-0.6014284285413457
56	0xbfe18040a147b995	-0.5469058179858616
57	0xbfe0b4150f1b6092	-0.521982697969195
58	0xbfdf64f4ba8ea3c4	-0.4905368635032199
59	0xbfe2074355992141	-0.5633865997161039
60	0xbfa413ddce93874e	-0.03921406885798594
61	0xbf7be0f1b3d9835d	-0.006806320333993946
62	0xbfdcc3d056749977	-0.44945152705113095
63	0xbfd09baf69d0931c	-0.25950227101775325
64	0xbfc9fe98456cda57	-0.2030821169843928
65	0xbfb305f3b88c591a	-0.07430957084247716
66	0xbfcfe258fb4a7add	-0.2490950800901918
67	0xbfba4403c3ab9e24	-0.10260032202824526
68	0xbfe8768ede7d8842	-0.7644724221720554
69	0x3fa14ee2fc757e8a	0.03380498248838844
70	0x3fc06aae2d5e446b	0.1282556268238609
71	0xbfb78c030488253a	-0.09198016033783044
72	0xbfc7dc8ca5732d80	-0.1864181335316566
73	0xbfc00830e8750ecf	-0.12524997091724407
74	0xbfc724abde214cf7	-0.18080662103839248
75	0xbfc7a3b58f6b6819	-0.1846835089007193
76	0xbfb44e6a7ee51794	-0.07932153318424034
77	0xbfda6ea55be918a3	-0.4130032918514052
78	0xbfb585a4c2ac476c	-0.08407048943288736
79	0x3f683b9c3475815e	0.002958111846666763
80	0xbfc03d84252868cc	-0.12687732519481754
81	0xbfe91a988069412f	-0.7844965465574542
82	0xbfdf5817e4860695	-0.48975179020644904
83	0xbfe37faf2d662124	-0.6093364607523069
84	0xbfe45b7e9adbc03f	-0.6361687683656853
85	0xbfe48124151412b1	-0.6407642757117938
86	0xbfe1ec88dd53a75f	-0.5601238558567551
87	0xbfe5bd56888c52a6	-0.6793625513988288
88	0xbfbb110b7f5b3e8f	-0.10572883471763304
89	0xbfd3287573f49378	-0.29934440921561345
90	0xbfd6332e5bd09f6f	-0.34687384573270824
91	0xbfc49f0895403653	-0.16110331809652453
92	0xbfce5a2c635f7be7	-0.23712687351414205
93	0xbfcd1f2006aaf76c	-0.22751236272409459
94	0xbfb7a00ff0884dca	-0.09228610632299375
95	0xbfe0e096efa43404	-0.5274157219406566
96	0xbfa1e3ff87f7bd74	-0.03494261297953019
97	0x3fa6403425a7bbb9	0.04345858535440734
98	0xbf9bde2b864720d6	-0.027214698858899343
99	0xbfa6e7fa0f288557	-0.044738592481972254
100	0xbfb15814bf34350a	-0.0677502600485306
101	0xbfcc5a00c268e86e	-0.22149667256036615
102	0xbfa1098fb9f225b3	-0.033276072929833055
103	0xbfb8ce01b41a1a6a	-0.09689341208477634
104	0xbfc40dc96a56a269	-0.15667073910050824
105	0x3f7a232ddd98b2ee	0.006381205713790845
106	0x3fbcd8ce8d1939dd	0.11268320984638742
107	0xbfa6564ed1b3a9e8	-0.04362722692333759
108	0xbfc72157cf614d54	-0.1807050478551938
109	0xbfcb0898abe7c231	-0.2111998404866582
110	0xbfd64687f9c96a7b	-0.3480548800777467
111	0xbfd72f1255107c8c	-0.36224802310057025
112	0xbfdb8f4daf7817e7	-0.4306215489926885
113	0xbfd5f637f0da3312	-0.3431529857705736
114	0xbf9b4b11a881ae18	-0.026653552923035034
115	0xbf68b6327c05596c	-0.003016565897421211
116	0xbfd43852dbbb5d6f	-0.31593772371476
117	0xbfd612feb8bdeeb8	-0.3449093631859159
118	0xbfc51a778102b4c1	-0.16487020301193492
119	0xbfcc8059c59c669f	-0.22266695164653513
120	0xbfd5eeed942bdc86	-0.34270801038605503
121	0xbfbbb25017ce0c3f	-0.10818958836721125
122	0xbfed8c19fafc985f	-0.9233522321781144
123	0x3fbe444a630f29d2	0.1182295314639881
124	0x3fba9fdb95974ceb	0.10400173570751618
125	0xbfc205573af50537	-0.14078798655286004
126	0xbfe63450426a8826	-0.6938859269323572
127	0xbfe8434369b8427e	-0.7582108559455063
128	0xbfe6724b7bed3b0a	-0.7014520092432985
129	0xbfe54fb18eaa9921	-0.6659782206013781
130	0xbfe8ba54d9e28a36	-0.7727455382885811
131	0xbfe65e94523db98b	-0.6990453344604232
132	0xbfd25beaedcf1d91	-0.2868602106431917
133	0x3fc44082ab491c1d	0.15821870196870771
134	0xbfe3ecfbee6eba26	-0.6226787239919005
135	0x3f9d701b5273fe27	0.028747965724504134
136	0xbf9ddfe836c20b4c	-0.029174450246965564
137	0xbf800d2b7f810624	-0.007837619618047027
138	0x3fc1a0da744d5b53	0.13772135428254248
139	0xbfabe652f6a4710d	-0.054491608245571845
140	0x3f6636263eeb6d69	0.0027113673198592603
141	0x3fab4feb423deac6	0.05334410842529773
142	0x3fb7ceb0c8bda60d	0.09299759770296863
143	0xbfbd92d7e11917c4	-0.11552190061146833
144	0xbfd23b02e38fbc65	-0.28485176298904086
145	0xbfcfc36e96189427	-0.2481516106501271
146	0xbfd2ef2dcda3ce86	-0.2958483226968628
147	0x3fb2b86927c39da1	0.073126384933508
148	0xbfc30dc289f48059	-0.1488574193581396
149	0xbfe16aecee638cec	-0.5443024307282065
150	0xbfab69bf0a7ca828	-0.053541154890197895
151	0xbfb0a191af578618	-0.06496534853752
152	0xbfb9721c6641c83e	-0.09939744469173292
153	0xbfd2a334ec4b4c0a	-0.2912113483009199
154	0xbfd85293a6f93f8f	-0.38004008584993526
155	0xbfd09e1091cf49d7	-0.2596475051806499
156	0x3fc163241aa43f75	0.13583804417475745
157	0xbfcee8106e92633c	-0.24145703696265197
158	0xbfe515f37bd5916f	-0.6589295786512092
159	0xbfb0ab4cca111aec	-0.0651138299300375
160	0x3f941c897afdb94e	0.019640110141545812
161	0x3fb8bc839bbf5755	0.0966264968149891
162	0xbfc2fb4209b5fc89	-0.1482927844444684
163	0xbfb5f30eb1cb1cad	-0.08574001160296758
164	0xbfce838d1bbe2d11	-0.23838962416298462
165	0xbfcf04c4e76d1f60	-0.2423330430995021
166	0xbfc480d4e7f495cf	-0.16018163038204
167	0xbfe7c4e4f96f0ea5	-0.74278496472876
168	0x3f53246593c3a9f0	0.0011683456387411272
169	0xbfb8821a339e1bc0	-0.09573520431705074
170	0x3fbf080cdd91bc8c	0.12121658715635614
171	0xbfe2bff1e97ad584	-0.585930782332682
172	0xbfd2fff5863d6e68	-0.29687250241634056
173	0xbfdbc0aea6d93d99	-0.4336353902226278
174	0xbfd2650613ef74c0	-0.2874159998589896
175	0xbfd172a6017eea78	-0.27262258668967077
176	0xbfe204b3125e91c8	-0.5630736693170144
177	0x3f951d41bdeaad68	0.020619418350788093
178	0x3fb07c3b40c0c3c8	0.06439562159427148
179	0xbfbc7cd8299dafa3	-0.11127997413649253
180	0xbfc1affbc0786216	-0.13818308732949508
181	0xbfbf08ca5c4ef6e7	-0.1212278819429816
182	0xbfca8346c1f19366	-0.20713123769669578
183	0xbf8b601bb511c57f	-0.013366905654239812
184	0xbfd21e91aa6cd135	-0.28311578410218213
185	0xbfd335f0f12f3303	-0.3001673083606848
186	0xbfad71e540742865	-0.05750957881726108
187	0xbfa674cacd04fc46	-0.043859803702155406
188	0xbfb6a4133091823a	-0.08844108520271102
189	0xbfd77d48f39494f7	-0.3670217875208687
190	0xbfc18c31b45b4e2d	-0.1370908861778032
191	0xbfb362ba1a4f0e2b	-0.07572520391755037
192	0xbfc51bb1f4e9a836	-0.16490768869999933
193	0xbf8c391cafba2da9	-0.013780807602663385
194	0xbfd06a1d113ceb15	-0.25647665675539716
195	0xbfa1d8c2e54f32c8	-0.03485688256441716
196	0xbfb4173d57055bb8	-0.07847960829290812
197	0xbf81479e0d634d6e	-0.00843738058430318
198	0xbfc2bcccaea76ade	-0.14638670471216292
199	0xbfbe5799437d8a8a	-0.11852414987292029
200	0xbfbe2028054ac182	-0.11767816666793432
201	0x3faab892787147ee	0.052189423754171446
202	0x3f8d56eccfd182fd	0.014325952617754373
203	0xbfd3db7e25c69ffd	-0.31027177514124543
204	0x3fab89fcf1a5736b	0.053787140367353846
205	0xbfa32b727e4cb64a	-0.03744085113281111
206	0xbfbdf6ef07182b87	-0.11704915927127334
207	0xbfc5f937374774cd	-0.17166795920539926
208	0xbfd8be10282ccdb2	-0.3866005318006628
209	0xbfdaaaa334400486	-0.41666488745256236
210	0xbfd602a61169c049	-0.34391166401383494
211	0xbf83f53c4ecd715c	-0.009745093493329797
212	0xbfd0dac1a4171159	-0.2633518316690889
213	0x3fbbe82b267054d5	0.10901136101195459
214	0xbfc192411b7516db	-0.13727582779590972
215	0xbfc9f20f0358a822	-0.20269954360384285
216	0xbfe76fd4ed4b16a0	-0.7324013361582793
217	0xbfde7752e4e59f97	-0.4760329470941484
218	0xbfe242ee9c89b595	-0.5706704194432627
219	0xbfe39d853de0aa9a	-0.6129785736605584
220	0xbfe3fd21c909c8b2	-0.6246498991515834
221	0xbfe34bcad309c4bf	-0.603001987632659
222	0xbfe1c1c7d9adf5b9	-0.5549048663667043
223	0xbfaba99674935a37	-0.05402822659532485
224	0xbfdbaad28c68a48c	-0.4323011752299599
225	0xbfd2168f7f455a70	-0.28262698582458423
226	0xbfad02c91fd8cf29	-0.05666187776333082
227	0xbfc0caeac95dffd8	-0.13119253952390753
228	0xbfc3fca2e09415bc	-0.15614734616990045
229	0xbfa3047e90943a38	-0.03714366450195822
230	0xbfd9b9aa7113f23b	-0.4019571403767121
231	0xbf9f67f433a35b22	-0.03066999020742423
232	0xbf738f2907e7d122	-0.004775200154189004
233	0xbfc41c44ee42b4da	-0.15711270936791416
234	0xbfc48f7bfc3b3174	-0.1606287938688059
235	0xbfd19aef0dc276d7	-0.27508140891755545
236	0xbfd5d86137420174	-0.3413317718150417
237	0xbfc8595046302b28	-0.1902256338801973
238	0xbfc3726ae82c9304	-0.15192924820544118
239	0xbfdf9718573e628b	-0.4935971118916675
240	0xbf708d503e5cb00d	-0.004041017009324588
241	0xbf6e085836287789	-0.003666088379090608
242	0xbfbbfa37ccd4968a	-0.10928677321188665
243	0xbfd8cb6000b67bee	-0.38741302556621704
244	0xbfb0f28fb093c21c	-0.0662011915299065
245	0xbf934eff6f8038db	-0.01885604017302787
246	0xbfb79ee4b50c228f	-0.092268270684267
247	0xbfb5330f76e51c97	-0.08281036999425094
248	0xbfc6d4cd4783bd02	-0.1783691977684399
249	0x3f930e39b44ee178	0.018608953123221167
250	0x3f747b5e4a13edef	0.005000465696180608
251	0xbfb8f04af852ad12	-0.09741657793590644
252	0xbfd5fa7784f76c0a	-0.34341228470810903
253	0x3fb6a687e1d9e9f0	0.08847855819650596
254	0xbfcbd2c42ae66328	-0.21736957640384813
255	0xbfc8106635710e26	-0.18800046548322874

3.bias f8 [64]
0	0xbfe4d588dd01427e	-0.6510662380697594
1	0x3fb4969a55343ef0	0.08042301731279244
2	0xbfd62cc86dd20bfc	-0.3464833328691268
3	0xbfbecb51982504d1	-0.12028989757984056
4	0xbfa7172716cbfae6	-0.04509851601868835
5	0x3fc61c5f406ab36b	0.17274084706641743
6	0x3fa43691a279bd0d	0.0394788275560761
7	0xbfcb07a667e6358a	-0.211170960170801
8	0xbfd13a0689a3d1d2	-0.2691665977611396
9	0x3fc35a3f72815d77	0.1511916455371922
10	0xbfa305c85f4b71f8	-0.03715349353089786
11	0xbfdd7f7dd4fb3adc	-0.46090646552049264
12	0x3f7f9c7d9ddf3f50	0.007717600526987514
13	0xbf87e97959e8fa23	-0.01167578511842488
14	0x3fbd3fb51f44050a	0.11425334943125534
15	0x3f863d887a063412	0.010859552596935305
16	0x3fb85071a0d8d7c5	0.09497747589998003
17	0xbf94035738edfeea	-0.01954399380656372
18	0x3f86122dfef20a68	0.010776862471407259
19	0xbfe4339f1ba2a80f	-0.631301454520555
20	0xbfb1b3dbba55d29d	-0.06915067004394833
21	0xbfb017bbb76c5672	-0.06286214092355083
22	0x3fa3f5d8f6ac0c55	0.03898504267819961
23	0xbfe31312c4de5384	-0.5960782857024332
24	0xbf841bacc11f6b8b	-0.009818410533559937
25	0x3fbef10d7dfb263f	0.12086567235669408
26	0xbf8ed365b3cb2145	-0.015051645802842581
27	0xbfaacb7b0a6f5d68	-0.052333683990293534
28	0x3f908dcc298d6f54	0.016165914570009335
29	0x3fcb0223fa0f2556	0.21100282392425623
30	0xbfc120a6ca97df96	-0.13380894558190154
31	0xbfae3e6686c7f4db	-0.05906982798840384
32	0x3fbf9a976943a09e	0.12345262832571044
33	0xbfe831867566b7c8	-0.7560455601685527
34	0xbfad28d08ee733cb	-0.05695201630042098
35	0xbfa9fee2350dfbc8	-0.050772732712168145
36	0xbfac28299f0516f9	-0.05499391618881861
37	0xbfd20e952230c866	-0.2821400483982245
38	0x3f9b3dd439401ad7	0.026603046411788647
39	0xbfb1034559d11e41	-0.06645615999979616
40	0xbfb22598fec79796	-0.07088619442182983
41	0xbfc106da545dccd7	-0.1330216323800417
42	0x3fb7b493910348a8	0.09259912767746192
43	0xbfbc1813c4daa711	-0.10974238925942027
44	0xbfba610d243fdd47	-0.10304338583943205
45	0xbf733177eb056ee9	-0.004685848646058346
46	0xbfc151edced1b051	-0.1353127727373953
47	0xbf8bbf6b138d446b	-0.013548695120024065
48	0x3fb2353e268b19bb	0.07112492028236421
49	0x3fcaac78118e0812	0.20838833672684182
50	0xbf9b7e37e59cacd2	-0.02684867228451255
51	0x3f9f78890b51a5fa	0.03073324328980751
52	0xbfb6d0b35028c9f2	-0.08912201601996353
53	0xbfcc4a7e55e407b0	-0.22102336114772703
54	0xbfab20bc1fc2020b	-0.05298412215870848
55	0xbfbb6f53bcf8cbd2	-0.10716746676989367
56	0xbfdaff7e89ce6822	-0.42184413392681297
57	0xbff8c9334cda28be	-1.5491211893118328
58	0xbfb9a548c8d3b7ce	-0.10017828848842145
59	0xbf96ca02e218db0f	-0.022254986810561535
60	0xbfcbbe35b2409eb4	-0.2167422409413483
61	0xbfb5dfdb022f6d99	-0.08544701388694022
62	0x3fbc54057f670ac9	0.11065706596768189
63	0xbf9778950c4e90b4	-0.022920922161248483

7.weight f8 [1, 128]
0	0x3f8e7f11f1fc86da	0.014890804478969445
1	0x3f621db0aa0ac359	0.0022114229653528547
2	0xbfc09bfa56c58a11	-0.12976006733795534
3	0x3fd4cd6f67a75119	0.3250387680284504
4	0xbfaaf23266bae0c7	-0.052629065552027
5	0x3f8cbb4cb968e03f	0.014029120834592955
6	0x3fdb80ded65c31c3	0.4297406285629927
7	0xbfd914eba4763cd3	-0.39190188465813697
8	0xbfe08e1f3314e99f	-0.517348861473966
9	0x3fc34415882ba582	0.1505152621169082
10	0x3fd3776e6022b645	0.3041644991706998
11	0xbfc0b5724b0b7151	-0.13053730644504438
12	0x3fc95aa74ffeff01	0.1980790272336819
13	0x3fb3a4182e823123	0.0767226327463431
14	0x3fcd8d46cab5ff31	0.23087391756052392
15	0xbfc86fe6b3d535d3	-0.1909149530496693
16	0x3fdca4a1efb2c9ab	0.4475483742527568
17	0xbfc823a73074abaf	-0.18858804574969443
18	0x3fd7eb6ffd39b5e8	0.3737449620155915
19	0xbfc5ee406d7d03f0	-0.17133336397276322
20	0xbfa354d841fcbac9	-0.03775668912418479
21	0x3fa28bf3b60908ad	0.03622399899588067
22	0xbfa4f3ceb2625d15	-0.04092260291616349
23	0x3fb6bc66c69872d9	0.08881227825663575
24	0x3fdebcc648928e9f	0.48027188384205916
25	0xbf9615286ae123f7	-0.021565085910228956
26	0x3fd55b0ba52b83d2	0.3336819756496513
27	0xbf5f530543ec0fd8	-0.001911883489527524
28	0x3fe1901495b3d49d	0.5488379405857305
29	0xbfd11a90807044d4	-0.2672463659556119
30	0x3fdcee3d4f77e87a	0.45204098473153176
31	0x3f8385666dc82198	0.009531784272454755
32	0x3fd73f7cad3b92fc	0.3632499400830935
33	0xbfd6d2481f53c1a1	-0.356584578125899
34	0xbfda66136888b574	-0.4124802132453944
35	0x3fc8d21ac141a8dd	0.19391188083984093
36	0xbfd5ad5708046a44	-0.3387048319142745
37	0x3fd63bf37bb9d519	0.34740912516220274
38	0xbfb79047e5a61378	-0.09204530102404174
39	0x3f9ec3c0cc1b3e4b	0.030043613870303337
40	0xbfdaa5eaa86fa69b	-0.41637674759713555
41	0xbfc46411e64d7a25	-0.15930389161344852
42	0xbfb2f1352f49d774	-0.0739930382204344
43	0x3fa2a89753e2daf4	0.036442498197564094
44	0x3fcfc563cc69b0c8	0.24821135979744313
45	0x3fb34e59a3b24f4e	0.07541427847382673
46	0xbf901c5be5612ef9	-0.015733180880757456
47	0x3f798f5d627239e2	0.006240238936824545
48	0xbfe4c53153f5f427	-0.6490713729723482
49	0xbfaa01195bcf9e7f	-0.050789635140799476
50	0x3fdeedf7cd24e9c1	0.48327441247570496
51	0xbfc6bd5306a45770	-0.17765271972956098
52	0xbfdb57eba99d417a	-0.42724124492544713
53	0xbfb169a3fb409df0	-0.06801819690792121
54	0xbfa6ec5b08ce562e	-0.044772000145865895
55	0xbf849f5adbbcfabe	-0.010069570380094258
56	0x3fd4842ccfed1d4c	0.3205673246888707
57	0xbfc389c6b1e49250	-0.1526420944802731
58	0x3fdb7d3fd2bdf656	0.4295196111705527
59	0xbfc816df74eb07dc	-0.1881980248345475
60	0x3fd73e60f443214a	0.3631822953580196
61	0xbfd5ff56557fcf18	-0.34370954846893786
62	0xbfacd33657df14d1	-0.05629892180108132
63	0x3f84a0df29633b59	0.010072463465261515
64	0x3fd842a0123847e6	0.37906648425371114
65	0xbfba7b8dedd86c81	-0.10344779068729971
66	0xbfa2f3b25ebab257	-0.037015508712418814
67	0xbf980ffe26a0cbb0	-0.023498507602379426
68	0xbf407f44f7c65232	-0.0005034529454400248
69	0xbf9c0859ef220991	-0.027375607700841412
70	0xbfdca4689450e767	-0.44753469928729434
71	0xbfc675acb9a9a2a5	-0.17546614709433075
72	0x3fdc6b61f5485359	0.44405411675807255
73	0x3fc6d3fc395f0c64	0.1783442764409272
74	0x3fddc2f702430492	0.46502471180799276
75	0xbfc968f763448916	-0.19851581904465182
76	0xbfd3ad87bd5c9404	-0.3074664448961928
77	0x3fa33cbf61332584	0.03757284223099602
78	0x3fda52e6db9a8e36	0.4113099236076069
79	0x3f5974949ffb6546	0.001553673879178001
80	0x3f87248358b67f78	0.01130011190872414
81	0x3f989b60a09b7fe3	0.024030217936228736
82	0xbfd3b184ba2c7173	-0.30770986729637356
83	0x3fe10ed98fb53ef5	0.5330627257153241
84	0x3fc4fbf222a80a01	0.16393877689559136
85	0x3ff1d7b8b7ae6b7b	1.1151663947154862
86	0xbfcf8d0a24821a49	-0.24649168760898224
87	0x3fc388a8be8855a5	0.15260800650928022
88	0x3fb3ed41343c44c3	0.07783896947173034
89	0x3fabaaffe94cd9bc	0.05403899882223892
90	0x3fde3023978c2f56	0.47168817328996704
91	0x3fa1f85580ffea1c	0.035097763058690584
92	0xbfb3f0c5c590a4be	-0.07789264748921007
93	0x3f97da3aad7e24ec	0.023293415869862708
94	0x3fde34e60e9dc7d1	0.47197867801071164
95	0x3fa2f916d000c1f8	0.03705664910410528
96	0xbfda78dbab91aac3	-0.4136265922049171
97	0xbfb5435c58d0ba86	-0.08305909317344104
98	0x3fe14a1bfed03f9e	0.5402965523553467
99	0xbfd0e9db048c69ed	-0.26427340931118587
100	0x3fd3ef1d78ad69a7	0.31146942887212464
101	0x3fbe535e95de020d	0.1184596172224774
102	0xbfa9ee9db623b967	-0.05064862106688644
103	0x3fd8ccd7e48af373	0.38750264471655455
104	0xbfb29fa0cdd8ec15	-0.0727482321316731
105	0xbfac72491ab8c4cb	-0.055559429656918256
106	0xbfcf852627ffbe35	-0.24625088646961193
107	0x3fb673468ac23275	0.08769646537457183
108	0x3fde383483c222e0	0.47218048922563405
109	0xbfcd66a2b21244b1	-0.22969468779459626
110	0xbfc2c4c8611898b3	-0.14663033238429576
111	0x3fc311d8c8077177	0.14898214118046457
112	0xbf6652b446cb4333	-0.0027249833131936184
113	0x3f826bdc43cc4bed	0.008994789904624734
114	0x3f88f456d4e6e770	0.012184790012600394
115	0xbfdc87855d28cda1	-0.44577154252621126
116	0xbfcfba0754426070	-0.24786464323256352
117	0x3fc55c8ce41d344f	0.16688691271193298
118	0xbfb17cf20c96dc3a	-0.06831276709895998
119	0x3fa50ba93ee3ae73	0.041104592253614756
120	0xbf9bee9f17fbb4c8	-0.02727745612985613
121	0x3f8b5ddbaffb1564	0.013362613971717514
122	0xbfd79fb9255d5b31	-0.369123732079447
123	0xbfcae75e30454a22	-0.21018578869787158
124	0x3fd6fe6774adfa83	0.35927759546749644
125	0xbfa98a76a44d0fb8	-0.049884517246510496
126	0x3f7d97cde7df3e5f	0.007224850005470878
127	0x3fb05a1f3eef927d	0.06387515341300261

7.bias f8 [1]
0	0x3f871f826395f4ff	0.011290568031422142
