models/run1/run1_54.pt (torch, 153992 bytes, 6 tensors)

0.weight f8 [32, 1, 9]
000000 86 1b 63 b2 bb 85 c4 3f cd 5d 01 f6 7e fb ad 3f
       0.16033121309575565 0.05855938675875514
000010 b4 ad 02 90 8d a7 dd bf 31 65 0b 63 a0 c3 fe bf
       -0.4633516222335985 -1.9227603787351877
000020 e7 65 08 13 0f 3c b6 3f c7 50 37 56 df a0 b7 bf
       0.08685392584484185 -0.09229846815952945
000030 0c 44 f8 6c dc 7e ad 3f bf 34 61 35 37 40 f5 bf
       0.05760849790761577 -1.3281776509423222
000040 2c 00 e2 7c 22 b9 f1 bf e1 84 75 59 1b ea bd bf
       -1.1076989057764974 -0.11685343679484418
000050 0f 98 66 27 f1 51 cd bf ac 0f e3 8e 07 b6 a8 bf
       -0.2290631716143143 -0.0482637750551754
000060 72 ac f8 8f b7 02 a3 bf 3a f8 b7 66 bb 01 df bf
       -0.03713010437453414 -0.48448071509472224
000070 55 f1 7d 81 91 2f dc bf 2c df f0 e3 68 3c 7b bf
       -0.44040334363650874 -0.0066494080811521465
000080 66 0c 47 af 85 8d c9 bf 75 b1 69 cf 93 92 be bf
       -0.19963141497109688 -0.11942409337797762
000090 93 53 06 ed cc 6e 61 bf 42 0e 53 6c 10 5c 73 bf
       -0.0021280291040945503 -0.004726471093082165
0000a0 80 64 f5 b9 9a 4c e7 bf 5d 8c c5 46 89 76 af bf
       -0.7281011230471819 -0.061451234711761706
0000b0 ec b9 73 03 8c 2f 5f bf 6f d8 3a 0f bf de cf bf
       -0.001903425914686725 -0.24898517841001275
0000c0 a7 e4 db a4 7e 6b dd bf 11 67 5a 5a de 07 ec bf
       -0.45968595599658574 -0.87596051833245
0000d0 fa 9f 77 70 bb be a4 bf 7b 8e cb 1d 9b a1 f3 bf
       -0.040517671088139154 -1.2269545711395995
0000e0 e8 00 a5 dc 69 04 ed bf 29 6f 04 95 d5 c3 f3 bf
       -0.9067887601341029 -1.2353111096371754
0000f0 4e cc 32 8d c2 d9 81 bf 82 fc 59 35 a6 60 74 bf
       -0.008716125425371282 -0.004974984408931184
000100 42 26 44 db e6 ae 61 bf cd 4e 87 e9 20 71 e6 bf
       -0.002158594981783308 -0.7013096390823762
000110 80 b5 5b a9 87 f0 d3 bf a1 47 6c 7c 3d a6 6e bf
       -0.31155578173532916 -0.003741378869912063
000120 0a 46 d6 5d 08 ed b5 3f 6d 84 99 52 b3 a3 02 c0
       0.08564808169310126 -2.3299318745708235
000130 76 f1 71 c0 fd 3c fa bf 0a 60 61 24 39 1d bc 3f
       -1.63989043401588 0.10982091081803005
000140 fa fa 7c 33 3f 4a d9 bf 2d 91 36 d3 62 3e b7 3f
       -0.39515666988511067 0.09079568535395728
000150 ac 17 fb c8 5e 2e de bf 32 80 af fb 30 e5 98 bf
       -0.47158021571191955 -0.024311795579592572
000160 ef 01 68 51 ba e3 e9 bf 17 b3 ac b7 1c c8 a4 3f
       -0.8090488042799374 0.04058923475381542
000170 11 7c 1a ad 20 fa e6 bf 44 5e 27 de c3 a2 f5 bf
       -0.7180331593443744 -1.3522375753290286
000180 e3 cd f5 7d 66 6d 00 c0 d5 58 b5 a4 7d 0a 52 bf
       -2.0534181442869666 -0.0011011340128184628
000190 63 0b da eb 01 35 f6 bf 23 8f 36 7f 9c 90 d4 bf
       -1.3879412854155013 -0.32132637427479177
0001a0 91 9c 68 90 64 ab 99 3f 14 7d 9c ba 00 28 a7 bf
       0.025067874254230352 -0.04522707250566263
0001b0 c9 21 60 52 9d 04 d8 bf 46 03 8b 16 e9 4e e3 bf
       -0.37528164906009615 -0.6033826294225058
0001c0 b4 d6 9d 21 08 44 86 bf 15 67 5c fd 04 48 eb bf
       -0.010871947790046611 -0.8525414417701734
0001d0 5e 90 0d be 17 61 fc bf e2 e9 22 b0 c3 66 f1 bf
       -1.7737042831368153 -1.0875889664008516
0001e0 1a 2a 1a 5a 92 44 f8 bf 1f f5 ce 88 d2 e7 ed bf
       -1.5167411346070652 -0.934548632816277
0001f0 9e f9 4e 34 e1 55 81 3f a7 6f 5d 80 ca 57 cf bf
       0.00846458378680098 -0.24486666934796839
000200 88 4a 4d 37 11 13 90 bf 12 35 fb a5 1c c8 cc bf
       -0.01569773578678249 -0.22485693077616326
000210 fe ff 9f f5 ad 1c a5 3f 73 62 a4 45 ac d9 03 c0
       0.04123443244316148 -2.4812856140891255
000220 bd 35 64 be cf c9 b9 bf ca a0 70 a2 03 7b cb bf
       -0.10073564909199369 -0.21469159537924148
000230 46 e5 ee 62 7b 43 ac 3f 5c f2 7b 48 97 1c fb bf
       0.055202346636586117 -1.694480212346341
000240 4f 17 f4 6a d0 07 9c 3f 38 15 ed 4c d4 4f aa bf
       0.02737355854789963 -0.051390299215692214
000250 03 ea 81 43 8f 0d ff bf 1a 1c 67 74 a2 70 f0 bf
       -1.9408104550371952 -1.027498678873377
000260 4b ab 4c 00 7c 2f fc bf 07 19 8e b4 a3 c4 f0 bf
       -1.7615928661059168 -1.0480076840336225
000270 b4 e5 bf 6a 8d c1 d4 bf e0 14 16 84 ba 4b e8 bf
       -0.32431350159421446 -0.7592442111787499
000280 30 11 7b a5 6d 6c f0 bf 75 3b 95 8d 73 09 f9 bf
       -1.02647175446425 -1.564807465608934
000290 d8 22 25 90 75 09 fc bf 66 be 51 02 17 4c 91 3f
       -1.752309382502224 0.016891822353896656
0002a0 e5 7e fd 9c ae 9d e5 bf 49 4a f3 fe 40 6b e5 bf
       -0.6754983011450945 -0.6693425158976619
0002b0 c5 15 22 48 f3 66 e7 bf 3a c5 40 fe a6 23 e9 bf
       -0.7313171776628954 -0.7856020894888964
0002c0 ef 22 5b 3a cd 4f e7 bf 4a de dc e3 ad e0 fd bf
       -0.7284914150014553 -1.867353334511693
0002d0 21 c1 7a 74 70 de e8 bf 53 c3 fd be 76 dd e4 bf
       -0.7771532320967119 -0.652034161596115
0002e0 13 36 d6 77 a1 3e e0 bf 76 4a 91 ba 00 cd 04 c0
       -0.5076453533708353 -2.6000990462865117
0002f0 b5 f5 ca 30 c5 ce c8 bf 83 34 6e 50 84 95 f7 bf
       -0.193810128044715 -1.4740031377616851
000300 e8 ab 05 e3 fc f3 a0 3f ed a6 65 25 32 0a ee bf
       0.03311147948519261 -0.9387446146403967
000310 34 10 5b 3e 09 fe d9 bf 8f 8d 33 d3 26 44 94 3f
       -0.40613013352799787 0.019791227951726106
000320 f1 11 be 09 12 21 aa 3f 2b 80 c6 86 48 7e f1 bf
       0.05103355759550599 -1.093330885378246
000330 9b 50 98 37 05 87 eb bf a5 fd 4c 2b fa a6 88 bf
       -0.8602319799270107 -0.012037233778413656
000340 f5 fb 82 25 9f 46 72 3f c7 43 8b b7 ad bb c8 bf
       0.0044618813191723465 -0.19322749578580398
000350 20 65 11 b1 2e 02 de bf dc 2e ab e9 c6 96 ba 3f
       -0.4688832024745171 0.10386317448427057
000360 16 fc 49 fc 0c 01 88 bf 2c 62 2c 65 fa d2 ec bf
       -0.011720754098176338 -0.9007541633646432
000370 5e 89 b1 84 7c 76 81 bf 79 47 11 6e 5e 79 e5 bf
       -0.008526776122555087 -0.6710655355220602
000380 3a c6 17 05 fa 03 ed bf a3 86 e1 54 6a 37 42 bf
       -0.9067354297132575 -0.0005559224316693156
000390 7f b6 e7 58 6b e4 dc bf 8e be f8 4b 49 b1 d1 bf
       -0.45144160921231696 -0.2764456979666442
0003a0 52 83 07 9e cc 89 f1 bf e2 28 82 24 8c da 7a bf
       -1.0961424038907421 -0.006556079322886018
0003b0 66 84 e0 b8 89 8a d6 bf 6d 01 85 a7 5a 82 c3 bf
       -0.3522056870879794 -0.15241559199968027
0003c0 1c 37 6f 89 35 c2 ea bf 20 f2 47 44 63 27 e1 bf
       -0.8362071689859678 -0.5360580762495069
0003d0 3d 55 13 17 b7 f0 c6 bf 58 2e 65 7a 62 53 e2 bf
       -0.17922104479536385 -0.572678793957901
0003e0 19 05 c3 35 d7 0e 77 bf ad 8d c4 3e f1 bc b7 bf
       -0.0056293875351809625 -0.09272678167740507
0003f0 19 73 66 47 a0 2b e5 bf 80 08 11 16 16 20 e5 bf
       -0.661575450376037 -0.6601667815196066
000400 59 df cb 98 7f 40 e5 bf 30 3f 8f 13 9c b2 f0 bf
       -0.6641233429245218 -1.0436058773083907
000410 77 02 08 f2 64 a7 e6 bf fd 5d 43 32 50 c6 e8 bf
       -0.7079338767217241 -0.7742081624700742
000420 af e0 c9 61 d4 fd ee bf 3a 63 e8 0b 09 a0 9c bf
       -0.9684850606854719 -0.02795423636607384
000430 f7 86 3a a2 24 4d c0 bf ef 28 50 90 f5 86 8e bf
       -0.12735422059363774 -0.014905851809107832
000440 3a 10 43 91 35 b8 ca bf e2 a7 3f 7f 05 05 fa bf
       -0.20874662011022044 -1.6262259455347636
000450 e2 c9 0c 8f b7 39 e6 bf da 28 24 7c 1e 06 d9 bf
       -0.6945455354637569 -0.39099847911042007
000460 ce 6e e2 45 e1 25 8b bf e0 22 93 01 b7 b4 e0 bf
       -0.013255844063955104 -0.5220599203831533
000470 40 37 20 dc 8d fe e1 bf 92 0d d3 a4 ac c1 52 bf
       -0.5623235034306404 -0.0011448083853772034
000480 3f b7 13 5e 76 b8 77 bf 48 f5 e5 07 af 86 7a bf
       -0.005791151402474714 -0.006476100649135681
000490 26 ee cd 1b 52 88 ba bf e4 47 53 31 b4 ed e4 bf
       -0.10364258936709145 -0.6540165866265366
0004a0 17 37 09 22 9e 50 0e c0 56 89 eb 79 17 0c f8 bf
       -3.789364114671922 -1.5029520761969102
0004b0 51 7f 53 09 75 c0 d9 bf 60 27 dc 82 eb 56 d8 bf
       -0.40237165365941957 -0.38030517367643846
0004c0 8e b1 6b 0a 7e 88 78 bf f2 6c a6 8b ce b1 88 bf
       -0.005989544245249679 -0.012057889591963609
0004d0 d4 f1 05 6d 26 b3 a3 3f 97 c2 5b f1 59 e5 fd bf
       0.03847618180131787 -1.8684939792694075
0004e0 71 78 d1 ec ef ba ee bf 6f 12 c5 91 fe b0 dc bf
       -0.9603194833141641 -0.4483028815778089
0004f0 18 89 50 ca 60 1b 93 3f 2e 4e 05 19 9d 62 f7 bf
       0.018659126613905647 -1.4615756013271368
000500 6b cb ed fe e2 8a e7 bf e9 94 44 f5 30 d7 b4 3f
       -0.7357039431648053 0.08140855777726909
000510 64 6e 8b be 10 7e a1 3f c7 7f 9c 57 e7 ae b7 bf
       0.034164927730412825 -0.09251256836841924
000520 3a 00 c8 11 a9 22 ab bf 0f 14 24 bc ab 14 01 c0
       -0.052998813076556364 -2.1350931833753815
000530 ad f3 64 69 f1 af 03 c0 8e f1 cd 77 ae 62 9e 3f
       -2.4609096750195563 0.029673315107616775
000540 c2 a7 a9 3c 5b f0 9c 3f d5 ec 1d d7 bc 61 b3 3f
       0.028260636880453445 0.0757101082980854
000550 1a 3f 61 bd 07 28 f7 bf 33 9b a1 df 88 0c 13 bf
       -1.447273006215204 -7.266602907095021e-05
000560 81 09 1f 40 6b 69 3a bf 23 91 af dd d8 a3 e3 bf
       -0.0004030119745232139 -0.6137508706856675
000570 d9 5e 7b 5a df 6d d0 bf ae de 81 70 a1 31 fd bf
       -0.2567060836422406 -1.8246168513123098
000580 b6 1e 02 15 24 f0 ec bf e9 0d f1 f5 f1 64 f4 bf
       -0.9043140802686682 -1.2746448142141793
000590 89 1a 65 17 e5 05 e1 bf 1a eb 14 d9 f2 e5 4d bf
       -0.5319695908481928 -0.0009124217778329919
0005a0 08 18 de ce 58 75 a3 3f 05 e3 ce 8a 06 83 07 c0
       0.038004660847079264 -2.9389773220431175
0005b0 7d 15 55 9f 1e 75 d3 bf f5 6e 37 b5 bd ff 08 c0
       -0.304023414228446 -3.1248735578100146
0005c0 1b ac 30 79 3c 96 c0 3f a0 0d a4 d5 e9 6a c2 3f
       0.12958484570967319 0.1438877385299806
0005d0 b2 d4 1d ed 53 e1 6d bf ed ca e5 ea a3 5f b9 3f
       -0.0036474837478928874 0.09911560520940173
0005e0 9b f9 3a b0 f2 95 fc bf e1 36 34 78 aa a1 a2 3f
       -1.7866083988188624 0.036389662907920124
0005f0 1b 02 12 70 8b c2 c1 bf e8 04 05 66 4d 5d 8b 3f
       -0.1387495324343185 0.013361553836718845
000600 39 b1 a9 2c 22 48 01 c0 6c 64 3c b4 3c e2 7e 3f
       -2.160221432617757 0.007539975285703365
000610 3c c8 14 32 b1 a7 b4 bf 8b 45 0f 70 a3 f0 ac 3f
       -0.0806837794559962 0.05652342551150998
000620 6d 0c 3e ed 32 1d f6 bf 54 33 0a d2 ba 39 f5 bf
       -1.3821286456375461 -1.326594181507251
000630 b5 61 8a f5 10 f4 c5 3f d5 f9 a9 b9 ad 39 b4 3f
       0.171510810749863 0.0790051058083699
000640 ea f7 2d c8 b6 94 a2 bf 46 60 74 df 27 4f f8 bf
       -0.03629084771726794 -1.519325135106571
000650 49 f9 af aa 82 77 e9 bf d6 4f be 1b 43 fa a3 3f
       -0.7958386739481195 0.03901872361816998
000660 50 14 8e ec cc 81 77 3f 78 d2 96 96 77 8d 83 bf
       0.005739021763365562 -0.009547170909038658
000670 2e 30 e4 31 d2 29 f2 bf b8 c5 2e 14 4f e7 b7 bf
       -1.1352102230912453 -0.09337324373952682
000680 06 61 f1 9d 3c 9e 05 c0 ff df d9 48 c8 3d eb bf
       -2.702264055184176 -0.8512917921898405
000690 5e 35 3d f9 9c 72 9d bf 88 b9 f9 8c e8 e5 bc bf
       -0.02875752707705225 -0.11288312379631382
0006a0 03 35 f1 e9 4b 5b 83 bf 9d 4e 9a f8 fa ec e1 bf
       -0.009451478077745273 -0.5601782660982796
0006b0 3f c8 d3 53 cb 3e d4 bf 30 fb dc 86 25 10 b8 bf
       -0.3163326567292905 -0.09399637739714417
0006c0 7e 2b f7 1e 5f 76 e8 bf 0c 1f 74 a5 d3 39 e8 bf
       -0.7644496540827814 -0.757058928634224
0006d0 da d4 bd 74 26 26 d1 bf 21 d7 33 95 c6 ab e8 bf
       -0.2679535045675273 -0.7709687151061396
0006e0 c1 fb ab 78 1e 6a ef bf 70 b0 bb a5 ef ce e1 bf
       -0.981703983008508 -0.5565107571578789
0006f0 63 60 89 0b 7b b4 e1 bf 0f e3 e2 68 48 d5 e1 bf
       -0.5532813287091013 -0.557285504203806
000700 35 d4 f8 cd 19 eb ec bf f5 50 0e 17 be 9a cb 3f
       -0.9036988280191794 0.21565986753251534
000710 e2 9a ec 5a da 26 b2 3f 9b ce d8 d0 b2 f4 b6 bf
       0.07090534896688497 -0.08967130278397877
000720 f3 70 f0 d7 7b ba ed bf fa 1a 48 e6 a7 13 06 c0
       -0.9290141313136061 -2.7595975867037597
000730 a0 ef 18 ca 21 20 c9 bf ed 44 ae 92 cd 5c c4 bf
       -0.1962930905154936 -0.15908212339539976
000740 c0 3f 5c d1 86 cc 98 3f cd 3d e4 21 8e 3b f1 bf
       0.024217707184163606 -1.0770398448838592
000750 7b 51 88 ed 00 26 af 3f cb 15 82 6f ae c0 d8 bf
       0.06083681964460915 -0.3867603386828164
000760 9e 07 4d af b0 7d d3 bf 3a 45 35 c8 2c b4 cd bf
       -0.30454651946285505 -0.23206100250039602
000770 f4 c7 32 33 bf c5 0a c0 86 a4 b5 1a e3 a1 cb bf
       -3.346556091296401 -0.2158779030244526
000780 df 4f 95 41 51 08 01 c0 29 bf c8 19 b8 c4 da bf
       -2.1290612338725476 -0.41825678365693136
000790 14 11 52 9a 2b a0 a0 3f 8b bc d1 75 d9 ad a2 3f
       0.03247200259014185 0.03648261607383415
0007a0 38 a1 12 32 b8 55 d5 3f 05 bd 4b 17 e8 da 8e 3f
       0.3333569039337081 0.015065968714650166
0007b0 ff 5d 10 39 36 9f f1 bf 28 5f 95 30 26 be d7 3f
       -1.1013700703678067 0.37098078484040053
0007c0 d2 22 9b 5e 94 72 b7 3f e7 3a 00 b3 e9 ec c0 bf
       0.09159209546772765 -0.1322300075557543
0007d0 14 05 63 90 b4 8c f8 bf 8a ed 9e c2 15 c3 fa bf
       -1.5343518867596844 -1.6726281740546676
0007e0 f5 59 74 4c 72 8f 7e bf 9c d9 be b8 88 dc 74 bf
       -0.007461019972899487 -0.005093130177490936
0007f0 9c 94 f9 44 a5 a7 d6 bf 82 a0 c0 6a b6 7f c4 bf
       -0.3539822743972054 -0.16014747822305614

0.bias f8 [32]
000000 ab 2b c6 45 2e ca 86 3f 30 5e 05 6c 78 ab 58 bf
       0.011127816681229271 -0.001505725478713315
000010 47 09 33 ad ac 7b a8 bf 94 4f 4c 51 8a bf b2 bf
       -0.047818561689853704 -0.07323517308060296
000020 d2 c4 a2 ec 1b 0a 5a 3f 9d 00 5c 66 0f 82 9c 3f
       0.001589324254876613 0.027839890120049494
000030 6f 8b eb ec 20 3e db 3f 17 db b0 11 ab 1a a0 bf
       0.42566702973106535 -0.03145346251442598
000040 68 07 7e c3 3f 2d a7 3f 78 2b a4 bb 12 1f e7 3f
       0.04526709805851575 0.7225431122654831
000050 c7 60 92 0d a1 86 c7 3f 4c c1 31 b5 d3 2d b7 3f
       0.1837960544842245 0.09054301427545858
000060 60 0c e8 4f 6a 8b 5f bf 9d 5b 9b 2c 43 3e a4 bf
       -0.0019253290371359574 -0.03953752440946021
000070 45 eb 49 28 01 0c e4 3f a7 88 3a db 5c a8 d6 bf
       0.6264653956307958 -0.3540260449318659
000080 a0 13 76 80 c8 0e d6 3f 48 2f 3f 0f 6c 83 8b 3f
       0.34465229554217025 0.01343426152734363
000090 7e 16 a8 86 50 de 85 3f 30 57 88 24 ed 42 49 bf
       0.010677937611954787 -0.0007709176944128201
0000a0 09 8c d7 dc 2e 41 a3 3f 60 25 f5 ea 53 e5 91 3f
       0.03760668226075132 0.017476378646539614
0000b0 14 f1 03 ac 7f 81 91 3f 7c 13 c9 c6 bf 51 70 bf
       0.017095560907351162 -0.003984212042784981
0000c0 97 61 a7 ab 97 53 e0 3f 07 ef 81 bc df 6a a2 3f
       0.5102041580785678 0.035971633683372466
0000d0 0f 9b 4b 95 34 02 d0 3f 71 37 fb 69 fd ac b4 3f
       0.2501346071207288 0.0807646163695759
0000e0 74 34 ed 73 89 a2 99 bf 2a d7 d5 ea 67 39 cb bf
       -0.02503409166392996 -0.21268938986366354
0000f0 7f d8 69 92 8a 28 9c bf 83 2e 29 ef 6f 1c 7c 3f
       -0.027498402773254767 0.006863057368331152

3.weight f8 [64, 32, 9]
000000 9b 3e c6 66 f6 73 d0 bf 62 39 db b6 35 5a b5 bf
       -0.2570777896553211 -0.08340774263635845
000010 ba 74 60 89 9a 2d b3 bf 1b da bd cf e1 d3 c1 bf
       -0.07491460660863228 -0.13927862781174913
000020 3c 79 0d 70 6d 82 47 bf e2 17 f3 09 90 a2 c6 bf
       -0.0007174524654194668 -0.17683601842708102
000030 81 ed ec ce 22 c5 a4 3f d5 bc a9 34 89 74 ae 3f
       0.040566528090915994 0.059482848814576585
000040 b9 a5 12 03 b5 12 b8 bf 94 a1 8a 9b c2 d7 c4 bf
       -0.09403544735928095 -0.162834478328716
000050 d1 81 e3 1d 25 54 c5 bf 5f a6 f4 24 08 45 d4 bf
       -0.1666304012242237 -0.3167133675475266
000060 61 70 75 56 41 64 c8 bf d1 e2 4d 15 47 f0 c8 bf
       -0.19055954667681177 -0.19483269253011895
000070 e4 22 e3 ee 92 e3 d7 bf 89 24 ff e1 94 68 86 3f
       -0.3732650120623886 0.010941661021109066
000080 53 4b b0 fe fb 8a b1 3f b3 a2 08 2f e8 e7 d9 bf
       0.06852698295578578 -0.4047794780076785
000090 c9 74 54 28 1e 25 d6 bf 2a 34 ec c5 5d aa b8 bf
       -0.34601549089877587 -0.09634958345505198
0000a0 2f a3 8e 10 29 03 c9 bf 97 17 66 cd 3f 7d d0 bf
       -0.19540894802528316 -0.25764460619427026
0000b0 6e af 0b dd 61 ca c2 bf 96 99 e7 a0 76 24 e4 bf
       -0.1468012170147363 -0.6294510977430032
0000c0 c2 47 d9 b3 31 7b 74 3f 93 4a 34 75 af 84 ae 3f
       0.005000299597286375 0.05960605912891483
0000d0 5a 49 37 fd af 59 c7 bf 23 ba 5d e6 6b 8e b3 bf
       -0.1824245439916677 -0.0763919293801583
0000e0 e5 76 d2 56 75 6d 85 bf 5c 83 b9 a4 29 3f 6d 3f
       -0.010462681495762858 0.003570157370447564
0000f0 8b f0 02 e3 94 e5 97 bf 69 5c ca f3 f3 2c c6 3f
       -0.023336721759492234 0.17324685481864613
000100 98 dd de a8 0b 95 b8 3f 2a 6f 03 d2 b4 f8 c4 3f
       0.09602425453964825 0.1638399148422363
000110 7a 66 90 3a e7 2d bd 3f 00 1f 23 2f 1b 85 9b 3f
       0.11398167781626425 0.026874947311426034
000120 54 1f bf 49 a5 11 cd bf 25 2c 61 c6 c2 f0 c4 bf
       -0.22710100270182443 -0.16359743772986338
000130 ef 8d 4b 29 57 ab cd bf 00 be 12 2d 5a d3 c4 bf
       -0.2317913962971114 -0.16269995880928434
000140 57 a0 8e 29 34 66 b3 bf 29 d8 26 98 92 8c d4 bf
       -0.0757782556016776 -0.3210798726898952
000150 2c 60 a5 47 60 eb b0 bf a0 5b 4b c6 6e c4 a1 3f
       -0.06609155415696993 0.03470178766809018
000160 2e 88 6b e1 cc 4d c0 bf 19 9a 9d d9 35 05 b8 bf
       -0.12737427718008248 -0.0938295036590734
000170 9b e6 2b b7 0f 22 a6 bf 81 26 aa 52 58 fe c7 bf
       -0.04322861777286598 -0.1874494937549578
000180 37 65 1f 1f a6 cc bd bf 33 cb 6f 00 97 35 ba bf
       -0.11640394458608659 -0.1023802162233494
000190 ae 7f 3e d9 31 40 de bf 98 00 9b 64 8b d3 b7 bf
       -0.4726681348347438 -0.09307166296184943
0001a0 eb 22 3d 98 00 8c 98 3f c2 14 0f ef e0 b5 c5 bf
       0.023971566478652766 -0.16961299584196438
0001b0 7f fa 65 bc 95 75 e7 bf 2e b3 74 69 65 95 e3 bf
       -0.7331036262183516 -0.6119868335423229
0001c0 8c 64 cd 35 bf d6 e1 bf 89 0b a1 a3 93 0a e1 bf
       -0.5574642229868387 -0.5325411029701722
0001d0 e6 fc cc f1 f8 08 e0 bf c8 93 f8 96 2e 71 e3 bf
       -0.5010952685041985 -0.6075661610271874
0001e0 b7 22 86 d0 f7 38 6c 3f 8a 63 d9 b3 f1 e0 7b bf
       0.003445133221422782 -0.006806320333986879
0001f0 8e ef 7f 7f cd 70 dd bf 97 48 68 8b 4e 01 cf bf
       -0.4600099320521104 -0.24222738081931958
000200 a5 6c 7a 82 f8 28 cb bf 38 88 a7 32 b4 5a b5 bf
       -0.21218782778746462 -0.08341528164558631
000210 69 f1 2b 9c 5c 86 d0 bf b7 ec c6 3d c4 98 bc bf
       -0.2582007908929627 -0.11170603283146617
000220 2e 3b f8 07 e5 9e e7 bf 6b fc 44 68 db 2c a5 3f
       -0.738146319928864 0.04135785720654258
000230 73 b4 fe d7 11 e3 c4 3f 08 22 a3 7e c3 e0 b9 bf
       0.1631796173727796 -0.10108587114076084
000240 c4 b1 c8 31 c4 d3 cb bf 74 30 a4 34 bb 77 c1 bf
       -0.217400097187591 -0.13646640844706648
000250 cb f9 fe b5 c0 ec c8 bf af 14 49 67 ca 6b c9 bf
       -0.19472512136958495 -0.19860200923191004
000260 83 71 a0 2e 94 de b7 bf e7 61 03 53 5e 30 dd bf
       -0.09324003351543379 -0.45607717615851445
000270 92 6c ac c2 a4 85 b5 bf 6a 88 2d f6 ab 5d a0 3f
       -0.08407048943301934 0.031964658547409666
000280 f8 f2 31 3c ab 90 c2 bf 51 51 44 1b 34 fd e9 bf
       -0.1450399440690473 -0.8121586353832219
000290 88 92 e7 f5 5d 01 e0 bf 2a e5 66 c0 cb d6 e3 bf
       -0.5001668742011853 -0.6199702031946448
0002a0 3f 84 dc 2d 9b b2 e4 bf b7 d6 14 a8 40 d8 e4 bf
       -0.6468025108080225 -0.6513980181541318
0002b0 5e a2 2d ec 45 d7 e2 bf 5e bf fb ee 1f 71 e4 bf
       -0.5887784588677041 -0.6388091724056542
0002c0 1e a1 f5 35 20 de b6 bf 67 1b f6 99 ae d6 d3 bf
       -0.08932687108393053 -0.3099781516579498
0002d0 52 da 55 37 da de d6 bf 24 ec fd af 57 1e c6 bf
       -0.35735183147281646 -0.1728009805045484
0002e0 c5 31 1d 7e 7b d9 cf bf 11 ad 68 21 6f 9e ce bf
       -0.24882453592216627 -0.23921002513211723
0002f0 ac b9 03 26 ae 9e ba bf aa c3 1c 9e c1 35 e1 bf
       -0.1039837687310185 -0.5378120506412547
000300 17 08 e0 47 02 19 9c bf 3a 5b a7 25 34 40 a6 3f
       -0.027439151417645826 0.043458585354235926
000310 30 68 1a 2e 52 ec a3 bf eb c4 cb 93 cc a8 ad bf
       -0.0389123612669241 -0.05792846016073291
000320 a0 c9 90 c7 14 d1 b3 bf 4c 9e 16 21 2f dd cd bf
       -0.07740907547193965 -0.2333125030101989
000330 74 f9 a8 34 49 16 a7 bf be 26 30 aa 45 04 bb bf
       -0.04509190337965921 -0.10553393750174231
000340 bc 04 93 22 a0 94 c5 bf 33 5c 27 35 bd 1a 81 3f
       -0.16859819114873698 0.00835178202116369
000350 0f 91 b8 8d 14 98 be 3f ef ca f9 b1 99 ba b2 bf
       0.11950806102737864 -0.07315979571448471
000360 54 4d 61 cf 57 21 c7 bf 31 c2 e7 ab 98 08 cb bf
       -0.1807050478551938 -0.2111998404866582
000370 7b 6a c9 f9 87 46 d6 bf 8c 7c 10 55 12 2f d7 bf
       -0.3480548800777467 -0.36224802310057025
000380 e7 17 78 af 4d 8f db bf 12 33 da f0 37 f6 d5 bf
       -0.4306215489926885 -0.3431529857705736
000390 18 ae 81 a8 11 4b 9b bf 6c 59 05 7c 32 b6 68 bf
       -0.026653552923035034 -0.003016565897421211
0003a0 6f 5d bb db 52 38 d4 bf b8 ee bd b8 fe 12 d6 bf
       -0.31593772371476 -0.3449093631859159
0003b0 c1 b4 02 81 77 1a c5 bf 9f 66 9c c5 59 80 cc bf
       -0.16487020301193492 -0.22266695164653513
0003c0 86 dc 2b 94 ed ee d5 bf 3f 0c ce 17 50 b2 bb bf
       -0.34270801038605503 -0.10818958836721125
0003d0 5f 98 fc fa 19 8c ed bf d2 29 0f 63 4a 44 be 3f
       -0.9233522321781144 0.1182295314639881
0003e0 eb 4c 97 95 db 9f ba 3f 37 05 f5 3a 57 05 c2 bf
       0.10400173570751618 -0.14078798655286004
0003f0 20 33 61 fa aa 8c e6 bf 0e 08 02 4e 6d 9a e8 bf
       -0.7046713724354028 -0.7688509486763466
000400 9a 00 37 60 75 c9 e6 bf b1 5e f4 72 db a6 e5 bf
       -0.7120921019741389 -0.6766183133322184
000410 c6 4f 2c be 7e 11 e9 bf f0 61 d9 00 f2 b6 e6 bf
       -0.7833856310194214 -0.7098321930489515
000420 0b f9 3e f4 9e 2e d5 bf 26 1d 49 ab 82 40 c4 3f
       -0.33097051479480005 0.15821870196871507
000430 b6 7f b8 d2 25 44 e4 bf 27 fe 73 52 1b 70 9d 3f
       -0.6333188167227408 0.028747965724504134
000440 4c 0b c2 36 e8 df 9d bf 24 06 81 7f 2b 0d 80 bf
       -0.029174450246965564 -0.007837619618047027
000450 53 5b 4d 74 da a0 c1 3f 0d 71 a4 f6 52 e6 ab bf
       0.13772135428254248 -0.054491608245571845
000460 69 6d eb 3e 26 36 66 3f c6 ea 3d 42 eb 4f ab 3f
       0.0027113673198592603 0.05334410842529773
000470 0d a6 bd c8 b0 ce b7 3f c4 17 19 e1 d7 92 bd bf
       0.09299759770296863 -0.11552190061146833
000480 d1 3b ce f4 44 20 d4 bf 5c b1 50 68 a2 8d d0 bf
       -0.3144695654563608 -0.25864467799217095
000490 82 ae db c3 af 9c d3 bf be 1d e4 4e 61 02 b0 3f
       -0.3064383900334421 0.06253631759692888
0004a0 52 40 64 76 c6 68 c4 bf ea 16 50 be 9a d4 e2 bf
       -0.15944748669471892 -0.5884526936576695
0004b0 c5 b6 c2 e7 0e 00 99 bf 3f c9 1d 13 90 f9 a9 bf
       -0.02441428460649921 -0.05073213799814135
0004c0 33 5f 6f 0b b2 bc be bf 57 e7 41 1b c3 a4 d3 bf
       -0.12006676463294923 -0.3069312826333905
0004d0 4d 05 33 8a 58 49 d8 bf c4 d1 27 cd d3 af d1 bf
       -0.3794766759493385 -0.27635664972993035
0004e0 37 94 e6 47 3b 7f be 3f ed 3a 0a c8 2e 01 cd bf
       0.1191288996256653 -0.22659859435631038
0004f0 6d 55 d7 4f b6 a2 e5 bf b1 f5 00 3e 37 85 af bf
       -0.6761123237035186 -0.06156323081857396
000500 e0 73 de da 08 0c ab 3f de 74 82 f1 35 39 b1 3f
       0.05282619163265401 0.06727921625357022
000510 62 43 8b a5 cd 62 c4 bf 22 1c 65 3c 72 a2 be bf
       -0.15926523764803863 -0.11966623281942693
000520 02 a2 85 70 9f 6d d1 bf 4a 07 5d 56 3b ae d1 bf
       -0.27231584537960896 -0.276259264315844
000530 8f b7 41 ad 86 d8 c8 bf 3f 75 97 65 a4 a2 e7 bf
       -0.19410785159874108 -0.7386037811481073
000540 39 f9 26 b4 10 3c 77 3f 1a 74 17 e5 7e 5d bc bf
       0.00567251706018928 -0.11080163090760245
000550 05 e1 fb 9e 81 1f b6 3f 84 d5 7a e9 f1 bf e2 bf
       0.08641824847643782 -0.585930782332682
000560 68 6e 3d 86 f5 ff d2 bf 99 3d d9 a6 ae c0 db bf
       -0.29687250241634056 -0.4336353902226278
000570 c0 74 ef 13 06 65 d2 bf 78 ea 7e 01 a6 72 d1 bf
       -0.2874159998589896 -0.27262258668967077
000580 c8 91 5e 12 b3 04 e2 bf 68 ad ea bd 41 1d 95 3f
       -0.5630736693170144 0.020619418350788093
000590 c8 c3 c0 40 3b 7c b0 3f a3 af 9d 29 d8 7c bc bf
       0.06439562159427148 -0.11127997413649253
0005a0 43 dc 31 e9 e4 3b c2 bf 32 ba d0 b6 03 7f c0 bf
       -0.14245282541716806 -0.12887617517977074
0005b0 e3 0f d7 51 00 06 cc bf 1e a6 b4 59 da c5 99 bf
       -0.21893314357850988 -0.02516881153602501
0005c0 94 8f 5f 72 ee df d2 bf 2b ad 6e 28 52 30 d3 bf
       -0.29491768998399803 -0.29982427547902785
0005d0 3f 50 1b bf df 0e ac bf af c5 28 62 f7 14 a5 bf
       -0.05480097968907715 -0.04117558549149735
0005e0 3b 52 8b 50 94 fa bd bf 44 bd 27 03 6b 3c d8 bf
       -0.11710478750621515 -0.3786876231015024
0005f0 95 84 18 94 8f 7e c3 bf 00 35 b1 da c8 1a b9 bf
       -0.15229983073462408 -0.09806495036282925
000600 0e b2 1a 55 b9 f7 c7 bf ef f0 b2 ac 64 7e a2 bf
       -0.1872474351452102 -0.036120554047984636
000610 94 27 1f a2 11 bc d0 bf 87 48 e4 53 42 d3 97 bf
       -0.2614788134784416 -0.02326682698282714
000620 61 04 cf 6d be a2 b2 bf 08 f2 4a 80 4a 07 a2 bf
       -0.07279577427745344 -0.03521187606881787
000630 6e 85 7e c7 af 76 c5 bf bc 53 96 9c 45 50 bb bf
       -0.1676845287411583 -0.1066936023037916
000640 8b 14 9c 44 5e 7c c0 bf ec d5 96 70 69 07 a5 3f
       -0.12879541730959362 0.04107217311267761
000650 4a 92 9a c1 22 49 6a 3f 47 c6 d2 fd fb e6 d3 bf
       0.003208701976136906 -0.3109731653922591
000660 da 98 5f a7 3f 8a ab 3f 55 52 59 3d 90 d7 a1 bf
       0.05378912847645419 -0.034847743500595975
000670 3b 65 88 92 25 cc c2 bf cd 74 47 37 37 f9 c5 bf
       -0.14685506491586317 -0.17166795920539926
000680 b2 cd 2c 28 10 be d8 bf 86 04 40 34 a3 aa da bf
       -0.3866005318006628 -0.41666488745256236
000690 49 c0 69 11 a6 02 d6 bf 5c 71 cd 4e 3c f5 83 bf
       -0.34391166401383494 -0.009745093493329797
0006a0 59 11 17 a4 c1 da d0 bf d5 54 70 26 2b e8 bb 3f
       -0.2633518316690889 0.10901136101195459
0006b0 db 16 75 1b 41 92 c1 bf 22 a8 58 03 0f f2 c9 bf
       -0.13727582779590972 -0.20269954360384285
0006c0 8b 90 0d c5 ae 62 e8 bf 00 76 6a 76 c1 28 df bf
       -0.7620462273303173 -0.48686253131913304
0006d0 d0 20 4c e5 a5 9b e2 bf d5 15 a3 86 3c f6 e3 bf
       -0.5815000036682481 -0.6238081578855438
0006e0 ed 33 cc 11 d9 55 e4 bf a2 50 03 4c ab b5 e4 bf
       -0.6354794833765688 -0.6471764073017037
0006f0 c4 1a db b7 a3 58 e0 bf 2e 55 93 74 96 a9 ab bf
       -0.5108202544150449 -0.054028226595315906
000700 f6 7a ed 1d 41 5c dc bf 48 9d ea 26 e4 9c d3 bf
       -0.4431307594549446 -0.30645088005481513
000710 0a 42 ed 0d 8c 0f ac bf be 3a 5e 36 ac b9 c2 bf
       -0.05480611486439464 -0.14629128126803964
000720 02 55 94 4d 64 eb c5 bf 5f 29 95 44 84 bf aa bf
       -0.17124608791406365 -0.052242406246096655
000730 37 b5 78 14 94 39 da bf e0 64 5f 8f 54 00 96 bf
       -0.4097643089215412 -0.021485635042925888
000740 ba d2 1c 7c 0c 1d 63 bf 62 75 d8 70 8c ea c7 bf
       -0.0023331874698676288 -0.18684535512958705
000750 ff d0 d1 9b 5e bb c7 bf 35 1c 77 3a ba 2e d2 bf
       -0.1854055653417461 -0.28410201749324254
000760 46 58 43 37 87 89 d6 bf c3 d8 32 46 9c bb c9 bf
       -0.35214405438216934 -0.2010379164473247
000770 99 af 59 48 2e af c4 bf 8a 4a c2 d3 24 9b e0 bf
       -0.16159609348994478 -0.5189384590069761
000780 93 15 74 ad 21 97 64 3f 00 66 fa a2 42 43 50 bf
       0.0025134713902185773 -0.0009925986050006719
000790 74 df 07 5a 8d 96 c1 bf 3e 48 8c e2 2f 70 d9 bf
       -0.13740698715241317 -0.3974723541624633
0007a0 5e c3 70 03 1e f0 b0 bf e1 c3 9c 84 12 70 a0 bf
       -0.06616389831539268 -0.032105044067414
0007b0 e5 6e 7a 1b 2e 03 bb bf 55 6e 53 dd 58 97 b8 bf
       -0.10551727457862688 -0.09605937388863002
0007c0 0c ac b7 b1 01 65 c6 bf ac c8 bd f2 bd de 95 3f
       -0.17495747735605993 0.021357505741840185
0007d0 69 1c 00 de 11 dd 7c 3f 16 22 67 a0 16 75 c0 bf
       0.007046766084392344 -0.1285732539383992
0007e0 0a 6c f7 84 77 fa d5 bf f0 e9 d9 e1 87 a6 b6 3f
       -0.34341228470810903 0.08847855819650596
0007f0 28 63 e6 2a c4 d2 cb bf 26 0e 71 35 66 10 c8 bf
       -0.21736957640384813 -0.18800046548322874

3.bias f8 [64]
000000 42 42 a4 a6 61 2b e5 bf 58 51 64 0c 56 c0 be 3f
       -0.6615455870360807 0.12012231638465687
000010 f7 6c 4f f5 61 61 db bf 99 17 21 ea 25 24 cc bf
       -0.42781876522140244 -0.21985315258114893
000020 3a b2 0a 1d 6c 8b d5 bf f9 34 7b 3c 55 e3 ca 3f
       -0.3366346629725602 0.21006265118777614
000030 fd 21 0a f0 d1 39 a7 3f 3b 1a e9 48 54 0b c3 bf
       0.045363007117945366 -0.14878324089132086
000040 d2 d1 a3 89 06 3a d1 bf 4c 48 b9 64 22 53 cb 3f
       -0.2691665977611396 0.2134745590033752
000050 f8 71 4b 5f c8 05 a3 bf c1 b2 f1 ba 4a 50 e0 bf
       -0.03715349353089786 -0.5098012591602911
000060 87 12 f3 fd c6 b5 74 3f cf fe fb fe ec d4 94 bf
       0.005056168854200244 -0.020343497336397228
000070 06 28 df 03 d4 77 c1 3f 12 a0 e9 a3 e5 00 7b bf
       0.13646936596916265 -0.006592652351720589
000080 d2 1d 91 ce 2c d3 c0 bf 3b 6a af 9d d2 77 90 bf
       -0.13144455038330577 -0.01608208739694759
000090 43 88 fe ba 84 72 c1 3f 91 dd 77 12 fe 5a dc bf
       0.13630732660846165 -0.44305373958146627
0000a0 63 2f 3c 1f 5d 82 96 bf 72 56 6c b7 bb 17 b0 bf
       -0.021981673270644275 -0.06286214092355083
0000b0 bf 18 4e 0a 4d 62 a6 3f 4a 53 7e bc b3 aa f4 bf
       0.04371872664255382 -1.2916753161454886
0000c0 e2 98 e1 b0 c8 67 a1 bf bc 08 c9 f5 4d bd c2 3f
       -0.03399493369288266 0.14640211583361473
0000d0 81 96 1a 16 7c 31 82 3f 68 5d 6f 0a 7b cb aa bf
       0.008883447098308796 -0.052333683990293534
0000e0 49 c2 4f 25 af 68 b2 3f b0 6b 79 fe a4 56 ce 3f
       0.07190985356260983 0.2370191805410662
0000f0 9e 1c 11 55 07 98 d0 bf 48 8c 12 d5 5a f6 b2 bf
       -0.25927909190472487 -0.07407157613720117
000100 66 00 40 cc c3 02 c8 3f cf 35 09 3b ea 6e f6 bf
       0.18758437607903317 -1.4020788484661926
000110 a7 67 e7 7a aa 68 b2 bf 2b 56 06 79 e9 1d 9b bf
       -0.07190957546791187 -0.026481292735829037
000120 84 7f 11 5a f1 f6 b9 bf 1e 8e 03 bc e9 8b d2 bf
       -0.10142429779943823 -0.28978961334925823
000130 ac ed 3c 94 c1 2c ab bf a8 42 b5 13 2d ff b7 bf
       -0.05307583746477049 -0.09373742800858997
000140 55 47 2f 07 69 0f b6 bf 99 99 dd ca 1a b5 da bf
       -0.0861726419964531 -0.4173037510976428
000150 1c 2f bc 2a 92 b5 bb 3f 44 42 e5 cd 7a 24 b9 bf
       0.10823930304848911 -0.09821288611170426
000160 53 ea 61 b6 6b 70 ba bf 59 d0 2f da 1a bb 96 bf
       -0.10327790453622158 -0.022198123519004607
000170 dc 1b 72 e2 05 24 c8 bf 38 b6 96 7f c8 9f ad bf
       -0.18859933430596143 -0.05785967404822795
000180 17 99 ce 41 fc 76 af 3f 0e 1f 0f 6b df f5 bd 3f
       0.061454661400875014 0.11703297008272903
000190 db 2c 91 27 71 57 7e 3f 29 36 85 31 7c 62 b1 3f
       0.0074076099491080195 0.0679090138339339
0001a0 2b b3 9e 48 ee ac b4 bf 73 b7 fc a2 88 2f c7 bf
       -0.08076371453234958 -0.18113811453207126
0001b0 6b ef 70 7b 5e 53 bb bf f2 27 92 5b 73 9e ae bf
       -0.10674086106967955 -0.05980263226327044
0001c0 22 68 ce 89 7e ff da bf 5a 86 48 e1 19 a2 fd bf
       -0.42184413392681297 -1.8520754623536022
0001d0 e9 1a 5b 72 fa 50 bf bf 7b 6e d7 59 ff 48 98 bf
       -0.12232938091174685 -0.02371596322869472
0001e0 b4 9e 40 b2 35 be cb bf 38 d1 57 8b a9 27 a2 bf
       -0.2167422409413483 -0.03545884920086667
0001f0 89 dc 0f c5 74 cb c9 3f b4 90 4e 0c 95 78 97 bf
       0.20152148840108833 -0.022920922161248483

7.weight f8 [1, 128]
000000 da 86 fc f1 11 7f 8e 3f 6f 98 62 2e db da 78 3f
       0.014890804478969445 0.006068092514544528
000010 eb 7a 6e ca 45 f2 d1 bf 1c 94 51 1f c2 f8 d1 3f
       -0.2804121472235425 0.28080800112212656
000020 0f 26 d8 2c f1 0f 93 bf ea 5a 58 bc e9 d1 c2 3f
       -0.01861550174911569 0.1470310372976294
000030 94 85 cd 20 b8 47 d0 3f 38 10 4f 81 cf c7 d8 bf
       0.254377395662311 -0.38719546916786696
000040 f9 fe 1a 28 8a a3 ce bf 11 92 b2 da 8a dc bc 3f
       -0.23936583479188991 0.11274020995421831
000050 8e e7 e7 10 f1 b8 d6 3f 63 ee ff d6 97 43 d3 bf
       0.35503794337238836 -0.3010005569082976
000060 8c e4 d3 02 5e 08 c0 3f a4 97 01 3c 16 65 b7 3f
       0.12525534761497104 0.09138621296878441
000070 22 49 4d 31 fe 9f d9 3f 9b a9 f5 76 45 cc d9 bf
       0.4003901940788116 -0.40309273354673686
000080 ab c9 b2 ef a1 a4 dc 3f af ab 74 30 a7 23 c8 bf
       0.4475483742527568 -0.18858804574969443
000090 45 32 68 e1 50 d5 e0 3f 5c 9f 2e 26 5a 75 b3 bf
       0.5260395433884432 -0.07600940162830966
0000a0 c9 ba fc 41 d8 54 a3 bf ad 08 09 b6 f3 8b a2 3f
       -0.03775668912418479 0.03622399899588067
0000b0 15 5d 62 b2 ce f3 a4 bf a9 a3 ca 83 97 ce a9 3f
       -0.04092260291616349 0.050404295766674885
0000c0 bb 58 ff a2 d9 07 e5 3f 27 74 74 b6 71 b7 dd 3f
       0.6572082694572353 0.4643215448175532
0000d0 08 5e 80 2f 5d bb c9 3f cb fd 20 02 22 cf 95 bf
       0.2010303956928825 -0.02129796159738166
0000e0 49 dc 4f 23 ff 63 e6 3f 25 39 00 db 5c 84 f0 bf
       0.6997066201864836 -1.032315116378933
0000f0 c0 c2 79 40 33 c6 dd 3f a9 e5 f8 6c e4 bd c9 3f
       0.46522218033264195 0.2011075527278028
000100 98 3a 8c d0 7c ab d5 3f d5 7f 19 e7 09 6d cd bf
       0.3385917698478038 -0.22989009651337136
000110 d3 9d 57 ed c5 87 da bf fa e9 9e 73 77 50 c3 3f
       -0.41453693559603016 0.1508931459955674
000120 11 e2 51 6c c4 ce dd bf 9b 71 bd 52 a0 91 dc 3f
       -0.46574507310973084 0.4463883216865498
000130 66 24 57 b2 66 d6 a5 bf c0 77 e0 e5 d6 ac 97 3f
       -0.042651376028126006 0.023120267658775395
000140 09 74 d4 43 4d 67 dd bf ff 84 62 08 dc c6 b4 bf
       -0.4594300424958538 -0.08115935520847371
000150 74 d7 49 2f 35 f1 b2 bf f4 da e2 53 97 a8 a2 3f
       -0.0739930382204344 0.036442498197564094
000160 37 46 ef 91 97 5d c3 3f cd fe e3 18 01 df bc 3f
       0.1512937033244712 0.11277777536087825
000170 f9 2e 61 e5 5b 1c 90 bf 1f 6e f9 98 b8 4e bd bf
       -0.015733180880757456 -0.11448243841862692
000180 c7 9e d6 6c 92 55 e6 bf 1e 77 73 8d e3 17 b9 bf
       -0.6979457975148414 -0.09802076533693735
000190 f6 a1 90 07 2d f1 d2 3f dc 63 9a e2 60 13 8d bf
       0.29597020853773814 -0.014197117724778545
0001a0 76 86 d6 b1 85 f4 d9 bf bf 9c 2d cd 40 48 aa bf
       -0.4055494534205545 -0.051332497640765855
0001b0 2e 56 ce 08 5b ec a6 bf be fa bc db 5a 9f 84 bf
       -0.044772000145865895 -0.010069570380094258
0001c0 9d ec b2 25 ee b6 d5 3f f8 a7 fd 25 3a 2b c9 bf
       0.33929017716918414 -0.19663168768903438
0001d0 2d 64 b2 13 3d b2 d3 3f 86 7a c5 63 ec ba ba bf
       0.3077538196899379 -0.10441472469163146
0001e0 6c 02 bc 2d cf 5c df 3f 82 9e 77 c7 67 97 d7 bf
       0.4900396296143643 -0.3686160514757618
0001f0 d1 14 df 57 36 d3 ac bf 1f 74 35 42 ba d6 84 bf
       -0.05629892180108132 -0.010175185342342684
000200 77 8d d4 a6 68 f3 e5 3f 71 0c 80 9e af 59 de bf
       0.6859629877475716 -0.47422399977239765
000210 57 b2 ba 5e b2 f3 a2 bf dd 68 d4 9b 6d 4b c6 bf
       -0.037015508712418814 -0.17417688473580642
000220 32 52 c6 f7 44 7f 40 bf 51 b9 d4 f0 85 6c 89 bf
       -0.0005034529454400248 -0.012414022838666357
000230 e1 e8 11 63 c3 08 da bf cb 39 9b a0 d2 69 c8 bf
       -0.40678486513901474 -0.19072945444209063
000240 8c 1b 30 bc e4 50 e2 3f 61 01 37 0f 17 bb c0 3f
       0.5723746943993873 0.1307095360080082
000250 92 04 43 02 f7 c2 dd 3f 27 b0 1c 7a fb 3f ce bf
       0.46502471180799276 -0.23632758581641264
000260 83 23 8c 84 33 d3 ce bf 4f 92 4e 73 f4 7f b7 3f
       -0.24082035038034286 0.0917961865912471
000270 a7 7f 4a 00 ee 13 dd 3f 80 4f 33 86 fd 09 b7 bf
       0.45434141186160065 -0.0899961903226636
000280 78 7f b6 58 83 24 87 3f 81 53 80 9e 41 36 7c 3f
       0.01130011190872414 0.006887680363452443
000290 fb bd 74 30 d4 f5 d3 bf c3 ed 79 9f 35 ed dd 3f
       -0.31187920314820844 0.467603116739806
0002a0 d9 c0 d3 5f 37 b1 70 3f f3 30 6a 8a 62 4d f1 3f
       0.0040752566394390505 1.0813928038433545
0002b0 76 9d a6 17 1d 18 d5 bf 33 d6 55 26 4d e6 c2 3f
       -0.3295967799153553 0.1476532399353104
0002c0 c3 44 3c 34 41 ed b3 3f 9b 7f 54 bc 24 a6 ab 3f
       0.07783896947173034 0.05400194930029941
0002d0 fd 93 9c db a9 23 e4 3f 7a 52 64 cf 3b 4e 74 3f
       0.6293534554757795 0.004957421906756404
0002e0 e8 f7 be fa d0 fd 99 bf a0 0d 6e be bb ec 8d bf
       -0.025382294945067857 -0.014611689328154764
0002f0 bd 1a a9 7e 58 a5 e0 3f bb 5c 32 23 c1 fe ab bf
       0.5201837991561075 -0.05467799715659668
000300 dc 5d 58 58 e5 26 dd bf 9a 7a d8 b8 ba 90 82 3f
       -0.4554990160699768 0.009065111890831635
000310 cb 33 1d b1 8a ab db 3f a7 3a eb 66 e0 75 ec bf
       0.43234507843299913 -0.8893892297872598
000320 af 6e 43 4e d2 43 d4 3f 27 1e 35 74 a6 47 d0 3f
       0.31663949625883964 0.2543731818045409
000330 37 bc f2 d5 ed d2 cc bf 83 39 93 56 1e dd d4 3f
       -0.22518704363526051 0.32599600271796464
000340 fb c6 4c 2f 89 17 87 3f 35 de 2e 1d a7 fe aa bf
       0.011275359874705062 -0.052724096596133675
000350 65 ee a3 33 c9 fa d3 bf a1 e4 19 97 64 db 93 3f
       -0.31218175929072906 0.019391605112535463
000360 0f 32 8e 7a 5a 41 e5 3f 8f 3f eb 4c d5 f9 df bf
       0.6642277139340552 -0.49962360869994255
000370 4f 51 9f e4 35 2b c6 bf 8c 94 60 0e de 51 c6 3f
       -0.17319368041229175 0.17437339498534177
000380 33 43 cb 46 b4 52 66 bf ed 4b cc 43 dc 6b 82 3f
       -0.0027249833131936184 0.008994789904624734
000390 70 e7 e6 d4 56 f4 88 3f 74 98 99 16 e1 a8 e1 bf
       0.012184790012600394 -0.5518651429563435
0003a0 7e 3d c0 9d af 45 c5 bf a5 9a 94 87 79 6f b4 3f
       -0.1661891479748014 0.07982596931524684
0003b0 35 11 74 77 c1 b0 77 bf 28 81 d1 ca c1 6e 5f 3f
       -0.005783801773990673 0.00191849637055703
0003c0 c8 b4 fb 17 9f ee 9b bf 64 15 fb af db 5d 8b 3f
       -0.02727745612985613 0.013362613971717514
0003d0 15 0a f7 20 39 1c db bf ce db f2 b9 bb cf bf bf
       -0.4235976049350552 -0.1242635086990582
0003e0 dc 45 e4 41 48 cd d1 3f 6b c4 db b5 84 50 92 bf
       0.2781544345353646 -0.017885278320083502
0003f0 5f 3e df e7 cd 97 7d 3f 7d 92 ef 3e 1f 5a b0 3f
       0.007224850005470878 0.06387515341300261

7.bias f8 [1]
000000 91 40 9e 39 16 49 8c bf
       -0.013811277039877974
