models/run1/run1_30.pt (torch, 153992 bytes, 6 tensors)

0.weight f8 [32, 1, 9]
00000000: d6bc e06b 885f b73f 0baf d871 8cef c03f
00000010: d9ea 8aa2 26e2 d2bf 04ff 5c6e 119d fabf
00000020: 4516 df1b a3d6 a23f 8ac0 e76e 7af5 ddbf
00000030: bf6e 9cdb 7a21 a43f 5d1a b3c4 4dfe eebf
00000040: 029b 7c69 5f88 e7bf e184 7559 1bea bdbf
00000050: 0f98 6627 f151 cdbf ac0f e38e 07b6 a8bf
00000060: 72ac f88f b702 a3bf 3af8 b766 bb01 dfbf
00000070: 55f1 7d81 912f dcbf 2cdf f0e3 683c 7bbf
00000080: 660c 47af 858d c9bf 75b1 69cf 9392 bebf
00000090: 9353 06ed cc6e 61bf 420e 536c 105c 73bf
000000a0: 8064 f5b9 9a4c e7bf 5d8c c546 8976 afbf
000000b0: ecb9 7303 8c2f 5fbf 6fd8 3a0f bfde cfbf
000000c0: a7e4 dba4 7e6b ddbf 1167 5a5a de07 ecbf
000000d0: fa9f 7770 bbbe a4bf 7b8e cb1d 9ba1 f3bf
000000e0: e800 a5dc 6904 edbf 296f 0495 d5c3 f3bf
000000f0: 4ecc 328d c2d9 81bf 82fc 5935 a660 74bf
00000100: 4226 44db e6ae 61bf cd4e 87e9 2071 e6bf
00000110: 80b5 5ba9 87f0 d3bf a147 6c7c 3da6 6ebf
00000120: cebc 9cf4 6e6b c63f 3f46 6899 8eb8 01c0
00000130: 5711 47de 77d9 e0bf a410 f0b4 9c9c bf3f
00000140: b60a fa4d 5716 c6bf 7588 813a 0bc2 c43f
00000150: 6dcb 8655 9752 d0bf ba12 5f96 07bf c33f
00000160: 234e ba19 227a e6bf 19c2 fa54 2d7a a33f
00000170: 9e30 804b 6dfa d7bf 1e08 8737 68f3 e9bf
00000180: a7fd 654d 83f2 01c0 e7e0 2b28 e1d3 c6bf
00000190: b052 c265 f4fc f4bf e111 fea7 d02c d0bf
000001a0: a90e 1b75 34d8 80bf 27c3 2b05 a5d5 8dbf
000001b0: e18c 45b5 1691 eabf 75b1 12de 529a edbf
000001c0: 1514 87fd 522b 9f3f 5309 aab0 3591 ddbf
000001d0: ec46 c425 5477 f7bf d072 4bb9 308f d0bf
000001e0: 5d14 feae 157f f9bf 8c32 523a c45f ecbf
000001f0: b300 d39a e105 7ebf 7f4d 3b40 e25c 91bf
00000200: 8a67 be20 8828 bebf 48a9 ecfa e8f5 debf
00000210: 1915 be7f 08e5 70bf 7b01 07e2 6331 00c0
00000220: 573b cccc 5bc0 903f 5af3 ff47 2781 dabf
00000230: 0872 bd21 b021 ae3f 4b43 acb3 bc8d f0bf
00000240: ce0a 7fb4 3cec c03f f995 403b baf5 ca3f
00000250: 73d8 675f 1a22 ffbf 465f e56c 1365 f2bf
00000260: 5508 ece9 7900 c43f 77f2 443f 755c a0bf
00000270: c288 4232 d54f 2bbf 0fda 22f5 45fa e4bf
00000280: 53ae 8b47 f1be 82bf b03e 89f4 447e f1bf
00000290: 7f7f 2a6f d0a3 e5bf 0700 622e 1e40 a03f
000002a0: 80d2 bd48 2c57 dcbf bb33 3c72 a26a dbbf
000002b0: 228a e99b c64b dabf b12c 928a 61f9 d9bf
000002c0: 6e6d affb 0362 d2bf 0650 4544 d122 f8bf
000002d0: 9052 9b4a 8cce e0bf d18c 48aa f92c 9cbf
000002e0: ed0c 3e25 f9eb d1bf fe80 328f f162 fcbf
000002f0: 5234 79bf 1e93 d2bf b672 b0d8 304a f7bf
00000300: fe8f fb58 06df ae3f 9ecb 6cc1 277a e2bf
00000310: 6ea3 4bc7 5fbc b5bf 1984 f2b7 051e a33f
00000320: 1737 5f37 8979 b43f a4bf 68fb f5ad e6bf
00000330: 2ced 1ab4 d3fd ecbf e169 b77e aaed eabf
00000340: e149 5184 7015 e1bf 280e 3649 794c 913f
00000350: a1e8 6716 051f e2bf c626 1bb1 d5fd d8bf
00000360: 16fc 49fc 0c01 88bf 2c62 2c65 fad2 ecbf
00000370: 5e89 b184 7c76 81bf 7947 116e 5e79 e5bf
00000380: 3ac6 1705 fa03 edbf a386 e154 6a37 42bf
00000390: 7fb6 e758 6be4 dcbf 8ebe f84b 49b1 d1bf
000003a0: 5283 079e cc89 f1bf e228 8224 8cda 7abf
000003b0: 6684 e0b8 898a d6bf 6d01 85a7 5a82 c3bf
000003c0: 1c37 6f89 35c2 eabf 20f2 4744 6327 e1bf
000003d0: 3d55 1317 b7f0 c6bf 582e 657a 6253 e2bf
000003e0: 1905 c335 d70e 77bf ad8d c43e f1bc b7bf
000003f0: 3115 01bc cad9 c5bf e145 91d8 fef3 e1bf
00000400: 0f79 4496 e216 dabf 866e 92b3 bde6 f0bf
00000410: 0d06 c2eb 2455 d5bf 63fd ebba 3ac1 e0bf
00000420: 31dd b2c5 8f6f e0bf 5b51 0fb1 245a 62bf
00000430: 3167 685a ca83 d1bf 4782 fef0 f2d5 8abf
00000440: 4dbe dd7b 80e0 d3bf 431f b907 9471 f9bf
00000450: 6f41 3569 3da7 e4bf ba10 a9bd ccef d8bf
00000460: 3921 7802 3c46 72bf f316 50d0 a52e dabf
00000470: 7981 9fb6 102c e4bf aae4 4448 cd13 a23f
00000480: 7129 2654 0ca6 b53f 8a1f 19d5 ae5d 62bf
00000490: da52 64a7 7528 7abf af78 8d50 2ec2 c4bf
000004a0: 9aa8 1afe 4562 03c0 ca8e 8b3e 3b80 adbf
000004b0: 5a1c b003 f9ea e2bf b530 7ae3 39da eabf
000004c0: b47e 67ea eb38 8c3f 6094 03a2 29f3 aa3f
000004d0: e797 fe41 39e3 b13f 8ac4 84da 1c15 f4bf
000004e0: 3b42 7754 4df3 e2bf e8fc 6908 f64f e6bf
000004f0: dd59 0b9d 87ee b83f 5408 d6be 856f fcbf
00000500: e0bf d45b 5c54 e8bf 73f6 2144 902c c03f
00000510: f4fb 6dc3 2565 b63f 754b a721 6ff9 b5bf
00000520: 4dc5 659b ffa4 b5bf ba52 98c2 6364 71bf
00000530: 8a2f 719a 20cf f7bf 8eb1 f10c 0405 73bf
00000540: d271 dccc e7b4 c6bf cde6 22a9 42f7 913f
00000550: 8fbf ff8c 840e eabf 339b a1df 880c 13bf
00000560: 8109 1f40 6b69 3abf 2391 afdd d8a3 e3bf
00000570: d95e 7b5a df6d d0bf aede 8170 a131 fdbf
00000580: b61e 0215 24f0 ecbf e90d f1f5 f164 f4bf
00000590: 891a 6517 e505 e1bf 1aeb 14d9 f2e5 4dbf
000005a0: 4578 ca8c 0b7e 7bbf 76dc ad24 9bc8 0cc0
000005b0: 8a15 598b f9df e7bf 0b42 8271 25d3 02c0
000005c0: 63b6 7aaf 328a c83f cfd9 9b47 136f cf3f
000005d0: 213e 08ff 5fab bb3f 4a48 bc65 fdc7 9f3f
000005e0: f30f cd08 9200 c7bf cf39 348b f3c0 70bf
000005f0: 231f 6208 aeb8 d2bf 267b 78ad 1e56 c13f
00000600: 5d2f a93e dae3 fabf 725d 5e05 0e14 c73f
00000610: 088b cc2b e38a c0bf 7e30 1edd 81c6 b13f
00000620: 9466 9855 c036 ecbf 58c4 d9dc aab8 efbf
00000630: 5fff 8101 1bf2 c93f 3b06 4c7b 6b0c c73f
00000640: dcdc 0b4f 92e5 b9bf 56ee 20d4 3dcd e3bf
00000650: b4da cb27 e86c 8ebf 055c 87ae 4426 c23f
00000660: 65cc d09d 879a 39bf 2fa7 306b 36a9 843f
00000670: 1833 2583 26f1 77bf f553 929e c994 a5bf
00000680: 9c5e e476 b287 03c0 0a73 d671 48aa ecbf
00000690: 59e6 1e0c e74b b43f b5d1 3072 f4fb b1bf
000006a0: 0a47 2084 5cc5 a83f 94e4 cc48 b721 d8bf
000006b0: 5140 6194 1fbb ddbf 3124 0f37 a4b7 71bf
000006c0: 2f66 6e87 10c8 e4bf 6a6c c220 fb9b e6bf
000006d0: a457 68b2 0e6c a03f 61f2 2aa9 09cd e4bf
000006e0: f3fd 7ade f522 ecbf 76e7 ea12 1fc9 c7bf
000006f0: e85b d774 cd21 cbbf 3ec6 df2e 3802 cfbf
00000700: 1309 0706 c732 eabf bbe4 009a 82ea ce3f
00000710: d72f 2f13 cc7b b13f 8e4d 7388 8536 c0bf
00000720: ee7f 3292 5db7 dbbf e00b 7186 c5ff f9bf
00000730: 032c bafc daad b9bf 9873 a440 573d e5bf
00000740: b704 27a8 0860 bb3f a199 3451 6fbb c4bf
00000750: 7bcf b206 fbba a23f cbff ab92 a261 cdbf
00000760: abd3 90e8 48a1 b6bf 9f52 1912 b05d d3bf
00000770: 7331 96ca 508a 07c0 92e5 fe00 b5f2 b1bf
00000780: 3285 9074 f2b8 febf 7a19 9177 11bb 1ebf
00000790: 29db d945 4961 b73f ee5f be53 43d5 bd3f
000007a0: d309 3fd6 433c d73f abfd 6b4b fa73 c83f
000007b0: 2e36 e09c 440e eabf 239a ad81 cc11 d53f
000007c0: b47f 29cb 6eff c03f 17b3 b9d5 12c9 9f3f
000007d0: 710d af77 dfc9 f0bf 70eb 518f 8e6b eabf
000007e0: f559 744c 728f 7ebf 9cd9 beb8 88dc 74bf
000007f0: 9c94 f944 a5a7 d6bf 82a0 c06a b67f c4bf
0.09130146630990352 0.13231044348628304 -0.2950531565981414 -1.663346701723584 0.0367938014528986 -0.46810780363649285 0.03931793146895534 -0.9685429422177766
-0.7353970585143943 -0.11685343679484418 -0.2290631716143143 -0.0482637750551754 -0.03713010437453414 -0.48448071509472224 -0.44040334363650874 -0.0066494080811521465
-0.19963141497109688 -0.11942409337797762 -0.0021280291040945503 -0.004726471093082165 -0.7281011230471819 -0.061451234711761706 -0.001903425914686725 -0.24898517841001275
-0.45968595599658574 -0.87596051833245 -0.040517671088139154 -1.2269545711395995 -0.9067887601341029 -1.2353111096371754 -0.008716125425371282 -0.004974984408931184
-0.002158594981783308 -0.7013096390823762 -0.31155578173532916 -0.003741378869912063 0.17515360778768357 -2.215115736479475 -0.5265464154586351 0.12348346154618867
-0.1725567942376835 0.16217174870240894 -0.2550409636707432 0.154267261909032 -0.7024088385100565 0.038041512130238604 -0.37465984700316735 -0.8109627804299213
-2.243414501833928 -0.17834104978079 -1.311756513115295 -0.2527352943946238 -0.008224878143102759 -0.014567651005081906 -0.8302110233747976 -0.9250883424152067
0.030438706134891264 -0.4619878983723044 -1.466632983709526 -0.2587396440047032 -1.5935265384335005 -0.8866902484019916 -0.007329827564888247 -0.016955886049641485
-0.11780596541794189 -0.48375916008321385 -0.004124673079677587 -2.0241162927997585 0.0163587898014684 -0.4141329005358806 0.058850769156126914 -1.0346037882302024
0.1322093850449932 0.21062400715997834 -1.945825932195956 -1.1496767286061682 0.1562645332524563 -0.03195539853411316 -0.0002083728551314831 -0.6555509364905577
-0.009153256412410082 -1.0933274795715242 -0.6762468501292317 0.031739180719341724 -0.4428206167570252 -0.4283834567621018 -0.4108749888020232 -0.40584600956271816
-0.2872323949684049 -1.5085003535105002 -0.5252133805430095 -0.027515316980623098 -0.2800276626296199 -1.7741561502116947 -0.29022949884967375 -1.4556129898475496
0.060295294153348764 -0.5774115350562743 -0.08490561118709447 0.037338427261836844 0.07997949220517984 -0.7087354574523386 -0.9059847371749234 -0.8415119624071928
-0.5338671287848308 0.016893286794141954 -0.5662866056075196 -0.39049284263147077 -0.011720754098176338 -0.9007541633646432 -0.008526776122555087 -0.6710655355220602
-0.9067354297132575 -0.0005559224316693156 -0.45144160921231696 -0.2764456979666442 -1.0961424038907421 -0.006556079322886018 -0.3522056870879794 -0.15241559199968027
-0.8362071689859678 -0.5360580762495069 -0.17922104479536385 -0.572678793957901 -0.0056293875351809625 -0.09272678167740507 -0.17070898227590584 -0.5610346059640358
-0.40764679598386605 -1.0563332571536264 -0.33332179091675657 -0.5235875750367253 -0.5136183606436245 -0.002240249312743509 -0.27366885022057647 -0.01310338781314714
-0.31057750793749933 -1.5902290631947416 -0.6454150252193765 -0.38963621636890944 -0.004461512005498763 -0.4090971502595117 -0.6303790633065055 0.03530732638541541
0.0845649438325944 -0.002241937131461873 -0.006386241517493752 -0.16217593129380733 -2.422985062779003 -0.05761895311823435 -0.5911831924467024 -0.8391389315525176
0.013780444231940116 0.05263643362722159 0.06987340794748285 -1.2551544700511692 -0.5921999597285955 -0.6972608723007427 0.09738967498865443 -1.777227158978822
-0.7602979463172197 0.12635997130194063 0.08748088856917474 -0.0858373124276975 -0.08454892677197741 -0.004246129692110296 -1.4880682022948997 -0.004643455336104897
-0.17739579680427525 0.01754478604627856 -0.8142721895110173 -7.266602907095021e-05 -0.0004030119745232139 -0.6137508706856675 -0.2567060836422406 -1.8246168513123098
-0.9043140802686682 -1.2746448142141793 -0.5319695908481928 -0.0009124217778329919 -0.006712002865837678 -3.5979521623190136 -0.7460906716957407 -2.3530987613560277
0.19171746795966546 0.24557724949381884 0.10808372475025198 0.031036338171425627 -0.17970490865457087 -0.004090262739977437 -0.29252196139030867 0.13544066877599298
-1.680628056305941 0.18029952299250912 -0.1292385066854751 0.06943523071658039 -0.8816835090430737 -0.9912924111832906 0.2027009732591933 0.18006652374610774
-0.10115923337785965 -0.6188038962495266 -0.014856160845267176 0.14179285547172085 -0.0003906804175272726 0.010088372369938618 -0.005845213354700694 -0.042150784117588026
-2.4412583626215802 -0.895786497439617 0.07928318067470154 -0.07025077617510685 0.048380747917816505 -0.3770578585568469 -0.4645461033842411 -0.0043255247737273165
-0.649421944154886 -0.7065406455834708 0.03207441261126512 -0.6500290206964331 -0.8792676301308674 -0.1858252375002924 -0.211969072390928 -0.2422552327039273
-0.8186984174465429 0.24153168220235507 0.06829524486892012 -0.12666386759393017 -0.43306674267841927 -1.6249442340492735 -0.10030907316301811 -0.6637378943010956
0.10693410973819338 -0.16197005715475846 0.03658279854553733 -0.22954208528244488 -0.08839851072191489 -0.3025932480571018 -2.942536909779102 -0.0701096656256566
-1.920153098421292 -0.00011722845182857668 0.09132821994158448 0.11653538507960068 0.36305328295216305 0.19103935892779353 -0.8142417015057555 0.3292113558185596
0.13279519004845286 0.031040472311747083 -1.0492853808544533 -0.8256295012682653 -0.007461019972899487 -0.005093130177490936 -0.3539822743972054 -0.16014747822305614

0.bias f8 [32]
00000000: 6a48 65f8 2491 7bbf 305e 056c 78ab 58bf
00000010: 4709 33ad ac7b a8bf 944f 4c51 8abf b2bf
00000020: 3956 b441 c61a 6bbf 2b97 4d1b 1813 973f
00000030: 90ca 54bd 7fcf cc3f 5c98 b984 e11b a4bf
00000040: 0162 e71c 9300 abbf c9e4 3004 b6d3 d63f
00000050: 630c d5c6 9621 573f 16ae 4fe5 bf4f a2bf
00000060: 600c e84f 6a8b 5fbf 9d5b 9b2c 433e a4bf
00000070: 2d6d 3dc9 7ee9 c83f ad62 a223 ec91 e3bf
00000080: bb7f bb2b 0422 a53f 1f16 cbae 786a acbf
00000090: 727c c4d5 46dc 763f 3057 8824 ed42 49bf
000000a0: 6b1e eedd c399 973f 7a3f bb23 ecca 86bf
000000b0: 5d81 434b 1e89 9bbf 5b3b f47d 7f7e 8a3f
000000c0: 59f5 328d e60b c43f 3a7b 8265 db33 97bf
000000d0: b8f0 af4a 9494 983f 5f81 19b8 b111 783f
000000e0: 7434 ed73 89a2 99bf 2ad7 d5ea 6739 cbbf
000000f0: 7fd8 6992 8a28 9cbf 9fef e1b5 5d16 8c3f
-0.006730217375961892 -0.001505725478713315 -0.047818561689853704 -0.07323517308060296 -0.0033086654854155542 0.02253377596516441 0.22508236641586565 -0.03927521462610237
-0.05273875930624073 0.356671814053311 0.0014118168285939473 -0.03576469110688778 -0.0019253290371359574 -0.03953752440946021 0.19462570978326124 -0.6115627952559258
0.04127514871447554 -0.05549981244761803 0.0055811659806571535 -0.0007709176944128201 0.02304750482610844 -0.011129231300770693 -0.026890252441149943 0.012936588317214939
0.15661317724690596 -0.022658756323490105 0.02400428491454029 0.005876249518763948 -0.02503409166392996 -0.21268938986366354 -0.027498402773254767 0.013714534867396653

3.weight f8 [64, 32, 9]
00000000: 7b8d 5434 3f54 cfbf d35a 0896 4af4 b8bf
00000010: a902 7d18 1c96 b1bf 5a31 4c97 2208 c1bf
00000020: e29e 3560 9987 763f 09eb 6ee9 cddd c8bf
00000030: ba29 52b9 52e3 9f3f 2748 01c7 c924 ad3f
00000040: 2009 e135 1e6f b0bf 94a1 8a9b c2d7 c4bf
00000050: d181 e31d 2554 c5bf 5fa6 f424 0845 d4bf
00000060: 6170 7556 4164 c8bf d1e2 4d15 47f0 c8bf
00000070: e422 e3ee 92e3 d7bf 8924 ffe1 9468 863f
00000080: 534b b0fe fb8a b13f b3a2 082f e8e7 d9bf
00000090: c974 5428 1e25 d6bf 2a34 ecc5 5daa b8bf
000000a0: 2fa3 8e10 2903 c9bf 9717 66cd 3f7d d0bf
000000b0: 6eaf 0bdd 61ca c2bf 9699 e7a0 7624 e4bf
000000c0: c247 d9b3 317b 743f 934a 3475 af84 ae3f
000000d0: 5a49 37fd af59 c7bf 23ba 5de6 6b8e b3bf
000000e0: e576 d256 756d 85bf 5c83 b9a4 293f 6d3f
000000f0: 8bf0 02e3 94e5 97bf 695c caf3 f32c c63f
00000100: 98dd dea8 0b95 b83f 2a6f 03d2 b4f8 c43f
00000110: 7a66 903a e72d bd3f 001f 232f 1b85 9b3f
00000120: 0209 d8b0 76e2 cbbf 6f77 8595 c030 c7bf
00000130: 367d 304c 4294 ccbf eb6b f74f 45bc c3bf
00000140: 3d80 586f 0a38 b1bf f476 9501 4a3a d6bf
00000150: fbaf b0b5 6b48 b1bf 397e 2f76 2c34 a03f
00000160: bf83 9d37 2eed b8bf ba63 b9f8 04d2 b4bf
00000170: ca5e 78d5 bdba a7bf c961 20d3 2555 c7bf
00000180: 57dd 0b20 417a bcbf c43f 5c01 32e3 b8bf
00000190: ca4f 2b79 2450 debf f76b a481 1f9a babf
000001a0: 00fd f80b 02e2 803f 93b6 eaff 011b c2bf
000001b0: a3f2 45c0 3d82 e6bf 3708 efd4 e63e e3bf
000001c0: 95b9 47a1 4080 e1bf 9260 1b0f 15b4 e0bf
000001d0: c4a3 8eba f464 dfbf 4121 9955 4307 e2bf
000001e0: 4e87 93ce dd13 a4bf 5d83 d9b3 f1e0 7bbf
000001f0: 7799 7456 d0c3 dcbf 1c93 d069 af9b d0bf
00000200: 57da 6c45 98fe c9bf 1a59 8cb8 f305 b3bf
00000210: dd7a 4afb 58e2 cfbf 249e abc3 0344 babf
00000220: 4288 7dde 8e76 e8bf 8a7e 75fc e24e a13f
00000230: 6b44 5e2d ae6a c03f 3a25 8804 038c b7bf
00000240: 802d 73a5 8cdc c7bf cf0e 75e8 3008 c0bf
00000250: f74c 21de ab24 c7bf 1968 6b8f b5a3 c7bf
00000260: 9417 e57e 6a4e b4bf a318 e95b a56e dabf
00000270: 6c47 acc2 a485 b5bf 5e81 7534 9c3b 683f
00000280: cc68 2825 843d c0bf 2f41 6980 981a e9bf
00000290: 9506 86e4 1758 dfbf 2421 662d af7f e3bf
000002a0: 3fc0 db9a 7e5b e4bf b112 1415 2481 e4bf
000002b0: 5fa7 53dd 88ec e1bf a652 8c88 56bd e5bf
000002c0: 8f3e 5b7f 0b11 bbbf 7893 f473 7528 d3bf
000002d0: 6f9f d05b 2e33 d6bf 5336 4095 089f c4bf
000002e0: e77b 5f63 2c5a cebf 6cf7 aa06 201f cdbf
000002f0: ca4d 88f0 0fa0 b7bf 0434 a4ef 96e0 e0bf
00000300: 74bd f787 ffe3 a1bf b9bb a725 3440 a63f
00000310: d620 4786 2bde 9bbf 5785 280f fae7 a6bf
00000320: 0a35 34bf 1458 b1bf 6ee8 68c2 005a ccbf
00000330: b325 f2b9 8f09 a1bf 6a1a 1ab4 01ce b8bf
00000340: 69a2 566a c90d c4bf eeb2 98dd 2d23 7a3f
00000350: dd39 198d ced8 bc3f e8a9 b3d1 4e56 a6bf
00000360: 544d 61cf 5721 c7bf 31c2 e7ab 9808 cbbf
00000370: 7b6a c9f9 8746 d6bf 8c7c 1055 122f d7bf
00000380: e717 78af 4d8f dbbf 1233 daf0 37f6 d5bf
00000390: 18ae 81a8 114b 9bbf 6c59 057c 32b6 68bf
000003a0: 6f5d bbdb 5238 d4bf b8ee bdb8 fe12 d6bf
000003b0: c1b4 0281 771a c5bf 9f66 9cc5 5980 ccbf
000003c0: 86dc 2b94 edee d5bf 3f0c ce17 50b2 bbbf
000003d0: 5f98 fcfa 198c edbf d229 0f63 4a44 be3f
000003e0: eb4c 9795 db9f ba3f 3705 f53a 5705 c2bf
000003f0: 2688 6a42 5034 e6bf 7e42 b869 4343 e8bf
00000400: 0a3b ed7b 4b72 e6bf 2199 aa8e b14f e5bf
00000410: 368a e2d9 54ba e8bf 8bb9 3d52 945e e6bf
00000420: 911d cfed ea5b d2bf 1d1c 49ab 8240 c43f
00000430: 26ba 6eee fbec e3bf 27fe 7352 1b70 9d3f
00000440: 4c0b c236 e8df 9dbf 2406 817f 2b0d 80bf
00000450: 535b 4d74 daa0 c13f 0d71 a4f6 52e6 abbf
00000460: 696d eb3e 2636 663f c6ea 3d42 eb4f ab3f
00000470: 0da6 bdc8 b0ce b73f c417 19e1 d792 bdbf
00000480: 65bc 8fe3 023b d2bf 2794 1896 6ec3 cfbf
00000490: 86ce a3cd 2def d2bf a19d c327 69b8 b23f
000004a0: 5980 f489 c20d c3bf ec8c 63ee ec6a e1bf
000004b0: 28a8 7c0a bf69 abbf 1886 57af 91a1 b0bf
000004c0: 3ec8 4166 1c72 b9bf 0a4c 4bec 34a3 d2bf
000004d0: 8f3f f9a6 9352 d8bf d749 cf91 109e d0bf
000004e0: 753f a41a 2463 c13f 3c63 926e 10e8 cebf
000004f0: 6f91 d57b f315 e5bf ec1a 11ca 4cab b0bf
00000500: 4eb9 fd7a 891c 943f 5557 bf9b 83bc b83f
00000510: 89fc b509 42fb c2bf ad1c cbb1 0ef3 b5bf
00000520: 112d be1b 8d83 cebf 601f 6de7 c404 cfbf
00000530: cf95 f4e7 d480 c4bf a50e 6ff9 e4c4 e7bf
00000540: f0a9 c393 6524 533f c01b 9e33 1a82 b8bf
00000550: 8cbc 91dd 0c08 bf3f 84d5 7ae9 f1bf e2bf
00000560: 686e 3d86 f5ff d2bf 993d d9a6 aec0 dbbf
00000570: c074 ef13 0665 d2bf 78ea 7e01 a672 d1bf
00000580: c891 5e12 b304 e2bf 68ad eabd 411d 953f
00000590: c8c3 c040 3b7c b03f a3af 9d29 d87c bcbf
000005a0: 1662 78c0 fbaf c1bf e7f6 4e5c ca08 bfbf
000005b0: 6693 f1c1 4683 cabf 7fc5 11b5 1b60 8bbf
000005c0: 35d1 6caa 911e d2bf 0333 2ff1 f035 d3bf
000005d0: 6528 7440 e571 adbf 46fc 04cd ca74 a6bf
000005e0: 3a82 9130 13a4 b6bf f794 94f3 487d d7bf
000005f0: 2d4e 5bb4 318c c1bf 2b0e 4f1a ba62 b3bf
00000600: 36a8 e9f4 b11b c5bf a92d baaf 1c39 8cbf
00000610: 15eb 3c11 1d6a d0bf c832 4fe5 c2d8 a1bf
00000620: b85b 0557 3d17 b4bf 6e4d 630d 9e47 81bf
00000630: de6a a7ae ccbc c2bf 8a8a 7d43 9957 bebf
00000640: 82c1 4a05 2820 bebf ee47 7178 92b8 aa3f
00000650: fd82 d1cf ec56 8d3f fd9f c625 7edb d3bf
00000660: 6b73 a5f1 fc89 ab3f 4ab6 4c7e 722b a3bf
00000670: 872b 1807 eff6 bdbf cd74 4737 37f9 c5bf
00000680: b2cd 2c28 10be d8bf 8604 4034 a3aa dabf
00000690: 49c0 6911 a602 d6bf 5c71 cd4e 3cf5 83bf
000006a0: 5911 17a4 c1da d0bf d554 7026 2be8 bb3f
000006b0: db16 751b 4192 c1bf 22a8 5803 0ff2 c9bf
000006c0: a016 4bed d46f e7bf 979f e5e4 5277 debf
000006d0: 95b5 899c ee42 e2bf 9aaa e03d 859d e3bf
000006e0: b2c8 09c9 21fd e3bf bfc4 09d3 ca4b e3bf
000006f0: b9f5 add9 c7c1 e1bf 375a 9374 96a9 abbf
00000700: 8ca4 688c d2aa dbbf 705a 457f 8f16 d2bf
00000710: 29cf d81f c902 adbf d8ff 5dc9 eaca c0bf
00000720: bc15 94e0 a2fc c3bf 383a 9490 7e04 a3bf
00000730: 3bf2 1371 aab9 d9bf 225b a333 f467 9fbf
00000740: 22d1 e707 298f 73bf dab4 42ee 441c c4bf
00000750: 7431 3bfc 7b8f c4bf d776 c20d ef9a d1bf
00000760: 7401 4237 61d8 d5bf 282b 3046 5059 c8bf
00000770: 0493 2ce8 6a72 c3bf 8b62 3e57 1897 dfbf
00000780: 0db0 5c3e 508d 70bf 8977 2836 5808 6ebf
00000790: 8a96 d4cc 37fa bbbf ee7b b600 60cb d8bf
000007a0: 1cc2 93b0 8ff2 b0bf db38 806f ff4e 93bf
000007b0: 8f22 0cb5 e49e b7bf 971c e576 0f33 b5bf
000007c0: 02bd 8347 cdd4 c6bf 78e1 4eb4 390e 933f
000007d0: efed 134a 5e7b 743f 12ad 52f8 4af0 b8bf
000007e0: 0a6c f784 77fa d5bf f0e9 d9e1 87a6 b63f
000007f0: 2863 e62a c4d2 cbbf 260e 7135 6610 c8bf
-0.24475851111592903 -0.09747759020715856 -0.06869674299106045 -0.13306076419429297 0.005500411152162351 -0.1942689313708217 0.03114060646161374 0.056921296637156886
-0.0641955262699736 -0.162834478328716 -0.1666304012242237 -0.3167133675475266 -0.19055954667681177 -0.19483269253011895 -0.3732650120623886 0.010941661021109066
0.06852698295578578 -0.4047794780076785 -0.34601549089877587 -0.09634958345505198 -0.19540894802528316 -0.25764460619427026 -0.1468012170147363 -0.6294510977430032
0.005000299597286375 0.05960605912891483 -0.1824245439916677 -0.0763919293801583 -0.010462681495762858 0.003570157370447564 -0.023336721759492234 0.17324685481864613
0.09602425453964825 0.1638399148422363 0.11398167781626425 0.026874947311426034 -0.21784862170176927 -0.18117530155989978 -0.22327450485406936 -0.1541830673657779
-0.06726136415864033 -0.34730768351242536 -0.06751130281253374 0.031648053576415376 -0.0973690877704163 -0.08132964203231455 -0.046346599872945385 -0.18228600319777247
-0.1112404540289068 -0.09721672566615697 -0.47364150841644614 -0.10391423144430677 0.008243576040625644 -0.1414492129892336 -0.7033985858284563 -0.6014284285413457
-0.5469058179858616 -0.521982697969195 -0.4905368635032199 -0.5633865997161039 -0.03921406885798594 -0.006806320333993946 -0.44945152705113095 -0.25950227101775325
-0.2030821169843928 -0.07430957084247716 -0.2490950800901918 -0.10260032202824526 -0.7644724221720554 0.03380498248838844 0.1282556268238609 -0.09198016033783044
-0.1864181335316566 -0.12524997091724407 -0.18080662103839248 -0.1846835089007193 -0.07932153318424034 -0.4130032918514052 -0.08407048943288736 0.002958111846666763
-0.12687732519481754 -0.7844965465574542 -0.48975179020644904 -0.6093364607523069 -0.6361687683656853 -0.6407642757117938 -0.5601238558567551 -0.6793625513988288
-0.10572883471763304 -0.29934440921561345 -0.34687384573270824 -0.16110331809652453 -0.23712687351414205 -0.22751236272409459 -0.09228610632299375 -0.5274157219406566
-0.03494261297953019 0.04345858535440734 -0.027214698858899343 -0.044738592481972254 -0.0677502600485306 -0.22149667256036615 -0.033276072929833055 -0.09689341208477634
-0.15667073910050824 0.006381205713790845 0.11268320984638742 -0.04362722692333759 -0.1807050478551938 -0.2111998404866582 -0.3480548800777467 -0.36224802310057025
-0.4306215489926885 -0.3431529857705736 -0.026653552923035034 -0.003016565897421211 -0.31593772371476 -0.3449093631859159 -0.16487020301193492 -0.22266695164653513
-0.34270801038605503 -0.10818958836721125 -0.9233522321781144 0.1182295314639881 0.10400173570751618 -0.14078798655286004 -0.6938859269323572 -0.7582108559455063
-0.7014520092432985 -0.6659782206013781 -0.7727455382885811 -0.6990453344604232 -0.2868602106431917 0.15821870196870771 -0.6226787239919005 0.028747965724504134
-0.029174450246965564 -0.007837619618047027 0.13772135428254248 -0.054491608245571845 0.0027113673198592603 0.05334410842529773 0.09299759770296863 -0.11552190061146833
-0.28485176298904086 -0.2481516106501271 -0.2958483226968628 0.073126384933508 -0.1488574193581396 -0.5443024307282065 -0.053541154890197895 -0.06496534853752
-0.09939744469173292 -0.2912113483009199 -0.38004008584993526 -0.2596475051806499 0.13583804417475745 -0.24145703696265197 -0.6589295786512092 -0.0651138299300375
0.019640110141545812 0.0966264968149891 -0.1482927844444684 -0.08574001160296758 -0.23838962416298462 -0.2423330430995021 -0.16018163038204 -0.74278496472876
0.0011683456387411272 -0.09573520431705074 0.12121658715635614 -0.585930782332682 -0.29687250241634056 -0.4336353902226278 -0.2874159998589896 -0.27262258668967077
-0.5630736693170144 0.020619418350788093 0.06439562159427148 -0.11127997413649253 -0.13818308732949508 -0.1212278819429816 -0.20713123769669578 -0.013366905654239812
-0.28311578410218213 -0.3001673083606848 -0.05750957881726108 -0.043859803702155406 -0.08844108520271102 -0.3670217875208687 -0.1370908861778032 -0.07572520391755037
-0.16490768869999933 -0.013780807602663385 -0.25647665675539716 -0.03485688256441716 -0.07847960829290812 -0.00843738058430318 -0.14638670471216292 -0.11852414987292029
-0.11767816666793432 0.052189423754171446 0.014325952617754373 -0.31027177514124543 0.053787140367353846 -0.03744085113281111 -0.11704915927127334 -0.17166795920539926
-0.3866005318006628 -0.41666488745256236 -0.34391166401383494 -0.009745093493329797 -0.2633518316690889 0.10901136101195459 -0.13727582779590972 -0.20269954360384285
-0.7324013361582793 -0.4760329470941484 -0.5706704194432627 -0.6129785736605584 -0.6246498991515834 -0.603001987632659 -0.5549048663667043 -0.05402822659532485
-0.4323011752299599 -0.28262698582458423 -0.05666187776333082 -0.13119253952390753 -0.15614734616990045 -0.03714366450195822 -0.4019571403767121 -0.03066999020742423
-0.004775200154189004 -0.15711270936791416 -0.1606287938688059 -0.27508140891755545 -0.3413317718150417 -0.1902256338801973 -0.15192924820544118 -0.4935971118916675
-0.004041017009324588 -0.003666088379090608 -0.10928677321188665 -0.38741302556621704 -0.0662011915299065 -0.01885604017302787 -0.092268270684267 -0.08281036999425094
-0.1783691977684399 0.018608953123221167 0.005000465696180608 -0.09741657793590644 -0.34341228470810903 0.08847855819650596 -0.21736957640384813 -0.18800046548322874

3.bias f8 [64]
00000000: 7e42 01dd 88d5 e4bf a98d b48b 1aa3 b23f
00000010: c4f2 6882 2c1c d7bf c13c 8894 b597 c2bf
00000020: ca9c d7a5 ce08 a9bf 237b dadc eadf c13f
00000030: 7a85 60a5 adc2 a03f ca81 30bc 45c8 b9bf
00000040: 3578 6864 fe39 d1bf 452e 5c7a c503 bb3f
00000050: f871 4b5f c805 a3bf 83f7 cf83 a37e e1bf
00000060: 365c b875 d46c 8a3f 98b4 43d4 b905 6ebf
00000070: caf0 3375 61f9 b73f 5a82 7118 c8b2 913f
00000080: 4f32 d6a2 363b b93f e199 ad97 f3fe a6bf
00000090: f117 d74f 7881 93bf fa56 1845 4a39 e1bf
000000a0: 7ded bc28 96f5 b4bf 7256 6cb7 bb17 b0bf
000000b0: 84bd 7860 c3f1 9c3f c891 9c7f d7c3 dfbf
000000c0: 7c05 4bc2 1567 7fbf 11cf 6f3c 2142 b53f
000000d0: 4b0a 7056 0536 89bf 685d 6f0a 7bcb aabf
000000e0: 1f63 8d80 e880 96bf d091 7911 1d56 c63f
000000f0: 2c9e dd7c fa76 9abf dbf4 c786 663e aebf
00000100: 5d11 ee07 a293 bf3f 8477 b6d9 46b7 e7bf
00000110: cb33 e78e d028 adbf b018 0248 380d aebf
00000120: a5a5 d17e 6e5c a8bf 567d 5c0b e788 cebf
00000130: 1ad4 dd9a 9665 a13f 867d b5b9 4b15 aebf
00000140: 9697 c7fe 9825 b2bf 7d04 1db6 7541 b4bf
00000150: e028 a94f 3665 b83f 3c80 12d1 e846 b9bf
00000160: 47dd 3f24 0d61 babf d4e4 79ea d401 653f
00000170: fb6b f40d 9f23 d6bf 42e0 43eb 2789 7bbf
00000180: d186 28ab 9236 b33f 7309 2b02 5226 c53f
00000190: bb5a 6bae 496a a0bf 1622 2c94 a6d8 9a3f
000001a0: f2c9 2850 b3d0 b6bf 9a12 7796 1bf0 d1bf
000001b0: abc6 ca76 7f2a a6bf 675d 468b 4bf7 b5bf
000001c0: 2268 ce89 7eff dabf fa3d ff65 bd69 f4bf
000001d0: 4aab c2d5 dd54 bdbf fcb5 c2f6 2960 bcbf
000001e0: b49e 40b2 35be cbbf 7025 02db 1046 b5bf
000001f0: ab6d 1dd1 fa4a bb3f 46de 5e8c 9578 97bf
-0.6510662380697594 0.07280126486562345 -0.36109459624621487 -0.14525480034396845 -0.04889531874123916 0.13964591773852772 0.03273527759325652 -0.10071216434926736
-0.2691646557376573 0.10552629697138467 -0.03715349353089786 -0.5467088293514596 0.01290288910153779 -0.003664839694570942 0.0936489974155307 0.017283560268312882
0.09855977511888024 -0.04491387583293594 -0.019048576233920703 -0.5382434224618173 -0.08187235350208329 -0.06286214092355083 0.028266003382837038 -0.4963282343108202
-0.00766666888802214 0.08304031110293077 -0.012310067844741776 -0.052333683990293534 -0.021976120802125295 0.17450297692552263 -0.025844491835782232 -0.05906982798840384
0.12334644979097704 -0.7411226513101927 -0.05695201630042098 -0.05869460944181648 -0.04758019731600464 -0.23855293326139798 0.0339781822248499 -0.05875622407870211
-0.07088619442182983 -0.07912383743406966 0.09529437489360104 -0.0987382421903939 -0.10304338583943205 0.0025643499864683537 -0.34592415201922194 -0.006722598966227679
0.07505146673841102 0.16523194414009942 -0.032060911694931936 0.02621708182690171 -0.08912201601996353 -0.28028001493320576 -0.04329298329447558 -0.08580467367425158
-0.42184413392681297 -1.2758153900393823 -0.11457621067772297 -0.11084234499386264 -0.2167422409413483 -0.08310036990055436 0.10661285024018834 -0.022920929615535955

7.weight f8 [1, 128]
00000000: da86 fcf1 117f 8e3f 59c3 0aaa b01d 623f
00000010: f3e3 a045 6270 c0bf 12aa 353b 3740 d43f
00000020: 8880 33ea 8572 c0bf aed6 7b5f e700 8f3f
00000030: 7a31 3461 c2bd d73f 6588 e303 7bbe d8bf
00000040: 62f9 418a 1fb1 e1bf 041e 9fdb 5d31 c43f
00000050: feae 4dd5 0c06 d13f 3eb5 4786 c573 c0bf
00000060: 75f0 bff9 8a24 c73f 7f26 cc21 2214 b23f
00000070: ba3f 9497 2d18 cb3f b69d 4bf0 00e9 cbbf
00000080: abc9 b2ef a1a4 dc3f b0f7 53b9 d323 c8bf
00000090: dcc3 fc9d 4bae d43f 2d5c a69d e60b c6bf
000000a0: c9ba fc41 d854 a3bf ad08 09b6 f38b a23f
000000b0: 155d 62b2 cef3 a4bf f513 df60 e1fc bb3f
000000c0: d61c 33af 7e89 dc3f 9900 f33f 429d 4b3f
000000d0: deeb dc82 5e74 d53f e5aa ce0e e1bf 933f
000000e0: 1166 9e73 c723 e03f f405 e74a bfb0 ccbf
000000f0: beac f91a 15d1 da3f 9f14 1890 1147 8f3f
00000100: 13f5 68c3 1cd5 d93f c4d4 fcfc 9bad d5bf
00000110: ab08 afc1 0790 dbbf 6d75 9d2d 40f4 c73f
00000120: aab6 dcca 419c d4bf af66 5976 9b77 d53f
00000130: 7813 a6e5 4790 b7bf ac68 0895 45bd a43f
00000140: f2e4 b5e8 3121 d5bf 7c34 88e8 b580 c4bf
00000150: 74d7 492f 35f1 b2bf f4da e253 97a8 a23f
00000160: 3381 1f0c 3193 cd3f c252 7686 750b b13f
00000170: f92e 61e5 5b1c 90bf 2c5b 9efb e4b1 913f
00000180: 82f7 7217 7059 e2bf 5156 3022 57ab b2bf
00000190: 639e 82ff a498 dd3f d179 f122 fca0 c7bf
000001a0: 7cfa 9a60 155e d8bf c571 474d 40ac b3bf
000001b0: 2e56 ce08 5bec a6bf befa bcdb 5a9f 84bf
000001c0: f692 4c5f b9a6 d33f 9015 e20c 781d c6bf
000001d0: bb5f c623 1855 d93f 66ad 701c 0ea5 c7bf
000001e0: 875a 1a14 6105 d63f 1f9a 367c e2fe d6bf
000001f0: d114 df57 36d3 acbf 593b 6329 dfa0 843f
00000200: 600a 37e3 1b60 d63f 02ec 5bf4 ac76 bfbf
00000210: 57b2 ba5e b2f3 a2bf 7f51 18ef fdb0 a3bf
00000220: 3252 c6f7 447f 40bf 9109 22ef 5908 9cbf
00000230: 4e65 0f9e 1cac dabf 9068 e9b1 a9d2 c5bf
00000240: 4d85 9ddb 234f da3f c6ac 01d6 e822 c83f
00000250: 9204 4302 f7c2 dd3f 7a28 37d6 954c c7bf
00000260: 8001 f1cb ee78 d6bf 7439 29de 1617 873f
00000270: 5b6c 6c94 8626 d93f a28e fc10 f181 8e3f
00000280: 787f b658 8324 873f e37f 9ba0 609b 983f
00000290: 4ce3 2ce4 a24e d3bf c644 f216 b5d0 e03f
000002a0: c064 2ffa 0e82 c03f 3f51 4166 9480 f13f
000002b0: b2a0 45bf e87b ccbf 8ba2 039c b197 c23f
000002c0: c344 3c34 41ed b33f bcd9 4ce9 ffaa ab3f
000002d0: 4c5e 53a5 b0db db3f 9b4b 61b5 2b8e a83f
000002e0: ac55 4170 d94f afbf 1d84 00fe ae76 a63f
000002f0: 37ea 37a2 94f1 dc3f 9b19 4c50 b6ac a93f
00000300: d866 4de5 53df d7bf bd58 d1f1 f8c0 b7bf
00000310: 3f60 c8ca aa25 e03f bdbf 9de9 60cf cfbf
00000320: 7925 b76f 50a3 d13f 9c00 9123 93d8 bc3f
00000330: 99fc 81a0 14e6 adbf e8c5 f11b 352f d83f
00000340: 15ec d8cd a09f b2bf cbc4 b81a 4972 acbf
00000350: 3892 7ad2 85c1 d1bf 03ed 7285 c3a2 bb3f
00000360: 26e9 2d87 d2e0 db3f 326b d55f 3711 d0bf
00000370: b398 1861 c8c4 c2bf bd1b b1a9 3f9b c53f
00000380: 3343 cb46 b452 66bf ed4b cc43 dc6b 823f
00000390: 70e7 e6d4 56f4 883f a65e c532 c878 d8bf
000003a0: 15e3 73ea 33fd d0bf 94f2 f0c1 f729 c43f
000003b0: 1125 c1cd 1fe5 96bf 078f 6cbc 2bf8 ad3f
000003c0: c8b4 fb17 9fee 9bbf 6415 fbaf db5d 8b3f
000003d0: ced2 d91d 4376 d2bf 544f ac2e 2814 cbbf
000003e0: ffec 0638 4341 d83f a341 f06d 1cf8 a8bf
000003f0: 5f3e dfe7 cd97 7d3f 4772 1e38 1f5a b03f
0.014890804478969445 0.0022114229653528547 -0.12842968368366278 0.3164194181651122 -0.1284949678001832 0.0151384426130606 0.37095698826376344 -0.3866260087944567
-0.55287148478946 0.15775655006130773 0.26599427061476877 -0.12853306824346505 0.18080269999325407 0.07061971020825729 0.2116753568775474 -0.21804820759937876
0.4475483742527568 -0.1885933546945444 0.3231381457181308 -0.17223818490740098 -0.03775668912418479 0.03622399899588067 -0.04092260291616349 0.10932739844345447
0.44589202031461406 0.0008427213178024028 0.33522761134707746 0.019286648300901005 0.5043675668886768 -0.2241438976034683 0.4190113795691096 0.015272271356489063
0.4036323459911994 -0.3387212725240938 -0.4306659118120801 0.18714143969820488 -0.3220371705127528 0.3354252486948139 -0.09204530102404174 0.04050652927635787
-0.33015105939519096 -0.16017793516258283 -0.0739930382204344 0.036442498197564094 0.23105443088480512 0.06658110173004686 -0.015733180880757456 0.01728017602689673
-0.573417707251551 -0.07292694649398725 0.46244168235941724 -0.18460036951269257 -0.38074240144843663 -0.0768470944089535 -0.044772000145865895 -0.010069570380094258
0.3070510321288532 -0.17277432087955136 0.39581874364511876 -0.18472458256415364 0.34407832110574826 -0.35930692796901725 -0.05629892180108132 0.010072463465261515
0.34961602391209645 -0.1229045960025559 -0.037015508712418814 -0.038459716259384706 -0.0005034529454400248 -0.027375607700841412 -0.41675486980019094 -0.17049142062279943
0.4110803265267194 0.18856535386598788 0.46502471180799276 -0.18202469787349057 -0.351131152307083 0.011274508147064856 0.3929764222572822 0.014896281557930383
0.01130011190872414 0.024030217936228736 -0.3016745785021626 0.5254769752665644 0.1289690705878339 1.0938915247289314 -0.22253140773250873 0.1452543269908982
0.07783896947173034 0.05403899882223892 0.43528381486018897 0.04795967663871822 -0.061156077340153686 0.04387423372850938 0.45224490968363135 0.05014581422988159
-0.3730058421402709 -0.09278827575448907 0.5045980415916417 -0.24851619154969554 0.27559290799816655 0.11267966860123341 -0.05839600047419786 0.3778813145537172
-0.0727482321316731 -0.055559429656918256 -0.2774366908509225 0.10795232780485624 0.4355970687971812 -0.251050799930158 -0.14663033238429576 0.16880031381353247
-0.0027249833131936184 0.008994789904624734 0.012184790012600394 -0.3823719497499759 -0.26545427222986123 0.15753075570855357 -0.022358414586311662 0.058534018279059956
-0.02727745612985613 0.013362613971717514 -0.2884681502830916 -0.21155264166793109 0.3789833113803098 -0.04876793710730289 0.007224850005470878 0.06387515182581992

7.bias f8 [1]
00000000: c635 9be1 e2ca 8b3f
0.013570568571050223
