models/run1/run1_71.pt (torch, 153992 bytes, 6 tensors)

0.weight f8 [32, 1, 9]
000000 01 88 e9 48 e3 2d c1 3f 91 aa 52 20 41 da b1 3f
       0.1342128854767566 0.06973654784330054
000010 3b b3 f5 ca 03 13 d9 bf 6e 15 f7 c1 16 94 01 c0
       -0.3917855722454992 -2.1973090318230595
000020 ca a0 31 0a fe 91 94 3f 7f 8c f3 93 80 d5 b1 bf
       0.02008816659181959 -0.06966403591245472
000030 58 5b a0 6b c4 ff ad 3f 7e 1b ae 24 bb d4 f8 bf
       0.05859197439001801 -1.5519362862412147
000040 5e b3 db 05 60 35 f6 bf e1 84 75 59 1b ea bd bf
       -1.3880310276828918 -0.11685343679484418
000050 0f 98 66 27 f1 51 cd bf ac 0f e3 8e 07 b6 a8 bf
       -0.2290631716143143 -0.0482637750551754
000060 72 ac f8 8f b7 02 a3 bf 3a f8 b7 66 bb 01 df bf
       -0.03713010437453414 -0.48448071509472224
000070 55 f1 7d 81 91 2f dc bf 2c df f0 e3 68 3c 7b bf
       -0.44040334363650874 -0.0066494080811521465
000080 66 0c 47 af 85 8d c9 bf 75 b1 69 cf 93 92 be bf
       -0.19963141497109688 -0.11942409337797762
000090 93 53 06 ed cc 6e 61 bf 42 0e 53 6c 10 5c 73 bf
       -0.0021280291040945503 -0.004726471093082165
0000a0 80 64 f5 b9 9a 4c e7 bf 5d 8c c5 46 89 76 af bf
       -0.7281011230471819 -0.061451234711761706
0000b0 ec b9 73 03 8c 2f 5f bf 6f d8 3a 0f bf de cf bf
       -0.001903425914686725 -0.24898517841001275
0000c0 a7 e4 db a4 7e 6b dd bf 11 67 5a 5a de 07 ec bf
       -0.45968595599658574 -0.87596051833245
0000d0 fa 9f 77 70 bb be a4 bf 7b 8e cb 1d 9b a1 f3 bf
       -0.040517671088139154 -1.2269545711395995
0000e0 e8 00 a5 dc 69 04 ed bf 29 6f 04 95 d5 c3 f3 bf
       -0.9067887601341029 -1.2353111096371754
0000f0 4e cc 32 8d c2 d9 81 bf 82 fc 59 35 a6 60 74 bf
       -0.008716125425371282 -0.004974984408931184
000100 42 26 44 db e6 ae 61 bf cd 4e 87 e9 20 71 e6 bf
       -0.002158594981783308 -0.7013096390823762
000110 80 b5 5b a9 87 f0 d3 bf a1 47 6c 7c 3d a6 6e bf
       -0.31155578173532916 -0.003741378869912063
000120 e5 7d 41 97 cc b3 bb 3f 6b 9d 2c 7b 6b 0b 02 c0
       0.1082122678067133 -2.2555760977735893
000130 2c fd d3 a9 95 1e fc bf d7 cd c1 c3 c0 7c 9a 3f
       -1.7574669488820502 0.02586651987844654
000140 b4 61 61 4c d0 5b dd bf ed 00 8e 18 ea 17 98 3f
       -0.4587288614179912 0.02352872633810048
000150 59 b5 b6 4b 11 46 ec bf f2 ad 64 68 02 08 b6 bf
       -0.8835531691344541 -0.08605971382774394
000160 9c 1d e4 82 65 4a f3 bf e7 27 dd df d6 85 a5 3f
       -1.2056632149632156 0.04203673823083403
000170 9d bb 41 32 ac ac e9 bf de 32 f3 d4 66 0e f8 bf
       -0.8023282033517379 -1.5035160368308236
000180 77 f6 c3 83 6b 19 01 c0 22 95 d9 e7 22 bc b2 bf
       -2.137412099283036 -0.07318323288344122
000190 f7 ba ed b3 3f 0c f4 bf 82 64 3d c8 96 20 da bf
       -1.2529904392683286 -0.40823907427472517
0001a0 b5 9a 7c 0b 20 ae a4 3f a3 e5 7c c4 53 d5 af bf
       0.04039096965998593 -0.062174432502114095
0001b0 1b a0 bd b8 dd 5e d6 bf 0a 94 dd d9 d3 cf d4 bf
       -0.3495401672466884 -0.3251847865670362
0001c0 37 85 92 88 4e d6 af 3f 36 ee 2c 62 7f a2 e9 bf
       0.06218190590994726 -0.8010861318102289
0001d0 30 bf be 88 3b d8 fe bf de 2a a2 ac db 90 00 c0
       -1.9277911511998802 -2.0707314955701426
0001e0 12 22 a5 dd b3 60 f2 bf 13 59 19 7f 8c 12 f1 bf
       -1.1486090333947954 -1.067028519135026
0001f0 f8 cd 70 a0 a5 d9 a3 3f 81 aa c4 67 bf 13 d1 bf
       0.03876988967422429 -0.26683030255905044
000200 90 f6 44 24 4f ae a4 bf f6 fe c2 db 6e f2 b3 bf
       -0.04039237325421852 -0.07791798463130903
000210 8c 1d 86 c5 5d 21 ad 3f 71 50 26 27 54 4c 07 c0
       0.056895189630320336 -2.91226988397289
000220 85 d9 a3 5b 95 48 bc bf 29 c0 53 3d 8a 88 b3 bf
       -0.11048253524118053 -0.07630218503231902
000230 bb e2 86 25 af ba a7 3f 0f a1 49 cb 52 d9 fe bf
       0.046346162157936154 -1.9280574742243208
000240 a0 c6 da 15 f5 d2 92 3f 84 e9 95 31 6d 0d bb bf
       0.018382863482378498 -0.10567362270913888
000250 f0 75 3b 11 07 ef fe bf 3a 14 ff d8 4c fe f4 bf
       -1.9333563492904169 -1.3120850063726395
000260 5d 7c 24 7e 53 16 01 c0 93 dc d9 da e6 03 f4 bf
       -2.135901437271555 -1.2509525822513623
000270 e6 2f 3b 28 1f 76 a8 bf 9c 8f a2 78 1b cc f2 bf
       -0.04777619711020957 -1.1748308861069523
000280 62 2b e1 89 22 0d f2 bf ac 2c be 8a 8a 40 fc bf
       -1.1282067666931757 -1.7657571239131284
000290 29 db b7 a5 03 53 fb bf 82 81 59 9f 5f a2 88 bf
       -1.7077671502463068 -0.012028452921357017
0002a0 48 c7 94 45 32 29 e8 bf ed 5d 08 df 37 d8 e9 bf
       -0.7550288542754311 -0.8076438289744466
0002b0 86 1d ba af f2 85 e9 bf f8 4b 96 b9 6b b7 ea bf
       -0.7976010734718535 -0.8348902344463331
0002c0 74 4a a5 df a3 61 eb bf 16 8b f0 93 c1 71 00 c0
       -0.8556689613418045 -2.055545001772212
0002d0 85 8c 4e ad 4a b8 de bf 59 c6 a8 a0 5f 86 d1 bf
       -0.4799982731294182 -0.2738265103281257
0002e0 f6 f0 ae 79 a1 ff ca bf 6c d1 64 18 7c 1a 07 c0
       -0.21092623178072473 -2.8879320054785946
0002f0 bd fc dd cb c7 75 cc bf ad 11 43 fe bf 3a 00 c0
       -0.2223443742222794 -2.028686510488305
000300 9a dc d5 74 17 7e 9c 3f 9f 9c cb 13 ea bd f1 bf
       0.0278247513828914 -1.1088658116584964
000310 17 3e fa 2b 0d 10 e3 bf d6 5f 44 ca 98 7c a1 3f
       -0.5957094057975522 0.034153723421866
000320 c9 85 45 0d 88 06 80 bf f7 ee 55 83 81 38 f4 bf
       -0.007824957757011657 -1.2637953882503419
000330 c0 58 6d e4 29 6a ea bf 16 d6 96 13 18 eb 86 3f
       -0.8254594289271822 0.011190593812766141
000340 fa 51 f2 02 7b d7 d8 bf aa 07 76 4e 45 92 c6 bf
       -0.38815188682318047 -0.17633882838350462
000350 29 bc b4 af b1 be e2 bf 92 e1 57 85 05 85 74 3f
       -0.5857780868299233 0.005009671750933713
000360 16 fc 49 fc 0c 01 88 bf 2c 62 2c 65 fa d2 ec bf
       -0.011720754098176338 -0.9007541633646432
000370 5e 89 b1 84 7c 76 81 bf 79 47 11 6e 5e 79 e5 bf
       -0.008526776122555087 -0.6710655355220602
000380 3a c6 17 05 fa 03 ed bf a3 86 e1 54 6a 37 42 bf
       -0.9067354297132575 -0.0005559224316693156
000390 7f b6 e7 58 6b e4 dc bf 8e be f8 4b 49 b1 d1 bf
       -0.45144160921231696 -0.2764456979666442
0003a0 52 83 07 9e cc 89 f1 bf e2 28 82 24 8c da 7a bf
       -1.0961424038907421 -0.006556079322886018
0003b0 66 84 e0 b8 89 8a d6 bf 6d 01 85 a7 5a 82 c3 bf
       -0.3522056870879794 -0.15241559199968027
0003c0 1c 37 6f 89 35 c2 ea bf 20 f2 47 44 63 27 e1 bf
       -0.8362071689859678 -0.5360580762495069
0003d0 3d 55 13 17 b7 f0 c6 bf 58 2e 65 7a 62 53 e2 bf
       -0.17922104479536385 -0.572678793957901
0003e0 19 05 c3 35 d7 0e 77 bf ad 8d c4 3e f1 bc b7 bf
       -0.0056293875351809625 -0.09272678167740507
0003f0 72 ad 30 53 c0 c9 e5 bf 0a b8 f5 4e 8f c0 e5 bf
       -0.680877840500598 -0.679755834787785
000400 7e f9 8b 9b cf 21 e6 bf 30 3f 8f 13 9c b2 f0 bf
       -0.6916273153326953 -1.0436058773083907
000410 97 85 c7 1e a5 f5 e8 bf 60 61 43 32 50 c6 e8 bf
       -0.7799859620246704 -0.7742081624701704
000420 af e0 c9 61 d4 fd ee bf 41 99 9f 3d 7e 8a 72 bf
       -0.9684850606854719 -0.00452660858898063
000430 90 f8 d1 76 5b 00 bf bf ef 28 50 90 f5 86 8e bf
       -0.12109920168765798 -0.014905851809107832
000440 3a 10 43 91 35 b8 ca bf e2 a7 3f 7f 05 05 fa bf
       -0.20874662011022044 -1.6262259455347636
000450 e2 c9 0c 8f b7 39 e6 bf da 28 24 7c 1e 06 d9 bf
       -0.6945455354637569 -0.39099847911042007
000460 ce 6e e2 45 e1 25 8b bf e0 22 93 01 b7 b4 e0 bf
       -0.013255844063955104 -0.5220599203831533
000470 40 37 20 dc 8d fe e1 bf 92 0d d3 a4 ac c1 52 bf
       -0.5623235034306404 -0.0011448083853772034
000480 02 b8 fb ef 59 f3 a7 3f b4 86 34 a8 cc 42 89 bf
       0.04677849821551662 -0.01233444107362245
000490 91 5d 3d 67 a8 21 c0 bf 4a 55 45 5f e3 3f e0 bf
       -0.1260271553135053 -0.5077988491781664
0004a0 a9 f5 f5 52 c8 db 10 c0 90 4e 54 02 5f a7 03 c0
       -4.2146313631650765 -2.4567241842249317
0004b0 9d c2 98 0f df 0c d8 bf e0 33 87 2c d7 f9 e7 bf
       -0.37578560374371667 -0.7492481107416289
0004c0 4c 70 f6 c2 71 aa af 3f 35 c9 9e dd 27 90 b4 3f
       0.06184726242938207 0.08032464180613348
0004d0 0b 24 b2 61 3a 76 9d 3f 5d 4d 61 74 9f 22 00 c0
       0.02877131673134063 -2.016905698031833
0004e0 97 17 2a 05 9c e4 f0 bf 66 db 02 fb ac 58 b0 bf
       -1.0558128549323322 -0.06385308387949137
0004f0 ba 73 2b 9e 85 6f 9f 3f 33 30 39 11 75 ff f8 bf
       0.030698859957613435 -1.5623675034321536
000500 33 70 59 9a 05 1f e5 bf b3 30 71 57 51 34 ae 3f
       -0.6600368513713931 0.05899290268334436
000510 7b 4b 84 8b 6c c1 a1 3f 64 38 cf 7a a9 39 ad bf
       0.034678833037239586 -0.057080551377666905
000520 79 3f 2e b5 88 24 7f bf b5 fe e1 74 5a e6 06 c0
       -0.007603200926396763 -2.862477219721621
000530 e7 92 ba f5 70 ed 08 c0 c7 ed db 4d 64 ef 8f 3f
       -3.1159381101191346 0.015593322397299837
000540 76 e7 ce 9c c5 74 a6 3f ea f9 0f 12 5a 8b a3 3f
       0.04385964907801469 0.03817254515159958
000550 e0 d7 05 80 76 99 fc bf 33 9b a1 df 88 0c 13 bf
       -1.7874665261165248 -7.266602907095021e-05
000560 81 09 1f 40 6b 69 3a bf 23 91 af dd d8 a3 e3 bf
       -0.0004030119745232139 -0.6137508706856675
000570 d9 5e 7b 5a df 6d d0 bf ae de 81 70 a1 31 fd bf
       -0.2567060836422406 -1.8246168513123098
000580 b6 1e 02 15 24 f0 ec bf e9 0d f1 f5 f1 64 f4 bf
       -0.9043140802686682 -1.2746448142141793
000590 89 1a 65 17 e5 05 e1 bf 1a eb 14 d9 f2 e5 4d bf
       -0.5319695908481928 -0.0009124217778329919
0005a0 6e 3b 77 5e d3 9d 91 bf f7 e4 1f 8b 87 e4 09 c0
       -0.017203619614345404 -3.2365866536243817
0005b0 d3 72 05 4b 37 2c b7 bf 65 5e 9a fb 14 fc 09 c0
       -0.09051843244146633 -3.2480868965611074
0005c0 12 9d 79 14 78 86 bd 3f b2 7f d1 c2 12 d9 bd 3f
       0.1153330850589678 0.11659352546985138
0005d0 21 4d 8f de d8 fe 59 bf e7 ea 67 fc 83 3f a4 3f
       -0.0015866392006856427 0.039547085343618886
0005e0 67 c1 ed 10 9a 41 ec bf 00 2a 9c 07 ed 6b 9b 3f
       -0.8830080347670844 0.02677889212558604
0005f0 55 2c 9d 0a ae b6 9a bf c4 2b 19 a7 c2 2c b6 bf
       -0.02608749332220513 -0.08662048892544677
000600 a1 5d 68 65 a4 91 03 c0 d2 9f 32 8d f6 fb 83 bf
       -2.4461143419718643 -0.009757925209058192
000610 3c 73 35 3e ff 68 ba bf b0 c3 d3 26 d1 84 b0 3f
       -0.10316462773103025 0.06452662656717112
000620 4d 7e 54 d9 03 b6 f9 bf a5 31 5a 97 25 3e f8 bf
       -1.6069372643904842 -1.5151725685310364
000630 5d 8f 5d 35 39 fa c7 3f b7 23 4b 91 e8 27 b0 3f
       0.1873237143109873 0.06310895487980771
000640 13 83 9c e2 fb a0 92 bf 84 19 c3 95 b9 58 ff bf
       -0.018192229944477733 -1.9591613626558635
000650 00 89 6e 36 41 0c f0 bf e1 17 c2 10 c5 1a b0 bf
       -1.0029918791047407 -0.06290847453246286
000660 53 62 76 67 b2 4f 89 bf 1e 9c 95 1a 30 3d 84 bf
       -0.012359041006491689 -0.009882331668178475
000670 83 e2 7e a1 2a 18 fc bf b8 c5 2e 14 4f e7 b7 bf
       -1.7559000309394441 -0.09337324373952682
000680 06 61 f1 9d 3c 9e 05 c0 ff df d9 48 c8 3d eb bf
       -2.702264055184176 -0.8512917921898405
000690 5e 35 3d f9 9c 72 9d bf 88 b9 f9 8c e8 e5 bc bf
       -0.02875752707705225 -0.11288312379631382
0006a0 03 35 f1 e9 4b 5b 83 bf 9d 4e 9a f8 fa ec e1 bf
       -0.009451478077745273 -0.5601782660982796
0006b0 3f c8 d3 53 cb 3e d4 bf 30 fb dc 86 25 10 b8 bf
       -0.3163326567292905 -0.09399637739714417
0006c0 7e 2b f7 1e 5f 76 e8 bf 0c 1f 74 a5 d3 39 e8 bf
       -0.7644496540827814 -0.757058928634224
0006d0 57 37 e3 c8 77 61 d5 bf 21 d7 33 95 c6 ab e8 bf
       -0.3340739690582856 -0.7709687151061396
0006e0 c1 fb ab 78 1e 6a ef bf 7d a9 35 8f b2 04 e5 bf
       -0.981703983008508 -0.6568234250128594
0006f0 63 44 70 95 dd 5e e5 bf 05 3c 1f 38 ba 4a e5 bf
       -0.667830268737941 -0.6653719993718147
000700 35 d4 f8 cd 19 eb ec bf f0 61 24 b5 e3 58 d2 3f
       -0.9036988280191794 0.2866753834692011
000710 5c 8b b8 5d bf 8c b4 3f a7 62 59 a3 f6 ee c1 bf
       0.08027263677699409 -0.14010508514436035
000720 38 f0 82 fa e0 ae f6 bf 6b b2 43 2b 00 ec 0b c0
       -1.4176950250248535 -3.490234697345206
000730 8b 2a 33 a4 e4 a9 d7 bf 3e a3 32 92 80 38 d2 bf
       -0.3697444537653289 -0.28469862248543965
000740 81 d0 d1 1c 40 6d 8b 3f 8a b0 d3 8e e2 9d fe bf
       0.013391972426895162 -1.9135461405922194
000750 9d bb 05 ac da f6 b0 3f c5 d8 77 36 79 16 e2 bf
       0.06626669597402075 -0.5652433456259806
000760 fe 0a dd 5a 46 cf dc bf f1 0f 0d 72 1d 5b ce bf
       -0.45015105126746835 -0.23715560978791886
000770 0d 1b c0 5e c6 66 0d c0 d8 16 61 fa 8f 72 d5 bf
       -3.6751830484748838 -0.33511733485316375
000780 f9 62 1f f0 37 a6 00 c0 f2 6b f3 b2 39 a0 c4 bf
       -2.0811613807276186 -0.16113969075999496
000790 cb 21 8a 11 1c d8 80 bf 8f 67 ab 83 bc a0 a1 bf
       -0.008224696431413122 -0.0344294462899618
0007a0 fa 95 3f 3d ba 3f d8 3f c5 4f 72 92 ac 91 a0 3f
       0.3788896177414639 0.03236140525510182
0007b0 51 e7 a4 b8 b7 11 f1 bf 1d 11 ca a5 f5 7e d2 3f
       -1.0668256008779802 0.2889989966427196
0007c0 68 04 ae 58 7a 14 9a 3f 35 06 86 f0 e3 51 d9 bf
       0.025468742048819243 -0.39562319267870133
0007d0 2d ad d6 88 e7 54 fb bf 18 8e 70 53 36 91 06 c0
       -1.7082286210305242 -2.8209043997501446
0007e0 f5 59 74 4c 72 8f 7e bf 9c d9 be b8 88 dc 74 bf
       -0.007461019972899487 -0.005093130177490936
0007f0 9c 94 f9 44 a5 a7 d6 bf 82 a0 c0 6a b6 7f c4 bf
       -0.3539822743972054 -0.16014747822305614

0.bias f8 [32]
000000 a9 e4 18 2f dd 8b 87 3f 30 5e 05 6c 78 ab 58 bf
       0.011497238158982919 -0.001505725478713315
000010 47 09 33 ad ac 7b a8 bf 94 4f 4c 51 8a bf b2 bf
       -0.047818561689853704 -0.07323517308060296
000020 ea 5f 2b 3b 18 80 85 3f 0e 63 ef c2 cc c8 a5 3f
       0.010498227410991452 0.0425476062734501
000030 50 7e 02 62 18 7e db 3f 50 ac 2e c6 6b 7a 84 3f
       0.4295712430120817 0.009999124513191543
000040 b7 1a 5f 29 23 83 88 3f fc 99 6f ba a6 36 e8 3f
       0.011968874645288492 0.7566712991072673
000050 27 91 de 0f 69 3a cb 3f f2 ba 3c 57 47 46 7c 3f
       0.21272004389641916 0.0069029604672283685
000060 60 0c e8 4f 6a 8b 5f bf 9d 5b 9b 2c 43 3e a4 bf
       -0.0019253290371359574 -0.03953752440946021
000070 74 2d ff ce ba 62 e5 3f a7 88 3a db 5c a8 d6 bf
       0.6683019678979876 -0.3540260449318659
000080 75 f1 26 6e 47 09 d4 3f 1e 39 a0 88 10 f0 7d 3f
       0.3130663467125239 0.007309021553750376
000090 a3 bc ab a9 85 65 81 3f 30 57 88 24 ed 42 49 bf
       0.008494419327205021 -0.0007709176944128201
0000a0 db 6e 50 40 00 cf 93 3f 10 3b e3 5e 26 24 6c 3f
       0.019344333577563027 0.0034352063586092843
0000b0 b9 07 55 e7 6d 9d 51 bf 7c 13 c9 c6 bf 51 70 bf
       -0.0010751317289110342 -0.003984212042784981
0000c0 17 94 30 ec 8b 8f e4 3f df e5 34 75 29 89 9c 3f
       0.6425227749902004 0.027866981295323497
0000d0 d5 d5 47 85 8f a2 ce 3f 27 be d9 53 74 ea b0 3f
       0.2393359566482746 0.06607749030239828
0000e0 74 34 ed 73 89 a2 99 bf 2a d7 d5 ea 67 39 cb bf
       -0.02503409166392996 -0.21268938986366354
0000f0 7f d8 69 92 8a 28 9c bf 9a 07 31 4a 6f 85 80 3f
       -0.027498402773254767 0.008067006541867806

3.weight f8 [64, 32, 9]
000000 1c 35 5d ee 82 d9 d1 bf 84 57 90 ab a4 44 b8 bf
       -0.2789008453153927 -0.09479741276331138
000010 2b a1 fe 25 17 2c b6 bf a5 5c 0d 1e 20 53 c3 bf
       -0.08661026647189789 -0.15097428767578439
000020 d9 a7 f6 bb 0b 6c 89 bf 37 8b 03 b3 bf f2 c5 bf
       -0.012413112329188113 -0.17147060624037078
000030 bf ef 11 7b fd 1e 97 3f 55 e7 9f e9 54 24 a4 3f
       0.022579155575371376 0.03933968879569131
000040 42 c1 bc 9f 7e 2a c5 bf 94 a1 8a 9b c2 d7 c4 bf
       -0.16535933303522127 -0.162834478328716
000050 d1 81 e3 1d 25 54 c5 bf 5f a6 f4 24 08 45 d4 bf
       -0.1666304012242237 -0.3167133675475266
000060 61 70 75 56 41 64 c8 bf d1 e2 4d 15 47 f0 c8 bf
       -0.19055954667681177 -0.19483269253011895
000070 e4 22 e3 ee 92 e3 d7 bf 89 24 ff e1 94 68 86 3f
       -0.3732650120623886 0.010941661021109066
000080 53 4b b0 fe fb 8a b1 3f b3 a2 08 2f e8 e7 d9 bf
       0.06852698295578578 -0.4047794780076785
000090 c9 74 54 28 1e 25 d6 bf 2a 34 ec c5 5d aa b8 bf
       -0.34601549089877587 -0.09634958345505198
0000a0 2f a3 8e 10 29 03 c9 bf 97 17 66 cd 3f 7d d0 bf
       -0.19540894802528316 -0.25764460619427026
0000b0 6e af 0b dd 61 ca c2 bf 96 99 e7 a0 76 24 e4 bf
       -0.1468012170147363 -0.6294510977430032
0000c0 c2 47 d9 b3 31 7b 74 3f 93 4a 34 75 af 84 ae 3f
       0.005000299597286375 0.05960605912891483
0000d0 5a 49 37 fd af 59 c7 bf 23 ba 5d e6 6b 8e b3 bf
       -0.1824245439916677 -0.0763919293801583
0000e0 e5 76 d2 56 75 6d 85 bf 5c 83 b9 a4 29 3f 6d 3f
       -0.010462681495762858 0.003570157370447564
0000f0 8b f0 02 e3 94 e5 97 bf 69 5c ca f3 f3 2c c6 3f
       -0.023336721759492234 0.17324685481864613
000100 98 dd de a8 0b 95 b8 3f 2a 6f 03 d2 b4 f8 c4 3f
       0.09602425453964825 0.1638399148422363
000110 7a 66 90 3a e7 2d bd 3f 00 1f 23 2f 1b 85 9b 3f
       0.11398167781626425 0.026874947311426034
000120 14 68 6d 68 4f f6 cf bf be 12 22 71 00 ec c7 bf
       -0.24970429038040776 -0.18688970111920428
000130 8c 2d 75 fd 38 56 d0 bf b7 8b b1 fe 74 d4 c7 bf
       -0.25526261092883185 -0.18617117344100872
000140 45 3b cc cc 69 68 b9 bf cc cf fc 3f 75 78 d5 bf
       -0.09924947023340021 -0.3354771733168007
000150 31 f2 b2 b4 bb 41 b6 bf fa ec 91 e9 b9 21 91 3f
       -0.08694050942990185 0.01673021782015114
000160 8e 3f fe e4 37 86 c8 bf 58 2b 67 58 eb b3 bd bf
       -0.1915960186129237 -0.1160266009166383
000170 46 47 f1 0d 6e 08 b1 bf cb 14 28 7e c6 fd ca bf
       -0.0665348800696651 -0.21086960945118557
000180 04 a1 0d 3b c1 e5 c1 bf 90 d3 b5 ab 39 1a c0 bf
       -0.1398240602823152 -0.12580033191957485
000190 1a 19 f9 d0 72 49 df bf f5 70 8c ad 6d a5 bd bf
       -0.48885794074557654 -0.11580548750902493
0001a0 d0 89 a6 ae d3 b4 7f 3f 0d fa be 43 ae d1 cd bf
       0.007740809329705958 -0.2329614477911978
0001b0 3a c0 8d 3e 72 22 e8 bf 85 0a 23 8a d8 42 e4 bf
       -0.7542048665764078 -0.63315989475116
0001c0 c0 53 a4 57 32 84 e2 bf bd fa 77 c5 06 b8 e1 bf
       -0.5786372863536755 -0.553714166337009
0001d0 bc c5 d5 eb 0a b6 e0 bf c1 4a b6 97 be 22 e6 bf
       -0.522222004523591 -0.691741272270825
0001e0 96 0b 5b f0 1d 39 97 bf ec 29 46 89 ff 2f 95 bf
       -0.02267882136835516 -0.020690911057991743
0001f0 09 ce 2d c3 b3 cb de bf c6 67 c5 91 cf 0c d2 bf
       -0.4811829954189482 -0.2820319102808039
000200 83 95 8d b5 4b 1b d0 bf 61 84 f1 24 f2 75 bf bf
       -0.2516659996966483 -0.12289346124590984
000210 01 5d be 18 2c 0d d3 bf 01 73 08 18 01 5a c3 bf
       -0.2976789704930099 -0.1511842124317795
000220 7d 5a 84 fc 3b db e7 bf df ff 30 4a 80 b9 a3 3f
       -0.7455120021794098 0.03852463632256308
000230 29 8f d8 7e 07 18 c3 3f c1 87 76 b8 00 fe c1 bf
       0.14917081540726798 -0.1405640507410322
000240 51 c4 a4 d3 ed 00 cf bf 73 45 e0 7d a1 a9 c4 bf
       -0.24221585115586433 -0.16142672201435068
000250 8f b3 9d ea ce 1e cc bf 5a ce e7 9b d8 9d cc bf
       -0.21969019370899587 -0.22356708157132027
000260 09 e5 dd 97 b0 42 be bf 38 f1 8a 2a e0 f1 e0 bf
       -0.11820510585484469 -0.5295258360779718
000270 6e 4e ac c2 a4 85 b5 bf 0c 82 60 02 ed 3f a0 3f
       -0.08407048943291226 0.03173771528259203
000280 78 bd b0 34 dc cd c9 bf 83 9e 73 14 f4 a8 ea bf
       -0.2015948540952015 -0.8331241988607448
000290 b7 5f 7a 06 37 ac e0 bf 01 e7 ae c4 a5 81 e4 bf
       -0.5210223318599593 -0.6408261147946349
0002a0 16 86 24 32 75 5d e5 bf 8d d8 5c ac 1a 83 e5 bf
       -0.6676584224080127 -0.6722539297541218
0002b0 06 cb e5 4a b9 00 e5 bf ef 99 4f 6c 57 07 e3 bf
       -0.6563383543819732 -0.5946461787651155
0002c0 31 f3 4e 80 20 8d b7 bf 25 1f 86 a2 62 2c d5 bf
       -0.09199717648057228 -0.3308340632579408
0002d0 82 f3 3e f5 05 4a d8 bf 3e 91 fa 2e c2 f4 c8 bf
       -0.37951802205844143 -0.19496943754087143
0002e0 86 eb 8c fe f2 57 d1 bf 18 a9 32 d0 6c ba d0 bf
       -0.27099299295849055 -0.2613784821684404
0002f0 fe 81 fe 91 c1 25 c0 bf d4 d1 70 75 15 e4 e1 bf
       -0.12615222576734192 -0.5590922635806757
000300 e4 6f dc 95 06 d1 a7 bf 9a 1a a4 25 34 40 a6 3f
       -0.0465166147170917 0.04345858535275689
000310 d9 fc 0c 2a fc 45 af bf f1 f4 5a ce 92 88 b4 bf
       -0.06108081830324758 -0.08020894563647453
000320 05 70 80 46 cf d8 b5 bf 0e 4e 86 6d 28 e1 ce bf
       -0.08533950301392686 -0.24124627445108654
000330 db ac 69 66 2e 26 ab bf 90 11 6b b3 ae 85 b9 bf
       -0.053025674821435685 -0.09969608192756696
000340 52 18 81 48 80 09 c9 bf 48 13 7b 38 0e b4 89 bf
       -0.19560245075462263 -0.012550459955841156
000350 25 db 80 d4 01 a4 b7 3f ee 70 81 d1 76 bf c0 bf
       0.09234630048818511 -0.1308430216767031
000360 54 4d 61 cf 57 21 c7 bf 31 c2 e7 ab 98 08 cb bf
       -0.1807050478551938 -0.2111998404866582
000370 7b 6a c9 f9 87 46 d6 bf 8c 7c 10 55 12 2f d7 bf
       -0.3480548800777467 -0.36224802310057025
000380 e7 17 78 af 4d 8f db bf 12 33 da f0 37 f6 d5 bf
       -0.4306215489926885 -0.3431529857705736
000390 18 ae 81 a8 11 4b 9b bf 6c 59 05 7c 32 b6 68 bf
       -0.026653552923035034 -0.003016565897421211
0003a0 6f 5d bb db 52 38 d4 bf b8 ee bd b8 fe 12 d6 bf
       -0.31593772371476 -0.3449093631859159
0003b0 c1 b4 02 81 77 1a c5 bf 9f 66 9c c5 59 80 cc bf
       -0.16487020301193492 -0.22266695164653513
0003c0 86 dc 2b 94 ed ee d5 bf 3f 0c ce 17 50 b2 bb bf
       -0.34270801038605503 -0.10818958836721125
0003d0 5f 98 fc fa 19 8c ed bf d2 29 0f 63 4a 44 be 3f
       -0.9233522321781144 0.1182295314639881
0003e0 eb 4c 97 95 db 9f ba 3f 37 05 f5 3a 57 05 c2 bf
       0.10400173570751618 -0.14078798655286004
0003f0 5b 80 2b 2d 7a 38 e7 bf f7 e3 af f7 3b 46 e9 bf
       -0.7256441957688468 -0.7898235166204576
000400 83 dc e4 09 44 75 e7 bf 9a 3a a2 1c aa 52 e6 bf
       -0.7330646699182498 -0.6975908812763294
000410 af 2b da 67 4d bd e9 bf 39 47 d3 05 49 64 e7 bf
       -0.8043581989635323 -0.7309918512130259
000420 24 c9 00 57 e3 9f da bf 1b 1d 49 ab 82 40 c4 3f
       -0.4160087918891284 0.15821870196871476
000430 9f 5b 66 7c f4 ef e4 bf 27 fe 73 52 1b 70 9d 3f
       -0.6542913846668518 0.028747965724504134
000440 4c 0b c2 36 e8 df 9d bf 24 06 81 7f 2b 0d 80 bf
       -0.029174450246965564 -0.007837619618047027
000450 53 5b 4d 74 da a0 c1 3f 0d 71 a4 f6 52 e6 ab bf
       0.13772135428254248 -0.054491608245571845
000460 69 6d eb 3e 26 36 66 3f c6 ea 3d 42 eb 4f ab 3f
       0.0027113673198592603 0.05334410842529773
000470 0d a6 bd c8 b0 ce b7 3f c4 17 19 e1 d7 92 bd bf
       0.09299759770296863 -0.11552190061146833
000480 9e e1 77 1b 31 86 d5 bf 8e 1c a4 36 7b ec d1 bf
       -0.3363154190297112 -0.28005867324868283
000490 03 3d aa 9f 88 fb d4 bf 3b c6 53 bf fb 0d a5 3f
       -0.3278523978451206 0.04112230978524819
0004a0 62 0b 73 09 42 1d c7 bf d6 7a aa 75 84 80 e5 bf
       -0.1805803819789516 -0.6719381616747693
0004b0 21 23 ff 6a 72 e8 b0 bf 9f a8 9c b3 e9 42 b6 bf
       -0.06604685890409857 -0.08695850977952312
0004c0 0d ab 8c 9a 34 23 c5 bf f0 1b a1 65 3c 59 d5 bf
       -0.1651368860851438 -0.33357152867068773
0004d0 d4 e9 61 b6 da 19 da bf 33 e4 e3 98 4a 81 d3 bf
       -0.40782802401340956 -0.30476632052119895
0004e0 32 4f f6 18 60 39 b7 3f e9 3b 34 c6 c3 8c ce bf
       0.09071922883441344 -0.23867079904491043
0004f0 68 57 20 d1 f7 90 e6 bf 3a 34 68 76 06 aa b4 bf
       -0.7051962933062272 -0.0807193793372826
000500 8a 30 81 59 8f 92 ad 3f 14 93 d4 d7 39 13 91 3f
       0.057758788753376214 0.01667490367721587
000510 a2 12 11 67 53 6e c7 bf 8e b2 71 10 28 8d c2 bf
       -0.18305437595895052 -0.14493275454460214
000520 d9 b9 e0 f2 96 0b d3 bf 6d 1e b8 d8 32 4c d3 bf
       -0.2975823757032266 -0.30152579463945167
000530 b6 e7 f7 b1 75 14 cc bf 78 01 ce ee 12 04 e8 bf
       -0.21937438192236208 -0.7504973091272822
000540 ef b8 f0 71 b8 51 89 bf 82 cf d3 3e b2 53 c0 bf
       -0.012362900712187456 -0.12755420749419605
000550 4c ee 1b 4a 80 6c 99 3f 84 d5 7a e9 f1 bf e2 bf
       0.02482796146703796 -0.585930782332682
000560 68 6e 3d 86 f5 ff d2 bf 99 3d d9 a6 ae c0 db bf
       -0.29687250241634056 -0.4336353902226278
000570 c0 74 ef 13 06 65 d2 bf 78 ea 7e 01 a6 72 d1 bf
       -0.2874159998589896 -0.27262258668967077
000580 c8 91 5e 12 b3 04 e2 bf 68 ad ea bd 41 1d 95 3f
       -0.5630736693170144 0.020619418350788093
000590 c8 c3 c0 40 3b 7c b0 3f a3 af 9d 29 d8 7c bc bf
       0.06439562159427148 -0.11127997413649253
0005a0 1e f7 34 59 ec 21 c5 bf 9b f8 86 79 f0 36 c3 bf
       -0.16509775501065688 -0.15011411603876898
0005b0 ae 15 1c c9 4e be ce bf 1d 82 ee 09 27 c4 a7 bf
       -0.24018273181733946 -0.046418399774897014
0005c0 d8 13 02 ae 15 3c d4 bf ac ed 55 f2 a5 84 d3 bf
       -0.31616727822284707 -0.30497120538322053
0005d0 f5 24 4e 77 10 22 b3 bf df dc c6 cd 2a 65 af bf
       -0.07473853028035989 -0.06131871950076983
0005e0 9c 0a ea ce 96 32 c5 bf 2a 1a c5 72 9c ac d9 bf
       -0.1656063566516267 -0.401160347061167
0005f0 5b 92 f2 55 a6 f0 c6 bf 64 c8 a7 15 2b ff bf bf
       -0.1792190475145102 -0.1249873092527039
000600 3a fa 95 72 ea 69 cb bf 97 0f 50 91 94 23 b0 bf
       -0.21416979403507402 -0.06304291293787255
000610 e7 84 0c 2a e2 81 d1 bf 14 8f 92 19 40 f6 a4 bf
       -0.2735524569162195 -0.04094124138035063
000620 94 13 1d e7 d8 35 b7 bf b0 ec 46 e6 ed dc b7 bf
       -0.09066539423390757 -0.09321486351011532
000630 5d 68 53 34 89 3d c8 bf 60 fe 5a d5 4f bb c0 bf
       -0.18937792830439806 -0.1307163039946202
000640 14 6f 89 d6 0c 9d c3 bf f5 d0 c2 51 5e 09 91 3f
       -0.1532302901786059 0.016637300243659465
000650 cd 81 37 37 50 bc 95 bf 3a 8d 02 74 6e f7 d4 bf
       -0.021226170892875196 -0.32760201768015274
000660 ae 76 3f 47 24 81 a9 3f 9d 15 a0 e5 3c 57 ac bf
       0.04981339807248496 -0.05535307219546868
000670 5e b8 78 41 f6 6b cb bf cd 74 47 37 37 f9 c5 bf
       -0.2142322368321769 -0.17166795920539926
000680 b2 cd 2c 28 10 be d8 bf 86 04 40 34 a3 aa da bf
       -0.3866005318006628 -0.41666488745256236
000690 49 c0 69 11 a6 02 d6 bf 5c 71 cd 4e 3c f5 83 bf
       -0.34391166401383494 -0.009745093493329797
0006a0 59 11 17 a4 c1 da d0 bf d5 54 70 26 2b e8 bb 3f
       -0.2633518316690889 0.10901136101195459
0006b0 db 16 75 1b 41 92 c1 bf 22 a8 58 03 0f f2 c9 bf
       -0.13727582779590972 -0.20269954360384285
0006c0 42 b1 c1 f6 af 0f e9 bf 1b bd c0 33 53 41 e0 bf
       -0.78316496081019 -0.507974244193892
0006d0 e2 a2 d7 5d 98 48 e3 bf e7 97 2e ff 2e a3 e4 bf
       -0.602611716543006 -0.6449198707603018
0006e0 ff b5 57 8a cb 02 e5 bf 1b 98 2a f8 1e 6c e7 bf
       -0.6565911962513268 -0.7319483611106564
0006f0 2a 6a 52 1c c3 f0 dd bf 74 4f 93 74 96 a9 ab bf
       -0.46781995549977984 -0.054028226595305734
000700 30 7f 04 0f 26 b6 dd bf ab 51 29 4a 68 f9 d4 bf
       -0.46424247232970384 -0.3277226185066648
000710 db 3e ba 20 86 fd b3 bf dc 5c 74 0b 1b bc c5 bf
       -0.07808721827518232 -0.1698030286722546
000720 cd 76 aa 22 d3 ed c8 bf 62 d7 76 cc 9f 64 b3 bf
       -0.1947578353182763 -0.07575415365030616
000730 cf df c1 e7 63 86 db bf d5 37 de ab 59 3b 98 bf
       -0.4300775302176562 -0.02366390334605469
000740 77 df 04 7d 8c 77 97 bf 72 f7 81 7c 09 48 d0 bf
       -0.0229169799142421 -0.25439679297402684
000750 41 49 a1 03 50 7a ca bf 7e 22 43 0d df 93 d3 bf
       -0.20685768296477572 -0.30590034766331786
000760 2a e2 d0 69 bc ee d7 bf 74 ec 4d ab 06 86 cc bf
       -0.373946288429155 -0.22284015049430972
000770 fe 6e 77 30 24 69 c7 bf b3 40 cc fe 04 39 e2 bf
       -0.182896159806539 -0.5694603897591349
000780 74 c6 c4 47 66 7d 96 bf 44 20 de a5 25 3a 95 bf
       -0.021962736254130324 -0.020729625939140087
000790 52 fa 86 8d 26 03 c8 bf 69 30 e8 5d af d1 da bf
       -0.18759614859114265 -0.41904815836529125
0007a0 65 8a 13 76 c3 c9 b6 bf 87 d9 ff ec a7 2f ac bf
       -0.08901616699908173 -0.05505108612117043
0007b0 b1 fc d5 67 7c 71 c0 bf 5b f7 84 91 23 77 be bf
       -0.1284633166323821 -0.11900541594238005
0007c0 90 ed 98 13 64 f2 c7 bf 3f 7c 18 79 47 eb 54 3f
       -0.1870846839609439 0.001276798055535058
0007d0 41 72 13 4b bb 32 8c bf be 97 35 9c eb 1b ca bf
       -0.013768637875210323 -0.20397706153306489
0007e0 0a 6c f7 84 77 fa d5 bf f0 e9 d9 e1 87 a6 b6 3f
       -0.34341228470810903 0.08847855819650596
0007f0 28 63 e6 2a c4 d2 cb bf 26 0e 71 35 66 10 c8 bf
       -0.21736957640384813 -0.18800046548322874

3.bias f8 [64]
000000 d3 2e 3d 9c 3b d6 e5 bf 1d aa a3 0f 25 a9 d4 3f
       -0.6824014712851415 0.3228237774589234
000010 11 44 2b db 0b 69 e6 bf d1 0a 42 f0 6d ab cc bf
       -0.7003230362553287 -0.22398161155077514
000020 33 e2 91 99 26 52 e1 bf 13 95 a2 f7 d0 ad c1 3f
       -0.5412781714831624 0.13811695186192505
000030 3b 37 72 2c d5 80 a5 3f 10 9c ea d5 fb e8 c2 bf
       0.041998540568882047 -0.14773509926928385
000040 a8 ed 38 2f b3 32 d2 bf 7b 32 3c 22 30 d0 ca 3f
       -0.2843444787174243 0.20947839423788026
000050 f8 71 4b 5f c8 05 a3 bf ad 14 2a 74 e9 8e e4 bf
       -0.03715349353089786 -0.6424453038058765
000060 60 ef e6 43 20 59 9b 3f 48 28 0c 4d b7 53 98 bf
       0.026707176346220662 -0.0237568512702995
000070 b3 a2 b1 4b dc dc c1 3f d2 e1 c7 6b d4 5d 62 3f
       0.1395526284789149 0.0022420071456929836
000080 9d b0 4f bb 58 fa c3 bf d2 af 4d 84 d3 ef 6a bf
       -0.15607747217234627 -0.0032881861865714313
000090 cd d9 6e df d6 a9 d6 3f bf 48 57 e5 d9 7c e9 bf
       0.3541161710703847 -0.7964906195941451
0000a0 84 16 4c c1 50 81 aa bf 72 56 6c b7 bb 17 b0 bf
       -0.05176784858308017 -0.06286214092355083
0000b0 4c fe 76 b5 61 f0 a8 3f 92 53 0b 28 b8 ea f9 bf
       0.048708966638056767 -1.6198045315006522
0000c0 e1 09 43 ca e1 b0 92 bf d7 bd f2 51 b7 b2 c3 3f
       -0.01825287625320893 0.1538914823663464
0000d0 36 03 6e 4f 07 84 79 3f 9a b0 69 fc 7a cb aa bf
       0.006229427867652506 -0.05233368235789833
0000e0 32 78 86 c3 d7 63 b2 3f fb a9 86 3c 6f 5d cf 3f
       0.07183598064008903 0.24503889518139474
0000f0 9f b5 de b8 8c 34 d1 bf 48 8c 12 d5 5a f6 b2 bf
       -0.26883237889964023 -0.07407157613720117
000100 b6 76 3a fc 57 b7 98 bf 0d 6d 18 97 c5 e4 f7 bf
       -0.0241369006822569 -1.4933524992146119
000110 a7 67 e7 7a aa 68 b2 bf 3a de e5 eb 6d f8 97 bf
       -0.07190957546791187 -0.023408620379511393
000120 92 ef ba 0a 16 eb b7 bf fd 19 ca 57 7a 97 dc bf
       -0.09343087923019613 -0.4467454774207054
000130 02 cd b9 e1 bc 39 74 bf cd a0 62 b6 c8 be b8 bf
       -0.004937875575353747 -0.09666113331570898
000140 55 47 2f 07 69 0f b6 bf a7 1c 65 d4 65 4d dd bf
       -0.0861726419964531 -0.4578489851159681
000150 af 13 a5 77 8c e4 b8 3f 05 c6 5f 11 8d f0 b4 bf
       0.0972373764135017 -0.08179551767513978
000160 53 ea 61 b6 6b 70 ba bf 3b bd b6 54 f8 15 86 bf
       -0.10327790453622158 -0.010784092030773898
000170 bf 54 70 82 09 0e ca bf f6 7d 31 d8 6c c4 a5 bf
       -0.20355337971765228 -0.04251423014715876
000180 17 bb 80 73 12 ca ac 3f c7 8c 14 74 fe fb ab 3f
       0.05622918758341749 0.054656936330752574
000190 80 58 bd 93 dd ee a1 3f a2 b8 e0 e8 9b d1 c5 3f
       0.035025524410841946 0.17045925971018955
0001a0 cb 22 c2 de 6f bf c4 bf e2 ef fa ed cd 9c c5 bf
       -0.16209219338295208 -0.16884779091003482
0001b0 a4 70 14 96 6b 43 bb bf d4 a5 7c e9 5d b7 aa bf
       -0.10649750150736509 -0.05218022799665403
0001c0 22 68 ce 89 7e ff da bf f4 e2 86 c6 e7 d4 ff bf
       -0.42184413392681297 -1.9894788508374264
0001d0 49 a8 86 2c 6a de bb bf 7b 6e d7 59 ff 48 98 bf
       -0.10886252963123967 -0.02371596322869472
0001e0 b4 9e 40 b2 35 be cb bf 04 80 01 16 7f f0 9f bf
       -0.2167422409413483 -0.031190858572131233
0001f0 5c e1 03 39 f2 fb c8 3f c7 a7 44 13 48 96 97 bf
       0.1951887873071979 -0.02303421609500569

7.weight f8 [1, 128]
000000 da 86 fc f1 11 7f 8e 3f 4b ea e0 29 0f 79 72 bf
       0.014890804478969445 -0.004509982331053107
000010 5d 4e 64 0d f4 f1 d4 bf ec 3b 4c ab 75 f1 d4 3f
       -0.32726765926165574 0.3272375271635031
000020 0f 26 d8 2c f1 0f 93 bf 86 78 71 dc e7 53 c8 3f
       -0.01861550174911569 0.1900605989821466
000030 5a 88 5c 3c a7 4c bf 3f 53 23 c3 5a b4 87 d0 bf
       0.12226338599842404 -0.25828274596692785
000040 f9 fe 1a 28 8a a3 ce bf a1 8c e4 42 8b 10 b2 3f
       -0.23936583479188991 0.07056494124531067
000050 fc 3e 47 df 8c 01 e5 3f a7 55 95 77 c6 2b e3 bf
       0.6564392434028998 -0.599093659936149
000060 3d b9 b4 eb 57 86 9d 3f a3 72 7e 08 24 50 9f 3f
       0.028832792054509716 0.030579150217465167
000070 9a 49 3a 67 78 18 d6 3f 76 84 25 28 b0 24 d3 bf
       0.3452435501177661 -0.29911426468431246
000080 ab c9 b2 ef a1 a4 dc 3f e5 2b 42 e8 a7 0d c6 bf
       0.4475483742527568 -0.17229174462076383
000090 54 e5 14 dc 1d 84 d8 3f 78 54 d0 84 fd d5 a8 bf
       0.3830637597307789 -0.048507616484280314
0000a0 c9 ba fc 41 d8 54 a3 bf ad 08 09 b6 f3 8b a2 3f
       -0.03775668912418479 0.03622399899588067
0000b0 15 5d 62 b2 ce f3 a4 bf 17 1e 2d 45 59 24 b3 3f
       -0.04092260291616349 0.07477338732598358
0000c0 aa 9e 6a 8b a3 1b e5 3f 37 b4 6e 90 5a fc e9 3f
       0.6596238825777239 0.8120549031206171
0000d0 a8 11 66 fa 3f 7d b5 3f 20 f0 11 ff e5 d1 85 bf
       0.08394241202592545 -0.010654255720730588
0000e0 d0 b4 4b 04 3f 1e ef 3f db ae bb 4c b5 46 f3 bf
       0.9724421581173832 -1.2047627446544797
0000f0 df ce e6 0b b1 5e d8 3f 2f b5 b2 b0 41 33 c9 3f
       0.38077951586022424 0.19687672736964987
000100 98 3a 8c d0 7c ab d5 3f 30 b0 e5 30 dd c5 c7 bf
       0.3385917698478038 -0.18572583091315797
000110 ad 95 7f d9 05 27 d6 bf 9a 5b 32 3d 74 9f c2 3f
       -0.34613176574779453 0.14549115169640175
000120 f0 c1 58 9f 45 96 e0 bf 1e 68 ff 59 fe 3e e1 3f
       -0.518343745445291 0.5389396436469303
000130 66 24 57 b2 66 d6 a5 bf a2 b5 4a 30 59 a8 b6 3f
       -0.042651376028126006 0.0885062926197038
000140 9c 1d 4b 71 f6 9d d8 bf 78 59 bc c0 9e 67 88 3f
       -0.3846412760144291 0.011916389710262307
000150 74 d7 49 2f 35 f1 b2 bf f4 da e2 53 97 a8 a2 3f
       -0.0739930382204344 0.036442498197564094
000160 eb 02 c0 60 58 ce a7 3f b6 32 cf 47 74 a8 bd 3f
       0.04649616414099519 0.11585165742071521
000170 f9 2e 61 e5 5b 1c 90 bf 03 df 6a 37 1a fc cf bf
       -0.015733180880757456 -0.2498810549347966
000180 7d 40 89 2d d9 94 e5 bf 7f 60 b6 49 b2 b1 ad bf
       -0.6744199647310009 -0.05799634122667018
000190 fb cf cd e9 1c 48 dd 3f dc cc 3d 99 03 24 93 3f
       0.45752642471711596 0.018692070224869947
0001a0 a8 61 44 97 ba ea d6 bf 8d 48 4a 3c ed c6 8b bf
       -0.358076713296692 -0.013563016321573218
0001b0 2e 56 ce 08 5b ec a6 bf ab cd 7f 67 5b 9f 84 bf
       -0.044772000145865895 -0.010069574447675608
0001c0 96 c1 ca 34 cd 64 d4 3f 7d 43 ba bc 27 26 cc bf
       0.31865244060011244 -0.21991440501417606
0001d0 df 5d ed bf 46 95 c6 3f be b0 ca df cc ca 9c bf
       0.1764305531639669 -0.02811737171093464
0001e0 cf 22 4e 7d 74 e7 de 3f 45 5e d1 10 e7 ba d5 bf
       0.4828768943485046 -0.3395326294171109
0001f0 d1 14 df 57 36 d3 ac bf 1f 74 35 42 ba d6 84 bf
       -0.05629892180108132 -0.010175185342342684
000200 e3 b8 1e af a1 8d eb 3f 63 09 26 0d 7e a4 e9 bf
       0.8610390110314053 -0.8013296372230737
000210 57 b2 ba 5e b2 f3 a2 bf 48 8d 9e a4 2a d8 c2 bf
       -0.037015508712418814 -0.14722188032201644
000220 32 52 c6 f7 44 7f 40 bf 51 b9 d4 f0 85 6c 89 bf
       -0.0005034529454400248 -0.012414022838666357
000230 3e 6d 94 27 87 63 d5 bf 10 1e 7c 9b 40 b8 c2 bf
       -0.3341997038384824 -0.14624793617279908
000240 82 a5 6e ef 2a 26 e2 3f 8f c2 58 63 37 17 ae 3f
       0.5671591450128945 0.058770876767430306
000250 92 04 43 02 f7 c2 dd 3f c7 49 03 dc c1 e2 ce bf
       0.46502471180799276 -0.2412950825005977
000260 79 03 07 f4 67 ce c6 bf fb d1 b2 19 67 a9 9a 3f
       -0.17817401328468543 0.02603684515334413
000270 99 7d 4f 26 e8 d4 db 3f 89 5f 9c 18 3e 4b a8 bf
       0.4348698019147946 -0.0474490551989098
000280 78 7f b6 58 83 24 87 3f 81 53 80 9e 41 36 7c 3f
       0.01130011190872414 0.006887680363452443
000290 fb bd 74 30 d4 f5 d3 bf ed 59 67 2e 42 f5 dc 3f
       -0.31187920314820844 0.4524693921242989
0002a0 d4 19 0f 62 f6 18 b2 bf b8 25 57 30 bf 8a f1 3f
       -0.070693396511252 1.0963737381265286
0002b0 3f 72 f7 3e 3b ae d3 bf c2 d2 13 02 0a 3f c3 3f
       -0.3075092425258709 0.1503613004821514
0002c0 c3 44 3c 34 41 ed b3 3f 3c 7f 54 bc 24 a6 ab 3f
       0.07783896947173034 0.05400194930029875
0002d0 43 62 c1 c5 8f 3f e2 3f 5d fa 2f 77 7e 0c c4 3f
       0.57025898574927 0.15663128680894803
0002e0 e8 f7 be fa d0 fd 99 bf 43 66 aa 33 41 fc 37 3f
       -0.025382294945067857 0.0003659876999023462
0002f0 da a8 15 7e 19 69 dd 3f 11 08 06 2b 5d a2 73 3f
       0.459539769296169 0.004793514192330776
000300 20 45 e7 16 78 40 db bf 84 6b 15 43 3a e8 b7 3f
       -0.42580988155994426 0.09338726175103146
000310 cb 33 1d b1 8a ab db 3f d6 ff a6 e0 6d 57 ed bf
       0.43234507843299913 -0.9169225108853378
000320 32 62 dd 4b 8c b5 d1 3f ea 16 ce 7c 32 75 d0 3f
       0.27670581253690607 0.2571531504439536
000330 61 cf ec 09 44 ed d3 bf 55 54 43 2b 61 74 d8 3f
       -0.3113565537380421 0.38210324501898657
000340 bf 90 05 d3 06 79 92 3f 61 56 bf 90 c2 35 8c 3f
       0.01803980505918967 0.013774414102878997
000350 4c 8d 55 bb fa 69 d2 bf 3d b9 70 13 fa e4 a4 3f
       -0.287718470519583 0.04080945479687379
000360 37 a1 88 f9 0c 60 e6 3f 71 9e 7b 36 23 81 e2 bf
       0.6992249368386528 -0.5782638610953211
000370 52 c4 8c 81 dc d8 c4 bf 74 64 72 0e 61 60 b7 3f
       -0.1628680832450607 0.0913143787642115
000380 33 43 cb 46 b4 52 66 bf ed 4b cc 43 dc 6b 82 3f
       -0.0027249833131936184 0.008994789904624734
000390 70 e7 e6 d4 56 f4 88 3f a3 78 af 5e 10 e6 e3 bf
       0.012184790012600394 -0.6218339776348966
0003a0 79 7b a8 a6 da 3d c1 bf 19 44 fd fa f1 65 c3 3f
       -0.1347001374969883 0.15154862170541675
0003b0 35 11 74 77 c1 b0 77 bf 28 81 d1 ca c1 6e 5f 3f
       -0.005783801773990673 0.00191849637055703
0003c0 c8 b4 fb 17 9f ee 9b bf 64 15 fb af db 5d 8b 3f
       -0.02727745612985613 0.013362613971717514
0003d0 72 76 7c 2f 2b 17 d9 bf 3e 51 12 a1 b8 4d aa bf
       -0.39203910481760496 -0.05137421575742217
0003e0 31 0c 8e 03 42 d7 c7 3f c9 ca c7 7d 60 c7 9e bf
       0.18625664876535233 -0.03005743758871907
0003f0 5f 3e df e7 cd 97 7d 3f e7 e5 00 b0 59 58 b0 3f
       0.007224850005470878 0.06384811922989507

7.bias f8 [1]
000000 71 a9 a0 b8 19 27 a3 bf
       -0.03740768793825822
