models/run1/run1_31.pt (torch, 153992 bytes, 6 tensors)

0.weight f8 [32, 1, 9]
000000 71 1d b0 3b ca e6 b8 3f 28 fa a6 7e c2 86 bc 3f
       0.09727157551980327 0.11143127052398738
000010 d7 a7 1a f6 b9 df d0 bf e1 56 38 8a fb a0 fa bf
       -0.26365517648320974 -1.664302387163325
000020 d0 82 1d 64 e6 d2 ab 3f dd 49 f7 00 d9 ce db bf
       0.054343414040663895 -0.43449997991879546
000030 74 99 e5 c2 84 89 a0 3f 1b de 75 2a 5e fa ef bf
       0.03229918364631859 -0.999312479906567
000040 ac 57 95 8b e4 7c e8 bf e1 84 75 59 1b ea bd bf
       -0.7652456976163555 -0.11685343679484418
000050 0f 98 66 27 f1 51 cd bf ac 0f e3 8e 07 b6 a8 bf
       -0.2290631716143143 -0.0482637750551754
000060 72 ac f8 8f b7 02 a3 bf 3a f8 b7 66 bb 01 df bf
       -0.03713010437453414 -0.48448071509472224
000070 55 f1 7d 81 91 2f dc bf 2c df f0 e3 68 3c 7b bf
       -0.44040334363650874 -0.0066494080811521465
000080 66 0c 47 af 85 8d c9 bf 75 b1 69 cf 93 92 be bf
       -0.19963141497109688 -0.11942409337797762
000090 93 53 06 ed cc 6e 61 bf 42 0e 53 6c 10 5c 73 bf
       -0.0021280291040945503 -0.004726471093082165
0000a0 80 64 f5 b9 9a 4c e7 bf 5d 8c c5 46 89 76 af bf
       -0.7281011230471819 -0.061451234711761706
0000b0 ec b9 73 03 8c 2f 5f bf 6f d8 3a 0f bf de cf bf
       -0.001903425914686725 -0.24898517841001275
0000c0 a7 e4 db a4 7e 6b dd bf 11 67 5a 5a de 07 ec bf
       -0.45968595599658574 -0.87596051833245
0000d0 fa 9f 77 70 bb be a4 bf 7b 8e cb 1d 9b a1 f3 bf
       -0.040517671088139154 -1.2269545711395995
0000e0 e8 00 a5 dc 69 04 ed bf 29 6f 04 95 d5 c3 f3 bf
       -0.9067887601341029 -1.2353111096371754
0000f0 4e cc 32 8d c2 d9 81 bf 82 fc 59 35 a6 60 74 bf
       -0.008716125425371282 -0.004974984408931184
000100 42 26 44 db e6 ae 61 bf cd 4e 87 e9 20 71 e6 bf
       -0.002158594981783308 -0.7013096390823762
000110 80 b5 5b a9 87 f0 d3 bf a1 47 6c 7c 3d a6 6e bf
       -0.31155578173532916 -0.003741378869912063
000120 89 22 99 d6 a3 e0 c6 3f d9 26 3a 06 02 b9 01 c0
       0.17873046854426303 -2.215335892343188
000130 fd 57 25 4c 93 c9 e0 bf 80 de 18 17 68 19 c5 3f
       -0.5246063697074984 0.1648378479746846
000140 6f 85 03 bd 0c 76 cb bf ba 14 6e 3c a1 82 c1 3f
       -0.21454009274661298 0.13679900599178102
000150 ac 69 76 93 84 1b d0 bf 7a a5 e9 1c 20 3d c7 3f
       -0.25167955780639306 0.18155290042640698
000160 15 d7 0c 92 ab f2 e6 bf f2 9d 18 7e 39 0c 91 3f
       -0.717122826818669 0.016648195573138076
000170 8f d1 19 41 1e 0f da bf e7 a1 7a 47 8f d9 ea bf
       -0.4071727405310179 -0.839057578666197
000180 72 ce e0 43 5c 63 01 c0 50 b4 46 c1 a7 e4 c8 bf
       -2.173515825555847 -0.1944780057650939
000190 ff e9 fa 56 4a 13 f5 bf 74 96 87 da 3b c4 cc bf
       -1.3172095678006597 -0.22473858042137673
0001a0 2e ed cd 88 e5 3c 6f bf 4b 61 2a 39 74 73 8e bf
       -0.0038132174581143796 -0.01486864852385907
0001b0 03 3a e2 d5 25 71 eb bf 81 5b d2 11 d3 bc ec bf
       -0.8575619866767855 -0.8980498645859002
0001c0 93 58 50 82 76 6d 91 3f c7 44 1b a7 8c 87 df bf
       0.01701913042423848 -0.492648280324897
0001d0 4d be 83 9e b8 ec f7 bf b3 41 29 6b a5 01 d1 bf
       -1.4952932540872041 -0.265725474023408
0001e0 dd 14 fe ae 15 7f f9 bf b9 fe 6d 72 50 1d ed bf
       -1.5935265384335289 -0.9098283991770223
0001f0 f9 47 07 8a 0d 41 66 bf b4 59 3c 67 dc 3e 86 3f
       -0.0027165665089592364 0.010862085247521282
000200 8c 80 27 6b 30 34 b5 bf 17 9a 8b 08 93 f0 dd bf
       -0.08282759300300507 -0.46780849298957733
000210 7b 03 f7 6b ea 8b b4 3f 97 ab de be 21 52 00 c0
       0.08025994430410137 -2.040103427095754
000220 7e cd f2 89 7a e4 63 3f f7 2e cb a6 a1 e7 d9 bf
       0.0024282830559855797 -0.40476266182370985
000230 f7 88 0e cf d0 5e a9 3f 5b 92 d2 aa b1 10 f1 bf
       0.04955151107357552 -1.0665756867175762
000240 73 2d 6c 7c 8f bc c1 3f 72 cd b1 bb 62 24 ca 3f
       0.13856690955467918 0.2042354027249576
000250 dc 51 dd ad e6 99 fe bf 90 21 82 57 9f 7f f2 bf
       -1.9125735084136215 -1.1561578195852213
000260 80 b2 90 74 06 6b c3 3f c3 7d d4 b8 de e4 b1 bf
       0.15170365039502443 -0.06989852917148824
000270 b3 73 b5 1d 26 28 86 bf 00 e9 67 3c 95 cf e4 bf
       -0.010818765432014965 -0.6503397159388271
000280 89 92 3f 96 15 0f 85 bf 6e b6 53 91 c8 a0 f1 bf
       -0.010282677314486637 -1.1017537762485534
000290 3a 47 6c 63 6f 5d e6 bf 91 aa 27 16 6c 61 a2 3f
       -0.6989056531767581 0.035899522499524335
0002a0 a3 36 48 85 ff 47 dd bf 73 d0 b7 06 d2 42 dd bf
       -0.45751941696003423 -0.45720339447075914
0002b0 8f e6 0c f9 f7 51 de bf e9 c5 56 6c 43 cb dc bf
       -0.47375296899154135 -0.4499062116620665
0002c0 20 f0 5c 01 a8 4e d4 bf c6 22 00 9d 65 5f f8 bf
       -0.31730079777821807 -1.5232902653535105
0002d0 13 cc 66 b6 12 d3 e0 bf 9b 48 c8 29 92 62 a4 bf
       -0.5257657587557126 -0.03981453666723774
0002e0 49 c2 3d b4 0b ec ce bf b7 7b 5a 2f d7 f4 fd bf
       -0.2415785436710556 -1.8722755288833761
0002f0 a8 01 5b 59 02 07 d2 bf 87 47 b2 c0 65 c9 f6 bf
       -0.28167780614969695 -1.424169304581001
000300 8f 82 56 00 37 d3 b1 3f 09 2e 86 89 77 63 e3 bf
       0.06962913282633053 -0.6058919607179983
000310 55 85 61 21 5d 1d bd bf 16 58 24 ca 52 11 a4 3f
       -0.11372930588688253 0.03919466702988943
000320 be 68 f0 3b b3 fb af 3f f0 af 11 88 f6 b9 e7 bf
       0.06246719462088056 -0.74145056320185
000330 c2 9b 2b e5 a1 f4 ed bf ad 73 5b af fd 75 ea bf
       -0.936112353895503 -0.8269031929918264
000340 6c 61 f1 59 76 9a e0 bf 9c 02 e1 67 0e 14 81 3f
       -0.5188552624413609 0.008339035554059841
000350 f4 89 34 3c fd 71 e2 bf e6 47 8f 77 1c fc d9 bf
       -0.576414697254505 -0.40601264644385393
000360 16 fc 49 fc 0c 01 88 bf 2c 62 2c 65 fa d2 ec bf
       -0.011720754098176338 -0.9007541633646432
000370 5e 89 b1 84 7c 76 81 bf 79 47 11 6e 5e 79 e5 bf
       -0.008526776122555087 -0.6710655355220602
000380 3a c6 17 05 fa 03 ed bf a3 86 e1 54 6a 37 42 bf
       -0.9067354297132575 -0.0005559224316693156
000390 7f b6 e7 58 6b e4 dc bf 8e be f8 4b 49 b1 d1 bf
       -0.45144160921231696 -0.2764456979666442
0003a0 52 83 07 9e cc 89 f1 bf e2 28 82 24 8c da 7a bf
       -1.0961424038907421 -0.006556079322886018
0003b0 66 84 e0 b8 89 8a d6 bf 6d 01 85 a7 5a 82 c3 bf
       -0.3522056870879794 -0.15241559199968027
0003c0 1c 37 6f 89 35 c2 ea bf 20 f2 47 44 63 27 e1 bf
       -0.8362071689859678 -0.5360580762495069
0003d0 3d 55 13 17 b7 f0 c6 bf 58 2e 65 7a 62 53 e2 bf
       -0.17922104479536385 -0.572678793957901
0003e0 19 05 c3 35 d7 0e 77 bf ad 8d c4 3e f1 bc b7 bf
       -0.0056293875351809625 -0.09272678167740507
0003f0 90 c1 2a 5f 46 78 c9 bf 7a 47 91 d8 fe f3 e1 bf
       -0.19898299834086375 -0.5610346059640812
000400 14 79 44 96 e2 16 da bf ab 6e 92 b3 bd e6 f0 bf
       -0.40764679598386633 -1.0563332571536346
000410 b9 22 e6 d8 81 1e d5 bf 63 fd eb ba 3a c1 e0 bf
       -0.3299870126871088 -0.5235875750367253
000420 2b dd b2 c5 8f 6f e0 bf 3f ad ea 38 cb 5a 77 bf
       -0.5136183606436239 -0.005701822125654231
000430 39 7b a5 a6 a9 83 d1 bf 48 88 0b ee 73 84 8e bf
       -0.27366105341018315 -0.014901071264322621
000440 3c 71 66 5d 22 8e cc bf 4f c9 11 d8 aa 71 f9 bf
       -0.22308759270243594 -1.5902508201803192
000450 54 79 a1 7d c0 bb e4 bf f9 b2 e4 33 6c fc d8 bf
       -0.6479189351773962 -0.3904066569109968
000460 3c 7a 7a a5 6c 98 70 bf b3 c6 a9 16 54 c8 da bf
       -0.004051613235474035 -0.4184770795173833
000470 a5 4b c5 31 30 6c e3 bf a4 ce 7f 89 67 50 93 3f
       -0.6069565746387197 0.018861406104362502
000480 90 de 14 54 26 e0 b0 3f 96 88 51 c0 9d 9d 74 bf
       0.06592025330325613 -0.005033127036855009
000490 16 69 b4 9f 79 66 86 bf a3 78 79 3f 36 92 bc bf
       -0.010937643228818444 -0.11160601663275087
0004a0 6e 3a 7d ce b0 94 03 c0 20 7f d4 21 ac e9 b2 bf
       -2.4476028568235995 -0.07387805772713962
0004b0 79 32 f7 c7 a2 2b e3 bf 7d 6c 88 47 18 0b eb bf
       -0.5990766435221097 -0.8451043507697161
0004c0 c3 e1 cd 70 d2 90 3b bf 0c 67 7f 4c 14 68 9b 3f
       -0.00042061937056516954 0.026764218491599087
0004d0 c9 ad b7 63 e4 7e b6 3f 49 bb fc 87 88 a2 f4 bf
       0.08787372049817245 -1.28968098754895
0004e0 b9 64 df 47 fc 83 e3 bf 66 d6 6e 48 07 95 e6 bf
       -0.609861507774574 -0.7056919493395071
0004f0 f4 3f 4f 3d b5 63 b8 3f 79 f4 98 d9 68 36 fd bf
       0.0952714228326384 -1.8257835864926888
000500 9a f0 90 fb b2 5c e8 bf 38 83 b2 d4 0e 6d b9 3f
       -0.7613158143426688 0.09932034199529205
000510 bb 31 2a a7 bd e3 af 3f c4 a3 7b e0 b7 03 b0 bf
       0.0622843996580715 -0.06255673628369524
000520 36 a1 91 de c5 05 b0 bf 92 eb 0b 4c aa 4a 82 bf
       -0.06258808788118561 -0.008931475110775886
000530 0f 59 28 1e 2d 8b f8 bf 88 58 b2 72 aa 3e 9c bf
       -1.5339785745650862 -0.027582801104096194
000540 77 84 f2 5d de a0 c6 bf 09 f8 cb af 1f e3 76 3f
       -0.17678432070991665 0.005587695862002925
000550 19 88 fa 41 d1 0d eb bf 33 9b a1 df 88 0c 13 bf
       -0.8454366959233567 -7.266602907095021e-05
000560 81 09 1f 40 6b 69 3a bf 23 91 af dd d8 a3 e3 bf
       -0.0004030119745232139 -0.6137508706856675
000570 d9 5e 7b 5a df 6d d0 bf ae de 81 70 a1 31 fd bf
       -0.2567060836422406 -1.8246168513123098
000580 b6 1e 02 15 24 f0 ec bf e9 0d f1 f5 f1 64 f4 bf
       -0.9043140802686682 -1.2746448142141793
000590 89 1a 65 17 e5 05 e1 bf 1a eb 14 d9 f2 e5 4d bf
       -0.5319695908481928 -0.0009124217778329919
0005a0 6a e5 9e 93 39 74 95 bf a9 63 ea bc 74 a7 0d c0
       -0.020951175341655505 -3.706765628722185
0005b0 80 fd f7 62 1d e5 e8 bf 05 95 8f 7b 04 c4 02 c0
       -0.777968114183679 -2.345711674994734
0005c0 33 df 8a e6 79 be c7 3f dd 94 82 0a a9 3c d0 3f
       0.1855003715224882 0.25370241190314663
0005d0 14 30 42 a2 9a 6e b1 3f 74 53 2b c6 eb 28 b0 3f
       0.06809393369093214 0.06312440479389442
0005e0 46 88 95 19 28 80 cf bf 10 b1 d7 00 02 f6 83 bf
       -0.24609853028511192 -0.00974656643935437
0005f0 44 7d 4b 10 f0 14 d3 bf 16 d8 a5 f1 0c c5 c4 3f
       -0.2981529387597741 0.16226350592813849
000600 ec 18 17 c6 bf e3 fb bf 3a a9 b2 7e b2 af c2 3f
       -1.7431028116130234 0.14598685442371978
000610 f8 bf 48 5e d5 16 c1 bf 9b d2 8d 2e 7c 44 af 3f
       -0.13350932220191658 0.061069374735699365
000620 9f 25 9f c8 0b 35 ed bf 0a 3f d3 cd 1a 51 f0 bf
       -0.9127253454582166 -1.0198009529157752
000630 1e 8c 97 e3 33 a4 ca 3f 8d ef 62 59 a5 1f c7 3f
       0.2081360684670423 0.18065325607846852
000640 21 84 8e c4 35 15 b8 bf fa b9 fd 90 54 98 e4 bf
       -0.09407363938090942 -0.6435950118882936
000650 b2 19 0d 45 43 38 ac bf 28 6b b2 32 d1 fa c1 3f
       -0.05511675088796454 0.14046683288037198
000660 95 c7 24 73 82 a6 66 3f 17 6e f3 ad 3e b6 78 bf
       0.002764944824911584 -0.006033177224903172
000670 95 c7 67 7c 1f 7c 92 3f d7 5f c5 39 73 eb b2 bf
       0.018051616638281216 -0.0739051834146943
000680 5c 95 a3 2d 5d f8 03 c0 04 b4 b1 cf 4e 01 ef bf
       -2.496271473459883 -0.9689096504713466
000690 7d fa a3 de 6a 4d a8 3f 6c 21 36 e3 95 39 b9 bf
       0.047465648343849566 -0.0985349349704216
0006a0 20 b7 cc d3 90 b2 af 3f ae 7a f0 cc df 0e d8 bf
       0.06190922341771299 -0.37590785039530317
0006b0 ef 52 b2 6e ce 09 dc bf 0b 39 54 0b f7 21 ae 3f
       -0.4380985337277669 0.05885288251202966
0006c0 8e 0e 41 59 17 80 e5 bf 68 a0 9c 70 91 f6 e6 bf
       -0.6718861335034079 -0.7175986480188046
0006d0 f4 98 02 70 62 b3 a2 3f b8 f7 71 56 ad a8 e5 bf
       0.03652484528838498 -0.6768404663450758
0006e0 68 16 75 25 52 0d ed bf 25 77 a1 6d 74 38 d0 bf
       -0.907876084479267 -0.25344572740674415
0006f0 c3 cf b9 cb 0d fd d0 bf 49 cc 48 74 9c 3a ce bf
       -0.2654451837072395 -0.23616367032954802
000700 4e a0 a4 95 a3 ab ea bf 91 ad de fd 49 03 d0 3f
       -0.8334520266262275 0.2502007464597336
000710 e3 ce c4 e2 d3 4c b2 3f 8c 22 91 db 3f 98 b7 bf
       0.07148479734751904 -0.09216689215203128
000720 a6 e2 52 ef 87 89 dc bf c8 ab 67 57 06 d0 fa bf
       -0.4458942258020592 -1.6757872976547663
000730 74 2f 5b f3 bf 85 c0 bf 3d 27 d8 96 5b e8 e4 bf
       -0.12908172018648723 -0.6533639856508909
000740 14 94 ce 8c f5 a3 b8 3f 4a 2c 50 66 25 37 c9 bf
       0.09625181853932957 -0.19699542518387353
000750 ca f8 c8 ed 4d f3 89 3f 15 a2 1d 0e 75 c2 d0 bf
       0.012671097582935071 -0.26186872843257564
000760 88 f0 92 62 fa 1f be bf 68 ff 12 fd b2 2b cf bf
       -0.11767544657317519 -0.2435210929597773
000770 ab 60 99 1b 63 6f 08 c0 de c7 43 38 fb 48 b8 bf
       -3.0543882518942005 -0.09486360667850088
000780 83 b3 fa 02 41 5d fe bf 0f d7 f2 dd bb e7 80 bf
       -1.8977670780543299 -0.008254497252305563
000790 ab b3 e4 17 52 8d b8 3f a5 1d c3 b5 56 45 bf 3f
       0.09590638240179199 0.12215177476456647
0007a0 e9 cc 0d f0 80 aa d5 3f c9 a1 0f ae 76 bd c2 3f
       0.3385317177082486 0.14640697001529038
0007b0 5c 73 a5 41 cd 1f eb bf f1 3f 44 f9 b0 8d d6 3f
       -0.8476320535806781 0.3523981508487842
0007c0 e2 f5 53 fc 6f e3 c0 3f 1c ee a8 f6 bc f3 98 3f
       0.13194083996488276 0.024367287211346164
0007d0 36 0c bc f2 9b 4d f1 bf 92 bc c0 7a 56 7f eb bf
       -1.0814475519007494 -0.859294166328157
0007e0 f5 59 74 4c 72 8f 7e bf 9c d9 be b8 88 dc 74 bf
       -0.007461019972899487 -0.005093130177490936
0007f0 9c 94 f9 44 a5 a7 d6 bf 82 a0 c0 6a b6 7f c4 bf
       -0.3539822743972054 -0.16014747822305614

0.bias f8 [32]
000000 83 d4 17 e8 5e 01 53 3f 30 5e 05 6c 78 ab 58 bf
       0.001159994776000845 -0.001505725478713315
000010 47 09 33 ad ac 7b a8 bf 94 4f 4c 51 8a bf b2 bf
       -0.047818561689853704 -0.07323517308060296
000020 f6 a5 67 1a 1d 05 6c 3f b1 87 79 82 e8 2d ab 3f
       0.0034204071446211027 0.0530846270819575
000030 e8 a0 0f 83 e8 b5 d0 3f cc 53 30 32 13 87 a8 bf
       0.26110279845171513 -0.047905540348586934
000040 4f be 1c 01 eb 61 23 3f e3 4b 7d 7a 20 56 da 3f
       0.00014787667947179165 0.4115067669092111
000050 81 50 b3 48 8a c1 96 3f e4 ec de 95 dd 60 9e bf
       0.02222267216423335 -0.029666387817752674
000060 60 0c e8 4f 6a 8b 5f bf 9d 5b 9b 2c 43 3e a4 bf
       -0.0019253290371359574 -0.03953752440946021
000070 28 2a 45 23 63 d9 cf 3f b7 5e ce e9 0d 53 e1 bf
       0.2488216325967454 -0.5413884703184156
000080 8f ad 79 5e 0a 7b b1 3f 23 e4 0b 43 fb 3c 5a bf
       0.06828369909788122 -0.0016014531831258858
000090 74 b6 f6 82 bf 3b 7f 3f 30 57 88 24 ed 42 49 bf
       0.0076253395958879484 -0.0007709176944128201
0000a0 4e 47 ac de 54 d2 95 3f 62 f6 29 03 fd 0e 62 3f
       0.02131016358459386 0.002204412617458116
0000b0 01 50 c1 7c 59 8d 69 3f c6 e7 f4 f3 10 d8 9b 3f
       0.0031191585349379385 0.027191414728100737
0000c0 eb 9f b3 fc 52 27 cd 3f e1 3f a1 2d eb 0d 74 3f
       0.22776257838199795 0.0048960863733355795
0000d0 2c 5e f4 8f 90 50 a6 3f 10 c2 5a 62 3d 81 75 3f
       0.043583409855440486 0.005250205785771303
0000e0 74 34 ed 73 89 a2 99 bf 2a d7 d5 ea 67 39 cb bf
       -0.02503409166392996 -0.21268938986366354
0000f0 7f d8 69 92 8a 28 9c bf 6d 4d dc 48 ed cd a0 3f
       -0.027498402773254767 0.03282109751139726

3.weight f8 [64, 32, 9]
000000 7b 8d 54 34 3f 54 cf bf d3 5a 08 96 4a f4 b8 bf
       -0.24475851111592903 -0.09747759020715856
000010 a9 02 7d 18 1c 96 b1 bf 5a 31 4c 97 22 08 c1 bf
       -0.06869674299106045 -0.13306076419429297
000020 e2 9e 35 60 99 87 76 3f 09 eb 6e e9 cd dd c8 bf
       0.005500411152162351 -0.1942689313708217
000030 ba 29 52 b9 52 e3 9f 3f 27 48 01 c7 c9 24 ad 3f
       0.03114060646161374 0.056921296637156886
000040 20 09 e1 35 1e 6f b0 bf 94 a1 8a 9b c2 d7 c4 bf
       -0.0641955262699736 -0.162834478328716
000050 d1 81 e3 1d 25 54 c5 bf 5f a6 f4 24 08 45 d4 bf
       -0.1666304012242237 -0.3167133675475266
000060 61 70 75 56 41 64 c8 bf d1 e2 4d 15 47 f0 c8 bf
       -0.19055954667681177 -0.19483269253011895
000070 e4 22 e3 ee 92 e3 d7 bf 89 24 ff e1 94 68 86 3f
       -0.3732650120623886 0.010941661021109066
000080 53 4b b0 fe fb 8a b1 3f b3 a2 08 2f e8 e7 d9 bf
       0.06852698295578578 -0.4047794780076785
000090 c9 74 54 28 1e 25 d6 bf 2a 34 ec c5 5d aa b8 bf
       -0.34601549089877587 -0.09634958345505198
0000a0 2f a3 8e 10 29 03 c9 bf 97 17 66 cd 3f 7d d0 bf
       -0.19540894802528316 -0.25764460619427026
0000b0 6e af 0b dd 61 ca c2 bf 96 99 e7 a0 76 24 e4 bf
       -0.1468012170147363 -0.6294510977430032
0000c0 c2 47 d9 b3 31 7b 74 3f 93 4a 34 75 af 84 ae 3f
       0.005000299597286375 0.05960605912891483
0000d0 5a 49 37 fd af 59 c7 bf 23 ba 5d e6 6b 8e b3 bf
       -0.1824245439916677 -0.0763919293801583
0000e0 e5 76 d2 56 75 6d 85 bf 5c 83 b9 a4 29 3f 6d 3f
       -0.010462681495762858 0.003570157370447564
0000f0 8b f0 02 e3 94 e5 97 bf 69 5c ca f3 f3 2c c6 3f
       -0.023336721759492234 0.17324685481864613
000100 98 dd de a8 0b 95 b8 3f 2a 6f 03 d2 b4 f8 c4 3f
       0.09602425453964825 0.1638399148422363
000110 7a 66 90 3a e7 2d bd 3f 00 1f 23 2f 1b 85 9b 3f
       0.11398167781626425 0.026874947311426034
000120 02 09 d8 b0 76 e2 cb bf 6f 77 85 95 c0 30 c7 bf
       -0.21784862170176927 -0.18117530155989978
000130 36 7d 30 4c 42 94 cc bf eb 6b f7 4f 45 bc c3 bf
       -0.22327450485406936 -0.1541830673657779
000140 3d 80 58 6f 0a 38 b1 bf f4 76 95 01 4a 3a d6 bf
       -0.06726136415864033 -0.34730768351242536
000150 fb af b0 b5 6b 48 b1 bf 39 7e 2f 76 2c 34 a0 3f
       -0.06751130281253374 0.031648053576415376
000160 bf 83 9d 37 2e ed b8 bf ba 63 b9 f8 04 d2 b4 bf
       -0.0973690877704163 -0.08132964203231455
000170 ca 5e 78 d5 bd ba a7 bf c9 61 20 d3 25 55 c7 bf
       -0.046346599872945385 -0.18228600319777247
000180 57 dd 0b 20 41 7a bc bf c4 3f 5c 01 32 e3 b8 bf
       -0.1112404540289068 -0.09721672566615697
000190 ca 4f 2b 79 24 50 de bf f7 6b a4 81 1f 9a ba bf
       -0.47364150841644614 -0.10391423144430677
0001a0 00 fd f8 0b 02 e2 80 3f 93 b6 ea ff 01 1b c2 bf
       0.008243576040625644 -0.1414492129892336
0001b0 a3 f2 45 c0 3d 82 e6 bf 37 08 ef d4 e6 3e e3 bf
       -0.7033985858284563 -0.6014284285413457
0001c0 95 b9 47 a1 40 80 e1 bf 92 60 1b 0f 15 b4 e0 bf
       -0.5469058179858616 -0.521982697969195
0001d0 c4 a3 8e ba f4 64 df bf 41 21 99 55 43 07 e2 bf
       -0.4905368635032199 -0.5633865997161039
0001e0 4e 87 93 ce dd 13 a4 bf 5d 83 d9 b3 f1 e0 7b bf
       -0.03921406885798594 -0.006806320333993946
0001f0 77 99 74 56 d0 c3 dc bf 1c 93 d0 69 af 9b d0 bf
       -0.44945152705113095 -0.25950227101775325
000200 57 da 6c 45 98 fe c9 bf 1a 59 8c b8 f3 05 b3 bf
       -0.2030821169843928 -0.07430957084247716
000210 dd 7a 4a fb 58 e2 cf bf 24 9e ab c3 03 44 ba bf
       -0.2490950800901918 -0.10260032202824526
000220 42 88 7d de 8e 76 e8 bf 8a 7e 75 fc e2 4e a1 3f
       -0.7644724221720554 0.03380498248838844
000230 6b 44 5e 2d ae 6a c0 3f 3a 25 88 04 03 8c b7 bf
       0.1282556268238609 -0.09198016033783044
000240 80 2d 73 a5 8c dc c7 bf cf 0e 75 e8 30 08 c0 bf
       -0.1864181335316566 -0.12524997091724407
000250 f7 4c 21 de ab 24 c7 bf 19 68 6b 8f b5 a3 c7 bf
       -0.18080662103839248 -0.1846835089007193
000260 94 17 e5 7e 6a 4e b4 bf a3 18 e9 5b a5 6e da bf
       -0.07932153318424034 -0.4130032918514052
000270 6c 47 ac c2 a4 85 b5 bf 5e 81 75 34 9c 3b 68 3f
       -0.08407048943288736 0.002958111846666763
000280 cc 68 28 25 84 3d c0 bf 2f 41 69 80 98 1a e9 bf
       -0.12687732519481754 -0.7844965465574542
000290 95 06 86 e4 17 58 df bf 24 21 66 2d af 7f e3 bf
       -0.48975179020644904 -0.6093364607523069
0002a0 3f c0 db 9a 7e 5b e4 bf b1 12 14 15 24 81 e4 bf
       -0.6361687683656853 -0.6407642757117938
0002b0 5f a7 53 dd 88 ec e1 bf a6 52 8c 88 56 bd e5 bf
       -0.5601238558567551 -0.6793625513988288
0002c0 8f 3e 5b 7f 0b 11 bb bf 78 93 f4 73 75 28 d3 bf
       -0.10572883471763304 -0.29934440921561345
0002d0 6f 9f d0 5b 2e 33 d6 bf 53 36 40 95 08 9f c4 bf
       -0.34687384573270824 -0.16110331809652453
0002e0 e7 7b 5f 63 2c 5a ce bf 6c f7 aa 06 20 1f cd bf
       -0.23712687351414205 -0.22751236272409459
0002f0 ca 4d 88 f0 0f a0 b7 bf 04 34 a4 ef 96 e0 e0 bf
       -0.09228610632299375 -0.5274157219406566
000300 74 bd f7 87 ff e3 a1 bf b9 bb a7 25 34 40 a6 3f
       -0.03494261297953019 0.04345858535440734
000310 d6 20 47 86 2b de 9b bf 57 85 28 0f fa e7 a6 bf
       -0.027214698858899343 -0.044738592481972254
000320 0a 35 34 bf 14 58 b1 bf 6e e8 68 c2 00 5a cc bf
       -0.0677502600485306 -0.22149667256036615
000330 b3 25 f2 b9 8f 09 a1 bf 6a 1a 1a b4 01 ce b8 bf
       -0.033276072929833055 -0.09689341208477634
000340 69 a2 56 6a c9 0d c4 bf ee b2 98 dd 2d 23 7a 3f
       -0.15667073910050824 0.006381205713790845
000350 dd 39 19 8d ce d8 bc 3f e8 a9 b3 d1 4e 56 a6 bf
       0.11268320984638742 -0.04362722692333759
000360 54 4d 61 cf 57 21 c7 bf 31 c2 e7 ab 98 08 cb bf
       -0.1807050478551938 -0.2111998404866582
000370 7b 6a c9 f9 87 46 d6 bf 8c 7c 10 55 12 2f d7 bf
       -0.3480548800777467 -0.36224802310057025
000380 e7 17 78 af 4d 8f db bf 12 33 da f0 37 f6 d5 bf
       -0.4306215489926885 -0.3431529857705736
000390 18 ae 81 a8 11 4b 9b bf 6c 59 05 7c 32 b6 68 bf
       -0.026653552923035034 -0.003016565897421211
0003a0 6f 5d bb db 52 38 d4 bf b8 ee bd b8 fe 12 d6 bf
       -0.31593772371476 -0.3449093631859159
0003b0 c1 b4 02 81 77 1a c5 bf 9f 66 9c c5 59 80 cc bf
       -0.16487020301193492 -0.22266695164653513
0003c0 86 dc 2b 94 ed ee d5 bf 3f 0c ce 17 50 b2 bb bf
       -0.34270801038605503 -0.10818958836721125
0003d0 5f 98 fc fa 19 8c ed bf d2 29 0f 63 4a 44 be 3f
       -0.9233522321781144 0.1182295314639881
0003e0 eb 4c 97 95 db 9f ba 3f 37 05 f5 3a 57 05 c2 bf
       0.10400173570751618 -0.14078798655286004
0003f0 26 88 6a 42 50 34 e6 bf 7e 42 b8 69 43 43 e8 bf
       -0.6938859269323572 -0.7582108559455063
000400 0a 3b ed 7b 4b 72 e6 bf 21 99 aa 8e b1 4f e5 bf
       -0.7014520092432985 -0.6659782206013781
000410 36 8a e2 d9 54 ba e8 bf 8b b9 3d 52 94 5e e6 bf
       -0.7727455382885811 -0.6990453344604232
000420 91 1d cf ed ea 5b d2 bf 1d 1c 49 ab 82 40 c4 3f
       -0.2868602106431917 0.15821870196870771
000430 26 ba 6e ee fb ec e3 bf 27 fe 73 52 1b 70 9d 3f
       -0.6226787239919005 0.028747965724504134
000440 4c 0b c2 36 e8 df 9d bf 24 06 81 7f 2b 0d 80 bf
       -0.029174450246965564 -0.007837619618047027
000450 53 5b 4d 74 da a0 c1 3f 0d 71 a4 f6 52 e6 ab bf
       0.13772135428254248 -0.054491608245571845
000460 69 6d eb 3e 26 36 66 3f c6 ea 3d 42 eb 4f ab 3f
       0.0027113673198592603 0.05334410842529773
000470 0d a6 bd c8 b0 ce b7 3f c4 17 19 e1 d7 92 bd bf
       0.09299759770296863 -0.11552190061146833
000480 65 bc 8f e3 02 3b d2 bf 27 94 18 96 6e c3 cf bf
       -0.28485176298904086 -0.2481516106501271
000490 86 ce a3 cd 2d ef d2 bf a1 9d c3 27 69 b8 b2 3f
       -0.2958483226968628 0.073126384933508
0004a0 59 80 f4 89 c2 0d c3 bf ec 8c 63 ee ec 6a e1 bf
       -0.1488574193581396 -0.5443024307282065
0004b0 28 a8 7c 0a bf 69 ab bf 18 86 57 af 91 a1 b0 bf
       -0.053541154890197895 -0.06496534853752
0004c0 3e c8 41 66 1c 72 b9 bf 0a 4c 4b ec 34 a3 d2 bf
       -0.09939744469173292 -0.2912113483009199
0004d0 8f 3f f9 a6 93 52 d8 bf d7 49 cf 91 10 9e d0 bf
       -0.38004008584993526 -0.2596475051806499
0004e0 75 3f a4 1a 24 63 c1 3f 3c 63 92 6e 10 e8 ce bf
       0.13583804417475745 -0.24145703696265197
0004f0 6f 91 d5 7b f3 15 e5 bf ec 1a 11 ca 4c ab b0 bf
       -0.6589295786512092 -0.0651138299300375
000500 4e b9 fd 7a 89 1c 94 3f 55 57 bf 9b 83 bc b8 3f
       0.019640110141545812 0.0966264968149891
000510 89 fc b5 09 42 fb c2 bf ad 1c cb b1 0e f3 b5 bf
       -0.1482927844444684 -0.08574001160296758
000520 11 2d be 1b 8d 83 ce bf 60 1f 6d e7 c4 04 cf bf
       -0.23838962416298462 -0.2423330430995021
000530 cf 95 f4 e7 d4 80 c4 bf a5 0e 6f f9 e4 c4 e7 bf
       -0.16018163038204 -0.74278496472876
000540 f0 a9 c3 93 65 24 53 3f c0 1b 9e 33 1a 82 b8 bf
       0.0011683456387411272 -0.09573520431705074
000550 8c bc 91 dd 0c 08 bf 3f 84 d5 7a e9 f1 bf e2 bf
       0.12121658715635614 -0.585930782332682
000560 68 6e 3d 86 f5 ff d2 bf 99 3d d9 a6 ae c0 db bf
       -0.29687250241634056 -0.4336353902226278
000570 c0 74 ef 13 06 65 d2 bf 78 ea 7e 01 a6 72 d1 bf
       -0.2874159998589896 -0.27262258668967077
000580 c8 91 5e 12 b3 04 e2 bf 68 ad ea bd 41 1d 95 3f
       -0.5630736693170144 0.020619418350788093
000590 c8 c3 c0 40 3b 7c b0 3f a3 af 9d 29 d8 7c bc bf
       0.06439562159427148 -0.11127997413649253
0005a0 16 62 78 c0 fb af c1 bf e7 f6 4e 5c ca 08 bf bf
       -0.13818308732949508 -0.1212278819429816
0005b0 66 93 f1 c1 46 83 ca bf 7f c5 11 b5 1b 60 8b bf
       -0.20713123769669578 -0.013366905654239812
0005c0 35 d1 6c aa 91 1e d2 bf 03 33 2f f1 f0 35 d3 bf
       -0.28311578410218213 -0.3001673083606848
0005d0 65 28 74 40 e5 71 ad bf 46 fc 04 cd ca 74 a6 bf
       -0.05750957881726108 -0.043859803702155406
0005e0 3a 82 91 30 13 a4 b6 bf f7 94 94 f3 48 7d d7 bf
       -0.08844108520271102 -0.3670217875208687
0005f0 2d 4e 5b b4 31 8c c1 bf 2b 0e 4f 1a ba 62 b3 bf
       -0.1370908861778032 -0.07572520391755037
000600 36 a8 e9 f4 b1 1b c5 bf a9 2d ba af 1c 39 8c bf
       -0.16490768869999933 -0.013780807602663385
000610 15 eb 3c 11 1d 6a d0 bf c8 32 4f e5 c2 d8 a1 bf
       -0.25647665675539716 -0.03485688256441716
000620 b8 5b 05 57 3d 17 b4 bf 6e 4d 63 0d 9e 47 81 bf
       -0.07847960829290812 -0.00843738058430318
000630 de 6a a7 ae cc bc c2 bf 8a 8a 7d 43 99 57 be bf
       -0.14638670471216292 -0.11852414987292029
000640 82 c1 4a 05 28 20 be bf ee 47 71 78 92 b8 aa 3f
       -0.11767816666793432 0.052189423754171446
000650 fd 82 d1 cf ec 56 8d 3f fd 9f c6 25 7e db d3 bf
       0.014325952617754373 -0.31027177514124543
000660 6b 73 a5 f1 fc 89 ab 3f 4a b6 4c 7e 72 2b a3 bf
       0.053787140367353846 -0.03744085113281111
000670 87 2b 18 07 ef f6 bd bf cd 74 47 37 37 f9 c5 bf
       -0.11704915927127334 -0.17166795920539926
000680 b2 cd 2c 28 10 be d8 bf 86 04 40 34 a3 aa da bf
       -0.3866005318006628 -0.41666488745256236
000690 49 c0 69 11 a6 02 d6 bf 5c 71 cd 4e 3c f5 83 bf
       -0.34391166401383494 -0.009745093493329797
0006a0 59 11 17 a4 c1 da d0 bf d5 54 70 26 2b e8 bb 3f
       -0.2633518316690889 0.10901136101195459
0006b0 db 16 75 1b 41 92 c1 bf 22 a8 58 03 0f f2 c9 bf
       -0.13727582779590972 -0.20269954360384285
0006c0 a0 16 4b ed d4 6f e7 bf 97 9f e5 e4 52 77 de bf
       -0.7324013361582793 -0.4760329470941484
0006d0 95 b5 89 9c ee 42 e2 bf 9a aa e0 3d 85 9d e3 bf
       -0.5706704194432627 -0.6129785736605584
0006e0 b2 c8 09 c9 21 fd e3 bf bf c4 09 d3 ca 4b e3 bf
       -0.6246498991515834 -0.603001987632659
0006f0 b9 f5 ad d9 c7 c1 e1 bf 37 5a 93 74 96 a9 ab bf
       -0.5549048663667043 -0.05402822659532485
000700 8c a4 68 8c d2 aa db bf 70 5a 45 7f 8f 16 d2 bf
       -0.4323011752299599 -0.28262698582458423
000710 29 cf d8 1f c9 02 ad bf d8 ff 5d c9 ea ca c0 bf
       -0.05666187776333082 -0.13119253952390753
000720 bc 15 94 e0 a2 fc c3 bf 38 3a 94 90 7e 04 a3 bf
       -0.15614734616990045 -0.03714366450195822
000730 3b f2 13 71 aa b9 d9 bf 22 5b a3 33 f4 67 9f bf
       -0.4019571403767121 -0.03066999020742423
000740 22 d1 e7 07 29 8f 73 bf da b4 42 ee 44 1c c4 bf
       -0.004775200154189004 -0.15711270936791416
000750 74 31 3b fc 7b 8f c4 bf d7 76 c2 0d ef 9a d1 bf
       -0.1606287938688059 -0.27508140891755545
000760 74 01 42 37 61 d8 d5 bf 28 2b 30 46 50 59 c8 bf
       -0.3413317718150417 -0.1902256338801973
000770 04 93 2c e8 6a 72 c3 bf 8b 62 3e 57 18 97 df bf
       -0.15192924820544118 -0.4935971118916675
000780 0d b0 5c 3e 50 8d 70 bf 89 77 28 36 58 08 6e bf
       -0.004041017009324588 -0.003666088379090608
000790 8a 96 d4 cc 37 fa bb bf ee 7b b6 00 60 cb d8 bf
       -0.10928677321188665 -0.38741302556621704
0007a0 1c c2 93 b0 8f f2 b0 bf db 38 80 6f ff 4e 93 bf
       -0.0662011915299065 -0.01885604017302787
0007b0 8f 22 0c b5 e4 9e b7 bf 97 1c e5 76 0f 33 b5 bf
       -0.092268270684267 -0.08281036999425094
0007c0 02 bd 83 47 cd d4 c6 bf 78 e1 4e b4 39 0e 93 3f
       -0.1783691977684399 0.018608953123221167
0007d0 ef ed 13 4a 5e 7b 74 3f 12 ad 52 f8 4a f0 b8 bf
       0.005000465696180608 -0.09741657793590644
0007e0 0a 6c f7 84 77 fa d5 bf f0 e9 d9 e1 87 a6 b6 3f
       -0.34341228470810903 0.08847855819650596
0007f0 28 63 e6 2a c4 d2 cb bf 26 0e 71 35 66 10 c8 bf
       -0.21736957640384813 -0.18800046548322874

3.bias f8 [64]
000000 7e 42 01 dd 88 d5 e4 bf aa ae 6b ba b4 10 b5 3f
       -0.6510662380697594 0.08228616286549575
000010 01 74 54 b9 6b d3 d7 bf e2 bd d9 fd 19 b6 bb bf
       -0.3722791013586289 -0.10824739882968218
000020 57 6e 0d 78 4b c3 ab bf e8 52 42 33 1f 68 c1 3f
       -0.054224356083719165 0.1359900474823441
000030 05 ec 4a 98 aa 93 a3 3f 42 03 f9 76 77 96 c2 bf
       0.038235980120099135 -0.14521687802518995
000040 d2 d1 a3 89 06 3a d1 bf 09 62 54 04 7f 83 c0 3f
       -0.2691665977611396 0.1290129443302848
000050 f8 71 4b 5f c8 05 a3 bf 9a 61 6a 1d a6 5c e0 bf
       -0.03715349353089786 -0.5113096785089966
000060 f7 1f 10 c5 59 58 93 3f 57 2d ac 7b 01 b7 4e bf
       0.01889171853329682 -0.0009373433343581689
000070 3b 30 32 cf b1 45 bd 3f 36 66 f7 af 4f c3 96 3f
       0.11434470470902706 0.022229428401123928
000080 aa 92 4d 88 ab 33 b7 3f 56 e3 2c 9a a2 5f a3 bf
       0.09063217237196378 -0.03783901340506783
000090 c0 56 e1 67 5a f9 92 bf bc ac 58 52 02 50 e2 bf
       -0.018529331770273272 -0.5722667320564123
0000a0 5a 05 fe 4f f6 09 b1 bf 72 56 6c b7 bb 17 b0 bf
       -0.06655826046882876 -0.06286214092355083
0000b0 97 c9 b8 72 67 56 a3 3f 53 5c ce 50 65 73 e2 bf
       0.03776858592427173 -0.5765863970035617
0000c0 52 3e c1 27 ed d9 81 bf 9c c5 a7 cb d3 db bc 3f
       -0.008716442847940407 0.11272929880194343
0000d0 30 b8 8a d7 f2 80 94 bf 68 5d 6f 0a 7b cb aa bf
       -0.020023149877197166 -0.052333683990293534
0000e0 a6 c3 ef 79 df 4b 71 3f 27 ee 5c d9 d9 26 c9 3f
       0.004222748712877788 0.19649813760212106
0000f0 0d 4d 83 94 b5 4a aa bf db f4 c7 86 66 3e ae bf
       -0.051351236704841076 -0.05906982798840384
000100 ab 0a 4d 1f 9b bd bd 3f c8 b7 66 75 86 31 e8 bf
       0.11617440714057163 -0.7560455601685527
000110 cb 33 e7 8e d0 28 ad bf 5e 3a c9 62 7d 47 ab bf
       -0.05695201630042098 -0.05327979880222665
000120 14 04 b0 e3 43 76 a6 bf 58 f0 1a 3d f1 51 d2 bf
       -0.04387104181660831 -0.28625136344249347
000130 52 69 17 06 f4 80 9c 3f a3 01 00 6e 28 8a ac bf
       0.027835667487900402 -0.055741561343896316
000140 96 97 c7 fe 98 25 b2 bf 79 89 51 a6 f0 6b b0 bf
       -0.07088619442182983 -0.06414703426847791
000150 54 15 fb 2f d3 a4 ba 3f 0e 8d 08 e6 ee 20 c0 bf
       0.1040775291576968 -0.12600504142856334
000160 47 dd 3f 24 0d 61 ba bf 97 20 da 6f f1 4a 7a 3f
       -0.10304338583943205 0.006419127572037684
000170 9e 62 c1 4a 44 d0 d4 bf 9e ed 57 df 8a 5a 6b bf
       -0.32521159458478077 -0.0033390724518064926
000180 32 0b f3 51 85 5c b1 3f 4f 4e a1 f9 33 57 c7 3f
       0.06781800509183425 0.18234872521371634
000190 5c 76 be 18 f1 8c 8b bf a7 49 ec f8 0e fd ab 3f
       -0.013452418868662601 0.0546650580273707
0001a0 f2 c9 28 50 b3 d0 b6 bf a0 eb c1 e6 c0 02 d1 bf
       -0.08912201601996353 -0.265793061589358
0001b0 70 79 a1 e3 1c af a4 bf bf 78 6b 39 17 02 c0 bf
       -0.0403985050077037 -0.12506380370809286
0001c0 22 68 ce 89 7e ff da bf 97 1e 2e 6b a2 d7 f5 bf
       -0.42184413392681297 -1.3651451288914467
0001d0 8d d4 74 6e 03 1f be bf 5b 75 64 05 f0 9d b4 bf
       -0.11766072699249915 -0.08053493625307821
0001e0 b4 9e 40 b2 35 be cb bf 38 1b 73 fb 41 89 b6 bf
       -0.2167422409413483 -0.08803188694865305
0001f0 b7 db ed 8e 96 5c b5 3f b4 90 4e 0c 95 78 97 bf
       0.08344403256874854 -0.022920922161248483

7.weight f8 [1, 128]
000000 da 86 fc f1 11 7f 8e 3f 59 c3 0a aa b0 1d 62 3f
       0.014890804478969445 0.0022114229653528547
000010 af 48 2b af af ec be bf 51 de 80 e8 e9 79 d4 3f
       -0.12079904581631483 0.31994102197083857
000020 7b d6 00 6c 43 88 bf bf 9b e3 b2 7f 36 8e 66 3f
       -0.12317296397017145 0.002753359263433853
000030 ae a0 f8 17 91 3b d9 3f 4f be a3 af af f5 d9 bf
       0.3942606672376411 -0.4056205001097383
000040 34 10 bd 0c 0f 1e e1 bf 1c 99 3d ba 4c 03 c3 3f
       -0.5349192856597313 0.14853819936542656
000050 e1 f1 d6 e1 a9 23 d3 3f 80 52 4a af 0e c3 c0 bf
       0.2990517335381622 -0.1309526782903454
000060 86 70 d2 7a d7 e3 c9 3f 27 3a e0 60 87 c9 b2 3f
       0.20226567742509277 0.07338758578428238
000070 95 94 95 13 43 17 cc 3f ce 2e 33 42 cf 6c ca bf
       0.21945990043892452 -0.206445605587183
000080 ab c9 b2 ef a1 a4 dc 3f af ab 74 30 a7 23 c8 bf
       0.4475483742527568 -0.18858804574969443
000090 8d 5e af de 8d ed d6 3f 48 49 cf 0b 62 a4 c6 bf
       0.3582491564425048 -0.17689157082220164
0000a0 c9 ba fc 41 d8 54 a3 bf ad 08 09 b6 f3 8b a2 3f
       -0.03775668912418479 0.03622399899588067
0000b0 15 5d 62 b2 ce f3 a4 bf f5 11 35 ff 2f b2 b7 3f
       -0.04092260291616349 0.09256267529151059
0000c0 0e 10 fb 41 60 2a de 3f 45 df 31 f9 cd f8 86 bf
       0.47133642619542193 -0.01121674458248346
0000d0 ef 8c 36 9e 09 28 d6 3f 9e a7 55 13 29 4b 72 3f
       0.34619369936463235 0.004466209841988004
0000e0 89 aa 91 25 63 03 e1 3f b7 4c 17 bf 64 c3 ce bf
       0.5316634877938934 -0.2403379376470178
0000f0 9d f6 8f c8 70 b2 dc 3f a2 38 bf 97 f6 35 50 3f
       0.44839114748160985 0.000989428342097955
000100 8f a7 17 f0 8d 1c da 3f 38 b7 f1 c8 13 2a d6 bf
       0.4079928249981259 -0.34631819365937444
000110 5b 5c 90 5e 7a ed da bf 6f 95 4d b5 bd 4d c8 3f
       -0.4207445071674038 0.18987246849716707
000120 70 1c 6b e6 31 17 d5 bf e6 77 b1 4a 5d d3 d5 3f
       -0.329540705697986 0.3410256604601031
000130 78 13 a6 e5 47 90 b7 bf 14 2f 77 16 a8 38 9f 3f
       -0.09204530102404174 0.030489565249623388
000140 40 ba bd d7 46 eb d7 bf fd c2 f2 3a 61 0d c5 bf
       -0.3737351519438654 -0.164470819266647
000150 74 d7 49 2f 35 f1 b2 bf f4 da e2 53 97 a8 a2 3f
       -0.0739930382204344 0.036442498197564094
000160 9d 26 fa c0 20 30 d0 3f 31 e0 8a de 70 1e b2 3f
       0.252937496618509 0.07077699120679949
000170 f9 2e 61 e5 5b 1c 90 bf de 30 7a 59 67 ac 7c 3f
       -0.015733180880757456 0.00700035448938882
000180 e4 72 c9 b8 d6 5a e3 bf 88 f3 22 55 5d d4 af bf
       -0.6048387154692958 -0.06216708816780342
000190 ea 43 20 d4 5a 16 df 3f 77 67 48 fa f5 d4 c7 bf
       0.4857394286673854 -0.18618654938546417
0001a0 dd 69 1b d9 63 b2 d9 bf 52 1f b2 cd db 32 b4 bf
       -0.4015130634485596 -0.07890104076261409
0001b0 2e 56 ce 08 5b ec a6 bf be fa bc db 5a 9f 84 bf
       -0.044772000145865895 -0.010069570380094258
0001c0 76 c0 7f 72 3d c2 d4 3f 98 63 9b 00 50 95 c4 bf
       0.32435547048135704 -0.16080665616644008
0001d0 ae a5 c8 a2 a7 39 db 3f 01 b3 fe 96 ef 14 c8 bf
       0.42539397141316726 -0.18813891289519094
0001e0 aa c3 95 1b 26 b0 d6 3f a0 3d d1 e2 cb 95 d6 bf
       0.35450127309655477 -0.3528928484929228
0001f0 d1 14 df 57 36 d3 ac bf 59 3b 63 29 df a0 84 3f
       -0.05629892180108132 0.010072463465261515
000200 d2 46 dc 9b b5 f6 d7 3f 61 e2 bb ea 2c 29 bf bf
       0.3744329473566782 -0.121722037609183
000210 57 b2 ba 5e b2 f3 a2 bf b0 cb a0 26 fe 0f 98 bf
       -0.037015508712418814 -0.023498507602379426
000220 32 52 c6 f7 44 7f 40 bf 91 09 22 ef 59 08 9c bf
       -0.0005034529454400248 -0.027375607700841412
000230 7d 66 7d 5a 7f ba db bf 79 92 fd 98 2f 91 c6 bf
       -0.4332579024972814 -0.17630572290649463
000240 2a a5 96 73 ac 15 dc 3f ab 8b f8 c4 f7 eb c6 3f
       0.4388228539269955 0.17907616727560813
000250 92 04 43 02 f7 c2 dd 3f 77 85 3a c7 01 f2 c8 bf
       0.46502471180799276 -0.19488546588858544
000260 96 cd 67 33 54 65 d5 bf 2e a5 9b d0 7d 3f 94 3f
       -0.3343096258169792 0.019773450715466705
000270 a1 10 34 4c ac 4c da 3f d2 7a 48 ca 4f 69 72 3f
       0.41092975084053235 0.004494964294763109
000280 78 7f b6 58 83 24 87 3f e3 7f 9b a0 60 9b 98 3f
       0.01130011190872414 0.024030217936228736
000290 ba cc 47 c0 6d 51 d3 bf b2 b0 f3 fa 29 af e1 3f
       -0.30184501435651223 0.5526323224453533
0002a0 2b 88 e6 78 a4 b8 c1 3f b5 0e 74 f8 0d 81 f1 3f
       0.1384473409971759 1.0940074639519655
0002b0 28 14 38 ab 0d 9a cd bf b9 dd 29 3a 3c 08 c3 3f
       -0.23126383648210092 0.1486888202668817
0002c0 c3 44 3c 34 41 ed b3 3f bc d9 4c e9 ff aa ab 3f
       0.07783896947173034 0.05403899882223892
0002d0 ae f9 90 05 4f be dd 3f bd f5 ce 95 73 d3 a2 3f
       0.464740519939279 0.03676949695316576
0002e0 ac 55 41 70 d9 4f af bf 65 96 a5 b2 97 75 9f 3f
       -0.061156077340153686 0.030722017554032272
0002f0 18 f0 fc 9f 75 3d de 3f 5f b8 ba a2 55 20 a4 3f
       0.47250118850547684 0.039309192766595606
000300 22 bf fd a2 f1 18 d9 bf dc 3e ec 88 36 aa b5 bf
       -0.39214745442494536 -0.08462849467127448
000310 05 da c5 19 c4 e5 e0 3f 43 d5 b5 33 df 01 d0 bf
       0.5280476096511967 -0.25011425065834575
000320 6c c7 5c 51 d7 61 d3 3f f3 b6 70 e9 a6 91 bd 3f
       0.3028467459254134 0.11550372313714856
000330 56 78 eb b7 45 11 a9 bf 31 92 fc b6 34 6f d8 3f
       -0.04895990247835928 0.38178747052942
000340 15 ec d8 cd a0 9f b2 bf cb c4 b8 1a 49 72 ac bf
       -0.0727482321316731 -0.055559429656918256
000350 d5 ae a8 c7 52 1f d2 bf fd c5 07 20 08 17 b8 3f
       -0.28316182611409363 0.09410143644324616
000360 e3 28 23 3d 6b ee dc 3f 9f b7 79 94 73 cf ce bf
       0.4520519349140512 -0.24070591687944629
000370 b3 98 18 61 c8 c4 c2 bf f1 13 7e 5c b1 fb c3 3f
       -0.14663033238429576 0.15611855522379828
000380 33 43 cb 46 b4 52 66 bf ed 4b cc 43 dc 6b 82 3f
       -0.0027249833131936184 0.008994789904624734
000390 70 e7 e6 d4 56 f4 88 3f e6 75 b0 04 11 f7 d9 bf
       0.012184790012600394 -0.40570474107684473
0003a0 ea 1c 77 ce ae b5 d0 bf f7 44 bc 56 59 a2 c4 3f
       -0.2610890403997944 0.16120449767235076
0003b0 11 25 c1 cd 1f e5 96 bf 77 a7 d7 41 2c 1f a8 3f
       -0.022358414586311662 0.047112830197717885
0003c0 c8 b4 fb 17 9f ee 9b bf 64 15 fb af db 5d 8b 3f
       -0.02727745612985613 0.013362613971717514
0003d0 23 c0 c8 af d0 0d d5 bf ea ea 05 ab d7 95 cb bf
       -0.32896821180747987 -0.21551032877672266
0003e0 78 a1 ec 84 a8 ce d7 3f 63 7b 30 cb 85 c0 a9 bf
       0.3719884203042265 -0.050296956113234946
0003f0 5f 3e df e7 cd 97 7d 3f 7d 92 ef 3e 1f 5a b0 3f
       0.007224850005470878 0.06387515341300261

7.bias f8 [1]
000000 a2 32 82 79 a0 34 93 3f
       0.018755443016334035
