models/run1/run1_0.pt (torch, 153982 bytes, 6 tensors)

0.weight f8 [32, 1, 9]
000000 5e b2 41 70 e4 ad cd 3f f9 18 e0 a2 2b 57 ce 3f
       0.23186927300720844 0.2370352311410853
000010 b5 c6 d4 0f af 11 af 3f 84 67 b0 3d 47 75 c9 3f
       0.06068179195643834 0.1988915492263993
000020 e3 ce a6 69 e2 12 d0 3f 26 f6 9a 32 52 37 b2 bf
       0.2511526138070918 -0.07115663276177794
000030 b1 80 75 ba 01 6b 77 3f f7 18 ab 06 22 28 de bf
       0.005717283965481255 -0.47119951869207405
000040 eb 36 84 39 18 53 d1 bf 18 ef 08 ea cf e7 c0 bf
       -0.2706966935810288 -0.13207434585080402
000050 8c fa c1 b7 46 60 ba bf f0 cc 02 26 cb 3e c0 3f
       -0.10303155885956466 0.12691630702975187
000060 66 11 a1 2a 4d b3 a4 3f 07 d1 01 e5 ad 61 d0 bf
       0.04043046136260635 -0.2559618698499126
000070 11 0a 23 7b 7e a1 c9 bf 4e 96 4e 45 a2 22 d1 3f
       -0.2002409077886829 0.2677388836694704
000080 76 8b a7 05 0f b4 b6 3f f6 28 46 b6 82 ad c0 3f
       0.08868497741745593 0.1302951231012412
000090 66 ed 0d 20 6c 9e d5 3f d7 4a 70 68 16 11 c1 3f
       0.3377943337470327 0.13333397006552758
0000a0 66 50 6d 41 af 23 d1 bf b9 94 59 41 16 be 83 bf
       -0.26780301465374234 -0.009639905804940662
0000b0 20 7d da 58 01 c3 bc 3f cc 69 80 96 85 60 9a bf
       0.1123505441596433 -0.025758826552285716
0000c0 43 88 d3 98 7f 83 5a bf 8c 5c e0 99 68 10 72 bf
       -0.001618265730308114 -0.004410179708450045
0000d0 7f 63 ac e5 c3 78 cb 3f 63 d9 d8 b5 61 fe d5 bf
       0.21462296213647034 -0.34365122564795153
0000e0 8b 73 7c 31 30 17 cc bf b6 67 83 08 b8 2f dc bf
       -0.21945764938655218 -0.44041252929093433
0000f0 d7 a1 d1 e6 67 80 ce 3f 9c de 67 a2 f3 c1 cd 3f
       0.23829363604023854 0.23248143606155203
000100 01 d8 e9 3e 3b ac c4 3f 8b 0c 38 bc 81 d2 b6 bf
       0.16150608608194264 -0.0891495785254383
000110 a1 3b d3 3a c9 44 c0 bf ea 19 1c a5 b6 49 c7 3f
       -0.12709918377228482 0.18193705617905148
000120 c8 0c be 74 8c ca d0 3f 4c 62 d1 1d bd 6f c8 bf
       0.2623625888883905 -0.19090999561264466
000130 33 25 b7 9e 90 36 b6 3f c1 39 bf b8 0a b6 d2 3f
       0.08677009463203404 0.29236095468231943
000140 15 06 7b 72 e8 25 d2 3f a7 e1 de 58 86 93 c9 bf
       0.2835637205099329 -0.1998145994127871
000150 a4 60 5d 9b 9e ba a4 bf 71 c0 2f 29 df 41 c2 3f
       -0.04048629423658781 0.14263524542866748
000160 bd 14 7c 2b 37 e2 d5 bf d6 c2 90 0b 31 05 c4 3f
       -0.3419320988326254 0.15640843453140602
000170 be 99 a6 1f 14 a7 a3 3f ba 8d 48 28 29 c9 dc bf
       0.03838408361780264 -0.4497778790848447
000180 99 b2 48 74 e4 bd de bf 17 72 bf b8 8a aa a1 3f
       -0.4803401122651763 0.034504256298280626
000190 d1 45 57 d9 5c 90 d3 bf 61 cf 23 60 e2 aa c9 3f
       -0.30568619942377234 0.2005274743493102
0001a0 09 7d 1d e0 52 3e d1 3f ed 66 8c 54 68 0b cd 3f
       0.2694289387345213 0.22691063049642626
0001b0 07 df 3e 5b dc 7d cc bf 6b 14 a1 cd 7b 9e c3 3f
       -0.22259096579886536 0.15327403583993102
0001c0 72 ca cc e9 0b 29 cf 3f a9 cf aa 2c db 65 a9 bf
       0.2434401408769023 -0.049605225756209244
0001d0 07 7f ab 8a b5 4e 9c bf 2a 1a 04 e9 7b 3c d5 bf
       -0.027644001568545764 -0.3318166518733131
0001e0 d1 99 36 ce e8 c6 cb bf b1 31 c9 9f 72 4f 8b bf
       -0.21700773304946933 -0.013335128308562401
0001f0 4d 4c 02 79 bf b5 d1 3f 46 f8 48 58 73 78 d4 3f
       0.2767180139282502 0.3198517191084459
000200 88 97 bf 97 21 38 c0 3f 45 d9 1b 51 1d ab be bf
       0.12671298894491323 -0.11979850034899638
000210 75 a3 67 d0 85 02 b8 bf 14 5d fd b0 8e 61 ca bf
       -0.09378849351891268 -0.20610221521449346
000220 61 9a 2a b5 3b 58 a4 bf 37 8d c6 b8 4f 69 d4 bf
       -0.039735666146317745 -0.31892769855967934
000230 19 ab 85 c9 09 8e c4 3f a9 dd 71 9a 6d 84 dc bf
       0.16058466281841602 -0.44558277208804015
000240 49 91 c9 98 74 74 ab 3f a2 29 f2 ff cf 9e d0 3f
       0.053622859621813186 0.25969314570161306
000250 79 ee f2 b3 00 42 d6 bf a8 cf b5 4c e3 a4 c6 bf
       -0.34777848790302063 -0.17690697904219843
000260 a3 1f b5 09 b5 aa d0 3f 78 9d 3a b1 91 b1 c9 3f
       0.2604191393661443 0.20073147920377798
000270 68 3b c5 db 57 6e 89 bf c3 f8 b0 85 84 47 ca bf
       -0.012417494196282866 -0.2053075459279566
000280 14 b3 93 00 e3 66 d2 3f 38 4b ed 55 b3 79 c8 bf
       0.2875297074922838 -0.19121400542879896
000290 5a 28 22 27 90 a8 c1 bf 8a e3 38 67 e4 34 d2 3f
       -0.13795663748561787 0.2844782836942207
0002a0 d4 2f 51 a8 c1 53 ca bf 61 09 17 99 dd 84 93 bf
       -0.20568104475603255 -0.019061529606696385
0002b0 cd 52 ea 89 cf b0 c7 bf e6 1c 2e 22 1c 0f 92 bf
       -0.18508333429476523 -0.01763576468104313
0002c0 8a 17 d4 87 62 56 9d bf 1a de 70 54 5c 78 ba bf
       -0.028649844684899096 -0.10339905797524587
0002d0 6e 47 a6 52 dd 82 d4 bf be cc cb 3c 74 95 d1 3f
       -0.3204873377918521 0.2747469514571995
0002e0 e3 bb af 49 3f 47 d0 3f 63 d6 ba 18 b9 03 b7 3f
       0.25434858509009767 0.08990055898433406
0002f0 cc 91 1c a8 b9 95 d2 3f c5 89 05 12 ec 3b dc bf
       0.29038850228451163 -0.44115735778737203
000300 f6 41 4d 24 02 d3 c4 bf d9 ae 1c f5 6d 56 be bf
       -0.1626894643072913 -0.11850630983525025
000310 71 8e cf 1b fa 83 43 bf 4a 99 6b 84 dc e7 b0 bf
       -0.0005955668672154702 -0.06603792412679357
000320 58 40 e3 f0 7d 59 c9 3f d4 93 20 f8 94 0f aa 3f
       0.19804357778639559 0.05090013054749645
000330 0c 07 26 0d d1 6c cd bf f9 bf 8c cf 4e a3 ab bf
       -0.22988331930178452 -0.05398031505171725
000340 ab 24 a3 92 92 31 bb 3f 6a 71 bb 31 e8 21 d1 3f
       0.10622516708385159 0.26769451958332147
000350 d4 10 6d 81 77 35 b6 3f 63 a4 df ee e8 5f cb bf
       0.08675333890738851 -0.21386443771123984
000360 0c 0c 45 e7 c7 d4 7e bf 29 e7 8a 25 a4 89 91 bf
       -0.0075271424032648075 -0.01712662200109275
000370 5c d0 b0 dd 86 16 d3 3f 2e 3d 76 1c 0c dd d1 bf
       0.29824992799263383 -0.2791166570613822
000380 29 b5 b8 2d 17 5e d8 bf 42 77 b4 91 ee 89 d1 3f
       -0.38074283089629773 0.27404369572638043
000390 1e 9c 65 5c 97 73 cc bf 48 b9 62 52 aa 7f cb bf
       -0.2222775651127628 -0.21483353636490166
0003a0 06 7e 79 55 ea cf b3 3f ff ec 57 6f 31 dd c4 3f
       0.07739128672391624 0.16300027786915192
0003b0 45 b5 f5 d6 96 17 c0 bf c0 24 b1 43 61 b3 d8 bf
       -0.1257198857887635 -0.38594848261397985
0003c0 83 76 6a 1c eb aa ca bf 86 59 1e 25 0f cb be 3f
       -0.20834101569646543 0.12028593689169584
0003d0 c9 b5 0b a6 bb 97 ca 3f ee 12 da f3 0e 92 da bf
       0.20775552375509523 -0.41516469777734144
0003e0 66 c1 66 8e 02 33 d0 3f de a4 df b6 89 2c b3 bf
       0.253113402427536 -0.07489834513366442
0003f0 a9 bd a9 03 d2 34 d3 bf a0 6b 67 39 ff 9e de bf
       -0.3000988994380927 -0.4784544048867989
000400 49 76 cc 2a d1 a3 d7 bf 7f 87 a1 57 2b 6f db bf
       -0.36937359981115897 -0.42866023595535546
000410 2e 78 df 74 2e 82 d5 bf d2 a4 cb 11 7b 9a b2 3f
       -0.33607064641353446 0.0726696890302663
000420 3f 34 5a 67 43 14 cf bf 60 32 0f 53 d9 85 82 3f
       -0.24280588671209277 0.009044359061499196
000430 e1 02 65 df 7a a4 8c 3f 9f 7a 27 34 99 d7 b4 bf
       0.013985595648251916 -0.08141477130218754
000440 24 ca 2d 63 da 74 c9 bf dd 39 8e 12 ad ee da bf
       -0.19887857287138033 -0.4208176308829062
000450 3b 2c 13 e0 ef af e0 bf 64 1b 94 76 82 b3 c1 bf
       -0.5214766861403243 -0.13829069890945356
000460 06 2f 57 1d b5 df c3 3f 5e f1 03 cd f0 90 9b bf
       0.15526451046604722 -0.02692009211840351
000470 c4 4b db 2a ad 5e bb 3f 06 11 f0 34 d0 aa b8 bf
       0.10691339775375669 -0.09635640423227096
000480 ed a3 ce 97 24 41 c0 bf f0 7c 7e 3a 19 7d 9d 3f
       -0.1269880048032798 0.028797525592037354
000490 88 4b a2 c4 93 95 b5 3f 44 2b e5 9a 31 60 a9 bf
       0.08431361723550712 -0.04956202522097056
0004a0 46 2f d7 f0 d1 ec c2 bf 35 7e ce 08 fd 28 b0 3f
       -0.1478521753291437 0.06312543358807761
0004b0 ce 66 a3 7b b8 4e be 3f bd 60 57 e6 fc 6b b8 bf
       0.11838868158829571 -0.09539776443068866
0004c0 fb 39 35 8a db 4b ca 3f 8f 1c 7a 92 f7 e4 cf bf
       0.20543998955186268 -0.24917502071568662
0004d0 d6 30 36 04 0e e7 ba 3f 01 61 d1 e2 43 8d c3 bf
       0.10508811571907314 -0.15274857115833387
0004e0 45 77 79 7b eb 7c d7 bf cd 75 47 47 f0 fb d7 bf
       -0.3669995027356559 -0.3747521110616077
0004f0 4f 85 1e 27 54 8d c1 3f 8e 8a 31 c4 6b cf cc bf
       0.13712551031225437 -0.22507998542558422
000500 ec ee ea 0d 97 18 c1 bf 4b 13 67 08 8f 2d d1 3f
       -0.13356292895866007 0.2684056837136281
000510 8c 87 5d 06 0e 43 ce 3f 0b 62 d6 d5 e9 6f a5 bf
       0.23642134962852557 -0.041869456628038725
000520 38 10 94 f6 9c 1e c0 bf 0a e5 05 a6 8b 5a c8 bf
       -0.12593423881492227 -0.19026322943299362
000530 b8 90 e4 5a 8f 7b e0 bf f6 0b 42 13 d8 80 c7 bf
       -0.515083005452218 -0.18361950817424572
000540 19 bd 0f d5 1d e9 8a bf ad 34 38 18 10 a8 bd 3f
       -0.01313994699918779 0.1158456858758707
000550 df ec e7 70 33 7c c9 bf 0a 39 b5 89 a9 38 ba 3f
       -0.1991028119372009 0.1024270974350864
000560 ec 1a c7 9c a9 22 ca 3f c1 d4 b6 73 c1 40 cc bf
       0.20418281703151508 -0.22072618627649912
000570 ca 7a 78 ba 3c 36 a3 bf 74 94 44 cd 76 9f b6 bf
       -0.03752317215206842 -0.088370728601676
000580 97 94 33 9f fc 31 d5 bf 63 1e 59 d6 39 34 d0 bf
       -0.33117595240612147 -0.2531876176112517
000590 5c de 24 cf 45 e7 b6 bf fe 72 3e 9b 1e 58 ce 3f
       -0.08946644122340203 0.23706419544478047
0005a0 34 2e 19 e9 e9 e9 a8 bf c6 ab 57 63 4b 63 d3 bf
       -0.048659620003118326 -0.3029354543820627
0005b0 17 76 83 ae 59 fa d4 bf 52 e7 60 2c ff 9a e2 bf
       -0.3277801708444214 -0.5814205042617948
0005c0 10 7c 3d 44 a6 7c b1 3f 1b 38 5a d0 08 07 d3 3f
       0.06830825010318642 0.29730434748569373
0005d0 d8 96 53 89 e3 cb c0 3f 5f 55 f0 aa 54 b4 c0 3f
       0.13122219281574732 0.13050325724240516
0005e0 a6 95 13 51 b4 d7 c2 3f b1 fd 7e 6e 7f d1 aa bf
       0.14720777472318253 -0.0523795912154087
0005f0 73 6e 46 83 71 7c c7 3f 3f c0 34 aa b3 a9 cc 3f
       0.18348521146696192 0.22392888842432687
000600 60 01 1a 3c 54 a4 c8 bf 5e f2 2f 2b 0a d0 d1 3f
       -0.192514924379803 0.278322736907091
000610 93 0b cc 36 8a 04 d0 bf 97 aa 4e e5 44 c4 b4 3f
       -0.2502770934226472 0.08111982916185877
000620 eb 6f 20 f1 32 6a d0 bf b4 9c de 38 8d 3a d7 bf
       -0.25648187205820133 -0.3629487090460757
000630 0d c6 12 ad 5c 80 c0 3f 18 a6 86 df cd 78 b5 3f
       0.12891729784819042 0.08387457568337486
000640 db 4a e4 12 1f c4 c2 bf 0e d4 2b be 3b be b7 3f
       -0.1466101495976407 0.09274648087360068
000650 be 0e bc 9b ec 68 cb 3f 2b 36 4a 16 92 98 d4 3f
       0.21413953403690827 0.3218121736216257
000660 94 d7 5d 11 37 64 95 3f cc 4e f4 6a e7 97 ad 3f
       0.02089010280129562 0.057799560361812746
000670 c9 b2 85 b6 57 b4 ce bf d5 8a 96 7b 1d cb cf bf
       -0.23987862026424114 -0.24838608297894518
000680 ae a9 14 d6 0f 09 d1 bf 03 72 b9 09 a7 11 a3 3f
       -0.26617809206313836 0.03724405282693868
000690 44 f8 91 5b 65 7f c7 3f 01 20 d3 bf 6d 47 8a 3f
       0.18357531520081427 0.012831551949048505
0006a0 88 ed 1f 02 30 57 b5 bf 8b d7 ad 35 f2 a9 cb bf
       -0.08336162616608622 -0.2161238443474612
0006b0 89 3f c5 3c 55 5c bc bf 86 51 16 be a6 6a af 3f
       -0.1107838891377907 0.06136056013488926
0006c0 b4 0a 20 36 b4 41 c1 bf 0e e2 da b8 9b 13 d4 bf
       -0.13481762545423737 -0.3136967950081563
0006d0 dd a7 a6 40 75 4d ce 3f 87 8b fc c2 61 39 c8 bf
       0.2367388311079698 -0.1892511560518779
0006e0 b9 9f 63 18 0a 8c da bf 55 5d 84 68 66 e5 b8 bf
       -0.4147973287749625 -0.09725036670385141
0006f0 dc f5 bd 73 ff dc 98 bf 1a 83 d3 fd db 05 b3 3f
       -0.024280539931614928 0.0743081564610403
000700 52 46 9b 74 78 fa d0 bf fc 04 a0 56 5b 74 d3 3f
       -0.26528750789029687 0.3039768548915871
000710 f1 1a ed b8 a0 23 cc 3f a6 3f a6 fe 33 a1 dc bf
       0.2198372748336719 -0.4473390566645271
000720 78 ed cc a7 9f 33 d2 3f 8c d1 fb 7d 25 44 d4 bf
       0.2844008577992194 -0.3166593294438591
000730 c6 f6 88 3c 40 f4 d0 3f 2b e9 e4 36 5a 4d d5 bf
       0.26490789329168896 -0.33284621582756085
000740 c4 1b 4d 6e 1c 75 b8 3f 70 d3 74 f7 7a e1 c2 3f
       0.09553697293186675 0.14750611384229328
000750 ca d3 de 33 48 b6 b5 3f 09 93 76 33 96 24 b4 bf
       0.0848126532208219 -0.07868326908517188
000760 64 ea 73 44 83 6e a4 bf 7a 88 b0 5e 2b 06 c1 3f
       -0.03990564547162448 0.13300077556147355
000770 32 e4 3e b1 10 d5 9b bf a0 0d 38 af 75 b1 c0 3f
       -0.027179966753213054 0.13041564040768794
000780 e6 01 42 a5 92 0e d7 bf 07 46 90 a8 7c db cb 3f
       -0.3602644552084072 0.2176357100548076
000790 53 4f 18 01 06 77 cc 3f 0f 29 84 b1 6a ea 9a 3f
       0.22238230756249297 0.026284854016048572
0007a0 22 2a d9 6d ef c3 d2 3f 6a eb c0 c8 f3 3f d0 3f
       0.29320893981335605 0.25390333752482397
0007b0 77 04 0c 23 5c 0d c7 3f 42 5f ca a3 03 44 d2 3f
       0.18009521209026833 0.2854012584225424
0007c0 9d 64 7b cd 1b 82 a4 bf 45 85 92 ba c5 2e c3 3f
       -0.04005514987302059 0.14986487970331033
0007d0 d1 19 1c 9f 21 8f dd bf 13 6d 89 b6 2f 3c cd bf
       -0.46186104333938 -0.22839924252443974
0007e0 69 64 14 87 28 55 92 bf d2 f8 01 bc d5 59 c8 3f
       -0.017902978176696758 0.1902415435797083
0007f0 25 8e 34 1f 13 5b b4 bf 37 09 bf 86 f1 2b ce bf
       -0.07951468955848691 -0.2357160480442617

0.bias f8 [32]
000000 cb f7 67 3e 9c a9 9f 3f ca 23 3d 7c 89 66 5c 3f
       0.030920449551551415 0.0017334311132393026
000010 0f cd 50 e4 23 33 5e 3f 47 bd c5 2c 1d 3b b4 3f
       0.0018432474619317107 0.07902700751377721
000020 d1 cd bd c0 9d 9b 98 3f b1 47 70 7c 9e 71 37 3f
       0.02403112877750663 0.0003577243737150583
000030 67 8e fe 47 8c 18 a2 3f 5f e2 4e c9 4b 87 91 3f
       0.03534353617513091 0.017117675935624962
000040 3a 03 5a 7b 18 52 bf 3f 4c cb 1c 5c eb 5b 87 3f
       0.12234642993463477 0.01140579104285213
000050 7d 9d 64 0c f5 cd 60 3f f8 7a 6f e4 47 14 c4 3f
       0.0020513330556643492 0.15686892179561318
000060 c8 5d df b5 e7 74 71 3f 16 64 f2 80 11 1f 49 3f
       0.004261880034355632 0.0007666430918958935
000070 8f 52 0e a1 d6 a8 d1 3f f9 47 96 7b 79 e8 a6 3f
       0.2759300778209672 0.04474238999968345
000080 ee 03 da c6 78 b1 d1 3f ca 64 2c 85 23 52 57 3f
       0.2764570180807472 0.0014233919980084935
000090 7f 14 8a 2a 9b c6 b2 3f 8d c7 60 9c db 4d 97 3f
       0.0733429888587853 0.02275794164615479
0000a0 e0 7b 83 c5 12 e9 a0 3f 87 17 30 b1 39 3b fa 3e
       0.03302820836119458 2.5016163885303456e-05
0000b0 b5 36 c0 8d 63 9b 37 3f eb f3 ea 9f fe 4f b3 3f
       0.00036021404753304047 0.07543937114947112
0000c0 92 4c 66 32 df 34 57 3f d1 fe 56 38 ed 4f 70 3f
       0.0014164142281501185 0.003982473984649197
0000d0 0f e2 35 f0 c5 16 48 3f 0f 0c 08 66 2f 3d 4c bf
       0.0007351366515840357 -0.0008617860258371984
0000e0 ea 78 32 87 a8 63 c9 bf 33 44 b6 7d 53 df 50 3f
       -0.19835383035110193 0.0010298076002508538
0000f0 05 e7 0b 71 7d c1 37 3f f1 b3 6a f3 e7 e8 cb 3f
       0.0003624850515247943 0.21804522882067048

3.weight f8 [64, 32, 9]
000000 fe ab 65 25 b9 c1 b1 bf 57 60 16 42 a3 86 6c 3f
       -0.06936223185554977 0.0034821690212077194
000010 fa 70 08 5a 8b c4 96 3f 04 fc f5 7b 3f 66 99 3f
       0.02223413216607726 0.02480410760972164
000020 0f 77 1e 59 d5 31 a4 3f 69 71 65 bc a8 3a b0 bf
       0.03944269860151738 -0.06339506721037015
000030 63 31 7c d1 88 07 9f bf 35 30 74 79 89 cd a8 3f
       -0.03030217913242107 0.04844312293616363
000040 e5 21 85 5b 57 79 7e 3f 74 35 31 74 9a b5 9a 3f
       0.007439938774333109 0.02608338674717943
000050 a7 8b 74 26 dd cb 96 3f 63 f5 88 f2 a7 79 9f bf
       0.022262053939936213 -0.030737518480454706
000060 7d ae 55 9c e1 dc 93 bf 7d 8b 5f 2b 37 fe 81 3f
       -0.019397282759582957 0.00878565884699411
000070 72 ca 4b df df a9 7c bf 32 04 53 c4 8b f5 82 3f
       -0.0069979424485945175 0.009257404259530675
000080 3f c9 2e 8c 28 0e a4 bf d5 4f 44 b0 55 04 97 3f
       -0.03917051993575393 0.022477473147844613
000090 44 37 bf f5 57 8f 8c 3f 04 d6 32 55 37 ca 95 bf
       0.01394528120718131 -0.021279205870731857
0000a0 c5 ca a7 2f bf 37 87 bf d2 7f 71 c8 c6 b7 a2 bf
       -0.011336797372654481 -0.036558353393729384
0000b0 93 34 e1 50 3c e1 b5 bf 9a 8c 04 ca 7e 30 af bf
       -0.0854680726490236 -0.06091686454808461
0000c0 3b 32 e8 9d 8c 89 9b bf 44 8b c1 d5 52 f3 98 3f
       -0.026891896379355833 0.024365705773003357
0000d0 01 9c da 48 f7 ec b1 bf a4 ba aa 3f 27 fb ad bf
       -0.07002206352863995 -0.058556772729720735
0000e0 77 fc ce af 26 8e 99 3f 0e 5a 62 a1 6a d5 94 3f
       0.024956325989247987 0.020345369434460685
0000f0 8c 5f 1f e9 6a 3c 94 bf af 67 15 34 c4 88 ac bf
       -0.019761724928542487 -0.0557309449747686
000100 0a a4 f8 48 3f 64 b1 bf 0c 4f 76 70 58 c7 97 3f
       -0.06793590098881466 0.023221380104202757
000110 51 6e a3 81 17 70 91 bf 53 9e 60 0c c6 fd 6b 3f
       -0.017029158866405606 0.0034169071323224913
000120 fa d1 15 a2 50 b8 8e bf 99 56 5c e5 3a 55 a8 bf
       -0.01499999041218646 -0.04752525377095402
000130 c5 f4 06 05 5f 96 a6 bf 9f 9d c9 0a b5 40 a0 3f
       -0.04411599098555422 0.0317436767261896
000140 49 99 84 cb a4 36 b5 3f 82 be 6c c1 a8 dd b2 bf
       0.0828650471563367 -0.07369475099835124
000150 c7 a2 b2 33 9e 88 94 3f 75 c1 19 49 95 59 a6 3f
       0.020052406220801424 0.04365221516934784
000160 c5 f1 1f 9d 2f 5f 9e 3f 14 c1 85 8e e6 5a 94 bf
       0.029659980740676568 -0.01987800831688087
000170 a1 4b 6a 81 75 03 86 3f 73 86 c5 99 38 19 a5 3f
       0.010748785030306797 0.04120804669470326
000180 b2 eb 23 3b 49 f3 93 bf d4 ef fd ec 7b 7e 87 3f
       -0.019482750162733438 0.01147171799652106
000190 9d a5 63 ea 71 ac 86 3f d2 16 2c a0 58 78 b0 bf
       0.011071100202076073 -0.06433633718924206
0001a0 01 36 31 4d 73 99 9e bf 81 ec ae 4d a7 4f a6 bf
       -0.029882241808357083 -0.04357645819933343
0001b0 43 0a 8a 0b ef 7e ab bf 48 b7 e8 58 4a c7 ad bf
       -0.05370280280933006 -0.05816109023395072
0001c0 ac f7 99 8f 6d 33 6a 3f 9c 40 ef 8b 09 1e 9e bf
       0.003198350893227583 -0.029411458173684055
0001d0 b4 c6 67 34 6f 63 a1 bf 85 76 c1 90 d9 5e a3 bf
       -0.033961749217167464 -0.037833022041678745
0001e0 93 ce 3e be c1 91 7e 3f e4 85 1f 41 99 a4 96 bf
       0.0074632232753405634 -0.02211226901989062
0001f0 c8 46 74 e6 9d d7 49 3f 03 69 26 ee 29 fa 9e 3f
       0.0007886429783942822 0.030251174126171964
000200 21 0a 1f ae 62 21 b2 bf cc e8 60 f4 6e 54 73 3f
       -0.0708219218350128 0.004719193855686931
000210 20 95 6d 7b b6 99 ac bf 9c a8 61 54 76 ef aa bf
       -0.055860235754872756 -0.052608201790307535
000220 2d 17 4e 1e 9c 35 90 3f 5a 92 98 f8 8f fe 8c bf
       0.015829505300209924 -0.01415741422085508
000230 a3 65 7c 1c 62 4d a7 3f 94 20 e3 90 f2 49 93 3f
       0.04551226232269847 0.018836774914945467
000240 b5 ac bb 74 ae 85 6a 3f 59 b7 b6 3c fa 43 a8 bf
       0.003237572416642099 -0.04739362708219969
000250 94 79 e7 e3 23 da 70 bf 14 03 b4 6e c0 dc ac bf
       -0.004114284702579591 -0.05637170173031883
000260 1e 15 dc 02 ca b3 a9 bf 7c 52 d9 e4 bf 61 b3 bf
       -0.05019980702312864 -0.07571029030925475
000270 33 39 6a 3b ad bc a7 bf 15 17 b3 4b ec fe 95 3f
       -0.046361363890456884 0.021480266685805455
000280 0f 51 18 13 e0 62 a8 bf c5 3c e5 c0 44 10 b9 bf
       -0.047629358607226384 -0.09790448865281849
000290 b7 ab 9a f8 6d b0 6a bf 9e 03 94 64 df 17 b8 bf
       -0.003257956301998512 -0.09411426740190484
0002a0 11 2d bf 99 14 cd 87 bf d6 d8 33 18 99 f0 a9 bf
       -0.01162162870595876 -0.050663742260370334
0002b0 35 26 ff 97 53 89 7e bf 8d 11 1a 1b 9e 73 af bf
       -0.0074551835422851835 -0.0614289672930993
0002c0 e8 ce 55 2e 77 ab 91 3f f9 ac 0f 9d 7e 1c a0 3f
       0.017255651667666877 0.03146739642382985
0002d0 0a 0f 50 7c 14 21 7a 3f 34 a3 f8 f2 0a 03 ac bf
       0.006379203817235677 -0.05471071449239276
0002e0 1b b0 0b 6d 0c fe 5d bf 68 de 17 fc e6 ab 95 3f
       -0.0018305894229184775 0.02116356767325414
0002f0 f1 aa d6 c2 53 65 b5 3f 89 22 54 46 8b 65 9e bf
       0.0835773802452129 -0.029684234778900396
000300 79 7b 24 13 bf c3 65 3f ab f2 ed ce 6d a2 a0 3f
       0.002656815712853197 0.03248923445696524
000310 ce 6e 53 3e f8 c1 90 bf cb 31 0f b8 43 5d a1 bf
       -0.016364935688087105 -0.0339146768743351
000320 a2 65 ba bd 83 f4 34 3f d3 39 6c 86 d6 8e 98 bf
       0.0003197499879462278 -0.02398238368464851
000330 53 d3 f3 d1 08 70 65 bf 6e ae 78 9d 61 84 6b 3f
       -0.0026168987529850223 0.003359022764717604
000340 7b 94 dd 52 6f b9 93 3f 72 16 ae 93 82 a8 a9 bf
       0.019262065346442796 -0.05011375477537862
000350 84 97 c7 d8 73 d5 a8 bf 32 49 42 6c 88 1c a2 3f
       -0.04850351353870422 0.03537393876571783
000360 30 e6 24 8d 50 00 a1 3f fe ef 12 48 ce 75 a7 bf
       0.03320552561713119 -0.04582066182908305
000370 60 65 21 d1 54 20 a7 bf 60 5f 47 b4 4c db a4 bf
       -0.04516854336606957 -0.040735623366059626
000380 a7 63 06 bf 29 2a b0 bf 52 e7 76 a8 b2 8b b7 bf
       -0.06314335740752473 -0.09197537053014784
000390 8d 81 90 ea 4e 50 ab bf d0 55 26 4b 7f 52 8a 3f
       -0.053347078450545295 0.012852663498771927
0003a0 0a da 46 6f bc 48 9e 3f eb c3 54 4f d6 aa a0 bf
       0.02957434109858962 -0.03255338400266069
0003b0 4c 22 0d 13 db a3 a4 bf fa a5 4c 05 ae fd 84 3f
       -0.04031262023506041 0.010249480759358488
0003c0 9b d0 7c d3 0a 31 8a bf 56 94 67 6f 9b ad a8 3f
       -0.012788853243911815 0.04819951758307954
0003d0 86 4b 36 6f 18 3b b0 bf b8 63 82 66 2e 4b a0 3f
       -0.06340172495974458 0.0318235874303307
0003e0 c8 dd 32 9a c0 52 7f bf 9b 89 5f fe 4a 10 93 bf
       -0.007647278168568979 -0.018616840148646934
0003f0 56 d3 42 da d4 d8 9c bf ab 10 31 01 38 62 af bf
       -0.02817089636001254 -0.06129622473284376
000400 54 46 d5 08 87 89 a4 3f 52 4c f4 7e 07 5c 9f 3f
       0.04011175139261228 0.030624501346278095
000410 e9 5f 63 3f 22 40 ab bf a1 4c cc e2 c1 d0 96 bf
       -0.053223676908316815 -0.02228072115674407
000420 07 4f 27 85 95 80 ad bf de c1 4f 67 e2 ae 70 3f
       -0.0576216435471491 0.004073032750043086
000430 88 7d cb 59 43 09 70 3f 67 3a 3d f0 f7 a5 91 3f
       0.003915083969985196 0.01723468211940329
000440 ea 4e 23 58 47 7b 8e 3f 54 cd 55 74 1a 34 ab bf
       0.014883572938209483 -0.05313189191920267
000450 92 36 05 f1 c4 ad 9a 3f af 84 71 4c 2f ae b2 bf
       0.026053502283778736 -0.07297034851355265
000460 11 db a8 36 4e d5 ae bf d3 f0 ab 69 f8 76 a8 3f
       -0.060221141979516564 0.04778267183243803
000470 74 7c 9c 08 99 84 a2 3f 5e e1 8c 46 47 c0 ab bf
       0.03616789083593455 -0.054201342928027016
000480 19 20 70 6e b2 39 a2 bf 0c 43 0e b1 63 24 a0 bf
       -0.03559644315834038 -0.03152762924503891
000490 ba ef d2 de cc 0d ae bf 09 90 af 01 30 54 b1 bf
       -0.05869903774279757 -0.06769084969670315
0004a0 37 b8 1d 6f e7 cd b1 bf b5 cc f4 48 33 63 b3 bf
       -0.06954809630198687 -0.07573242694052136
0004b0 22 81 34 52 b8 de 7f 3f f3 ba b7 4e 98 a9 b1 bf
       0.007780761722898684 -0.06899406358546027
0004c0 11 4b 6a e8 0e 4a 92 3f 02 a5 98 67 92 35 98 bf
       0.017860634742258578 -0.023641860554708856
0004d0 09 dd d3 b3 78 50 bb bf bf 41 26 2a df 4f a4 3f
       -0.10669664755174692 0.03967187299270191
0004e0 9e ec fd a9 d4 02 aa 3f b4 57 4d 62 5e ec ba bf
       0.050802846671069476 -0.10516919994310464
0004f0 71 23 7e 48 f0 82 b8 bf e9 03 da 11 ae 1d a0 bf
       -0.09574796457139968 -0.03147644012370405
000500 af 15 f8 b9 6e c7 97 3f ad bb 06 1b 39 6d ac 3f
       0.023221712208415898 0.0555208058825579
000510 66 99 93 3a 26 7a 99 3f b4 b5 24 73 a3 b8 91 3f
       0.024880025220136125 0.01730590238837744
000520 83 90 79 ab 29 cb 91 3f a9 d2 b6 49 ce 3a ad bf
       0.017376566973681406 -0.057089277742681084
000530 cf 8b 22 5a aa f3 6f 3f 4f 04 11 12 32 de b2 bf
       0.003900368422436774 -0.07370293561054207
000540 38 f8 73 ac 34 0b 76 3f 20 75 5b 81 91 39 aa bf
       0.005381780392097517 -0.051220461884194046
000550 05 fd d2 bb 7c 45 a8 bf 35 a4 04 0f f9 0a 9d bf
       -0.0474051455762439 -0.02836217073596377
000560 c6 9e f5 e7 c8 b9 a2 3f f2 94 fe e6 6e ed 90 bf
       0.03657367545639327 -0.016530735825331662
000570 c0 37 f8 28 39 df 8a 3f 5e da fe 65 90 76 90 bf
       0.013121077120583524 -0.01607728598147628
000580 cc df 01 b4 e3 18 a7 bf d4 25 39 3c 9c f8 9c 3f
       -0.045111766551542226 0.028292123008474793
000590 23 6b 13 0f c2 26 a7 3f 0a 6e 66 27 08 3d a0 bf
       0.04521757539779105 -0.0317156360717626
0005a0 a9 52 a6 33 2c ea 9b 3f 9d 58 eb be 7d 12 a0 bf
       0.027260485317656933 -0.031391076617795145
0005b0 19 0c 27 b9 3f 54 83 bf 2a bf 1f 38 b9 75 98 3f
       -0.00943803581038165 0.02388657956174637
0005c0 80 36 dd dd 78 87 64 bf 0e f4 94 64 84 b0 b3 bf
       -0.002506004398049211 -0.07691218810664699
0005d0 a5 11 31 8f 14 39 52 3f 6e d4 03 ca 6d 56 9f bf
       0.0011122418188885621 -0.03060313745023218
0005e0 d6 0a be b2 a5 83 8d 3f 9c 20 15 9d 49 66 b4 bf
       0.014411253468784063 -0.0796857841970699
0005f0 8d f9 d0 d7 43 0e a6 bf 63 db 6d f9 e1 c0 a1 3f
       -0.04307758340336241 0.03467470330990954
000600 83 86 aa 09 b6 3a 86 bf 4c d1 9f 8c c2 06 a7 3f
       -0.010854170007692737 0.04497344938855238
000610 d0 59 15 37 61 c2 af bf c9 5d 7b fd ee 01 b2 bf
       -0.06202987477688604 -0.07034200371287293
000620 69 c9 b2 c9 e4 a9 a0 bf af 37 ad bb a5 09 9c 3f
       -0.032546186086068137 0.027380551891205303
000630 19 a1 e0 0c 80 a0 95 bf 8b 7c 44 d0 82 7e ae bf
       -0.02112007216069953 -0.05955895225837889
000640 81 f2 ee 17 f6 a4 b1 bf 64 5c ac 1e ed 66 a9 3f
       -0.06892335972129084 0.0496133899634337
000650 f9 c6 20 6c 21 d7 b8 3f 0f 54 69 a9 bd 61 c2 bf
       0.09703263177723533 -0.1436078145221988
000660 52 f1 55 ba f8 11 93 3f 4e 31 01 90 18 33 77 bf
       0.018623243687657727 -0.005663963267647466
000670 74 33 13 be 7b 15 a0 bf cd 3f 60 3d e4 8d 75 3f
       -0.03141390509845268 0.005262271462939294
000680 8d c9 82 f2 e0 7e 7e bf d4 28 94 65 aa 4e 91 bf
       -0.007445219707891926 -0.016901647996783023
000690 d8 3d 36 7e 89 d6 a6 bf ed 8d 80 04 4e 0c 98 3f
       -0.04460553804085138 0.02348443891982115
0006a0 a8 e5 ed 4f 4c 05 92 bf d5 d7 a3 8d f7 f8 9e 3f
       -0.017598335627075606 0.030246608753223676
0006b0 ac 86 6f 2b b3 fa b0 bf 10 9b d8 18 de 10 9f 3f
       -0.06632537661018983 0.030337782160269333
0006c0 c8 6e 2e 4b 59 cd a9 bf 3f 8a ca d8 74 b9 5b 3f
       -0.05039481203786306 0.0016921654779841336
0006d0 38 af b5 9d 01 c7 ae bf 8e 4e c8 d2 cf 31 4b 3f
       -0.060112047673867186 0.0008299126398605015
0006e0 21 24 60 ee 5c 60 a6 bf cd b5 ab 2e fb 47 b0 bf
       -0.043703941439226186 -0.06359834565565521
0006f0 d2 c5 ad aa dc b7 9a 3f da ee 06 11 29 6b 75 bf
       0.026092002789885722 -0.005229149261534361
000700 02 31 18 41 75 3e 80 bf 67 30 50 db 29 3c a6 bf
       -0.007931629227663443 -0.043427761098514144
000710 e8 42 cb 65 bc 87 71 3f 0a e2 61 59 df 4d aa bf
       0.004279838493588463 -0.05137536970227437
000720 3b 05 ff 26 6f 0c 91 3f f4 99 ef a3 d6 39 77 bf
       0.016648995165956065 -0.005670393408740971
000730 8b bc 45 70 0d db b0 bf 24 24 3e c9 48 23 9b bf
       -0.06584247580552664 -0.026501786501771943
000740 8c 88 af 11 10 43 57 bf 4b e9 e8 c6 f8 83 a2 bf
       -0.0014197976040511177 -0.03616311481569542
000750 f1 33 5b be f6 35 80 bf 61 da bb 51 d8 2c a6 bf
       -0.007915427860462261 -0.043310890176077484
000760 02 d5 ff f4 f2 5b 99 3f e8 1f 07 40 95 7d 90 bf
       0.024764820293019525 -0.01610406115813126
000770 cb 86 88 80 ac f1 9f bf f1 f2 cc f7 20 7f ae bf
       -0.031195350022364104 -0.05956366562756966
000780 be 96 ef 17 c9 91 a6 3f 3d e4 68 cb b5 c2 af bf
       0.04408100526033597 -0.06203239543942416
000790 2c c3 eb a0 5c 9a 86 3f 36 de 14 12 c4 0b c1 bf
       0.011036609326283996 -0.13317156679998882
0007a0 62 35 f0 69 22 7e 8e bf 3d 6b 51 6f 58 16 ab 3f
       -0.014889019830685416 0.05290485724318337
0007b0 9d 2d 2c 4b 43 17 9f 3f 9a 14 7e 99 4f 04 b4 bf
       0.030362178290528886 -0.07819077966094526
0007c0 87 63 90 fa 1e f5 99 bf 86 0b 06 97 b5 f5 98 3f
       -0.025349124949659376 0.024374806730985486
0007d0 43 46 63 17 e6 51 97 3f b2 7c 82 26 78 75 99 bf
       0.02277335660693881 -0.02486217246098183
0007e0 92 58 ff a6 d1 70 8e bf 7b e4 0e bd 9b df aa 3f
       -0.01486362257848509 0.052487246349706994
0007f0 40 ce 0e ca c0 84 79 3f 14 19 6c 24 88 ee a2 bf
       0.00623011883083141 -0.036976103254391074

3.bias f8 [64]
000000 33 26 2b f1 41 a5 a4 3f fd 33 b3 c6 96 2c a7 3f
       0.040323315324326 0.045262061839459
000010 62 fd 9f 53 d1 83 96 3f 6b 87 c7 45 2b bf a5 3f
       0.02198721955209971 0.0424741289787239
000020 ca e6 a0 02 2c 14 92 bf 97 86 53 34 3c fc be 3f
       -0.01765507474940512 0.12103630330559621
000030 0e 63 ac fa e3 6e a2 3f 1b 4f aa be 95 f8 b0 bf
       0.036002277707842464 -0.06629310517228897
000040 a9 f7 8f ef b2 fe 73 bf 8d 72 12 19 b5 93 c1 3f
       -0.004881571739131654 0.13732017254087162
000050 7b 5b ba d5 39 63 97 bf 97 c4 2b 93 34 aa 91 bf
       -0.022839454336089453 -0.01725084446201616
000060 d2 39 cd aa 97 d8 a3 3f 98 38 a8 ae e4 4a a6 3f
       0.03876184425336117 0.04354014045758098
000070 03 10 5e 75 eb 3f a9 3f 34 da 97 29 58 23 a7 3f
       0.049315794064597206 0.04519153125504652
000080 69 a2 f2 b8 79 71 9b 3f f3 75 e6 3b aa cf 9b bf
       0.026800062096898367 -0.02715936651804003
000090 31 4c 43 6d 75 c7 a4 3f 5c 1c ea 82 8e 9a 9d bf
       0.040584249103311605 -0.028909899464022323
0000a0 9d 8d 60 91 44 df 90 bf 10 2a 0c 7b 5f 45 a8 bf
       -0.01647669923126004 -0.04740427376789935
0000b0 ad 8b fc 18 1b aa 85 3f 46 1f 4e 1a 4c 6c 86 bf
       0.010578357410457285 -0.01094874816205017
0000c0 f0 78 9f 55 ae 26 93 3f ce f9 ab 0f f6 f3 99 3f
       0.018702243782052486 0.025344700533418245
0000d0 13 34 29 04 55 6a 96 bf 15 28 de 33 6b a7 a2 bf
       -0.021889999751056943 -0.03643355377342076
0000e0 5e 0d 03 6d f7 85 9c 3f 8f 67 e5 ea d4 7a af 3f
       0.02785479166847204 0.0614840065706651
0000f0 2b 55 8d 9b 59 24 af 3f d5 cf 9f 3f e1 94 a6 bf
       0.06082420371846305 -0.04410461332000152
000100 fe 51 76 47 39 9f b9 3f 48 ac 0d b4 15 b8 a1 bf
       0.10008581156427707 -0.03460758040349582
000110 9f ce 15 e3 fb 09 92 bf 1d 1f cd 2d 88 b2 a7 bf
       -0.01761621068494767 -0.046283965674375184
000120 65 83 f5 e5 9f b0 77 bf 3e e0 3d 5f 04 b9 44 3f
       -0.005783676722189356 0.0006324073169556921
000130 06 fe 16 84 68 da 97 3f 6f 3b 35 3a f2 ee 9e bf
       0.02329409891330949 -0.030208382418375587
000140 55 42 ad 0e 2c 54 ac bf 4e 8d a8 c1 3e 4b 96 bf
       -0.055329682151413685 -0.02177141243931873
000150 47 cb be 7f 57 12 a9 3f ae 60 7c a0 1e ba ab bf
       0.04896806177511919 -0.05415435513549603
000160 d8 92 68 0a b6 58 b5 bf 23 d8 2f 74 de 2c a4 3f
       -0.0833848739062647 0.03940482300087946
000170 a7 17 63 76 7d b0 ae bf 72 96 d4 11 58 5b 9a 3f
       -0.05994026250986844 0.02573907479122401
000180 76 94 81 af 56 cb ac 3f ff 22 64 7b c7 33 b5 3f
       0.05623885052117654 0.08282133829574077
000190 aa 53 54 f7 18 49 88 bf fe 93 d8 ee 55 2b 73 3f
       -0.01185817246236261 0.004679999995947702
0001a0 f2 c9 28 50 b3 d0 b6 bf e1 1b 4b bc 30 3d a1 3f
       -0.08912201601996353 0.03366997049811694
0001b0 97 89 bd f5 a4 e2 a3 bf 62 0b 5f 16 e4 c1 90 3f
       -0.03883853435287959 0.01636463533919697
0001c0 38 e4 ec 70 1a 27 9b bf 34 ea 83 ba 84 f4 c3 bf
       -0.026516354696671324 -0.15589961154167187
0001d0 ad 54 81 91 24 95 97 bf f7 52 b6 12 de 97 6a 3f
       -0.023029872303898347 0.0032462441792610003
0001e0 46 51 2d c2 fc 1d 9e bf b1 cc 98 c6 95 f0 95 bf
       -0.029411267615914193 -0.021425571676627345
0001f0 ea 79 37 eb 89 aa 9a 3f 66 4f 8e 36 ec bb 85 3f
       0.026041178685653955 0.010612340369142447

7.weight f8 [1, 128]
000000 1e 98 17 bc a4 60 b1 bf 5b bf 40 8d 9d ab 69 bf
       -0.06788091270536298 -0.0031335904295914214
000010 54 2b d0 c5 1f cb 71 3f aa 75 bd 1c f6 2c ca 3f
       0.004344104873790073 0.2044971123058706
000020 e8 eb 82 2f a1 08 a1 bf b2 08 8a c7 06 ac ab 3f
       -0.033268963861210754 0.05404683290272895
000030 34 31 ee 30 56 ea c6 3f 60 96 38 61 7a 74 bd bf
       0.17902638806516225 -0.11505856393395097
000040 bc 64 98 64 59 00 b5 bf 2d 8c 3a da 71 f7 4f 3f
       -0.08203657823505045 0.0009755426330752042
000050 e1 6c 8f 10 6c b1 c9 3f 2d 65 54 39 fc 22 a7 bf
       0.2007269936428662 -0.045188791273356045
000060 dc 71 9e 5e 09 5b b6 3f 43 1e 89 29 2a f1 ba 3f
       0.08732660827667565 0.10524238122990774
000070 36 bb 03 d8 2b 69 b3 3f ac a5 4b 18 58 4f aa bf
       0.07582353614610046 -0.051386597600706935
000080 99 55 34 d2 b6 39 d3 3f 63 80 11 76 9c 99 9f bf
       0.30039759185577847 -0.030859417635270236
000090 f9 7c d7 7e fb 49 cb 3f f3 ea d7 cc 7b 05 b0 bf
       0.21319526380009515 -0.06258367301044725
0000a0 38 04 a9 28 cd 19 ab bf 81 26 fe fe 80 35 81 3f
       -0.0529312240728434 0.00840283182312196
0000b0 24 d4 3b 2e 58 a6 ac bf c1 c1 93 35 b2 e1 b3 3f
       -0.05595660747886935 0.0776625996402407
0000c0 17 85 b4 3f 6d 1f d0 3f 8a bf d5 89 9a b9 96 3f
       0.2519181367989218 0.022192396796014736
0000d0 ea 77 69 e1 5e 92 c7 3f 6a df 3f 27 e8 d0 8f 3f
       0.18415437704510335 0.01553517694263436
0000e0 14 b1 fd ad ca e1 d4 3f b7 e0 c5 72 d3 cc b4 bf
       0.326281232750959 -0.08125039627145979
0000f0 17 f9 f1 2f 2d d7 c9 3f 68 97 1d 94 b9 f6 99 3f
       0.20187916604113162 0.02535524336362674
000100 51 ed a5 43 67 1c d7 3f 83 cd 16 2d 27 bc b3 bf
       0.36110860449089893 -0.07708973742301421
000110 71 63 9b 0a c0 3d cd bf 86 74 b6 64 33 96 8f 3f
       -0.22844696538848155 0.015423203955658115
000120 87 fb e6 2f 58 71 c1 bf f6 33 ad ea 6d 34 d1 3f
       -0.13627149905184074 0.2688250343097133
000130 b9 ed 3f 37 40 3b a0 bf a8 72 d8 7e f9 47 b4 3f
       -0.031702048057890626 0.07922324511350587
000140 02 d7 96 94 04 22 c4 bf e5 25 02 35 dd b7 ac bf
       -0.15728814368565486 -0.056090271683455296
000150 74 d7 49 2f 35 f1 b2 bf 45 0f a5 4a c0 44 aa 3f
       -0.0739930382204344 0.05130577956381769
000160 14 93 83 23 17 71 c2 3f 1e 33 86 1f 10 35 a3 3f
       0.1440762446792624 0.03751421341721638
000170 ee ae 46 07 dd 9d 9b bf 9b c5 fd 36 2d 6f 46 bf
       -0.026969388550852118 -0.0006846400046766511
000180 29 88 4e 73 ae 24 d8 bf a7 55 df 79 d8 fa 97 bf
       -0.37723885784555705 -0.023417837561131496
000190 b9 b3 10 c4 74 cf d2 3f e5 7c 7a 2c 2b 31 bb bf
       0.2939121164989121 -0.10621900401973823
0001a0 82 91 50 8d 6e de cd bf c6 6c 2a ab 90 d5 a9 bf
       -0.23335058117039514 -0.05045749749589272
0001b0 2e 56 ce 08 5b ec a6 bf 4d 37 d6 35 40 40 91 3f
       -0.044772000145865895 0.016846659933029518
0001c0 03 f2 43 60 98 b7 89 bf fa 11 ff f6 bd 50 69 bf
       -0.012557211339747637 -0.0030902586222245594
0001d0 f0 3d bb 62 88 1f d4 3f bf 10 51 27 90 e5 b5 bf
       0.31442460672130235 -0.08553410491828382
0001e0 46 a4 8a 2f 18 db c4 3f a8 ce cb 40 29 76 9d bf
       0.1629362327705925 -0.0287710614965834
0001f0 d1 14 df 57 36 d3 ac bf 3b 1c 84 e0 54 f4 97 3f
       -0.05629892180108132 0.023392988398907227
000200 d2 22 19 bc 86 dc c5 3f 82 8c 3d df 2c 3c b1 bf
       0.17079242882234397 -0.06732445192533201
000210 d2 df 5c 0a 41 ec a7 3f 50 e6 79 07 aa e7 7f bf
       0.04672435046671776 -0.007789291550233182
000220 d8 6b 1e 28 6d dc 88 bf 7c 82 37 d3 4c e7 b1 bf
       -0.01213917998011553 -0.06993560940419202
000230 da 6e 61 0c dc 35 cc bf 53 6d f5 c6 af 15 b4 bf
       -0.22039366344949124 -0.07845591170683024
000240 14 4e 80 46 c4 c5 c6 3f 48 1d fa 11 b6 f4 95 3f
       0.1779103607410525 0.02144131169054944
000250 e9 cf 5c 2b fc 0d d7 3f d2 b7 79 de 2f 27 b2 bf
       0.36022857889770293 -0.07091044599084675
000260 c0 83 0a fb 0b 43 c7 bf c6 b5 8d 03 4c 43 74 bf
       -0.1817336059366692 -0.004946991852972931
000270 d0 8d 51 4b 4c c5 c7 3f 9d 7a 4c 66 15 fb 39 bf
       0.1857085578695732 -0.0003964354748848072
000280 78 7f b6 58 83 24 87 3f e6 c6 96 f0 1a d6 98 3f
       0.01130011190872414 0.024254246649156118
000290 79 9a a1 20 8a ae ad bf b7 f4 22 ea 10 c6 b3 3f
       -0.05797225616770602 0.07724099842285424
0002a0 25 df 53 65 67 0a c4 3f 72 23 28 5f 25 5f d1 3f
       0.1565675015224254 0.2714322499528442
0002b0 64 0b 7e dc c1 2c 9a bf 20 fd 9d 21 08 e1 a4 3f
       -0.025561360438142514 0.040779356101660946
0002c0 c3 44 3c 34 41 ed b3 3f 42 57 09 a6 88 eb ab 3f
       0.07783896947173034 0.05453135515987963
0002d0 29 a6 8b df ce 9c c9 3f fb 86 88 63 80 d0 ac 3f
       0.2000979033976347 0.0562782403469679
0002e0 00 21 3f b7 10 d7 47 bf 01 77 27 fe 04 63 b0 3f
       -0.0007275420780326336 0.06401091771064317
0002f0 f0 32 d4 99 bd 61 cd 3f fa a6 e6 5b d2 6c 6d bf
       0.22954530726601474 -0.00359192929973495
000300 58 60 bb 58 a9 2d d1 bf bf ca 7d 85 ce 5f 85 3f
       -0.2684119574091759 0.010436643074830497
000310 a5 1b 9b 10 de 23 d9 3f a1 8f c2 64 fc 22 bd bf
       0.3928141748587513 -0.11381509265862501
000320 89 79 12 95 2d c0 c5 3f d2 99 1a de 0f 02 b7 3f
       0.16992730883516696 0.08987521336039286
000330 ec f5 8a b0 88 ab b1 3f e9 7f 51 ae 81 29 d2 3f
       0.0690236502659542 0.2837833597495761
000340 15 ec d8 cd a0 9f b2 bf cb c4 b8 1a 49 72 ac bf
       -0.0727482321316731 -0.055559429656918256
000350 6e 52 f7 61 07 ac ad bf 46 b7 f0 d3 85 1f 9a 3f
       -0.05795310088038695 0.02551087480622207
000360 53 1c 26 33 3a 5f cc 3f 15 ff ae 41 69 a4 7d bf
       0.22165610787871745 -0.007236872824193848
000370 ce 5e f5 2e 54 21 c4 bf 29 82 67 90 42 99 87 3f
       -0.1572671155251925 0.011522789031858842
000380 b3 ba 36 ef 0b 86 ad bf 35 43 bd d5 09 50 ae 3f
       -0.05766331954088368 0.05920439466593167
000390 cf 51 34 6e f9 6b a3 bf 91 e8 1d ca 83 48 a6 3f
       -0.03793315382259587 0.04352199403997859
0003a0 6e 3e 32 58 0d 8c b4 bf 13 72 4c ca 3d 93 ab 3f
       -0.08026202586392525 0.053857737488417844
0003b0 7b 81 a7 85 44 fe 90 bf 70 76 c7 db 5b 66 71 bf
       -0.01659495416413524 -0.004248007604898171
0003c0 92 dd e4 d1 a8 14 ac 3f ff 7e 4b 32 96 89 b0 3f
       0.05484511911566438 0.06459940650847427
0003d0 ff 52 b5 85 ef 34 c0 bf 11 5a 91 9b 86 88 ba bf
       -0.12661546734548065 -0.10364571855584638
0003e0 b6 e2 67 d0 cb 0d d0 3f 9c 56 20 8a 79 4e b0 bf
       0.2508420500958367 -0.06369742986893318
0003f0 b0 ec e2 66 49 07 9a 3f bc 50 b8 1c c2 1e b1 3f
       0.02541842165440461 0.0668755836598533

7.bias f8 [1]
000000 fe 8c 98 3d bb 26 68 bf
       -0.0029481560748237925
