models/run1/run1_49.pt (torch, 153992 bytes, 6 tensors)

0.weight f8 [32, 1, 9]
0.13906226589979395 0.14182578198137344 -0.4605481114731625 -1.6903564406586662 0.12204270133251989 -0.09569354671146638 0.05105068472890488 -1.256440672658431
-1.0420129696570741 -0.11685343679484418 -0.2290631716143143 -0.0482637750551754 -0.03713010437453414 -0.48448071509472224 -0.44040334363650874 -0.0066494080811521465
-0.19963141497109688 -0.11942409337797762 -0.0021280291040945503 -0.004726471093082165 -0.7281011230471819 -0.061451234711761706 -0.001903425914686725 -0.24898517841001275
-0.45968595599658574 -0.87596051833245 -0.040517671088139154 -1.2269545711395995 -0.9067887601341029 -1.2353111096371754 -0.008716125425371282 -0.004974984408931184
-0.002158594981783308 -0.7013096390823762 -0.31155578173532916 -0.003741378869912063 0.1260552216377885 -2.276793519933753 -1.1450409694555466 0.09817642172830675
-0.46278965054270893 0.0919703027504527 -0.33617266399526013 0.031389093131200606 -1.0016140633898993 0.060239537460462504 -0.7219566411989983 -1.3502298408031599
-2.033623355223909 -0.03154178805140899 -1.4062033600376933 -0.33992076565939094 0.028935438969257987 -0.104262096694633 -0.4363226063591701 -0.5926223599026779
-0.017797335237635957 -0.8296658553509513 -1.7274829480240563 -1.0211691356382189 -1.5192859812960495 -0.9390746756545187 0.005392223498027952 -0.05924345712285035
-0.07519090358516366 -0.27461391007526975 0.02669349016946057 -2.2606249404432233 -0.053458481253392615 -0.12720938688312128 0.033766576039743854 -1.576960263311776
-0.00523404959103779 0.013283235697590507 -1.913940356909117 -1.020304957308928 -1.800734787019185 -0.9995344774180388 -0.4156052474906336 -0.4876478789462529
-1.0311612084609472 -1.4593825454533416 -1.2933032526684611 0.0316524427850699 -0.6530278107600269 -0.6645624898346452 -0.6080434235331037 -0.7856020894203951
-0.7674212257869879 -1.7663485645680095 -0.8142224633461851 -0.6797582843466754 -0.3884936826103733 -2.3759829943964808 -0.18800323941058847 -1.283791603900324
0.03229010514513207 -0.8717790264498483 -0.33504806288925265 0.031047700338536564 -0.016573681626794744 -0.9597453727437949 -0.8272242119205776 0.0035129094903370954
0.019835411028725214 -0.13708171601612726 -0.4259497719396638 -0.0038123529821840465 -0.011720754098176338 -0.9007541633646432 -0.008526776122555087 -0.6710655355220602
-0.9067354297132575 -0.0005559224316693156 -0.45144160921231696 -0.2764456979666442 -1.0961424038907421 -0.006556079322886018 -0.3522056870879794 -0.15241559199968027
-0.8362071689859678 -0.5360580762495069 -0.17922104479536385 -0.572678793957901 -0.0056293875351809625 -0.09272678167740507 -0.6615754297342387 -0.6520515571218471
-0.6645305507026568 -1.0436058773083907 -0.6645946051196088 -0.7742081624700757 -0.9684850606854719 -0.005536648875821005 -0.16279987095364792 -0.014905851809107832
-0.20874662011022044 -1.6262259455347636 -0.6945455354637569 -0.39099847911042007 -0.013255844063955104 -0.5220599203831533 -0.5623235034306404 -0.0011448083853772034
0.017604338784474375 -0.0062999578143056395 -0.038102257396035684 -0.6992115429030978 -3.768496264878049 -1.428437788065783 -0.4235055769451798 -0.3736600212003566
0.02307133986102951 -0.008797713641581347 0.049301050066627376 -1.8032886438778564 -0.9111699662386531 -0.3940937528703866 0.10014805387485344 -1.4803249218195487
-0.6787803682481228 0.08480951352112696 -0.0032888274340420794 -0.16258195069760478 -0.08073134164785677 -1.8139949510779967 -2.235226058772702 -0.005301143092655601
0.027612129096097844 0.07215565082834637 -1.3703487375020185 -7.266602907095021e-05 -0.0004030119745232139 -0.6137508706856675 -0.2567060836422406 -1.8246168513123098
-0.9043140802686682 -1.2746448142141793 -0.5319695908481928 -0.0009124217778329919 0.040509813216913146 -2.937445712142171 -0.35132565652336484 -3.149136377725446
0.13781868030601552 0.15674125522277152 0.007937580888195402 0.06450878094203187 -1.3786656539522761 -0.008439214480083694 -0.21749951086270097 0.012905691154069903
-1.9128269511405938 0.007076782442005251 -0.10043383526056707 0.05621603905099137 -1.3029684333384008 -1.255851953204407 0.18164366250437577 0.07749482254257578
-0.07847781924296388 -1.1717263582093858 -0.3968630619752403 0.008937801930498665 -0.023118725438968042 -0.026404013272145203 -0.7137367388475241 -0.09835666516399144
-2.702264055184176 -0.8305450728241065 -0.023594473767850732 -0.11610646131954891 -0.02038834249421699 -0.5603298190172693 -0.3163326567292447 -0.07932073809495208
-0.7644496540827814 -0.757058928634224 -0.20448603509359967 -0.7709687151061396 -0.981703983008508 -0.541561445324405 -0.5532813287091013 -0.5353311985875557
-0.9036988280191794 0.22871151563025202 0.04177796445834331 -0.10023568373151899 -0.7444289131856456 -2.538927205746317 -0.22356629166808922 -0.19850277709778882
0.023559866812310457 -0.9348462276174202 0.09288051460617724 -0.2816222484119254 -0.23206168952566356 -0.23247087894002935 -3.259203305297231 -0.22827350530649781
-2.112067177547239 -0.47587928236169175 0.0380066637236252 -0.004442392138477746 0.3685206186640574 0.0570918131079285 -1.1052274008480014 0.35883954700226567
0.09364998267382792 -0.05306291524689425 -1.4721644488286851 -1.5514291381907461 -0.007461019972899487 -0.005093130177490936 -0.3539822743972054 -0.16014747822305614
00000000: c7d9 12d6 cacc c13f d578 abe3 5827 c23f
00000010: 41c1 40c9 9e79 ddbf 1764 f331 b30b fbbf
00000020: 954c f0c2 303e bf3f 1262 904d 5f7f b8bf
00000030: 16b7 b2ba 5023 aa3f 4dea e688 611a f4bf
00000040: a7f5 aaca 15ac f0bf e184 7559 1bea bdbf
00000050: 0f98 6627 f151 cdbf ac0f e38e 07b6 a8bf
00000060: 72ac f88f b702 a3bf 3af8 b766 bb01 dfbf
00000070: 55f1 7d81 912f dcbf 2cdf f0e3 683c 7bbf
00000080: 660c 47af 858d c9bf 75b1 69cf 9392 bebf
00000090: 9353 06ed cc6e 61bf 420e 536c 105c 73bf
000000a0: 8064 f5b9 9a4c e7bf 5d8c c546 8976 afbf
000000b0: ecb9 7303 8c2f 5fbf 6fd8 3a0f bfde cfbf
000000c0: a7e4 dba4 7e6b ddbf 1167 5a5a de07 ecbf
000000d0: fa9f 7770 bbbe a4bf 7b8e cb1d 9ba1 f3bf
000000e0: e800 a5dc 6904 edbf 296f 0495 d5c3 f3bf
000000f0: 4ecc 328d c2d9 81bf 82fc 5935 a660 74bf
00000100: 4226 44db e6ae 61bf cd4e 87e9 2071 e6bf
00000110: 80b5 5ba9 87f0 d3bf a147 6c7c 3da6 6ebf
00000120: 8d50 36d7 9322 c03f ade1 5e85 df36 02c0
00000130: 6f44 c67a 1652 f2bf afb6 8f08 1722 b93f
00000140: 6886 807b 589e ddbf a833 84a2 5d8b b73f
00000150: 42ce 6a59 da83 d5bf 9b32 e630 3b12 a03f
00000160: 9792 d777 9c06 f0bf bf40 a376 b7d7 ae3f
00000170: ef8c 62d0 441a e7bf 6353 059b 8a9a f5bf
00000180: 3f8c 5852 dc44 00c0 96bd 46c8 3e26 a0bf
00000190: ff31 2e18 cf7f f6bf 5b41 ef06 43c1 d5bf
000001a0: 0002 4670 40a1 9d3f fd0d 84b7 ebb0 babf
000001b0: 085c 34a7 b5ec dbbf 8821 d52a c3f6 e2bf
000001c0: 46d5 34f3 7639 92bf f0e2 6a68 9f8c eabf
000001d0: 6a93 e228 c5a3 fbbf 0603 9472 b556 f0bf
000001e0: 3b01 2fd1 fe4e f8bf d003 8e55 e60c eebf
000001f0: 1e61 3af9 2716 763f 1972 b08d 2855 aebf
00000200: 1fdf da07 b63f b3bf af32 b338 4693 d1bf
00000210: 28fc 2ccd 8955 9b3f 03ce 5d87 c215 02c0
00000220: 74b3 5af9 e85e abbf b21f 34ae 6548 c0bf
00000230: fec2 9347 da49 a13f 0240 60af 3a3b f9bf
00000240: 7d3c 1b7d 4c70 75bf 8aeb 3fb7 3d34 8b3f
00000250: 25b5 76ec 7f9f febf 966a 794a 2b53 f0bf
00000260: 5345 b047 cfcf fcbf 8684 77ba 2ffc efbf
00000270: 212b 81c0 4699 dabf 556d 0273 9f35 dfbf
00000280: d0e5 33e5 a27f f0bf 9334 1183 a159 f7bf
00000290: ec57 60c0 5eb1 f4bf d865 33bd bf34 a03f
000002a0: 28f8 5294 9ae5 e4bf ca9e ff8d 1844 e5bf
000002b0: fdeb 537b 1775 e3bf 0d5b 37fe a623 e9bf
000002c0: f05c 60f5 b68e e8bf 927f 62b6 f642 fcbf
000002d0: 8db1 7744 1c0e eabf 7e87 0e72 94c0 e5bf
000002e0: f4e7 609b 14dd d8bf c147 465f 0302 03c0
000002f0: a3bf 677a 7d10 c8bf b719 9a10 698a f4bf
00000300: 5e5d 2a23 5488 a03f 2d1b fe20 9de5 ebbf
00000310: b3a3 2c6e 6d71 d5bf 06b4 47e6 f7ca 9f3f
00000320: 83df 3ef2 b0f8 90bf 7180 8ded 3bb6 eebf
00000330: 6b10 15e9 9e78 eabf d868 feeb 1ac7 6c3f
00000340: e032 afe6 bb4f 943f 179c 95c7 e48b c1bf
00000350: 870c 0ed5 c242 dbbf be21 236c 153b 6fbf
00000360: 16fc 49fc 0c01 88bf 2c62 2c65 fad2 ecbf
00000370: 5e89 b184 7c76 81bf 7947 116e 5e79 e5bf
00000380: 3ac6 1705 fa03 edbf a386 e154 6a37 42bf
00000390: 7fb6 e758 6be4 dcbf 8ebe f84b 49b1 d1bf
000003a0: 5283 079e cc89 f1bf e228 8224 8cda 7abf
000003b0: 6684 e0b8 898a d6bf 6d01 85a7 5a82 c3bf
000003c0: 1c37 6f89 35c2 eabf 20f2 4744 6327 e1bf
000003d0: 3d55 1317 b7f0 c6bf 582e 657a 6253 e2bf
000003e0: 1905 c335 d70e 77bf ad8d c43e f1bc b7bf
000003f0: 6276 513c a02b e5bf 5d9d 243a 9bdd e4bf
00000400: b7be ce92 d543 e5bf 303f 8f13 9cb2 f0bf
00000410: b0c6 c2e7 5b44 e5bf 0b5e 4332 50c6 e8bf
00000420: afe0 c961 d4fd eebf c10c 9edd 98ad 76bf
00000430: edfb c44c a0d6 c4bf ef28 5090 f586 8ebf
00000440: 3a10 4391 35b8 cabf e2a7 3f7f 0505 fabf
00000450: e2c9 0c8f b739 e6bf da28 247c 1e06 d9bf
00000460: ce6e e245 e125 8bbf e022 9301 b7b4 e0bf
00000470: 4037 20dc 8dfe e1bf 920d d3a4 acc1 52bf
00000480: b159 632d df06 923f b93c 750c fccd 79bf
00000490: 21e9 d69a 2382 a3bf ea24 b8e2 f05f e6bf
000004a0: b8fe a55e e125 0ec0 54cf 0195 e1da f6bf
000004b0: 5bcd a922 b71a dbbf 6634 b8b8 0bea d7bf
000004c0: a54b b668 03a0 973f 0b19 f622 8904 82bf
000004d0: a7a5 63bb fc3d a93f e141 6b31 45da fcbf
000004e0: 43f5 c2ea 4d28 edbf c6b7 0801 d538 d9bf
000004f0: e589 2688 4da3 b93f 12b3 6a2f 69af f7bf
00000500: 5c5c 599b 91b8 e5bf 4781 f686 13b6 b53f
00000510: 8c4b afc8 2bf1 6abf aa42 9540 7ccf c4bf
00000520: 7fc6 2328 cfaa b4bf 6bd3 df91 1f06 fdbf
00000530: 0ec4 2c33 bee1 01c0 7211 6ec3 a6b6 75bf
00000540: 123f c39d 5a46 9c3f 0583 87f0 ca78 b23f
00000550: 18fa 3acc f2ec f5bf 339b a1df 880c 13bf
00000560: 8109 1f40 6b69 3abf 2391 afdd d8a3 e3bf
00000570: d95e 7b5a df6d d0bf aede 8170 a131 fdbf
00000580: b61e 0215 24f0 ecbf e90d f1f5 f164 f4bf
00000590: 891a 6517 e505 e1bf 1aeb 14d9 f2e5 4dbf
000005a0: 4e0f dec5 b3bd a43f 8f68 9b89 e37f 07c0
000005b0: 83de 409b 1e7c d6bf 2ccc c769 6e31 09c0
000005c0: 889a 58e2 0aa4 c13f 4dd2 8ef2 1810 c43f
000005d0: fedd 9712 9441 803f 3b6b 73c0 a583 b03f
000005e0: e47e 7db7 030f f6bf 4f2e 9131 9448 81bf
000005f0: ea90 0623 06d7 cbbf f615 838b 4c6e 8a3f
00000600: 5ce6 e06e f09a febf eb9c 6352 8bfc 7c3f
00000610: fa21 db25 08b6 b9bf 4026 7842 59c8 ac3f
00000620: 658a 8e6d f5d8 f4bf 2517 ba37 f817 f4bf
00000630: b7b0 fd7a 1940 c73f f0ff 6d60 b3d6 b33f
00000640: 5424 1c53 1f17 b4bf 8aed 4523 64bf f2bf
00000650: 1924 0b54 3466 d9bf 8bbc ea77 fb4d 823f
00000660: 5206 be66 6fac 97bf b1b3 f255 a709 9bbf
00000670: cdb8 e96d eed6 e6bf 4814 3904 e72d b9bf
00000680: 0661 f19d 3c9e 05c0 6f45 b442 d393 eabf
00000690: e007 cc54 2629 98bf b6c4 382e 27b9 bdbf
000006a0: 6ce2 ed80 aee0 94bf 7fe3 f4cc 38ee e1bf
000006b0: 06c5 d353 cb3e d4bf ae2c 0328 5d4e b4bf
000006c0: 7e2b f71e 5f76 e8bf 0c1f 74a5 d339 e8bf
000006d0: ad9c 9b30 992c cabf 21d7 3395 c6ab e8bf
000006e0: c1fb ab78 1e6a efbf 832b 0eab 7854 e1bf
000006f0: 6360 890b 7bb4 e1bf fac8 cee4 6e21 e1bf
00000700: 35d4 f8cd 19eb ecbf 03de ec3f 6b46 cd3f
00000710: 9885 15de eb63 a53f fde1 84b7 0ba9 b9bf
00000720: 9288 8a95 5cd2 e7bf 3cd7 1c11 b94f 04c0
00000730: 92e9 99fb d19d ccbf 536c e6fb 8968 c9bf
00000740: f9f4 d3e5 1320 983f 3ffc cca2 42ea edbf
00000750: 7c4f ab74 04c7 b73f 5255 b052 1906 d2bf
00000760: d167 958b 32b4 cdbf 3fef 2813 9bc1 cdbf
00000770: 3922 ba2e d912 0ac0 24d7 eaf3 1038 cdbf
00000780: d029 f479 83e5 00c0 3898 a560 ce74 debf
00000790: 4632 7203 9c75 a33f ff59 368f 2f32 72bf
000007a0: 8615 4481 d795 d73f 99f6 555c 233b ad3f
000007b0: 6190 54ed 02af f1bf 45b7 b825 3af7 d63f
000007c0: 0de5 dafc 71f9 b73f 254e 3bfb 0f2b abbf
000007d0: 5ed9 204f fc8d f7bf 9673 295c a7d2 f8bf
000007e0: f559 744c 728f 7ebf 9cd9 beb8 88dc 74bf
000007f0: 9c94 f944 a5a7 d6bf 82a0 c06a b67f c4bf

0.bias f8 [32]
0.018802718458423493 -0.001505725478713315 -0.047818561689853704 -0.07323517308060296 0.00349330901450757 0.07270938475638576 0.3929684900777544 0.0033862663075466663
0.038117080784960414 0.765918677898472 0.1838637854217592 0.12864113955716372 -0.0019253290371359574 -0.03953752440946021 0.6615616513660864 -0.3540260449318659
0.370343100653708 0.002894694606552708 0.0006378942306085394 -0.0007709176944128201 0.07764191334403484 0.01481898173484366 0.016724717298817533 0.023945763074550437
0.531848813588701 0.0036967232862567135 0.2624309024552864 0.048288027899247084 -0.02503409166392996 -0.21268938986366354 -0.027498402773254767 0.004559677021161649
00000000: 1957 6b13 0541 933f 305e 056c 78ab 58bf
00000010: 4709 33ad ac7b a8bf 944f 4c51 8abf b2bf
00000020: 93b4 1bff ff9d 6c3f cf15 a40d 159d b23f
00000030: 6584 4f4f 6526 d93f dd98 7ce1 83bd 6b3f
00000040: dae1 c7fe 1484 a33f 1b06 1fe3 6782 e83f
00000050: 5d11 a738 d988 c73f 74ba a817 5077 c03f
00000060: 600c e84f 6a8b 5fbf 9d5b 9b2c 433e a4bf
00000070: 89f6 1c57 832b e53f a788 3adb 5ca8 d6bf
00000080: a6d7 668c b3b3 d73f 527c 5855 9db6 673f
00000090: 4233 ec6d 0be7 443f 3057 8824 ed42 49bf
000000a0: fa8a 9c26 57e0 b33f 0c16 4a0f 6a59 8e3f
000000b0: e243 55c7 4820 913f e2bf 21f5 3c85 983f
000000c0: b4f4 98cd e704 e13f 241b bd33 9748 6e3f
000000d0: 8b55 e0fb aacb d03f 2930 3b59 35b9 a83f
000000e0: 7434 ed73 89a2 99bf 2ad7 d5ea 6739 cbbf
000000f0: 7fd8 6992 8a28 9cbf 6ab9 fafa 2aad 723f

3.weight f8 [64, 32, 9]
-0.24475851111592903 -0.09747759020715856 -0.06869674299106045 -0.13306076419429297 0.005500411152162351 -0.1942689313708217 0.03114060646161374 0.056921296637156886
-0.0641955262699736 -0.162834478328716 -0.1666304012242237 -0.3167133675475266 -0.19055954667681177 -0.19483269253011895 -0.3732650120623886 0.010941661021109066
0.06852698295578578 -0.4047794780076785 -0.34601549089877587 -0.09634958345505198 -0.19540894802528316 -0.25764460619427026 -0.1468012170147363 -0.6294510977430032
0.005000299597286375 0.05960605912891483 -0.1824245439916677 -0.0763919293801583 -0.010462681495762858 0.003570157370447564 -0.023336721759492234 0.17324685481864613
0.09602425453964825 0.1638399148422363 0.11398167781626425 0.026874947311426034 -0.21784862170176927 -0.18117530155989978 -0.22327450485406936 -0.1541830673657779
-0.06726136415864033 -0.34730768351242536 -0.06751130281253374 0.031648053576415376 -0.0973690877704163 -0.08132964203231455 -0.046346599872945385 -0.18228600319777247
-0.1112404540289068 -0.09721672566615697 -0.47364150841644614 -0.10391423144430677 0.008243576040625644 -0.1414492129892336 -0.7033985858284563 -0.6014284285413457
-0.5469058179858616 -0.521982697969195 -0.4905368635032199 -0.5633865997161039 -0.03921406885798594 -0.006806320333993946 -0.44945152705113095 -0.25950227101775325
-0.2030821169843928 -0.07430957084247716 -0.2490950800901918 -0.10260032202824526 -0.7644724221720554 0.03380498248838844 0.1282556268238609 -0.09198016033783044
-0.1864181335316566 -0.12524997091724407 -0.18080662103839248 -0.1846835089007193 -0.07932153318424034 -0.4130032918514052 -0.08407048943288736 0.002958111846666763
-0.12687732519481754 -0.7844965465574542 -0.48975179020644904 -0.6093364607523069 -0.6361687683656853 -0.6407642757117938 -0.5601238558567551 -0.6793625513988288
-0.10572883471763304 -0.29934440921561345 -0.34687384573270824 -0.16110331809652453 -0.23712687351414205 -0.22751236272409459 -0.09228610632299375 -0.5274157219406566
-0.03494261297953019 0.04345858535440734 -0.027214698858899343 -0.044738592481972254 -0.0677502600485306 -0.22149667256036615 -0.033276072929833055 -0.09689341208477634
-0.15667073910050824 0.006381205713790845 0.11268320984638742 -0.04362722692333759 -0.1807050478551938 -0.2111998404866582 -0.3480548800777467 -0.36224802310057025
-0.4306215489926885 -0.3431529857705736 -0.026653552923035034 -0.003016565897421211 -0.31593772371476 -0.3449093631859159 -0.16487020301193492 -0.22266695164653513
-0.34270801038605503 -0.10818958836721125 -0.9233522321781144 0.1182295314639881 0.10400173570751618 -0.14078798655286004 -0.6938859269323572 -0.7582108559455063
-0.7014520092432985 -0.6659782206013781 -0.7727455382885811 -0.6990453344604232 -0.2868602106431917 0.15821870196870771 -0.6226787239919005 0.028747965724504134
-0.029174450246965564 -0.007837619618047027 0.13772135428254248 -0.054491608245571845 0.0027113673198592603 0.05334410842529773 0.09299759770296863 -0.11552190061146833
-0.28485176298904086 -0.2481516106501271 -0.2958483226968628 0.073126384933508 -0.1488574193581396 -0.5443024307282065 -0.053541154890197895 -0.06496534853752
-0.09939744469173292 -0.2912113483009199 -0.38004008584993526 -0.2596475051806499 0.13583804417475745 -0.24145703696265197 -0.6589295786512092 -0.0651138299300375
0.019640110141545812 0.0966264968149891 -0.1482927844444684 -0.08574001160296758 -0.23838962416298462 -0.2423330430995021 -0.16018163038204 -0.74278496472876
0.0011683456387411272 -0.09573520431705074 0.12121658715635614 -0.585930782332682 -0.29687250241634056 -0.4336353902226278 -0.2874159998589896 -0.27262258668967077
-0.5630736693170144 0.020619418350788093 0.06439562159427148 -0.11127997413649253 -0.13818308732949508 -0.1212278819429816 -0.20713123769669578 -0.013366905654239812
-0.28311578410218213 -0.3001673083606848 -0.05750957881726108 -0.043859803702155406 -0.08844108520271102 -0.3670217875208687 -0.1370908861778032 -0.07572520391755037
-0.16490768869999933 -0.013780807602663385 -0.25647665675539716 -0.03485688256441716 -0.07847960829290812 -0.00843738058430318 -0.14638670471216292 -0.11852414987292029
-0.11767816666793432 0.052189423754171446 0.014325952617754373 -0.31027177514124543 0.053787140367353846 -0.03744085113281111 -0.11704915927127334 -0.17166795920539926
-0.3866005318006628 -0.41666488745256236 -0.34391166401383494 -0.009745093493329797 -0.2633518316690889 0.10901136101195459 -0.13727582779590972 -0.20269954360384285
-0.7324013361582793 -0.4760329470941484 -0.5706704194432627 -0.6129785736605584 -0.6246498991515834 -0.603001987632659 -0.5549048663667043 -0.05402822659532485
-0.4323011752299599 -0.28262698582458423 -0.05666187776333082 -0.13119253952390753 -0.15614734616990045 -0.03714366450195822 -0.4019571403767121 -0.03066999020742423
-0.004775200154189004 -0.15711270936791416 -0.1606287938688059 -0.27508140891755545 -0.3413317718150417 -0.1902256338801973 -0.15192924820544118 -0.4935971118916675
-0.004041017009324588 -0.003666088379090608 -0.10928677321188665 -0.38741302556621704 -0.0662011915299065 -0.01885604017302787 -0.092268270684267 -0.08281036999425094
-0.1783691977684399 0.018608953123221167 0.005000465696180608 -0.09741657793590644 -0.34341228470810903 0.08847855819650596 -0.21736957640384813 -0.18800046548322874
00000000: 7b8d 5434 3f54 cfbf d35a 0896 4af4 b8bf
00000010: a902 7d18 1c96 b1bf 5a31 4c97 2208 c1bf
00000020: e29e 3560 9987 763f 09eb 6ee9 cddd c8bf
00000030: ba29 52b9 52e3 9f3f 2748 01c7 c924 ad3f
00000040: 2009 e135 1e6f b0bf 94a1 8a9b c2d7 c4bf
00000050: d181 e31d 2554 c5bf 5fa6 f424 0845 d4bf
00000060: 6170 7556 4164 c8bf d1e2 4d15 47f0 c8bf
00000070: e422 e3ee 92e3 d7bf 8924 ffe1 9468 863f
00000080: 534b b0fe fb8a b13f b3a2 082f e8e7 d9bf
00000090: c974 5428 1e25 d6bf 2a34 ecc5 5daa b8bf
000000a0: 2fa3 8e10 2903 c9bf 9717 66cd 3f7d d0bf
000000b0: 6eaf 0bdd 61ca c2bf 9699 e7a0 7624 e4bf
000000c0: c247 d9b3 317b 743f 934a 3475 af84 ae3f
000000d0: 5a49 37fd af59 c7bf 23ba 5de6 6b8e b3bf
000000e0: e576 d256 756d 85bf 5c83 b9a4 293f 6d3f
000000f0: 8bf0 02e3 94e5 97bf 695c caf3 f32c c63f
00000100: 98dd dea8 0b95 b83f 2a6f 03d2 b4f8 c43f
00000110: 7a66 903a e72d bd3f 001f 232f 1b85 9b3f
00000120: 0209 d8b0 76e2 cbbf 6f77 8595 c030 c7bf
00000130: 367d 304c 4294 ccbf eb6b f74f 45bc c3bf
00000140: 3d80 586f 0a38 b1bf f476 9501 4a3a d6bf
00000150: fbaf b0b5 6b48 b1bf 397e 2f76 2c34 a03f
00000160: bf83 9d37 2eed b8bf ba63 b9f8 04d2 b4bf
00000170: ca5e 78d5 bdba a7bf c961 20d3 2555 c7bf
00000180: 57dd 0b20 417a bcbf c43f 5c01 32e3 b8bf
00000190: ca4f 2b79 2450 debf f76b a481 1f9a babf
000001a0: 00fd f80b 02e2 803f 93b6 eaff 011b c2bf
000001b0: a3f2 45c0 3d82 e6bf 3708 efd4 e63e e3bf
000001c0: 95b9 47a1 4080 e1bf 9260 1b0f 15b4 e0bf
000001d0: c4a3 8eba f464 dfbf 4121 9955 4307 e2bf
000001e0: 4e87 93ce dd13 a4bf 5d83 d9b3 f1e0 7bbf
000001f0: 7799 7456 d0c3 dcbf 1c93 d069 af9b d0bf
00000200: 57da 6c45 98fe c9bf 1a59 8cb8 f305 b3bf
00000210: dd7a 4afb 58e2 cfbf 249e abc3 0344 babf
00000220: 4288 7dde 8e76 e8bf 8a7e 75fc e24e a13f
00000230: 6b44 5e2d ae6a c03f 3a25 8804 038c b7bf
00000240: 802d 73a5 8cdc c7bf cf0e 75e8 3008 c0bf
00000250: f74c 21de ab24 c7bf 1968 6b8f b5a3 c7bf
00000260: 9417 e57e 6a4e b4bf a318 e95b a56e dabf
00000270: 6c47 acc2 a485 b5bf 5e81 7534 9c3b 683f
00000280: cc68 2825 843d c0bf 2f41 6980 981a e9bf
00000290: 9506 86e4 1758 dfbf 2421 662d af7f e3bf
000002a0: 3fc0 db9a 7e5b e4bf b112 1415 2481 e4bf
000002b0: 5fa7 53dd 88ec e1bf a652 8c88 56bd e5bf
000002c0: 8f3e 5b7f 0b11 bbbf 7893 f473 7528 d3bf
000002d0: 6f9f d05b 2e33 d6bf 5336 4095 089f c4bf
000002e0: e77b 5f63 2c5a cebf 6cf7 aa06 201f cdbf
000002f0: ca4d 88f0 0fa0 b7bf 0434 a4ef 96e0 e0bf
00000300: 74bd f787 ffe3 a1bf b9bb a725 3440 a63f
00000310: d620 4786 2bde 9bbf 5785 280f fae7 a6bf
00000320: 0a35 34bf 1458 b1bf 6ee8 68c2 005a ccbf
00000330: b325 f2b9 8f09 a1bf 6a1a 1ab4 01ce b8bf
00000340: 69a2 566a c90d c4bf eeb2 98dd 2d23 7a3f
00000350: dd39 198d ced8 bc3f e8a9 b3d1 4e56 a6bf
00000360: 544d 61cf 5721 c7bf 31c2 e7ab 9808 cbbf
00000370: 7b6a c9f9 8746 d6bf 8c7c 1055 122f d7bf
00000380: e717 78af 4d8f dbbf 1233 daf0 37f6 d5bf
00000390: 18ae 81a8 114b 9bbf 6c59 057c 32b6 68bf
000003a0: 6f5d bbdb 5238 d4bf b8ee bdb8 fe12 d6bf
000003b0: c1b4 0281 771a c5bf 9f66 9cc5 5980 ccbf
000003c0: 86dc 2b94 edee d5bf 3f0c ce17 50b2 bbbf
000003d0: 5f98 fcfa 198c edbf d229 0f63 4a44 be3f
000003e0: eb4c 9795 db9f ba3f 3705 f53a 5705 c2bf
000003f0: 2688 6a42 5034 e6bf 7e42 b869 4343 e8bf
00000400: 0a3b ed7b 4b72 e6bf 2199 aa8e b14f e5bf
00000410: 368a e2d9 54ba e8bf 8bb9 3d52 945e e6bf
00000420: 911d cfed ea5b d2bf 1d1c 49ab 8240 c43f
00000430: 26ba 6eee fbec e3bf 27fe 7352 1b70 9d3f
00000440: 4c0b c236 e8df 9dbf 2406 817f 2b0d 80bf
00000450: 535b 4d74 daa0 c13f 0d71 a4f6 52e6 abbf
00000460: 696d eb3e 2636 663f c6ea 3d42 eb4f ab3f
00000470: 0da6 bdc8 b0ce b73f c417 19e1 d792 bdbf
00000480: 65bc 8fe3 023b d2bf 2794 1896 6ec3 cfbf
00000490: 86ce a3cd 2def d2bf a19d c327 69b8 b23f
000004a0: 5980 f489 c20d c3bf ec8c 63ee ec6a e1bf
000004b0: 28a8 7c0a bf69 abbf 1886 57af 91a1 b0bf
000004c0: 3ec8 4166 1c72 b9bf 0a4c 4bec 34a3 d2bf
000004d0: 8f3f f9a6 9352 d8bf d749 cf91 109e d0bf
000004e0: 753f a41a 2463 c13f 3c63 926e 10e8 cebf
000004f0: 6f91 d57b f315 e5bf ec1a 11ca 4cab b0bf
00000500: 4eb9 fd7a 891c 943f 5557 bf9b 83bc b83f
00000510: 89fc b509 42fb c2bf ad1c cbb1 0ef3 b5bf
00000520: 112d be1b 8d83 cebf 601f 6de7 c404 cfbf
00000530: cf95 f4e7 d480 c4bf a50e 6ff9 e4c4 e7bf
00000540: f0a9 c393 6524 533f c01b 9e33 1a82 b8bf
00000550: 8cbc 91dd 0c08 bf3f 84d5 7ae9 f1bf e2bf
00000560: 686e 3d86 f5ff d2bf 993d d9a6 aec0 dbbf
00000570: c074 ef13 0665 d2bf 78ea 7e01 a672 d1bf
00000580: c891 5e12 b304 e2bf 68ad eabd 411d 953f
00000590: c8c3 c040 3b7c b03f a3af 9d29 d87c bcbf
000005a0: 1662 78c0 fbaf c1bf e7f6 4e5c ca08 bfbf
000005b0: 6693 f1c1 4683 cabf 7fc5 11b5 1b60 8bbf
000005c0: 35d1 6caa 911e d2bf 0333 2ff1 f035 d3bf
000005d0: 6528 7440 e571 adbf 46fc 04cd ca74 a6bf
000005e0: 3a82 9130 13a4 b6bf f794 94f3 487d d7bf
000005f0: 2d4e 5bb4 318c c1bf 2b0e 4f1a ba62 b3bf
00000600: 36a8 e9f4 b11b c5bf a92d baaf 1c39 8cbf
00000610: 15eb 3c11 1d6a d0bf c832 4fe5 c2d8 a1bf
00000620: b85b 0557 3d17 b4bf 6e4d 630d 9e47 81bf
00000630: de6a a7ae ccbc c2bf 8a8a 7d43 9957 bebf
00000640: 82c1 4a05 2820 bebf ee47 7178 92b8 aa3f
00000650: fd82 d1cf ec56 8d3f fd9f c625 7edb d3bf
00000660: 6b73 a5f1 fc89 ab3f 4ab6 4c7e 722b a3bf
00000670: 872b 1807 eff6 bdbf cd74 4737 37f9 c5bf
00000680: b2cd 2c28 10be d8bf 8604 4034 a3aa dabf
00000690: 49c0 6911 a602 d6bf 5c71 cd4e 3cf5 83bf
000006a0: 5911 17a4 c1da d0bf d554 7026 2be8 bb3f
000006b0: db16 751b 4192 c1bf 22a8 5803 0ff2 c9bf
000006c0: a016 4bed d46f e7bf 979f e5e4 5277 debf
000006d0: 95b5 899c ee42 e2bf 9aaa e03d 859d e3bf
000006e0: b2c8 09c9 21fd e3bf bfc4 09d3 ca4b e3bf
000006f0: b9f5 add9 c7c1 e1bf 375a 9374 96a9 abbf
00000700: 8ca4 688c d2aa dbbf 705a 457f 8f16 d2bf
00000710: 29cf d81f c902 adbf d8ff 5dc9 eaca c0bf
00000720: bc15 94e0 a2fc c3bf 383a 9490 7e04 a3bf
00000730: 3bf2 1371 aab9 d9bf 225b a333 f467 9fbf
00000740: 22d1 e707 298f 73bf dab4 42ee 441c c4bf
00000750: 7431 3bfc 7b8f c4bf d776 c20d ef9a d1bf
00000760: 7401 4237 61d8 d5bf 282b 3046 5059 c8bf
00000770: 0493 2ce8 6a72 c3bf 8b62 3e57 1897 dfbf
00000780: 0db0 5c3e 508d 70bf 8977 2836 5808 6ebf
00000790: 8a96 d4cc 37fa bbbf ee7b b600 60cb d8bf
000007a0: 1cc2 93b0 8ff2 b0bf db38 806f ff4e 93bf
000007b0: 8f22 0cb5 e49e b7bf 971c e576 0f33 b5bf
000007c0: 02bd 8347 cdd4 c6bf 78e1 4eb4 390e 933f
000007d0: efed 134a 5e7b 743f 12ad 52f8 4af0 b8bf
000007e0: 0a6c f784 77fa d5bf f0e9 d9e1 87a6 b63f
000007f0: 2863 e62a c4d2 cbbf 260e 7135 6610 c8bf

3.bias f8 [64]
-0.6510662380697594 0.04917500878133375 -0.4418465035335445 -0.23332487698484447 -0.07048086259122159 0.21664071703897375 0.04001207219859426 -0.13222212939817765
-0.2691665977611396 0.1929758431929531 -0.03715349353089786 -0.48607766032206756 -0.008214151483955415 -0.03710771841874498 0.14153147568612168 0.008658381404112606
-0.11353284953966139 -0.016715515714067007 0.06911077372619469 -0.5420827827820186 -0.03832057459407185 -0.06286214092355083 0.03791117389163482 -1.2457695918050409
-0.024328212799146317 0.16550065087872046 0.007439002490757412 -0.052333683990293534 0.0623915738260759 0.21393538080375613 -0.24183366236954212 -0.07407157613720117
0.17100503421212412 -1.3441028213820945 -0.07190957546791187 -0.022263469835316713 -0.10079910304301129 -0.2900225743403705 -0.005109222531579281 -0.10489219441562057
-0.0861726419964531 -0.40693766558197286 0.10430518770260384 -0.09384980642120125 -0.103088398510039 -0.031883446474215094 -0.18859933430596143 -0.05451201355073532
0.06109881188723269 0.22934998419084138 -0.007622132904736644 0.0043951929637950264 -0.08618981814980159 -0.18039449420604137 -0.10566294922101245 -0.12410398927663045
-0.42184413392681297 -1.892482767415645 -0.09846742516268638 -0.02371596322869472 -0.2167422409413483 -0.04688363714778854 0.19548877781748286 -0.022920922161248483
00000000: 7e42 01dd 88d5 e4bf 7120 fe7c 772d a93f
00000010: 4ed3 a18e 3647 dcbf e31e ffed 96dd cdbf
00000020: 0bbb d2a7 080b b2bf 7a0a 550d e2ba cb3f
00000030: d088 135b 767c a43f b34c c99c a7ec c0bf
00000040: d2d1 a389 063a d1bf d743 b7b3 6eb3 c83f
00000050: f871 4b5f c805 a3bf 0891 9979 e51b dfbf
00000060: 3561 e7bf 94d2 80bf a64b 136a c8ff a2bf
00000070: f097 b611 b41d c23f 9554 bc47 7cbb 813f
00000080: 9a66 cb23 7d10 bdbf 768e 4f45 df1d 91bf
00000090: 118c f460 3eb1 b13f 09c0 f8fd bd58 e1bf
000000a0: a97a 4a1d c19e a3bf 7256 6cb7 bb17 b0bf
000000b0: 15fb 08e8 1769 a33f 7576 7218 acee f3bf
000000c0: 5fae 5eb9 7ee9 98bf 20d3 7e15 202f c53f
000000d0: 4647 9a06 5c78 7e3f 685d 6f0a 7bcb aabf
000000e0: c707 42d2 c9f1 af3f 4a35 010c 3c62 cb3f
000000f0: c27b 79cb 67f4 cebf 488c 12d5 5af6 b2bf
00000100: 493b b232 7ee3 c53f 41c2 c4f5 7181 f5bf
00000110: a767 e77a aa68 b2bf a848 5a2b 3ccc 96bf
00000120: 9e2e 0953 f8cd b9bf 1231 f9d7 ba8f d2bf
00000130: 64dd e57a 68ed 74bf 67ea 9e00 37da babf
00000140: 5547 2f07 690f b6bf a2d9 4b47 440b dabf
00000150: 055f fca9 beb3 ba3f 32a3 5079 8a06 b8bf
00000160: 0d98 3254 0064 babf 48f2 c7ef 0653 a0bf
00000170: dc1b 72e2 0524 c8bf 6108 e1a6 ffe8 abbf
00000180: 269f c2ed 5748 af3f 3309 b81c 575b cd3f
00000190: 5964 d3b8 6238 7fbf b530 a0a0 b100 723f
000001a0: 149b 3332 8910 b6bf 0828 7fb2 2a17 c7bf
000001b0: b59b 4d1f ba0c bbbf 0f0b 3f6f 47c5 bfbf
000001c0: 2268 ce89 7eff dabf 48b3 a402 9c47 febf
000001d0: 6989 cb42 2935 b9bf 7b6e d759 ff48 98bf
000001e0: b49e 40b2 35be cbbf 40d9 88d0 2101 a8bf
000001f0: 4c05 bbb9 c605 c93f b490 4e0c 9578 97bf

7.weight f8 [1, 128]
0.014890804478969445 0.002211422965352931 -0.26925944485890435 0.2714486927555935 -0.01861550174911569 0.09477229813576463 0.37016052752995715 -0.3865213807341763
-0.24052158201157203 0.11515022094357126 0.2641721572447631 -0.20071100175730586 0.12559491842984433 0.09277333045941051 0.35974322932486075 -0.46265879185839864
0.4475483742527568 -0.18858804574969443 0.5015407314017961 -0.09745926043501621 -0.03775668912418479 0.03622399899588067 -0.04092260291616349 0.06763814791202342
0.6464611577654445 0.21960507760964143 0.2178634427576107 0.0047632665082048345 0.5662741024936857 -0.9517386940097178 0.4716446044753006 0.2705235755982132
0.3385917698478038 -0.24586485983003056 -0.41528269664786416 0.1429513590732498 -0.4413132079976053 0.4179204714674996 -0.042651376028126006 0.01160310898613623
-0.4804315233360896 -0.1009666200042192 -0.0739930382204344 0.036442498197564094 0.16246598347305558 0.1228470696341585 -0.015733180880757456 -0.0817336614715433
-0.6945317840879947 -0.11336968033642719 0.3404412862615654 -0.04753911438812685 -0.4178865091113441 -0.11173736479033644 -0.044772000145865895 -0.010069570380094258
0.34323503408888134 -0.1575843753675389 0.312821670875833 -0.11853645735655091 0.4929350959671766 -0.3876261150302401 -0.05629892180108132 -0.010175185342342684
0.6714869273489049 -0.13934934739027052 -0.037015508712418814 -0.18317687941648741 -0.0005034529454400248 -0.012414022838666357 -0.42009844327169565 -0.18265099944984484
0.5447653823446564 0.139866520726381 0.46502471180799276 -0.23359450846561675 -0.23467579153358997 0.09285705757147135 0.45778294495885624 -0.07037205948697921
0.01130011190872414 0.006887680363452443 -0.31187920314820844 0.4783048418702525 0.026048334492508936 1.075215541994008 -0.323487135427194 0.13655232587149077
0.07783896947173034 0.054019879131119504 0.604446281920488 0.012183177881317451 -0.025382294945067857 -0.014611689328154764 0.5175796375223496 -0.11261656384084326
-0.45430066088870685 -0.06516912587575704 0.44102028816420313 -0.7716899146128162 0.3176528943859874 0.23697367460152358 -0.19720253834640056 0.31624998173619245
0.0055722223601274105 -0.06709258484952368 -0.29463017402462865 0.01051848302403894 0.6492764623428487 -0.4581416568127396 -0.17319368041229175 0.16116863870279843
-0.0027249833131936184 0.008994789904624734 0.012184790012600394 -0.5451279622917867 -0.16014621263583587 0.07156423919201657 -0.005783801773990673 0.00191849637055703
-0.02727745612985613 0.013362613971717514 -0.428890093652987 -0.1452022744090828 0.26012656543002965 -0.009253648536264408 0.007224850005470878 0.06387515341300261
00000000: da86 fcf1 117f 8e3f 09c4 0aaa b01d 623f
00000010: 11b8 73f7 8b3b d1bf ad57 7b56 6a5f d13f
00000020: 0f26 d82c f10f 93bf b253 0f51 ff42 b83f
00000030: b5b8 00c8 b5b0 d73f b850 5d2c c4bc d8bf
00000040: b066 5c44 69c9 cebf 9d6e 1421 7c7a bd3f
00000050: 5d52 f855 32e8 d03f 0d5d 3fea e5b0 c9bf
00000060: 9698 9989 7e13 c03f 91a0 4334 febf b73f
00000070: d717 3a77 0806 d73f c046 0f9f 339c ddbf
00000080: abc9 b2ef a1a4 dc3f afab 7430 a723 c8bf
00000090: be71 df25 9f0c e03f f2bf 4210 17f3 b8bf
000000a0: c9ba fc41 d854 a3bf ad08 09b6 f38b a23f
000000b0: 155d 62b2 cef3 a4bf b380 3ed1 bb50 b13f
000000c0: 8794 574f cfaf e43f d039 2fe9 041c cc3f
000000d0: e7a6 d104 f3e2 cb3f a879 ff9d a582 733f
000000e0: 3a07 d9dd ea1e e23f ef80 a3b4 a474 eebf
000000f0: f399 e3d9 6c2f de3f 9d71 7f1d 4250 d13f
00000100: 983a 8cd0 7cab d53f 4751 1aee 7f78 cfbf
00000110: ff9f 2ce0 fd93 dabf ceb5 11ea 3a4c c23f
00000120: b61f e9c0 793e dcbf 3509 5281 35bf da3f
00000130: 6624 57b2 66d6 a5bf 31df 04ed 5ec3 873f
00000140: b48a 2cdc 63bf debf 41e1 e7ca f2d8 b9bf
00000150: 74d7 492f 35f1 b2bf f4da e253 97a8 a23f
00000160: 1258 dd72 afcb c43f 1af7 7cd2 e772 bf3f
00000170: f92e 61e5 5b1c 90bf 4bab 004b 7fec b4bf
00000180: 5518 56b8 9a39 e6bf 5c26 679d cb05 bdbf
00000190: f9e6 ac3f cac9 d53f 6fd6 27fb 0b57 a8bf
000001a0: 3ba9 840e a7be dabf 0606 84e7 d19a bcbf
000001b0: 2e56 ce08 5bec a6bf befa bcdb 5a9f 84bf
000001c0: 4634 9013 90f7 d53f a436 488d b92b c4bf
000001d0: e612 792f 4505 d43f d6e6 babf 6758 bebf
000001e0: 81b2 0ea5 3f8c df3f b958 c8c3 ddce d8bf
000001f0: d114 df57 36d3 acbf 1f74 3542 bad6 84bf
00000200: 5ff6 1427 d27c e53f c14c e10c 33d6 c1bf
00000210: 57b2 ba5e b2f3 a2bf 3813 3d09 5772 c7bf
00000220: 3252 c6f7 447f 40bf 51b9 d4f0 856c 89bf
00000230: d8f4 bc94 e4e2 dabf 8f01 9ca2 1b61 c7bf
00000240: 3939 a5cf b76e e13f 4a9d 296a 25e7 c13f
00000250: 9204 4302 f7c2 dd3f 4e48 31c3 6ce6 cdbf
00000260: 005c e638 db09 cebf f1e5 78e9 7ac5 b73f
00000270: 65f3 50d6 504c dd3f 5f7a 0c3e e703 b2bf
00000280: 787f b658 8324 873f 8153 809e 4136 7c3f
00000290: fbbd 7430 d4f5 d3bf d579 56e9 8b9c de3f
000002a0: 52d9 0a23 6aac 9a3f 2c3e 5036 1534 f13f
000002b0: 9089 d562 03b4 d4bf e3c7 e7ee 8b7a c13f
000002c0: c344 3c34 41ed b33f a170 675c 7ea8 ab3f
000002d0: 7f31 a1ba 9f57 e33f df2c 7e74 7ef3 883f
000002e0: e8f7 befa d0fd 99bf a00d 6ebe bbec 8dbf
000002f0: 247d 072c 0390 e03f 762f af6a 70d4 bcbf
00000300: 195d 4414 4313 ddbf 8664 5880 ecae b0bf
00000310: 786a a228 ad39 dc3f 5248 3d0c afb1 e8bf
00000320: 1286 37ce 6c54 d43f 3697 3643 2755 ce3f
00000330: ac67 71ca ee3d c9bf 0ab9 3a90 703d d43f
00000340: 5a37 d80c e6d2 763f 6499 bbc9 fa2c b1bf
00000350: b86f 7684 38db d2bf 54f6 bbe4 b68a 853f
00000360: 4f67 7a6e dfc6 e43f cf8a 3c62 3152 ddbf
00000370: 4f51 9fe4 352b c6bf 2947 2f88 2ca1 c43f
00000380: 3343 cb46 b452 66bf ed4b cc43 dc6b 823f
00000390: 70e7 e6d4 56f4 883f 01b5 4532 b071 e1bf
000003a0: d5b1 eccc ab7f c4bf ae90 e4b2 0852 b23f
000003b0: 3511 7477 c1b0 77bf 2881 d1ca c16e 5f3f
000003c0: c8b4 fb17 9fee 9bbf 6415 fbaf db5d 8b3f
000003d0: 6659 746f ef72 dbbf 6e27 f2f5 fc95 c2bf
000003e0: 22f0 d5e4 e9a5 d03f f6cc a7ae 93f3 82bf
000003f0: 5f3e dfe7 cd97 7d3f 7d92 ef3e 1f5a b03f

7.bias f8 [1]
-0.005633072199570325
00000000: 0478 f84d b412 77bf
