models/run1/run1_70.pt (torch, 153992 bytes, 6 tensors)

0.weight f8 [32, 1, 9]
0.1391234655264427 0.0666413801784025 -0.382293980407083 -2.19163028984874 -0.008748736087900026 -0.061301801646782006 0.05680970340032822 -1.554048173720724
-1.3862333840928736 -0.11685343679484418 -0.2290631716143143 -0.0482637750551754 -0.03713010437453414 -0.48448071509472224 -0.44040334363650874 -0.0066494080811521465
-0.19963141497109688 -0.11942409337797762 -0.0021280291040945503 -0.004726471093082165 -0.7281011230471819 -0.061451234711761706 -0.001903425914686725 -0.24898517841001275
-0.45968595599658574 -0.87596051833245 -0.040517671088139154 -1.2269545711395995 -0.9067887601341029 -1.2353111096371754 -0.008716125425371282 -0.004974984408931184
-0.002158594981783308 -0.7013096390823762 -0.31155578173532916 -0.003741378869912063 0.11173801625396104 -2.2516996383575716 -1.7545445932896346 0.03358457719787079
-0.47103601267195966 0.020994865790930926 -0.8864357988047761 -0.08949790726615726 -1.2125049827990744 0.03322333074779313 -0.8034325730472761 -1.5031069529240566
-2.153145709698718 -0.046624436857446556 -1.2527071255572457 -0.4320043006155744 0.04360688602678362 -0.06281366258152626 -0.3578180159522951 -0.3315713632444801
0.06077200270473389 -0.8034416500599653 -1.927811366067508 -2.043346609813824 -1.1230809534035011 -1.072421904508421 0.03356611858938856 -0.28466429551050004
-0.07580343792099396 -0.07366169955814549 0.05529631068812906 -2.9100026317357037 -0.11398369161105776 -0.059818492202092614 0.051873797351943564 -1.9313894624084966
0.012395726488768627 -0.10842389299899745 -1.9333563492904169 -1.3120850063726388 -2.1320147686905493 -1.283984810608799 -0.02837006043549729 -1.1745884687455455
-1.1133214432088945 -1.7657571239131284 -1.7077671502463068 -0.010266133984045724 -0.7376274728011374 -0.8076438289779067 -0.7790588615215891 -0.8348902344463315
-0.8556689613417952 -2.055545001772212 -0.4944477397307765 -0.3332128993450128 -0.22820869644332514 -2.8736628230351635 -0.2291728255233683 -1.972622945262302
0.017783201891547244 -1.1145280943880589 -0.5957094057975522 0.0391181943916519 -0.005756289569694476 -1.2635871348030048 -0.7755980059821616 0.03232604232494482
-0.3705658847757501 -0.15681044760772705 -0.5841080644174379 0.0020310574735746914 -0.011720754098176338 -0.9007541633646432 -0.008526776122555087 -0.6710655355220602
-0.9067354297132575 -0.0005559224316693156 -0.45144160921231696 -0.2764456979666442 -1.0961424038907421 -0.006556079322886018 -0.3522056870879794 -0.15241559199968027
-0.8362071689859678 -0.5360580762495069 -0.17922104479536385 -0.572678793957901 -0.0056293875351809625 -0.09272678167740507 -0.6755596783821248 -0.679755834787785
-0.6788897925712252 -1.0436058773083907 -0.7420291859432073 -0.7742081624700724 -0.9684850606854719 -0.0008857801852918361 -0.14189853558511067 -0.014905851809107832
-0.20874662011022044 -1.6262259455347636 -0.6945455354637569 -0.39099847911042007 -0.013255844063955104 -0.5220599203831533 -0.5623235034306404 -0.0011448083853772034
0.047715737622398696 -0.007325883056387004 -0.13535146773081352 -0.5141376673491386 -4.217261102492427 -2.4615607673561897 -0.3762296705238053 -0.739150277205808
0.06865421773806277 0.07979279172660286 0.03177989513667575 -2.0165096663403235 -1.0513465414306074 -0.09235771042533546 0.024998579709920445 -1.5781313253543359
-0.6611688838565359 0.06646837476272267 0.03820311951633285 -0.04762578967682779 -0.012652801492686968 -2.8319199054132915 -3.1121264979325294 0.013180283687331127
0.03516575539609464 0.03874846834799201 -1.7866293424047526 -7.266602907095021e-05 -0.0004030119745232139 -0.6137508706856675 -0.2567060836422406 -1.8246168513123098
-0.9043140802686682 -1.2746448142141793 -0.5319695908481928 -0.0009124217778329919 -0.019962129743390265 -3.303818566554968 -0.09674750996290733 -3.2460647361092545
0.115024998728449 0.11794441826959157 0.014714889162198217 0.034061790412790345 -0.913075154200228 0.02935767803818172 -0.012510069743005248 -0.07494934028655043
-2.435964356703419 -0.010159194418337748 -0.09949181494238743 0.06289980351792467 -1.6091058203790611 -1.5151966550702232 0.1888026076489543 0.05556127589334818
-0.06316070398963221 -1.9591107326858768 -1.0074776692901275 -0.05825946068342489 -0.007561808570207273 -0.0007110958217715122 -1.6898229622390444 -0.09337324373952682
-2.702264055184176 -0.8512917921898405 -0.02875752707705225 -0.11288312379631382 -0.009451478077745273 -0.5601782660982796 -0.3163326567292905 -0.09399637739714417
-0.7644496540827814 -0.757058928634224 -0.3304715960587457 -0.7709687151061396 -0.981703983008508 -0.6568234250128594 -0.6532026905925592 -0.6653719993718147
-0.9036988280191794 0.28802973500700707 0.07467018634441164 -0.15621546113084622 -1.4229203023726795 -3.5000197469931136 -0.361056258785157 -0.27584258686237767
-0.0014124641525856234 -1.8372842351593077 0.06993684490101663 -0.5616557079569069 -0.45015105126746835 -0.22117317991754717 -3.6828123034136357 -0.3250175372983757
-2.041556438738249 -0.18110731790228324 -0.0071846298636366055 -0.03125303452880907 0.38222287996066534 0.03981991768135057 -1.0651281300817772 0.27614642615501006
0.027902471078109534 -0.3888194664274712 -1.7071410843764905 -2.760630503511693 -0.007461019972899487 -0.005093130177490936 -0.3539822743972054 -0.16014747822305614
00000000: 9b68 4537 ccce c13f d131 6dd4 680f b13f
00000010: eb96 d32b 8177 d8bf 3396 1e76 7588 01c0
00000020: afea 077b dbea 81bf 7082 8422 f362 afbf
00000030: 5255 6654 2916 ad3f e49f 289e 61dd f8bf
00000040: 37d6 940e 032e f6bf e184 7559 1bea bdbf
00000050: 0f98 6627 f151 cdbf ac0f e38e 07b6 a8bf
00000060: 72ac f88f b702 a3bf 3af8 b766 bb01 dfbf
00000070: 55f1 7d81 912f dcbf 2cdf f0e3 683c 7bbf
00000080: 660c 47af 858d c9bf 75b1 69cf 9392 bebf
00000090: 9353 06ed cc6e 61bf 420e 536c 105c 73bf
000000a0: 8064 f5b9 9a4c e7bf 5d8c c546 8976 afbf
000000b0: ecb9 7303 8c2f 5fbf 6fd8 3a0f bfde cfbf
000000c0: a7e4 dba4 7e6b ddbf 1167 5a5a de07 ecbf
000000d0: fa9f 7770 bbbe a4bf 7b8e cb1d 9ba1 f3bf
000000e0: e800 a5dc 6904 edbf 296f 0495 d5c3 f3bf
000000f0: 4ecc 328d c2d9 81bf 82fc 5935 a660 74bf
00000100: 4226 44db e6ae 61bf cd4e 87e9 2071 e6bf
00000110: 80b5 5ba9 87f0 d3bf a147 6c7c 3da6 6ebf
00000120: 96da 87d5 dc9a bc3f 5049 9919 7b03 02c0
00000130: 75d7 f859 9d12 fcbf d1ff 6d69 ff31 a13f
00000140: 0784 6a3b 7425 debf 86e6 d297 ad7f 953f
00000150: 43d8 bb9b ae5d ecbf 11c2 c4b8 55e9 b6bf
00000160: bdbe f59f 6b66 f3bf fc4a 0dfe a502 a13f
00000170: 0fef 383a b8b5 e9bf 3f2f 53e0 b90c f8bf
00000180: fc6d 3575 a439 01c0 718a fe7e 28df a7bf
00000190: a9c0 7ba0 160b f4bf 0204 b85d f5a5 dbbf
000001a0: 4d1a bb4a a453 a63f 1c96 8762 8e14 b0bf
000001b0: 5ad2 1b89 7de6 d6bf 2036 5b18 7738 d5bf
000001c0: ca2d 4208 821d af3f f80e 6843 cbb5 e9bf
000001d0: 5cdf 21bb 50d8 febf c057 7c1b c658 00c0
000001e0: 7d0e dabb 23f8 f1bf 120b f6de a328 f1bf
000001f0: 86ae 300b 942f a13f 539d e397 f037 d2bf
00000200: 6f87 cba6 da67 b3bf 57ec 913e 7edb b2bf
00000210: a76c fd4b cc4f ac3f 57a1 b475 af47 07c0
00000220: 1431 bf03 092e bdbf 2775 6887 87a0 aebf
00000230: 35b7 4ace 338f aa3f e022 0ea3 f8e6 febf
00000240: 7d0e 093f ee62 893f 7723 8912 abc1 bbbf
00000250: f075 3b11 07ef febf 3714 ffd8 4cfe f4bf
00000260: 58eb 50c2 5d0e 01c0 3c02 22a8 338b f4bf
00000270: 0326 0687 0a0d 9dbf 5855 3847 1dcb f2bf
00000280: 9848 4825 2ad0 f1bf ac2c be8a 8a40 fcbf
00000290: 29db b7a5 0353 fbbf f41d be2d 6906 85bf
000002a0: 06fc 09ee a49a e7bf aad7 08df 37d8 e9bf
000002b0: 6f9d 7cd9 0cee e8bf e94b 96b9 6bb7 eabf
000002c0: 204a a5df a361 ebbf 168b f093 c171 00c0
000002d0: 3463 ee21 08a5 dfbf e9b2 5232 5c53 d5bf
000002e0: 0e85 f14b f135 cdbf 2556 25ef 42fd 06c0
000002f0: a99c 60ff 8855 cdbf 42da d313 dd8f ffbf
00000300: 9e60 2b7a c235 923f 2beb 3d69 1bd5 f1bf
00000310: 173e fa2b 0d10 e3bf 4472 2ecb 4c07 a43f
00000320: b798 2b37 e893 77bf 0501 ba24 a737 f4bf
00000330: 8528 d1e8 b2d1 e8bf 0c83 30fd 098d a03f
00000340: 7902 08f9 59b7 d7bf 42ba 1260 5d12 c4bf
00000350: 9616 4065 03b1 e2bf 150e 9cad 6fa3 603f
00000360: 16fc 49fc 0c01 88bf 2c62 2c65 fad2 ecbf
00000370: 5e89 b184 7c76 81bf 7947 116e 5e79 e5bf
00000380: 3ac6 1705 fa03 edbf a386 e154 6a37 42bf
00000390: 7fb6 e758 6be4 dcbf 8ebe f84b 49b1 d1bf
000003a0: 5283 079e cc89 f1bf e228 8224 8cda 7abf
000003b0: 6684 e0b8 898a d6bf 6d01 85a7 5a82 c3bf
000003c0: 1c37 6f89 35c2 eabf 20f2 4744 6327 e1bf
000003d0: 3d55 1317 b7f0 c6bf 582e 657a 6253 e2bf
000003e0: 1905 c335 d70e 77bf ad8d c43e f1bc b7bf
000003f0: 5bb8 a454 2f9e e5bf 0ab8 f54e 8fc0 e5bf
00000400: f6cf 1516 77b9 e5bf 303f 8f13 9cb2 f0bf
00000410: eab6 c9fd b3be e7bf ed5d 4332 50c6 e8bf
00000420: afe0 c961 d4fd eebf dbe3 b076 7606 4dbf
00000430: 9c1b d830 bb29 c2bf ef28 5090 f586 8ebf
00000440: 3a10 4391 35b8 cabf e2a7 3f7f 0505 fabf
00000450: e2c9 0c8f b739 e6bf da28 247c 1e06 d9bf
00000460: ce6e e245 e125 8bbf e022 9301 b7b4 e0bf
00000470: 4037 20dc 8dfe e1bf 920d d3a4 acc1 52bf
00000480: e478 2f79 326e a83f 5798 43c2 be01 7ebf
00000490: ec49 af67 3253 c1bf 3900 5dd6 d073 e0bf
000004a0: 6d97 c7b1 79de 10c0 c04a 87c5 46b1 03c0
000004b0: 78d0 ab9c 2514 d8bf 77b4 6d7b 1ea7 e7bf
000004c0: 86dd eaa3 5293 b13f c41b ece6 4c6d b43f
000004d0: cb8d 9054 7445 a03f 1aff e7d1 cf21 00c0
000004e0: 8f50 43c0 50d2 f0bf cf6c cf41 c1a4 b7bf
000004f0: 57c5 3349 3a99 993f 460a f3a1 0640 f9bf
00000500: 1c7e a9a5 4b28 e5bf 85fc d247 1204 b13f
00000510: 650c dbf9 5b8f a33f 685f 3752 6862 a8bf
00000520: f134 e944 b6e9 89bf cb21 959f c5a7 06c0
00000530: f114 cd93 a2e5 08c0 f2da 1cbb 43fe 8a3f
00000540: bb10 bbf2 3e01 a23f 4941 a6d8 d6d6 a33f
00000550: 063d 3ba6 0896 fcbf 339b a1df 880c 13bf
00000560: 8109 1f40 6b69 3abf 2391 afdd d8a3 e3bf
00000570: d95e 7b5a df6d d0bf aede 8170 a131 fdbf
00000580: b61e 0215 24f0 ecbf e90d f1f5 f164 f4bf
00000590: 891a 6517 e505 e1bf 1aeb 14d9 f2e5 4dbf
000005a0: 791f a0d9 f370 94bf 642b ba6d 386e 0ac0
000005b0: 4d97 42df 71c4 b8bf 114e d2c9 f0f7 09c0
000005c0: 6bd9 c23f 4772 bd3f 28b1 36fb 9a31 be3f
000005d0: 052d bafd d622 8e3f d176 bb07 8c70 a13f
000005e0: 7a90 c262 e937 edbf 8cf0 3d6c f00f 9e3f
000005f0: adc8 5523 e19e 89bf d033 6345 e12f b3bf
00000600: 581a 72e1 da7c 03c0 2765 3efe 57ce 84bf
00000610: 66b1 65ab 4b78 b9bf afc8 0897 331a b03f
00000620: 144d a5be e5be f9bf 2f90 08d9 3e3e f8bf
00000630: 443a a010 af2a c83f 069d c50d 8772 ac3f
00000640: 5d1e 07c6 4c2b b0bf 160e e27e 8458 ffbf
00000650: 8ad2 90e7 a01e f0bf cdc4 a21c 2fd4 adbf
00000660: 7f58 1f88 21f9 7ebf 3117 40a6 1a4d 47bf
00000670: 6c8b 6dcd 8309 fbbf b8c5 2e14 4fe7 b7bf
00000680: 0661 f19d 3c9e 05c0 ffdf d948 c83d ebbf
00000690: 5e35 3df9 9c72 9dbf 88b9 f98c e8e5 bcbf
000006a0: 0335 f1e9 4b5b 83bf 9d4e 9af8 faec e1bf
000006b0: 3fc8 d353 cb3e d4bf 30fb dc86 2510 b8bf
000006c0: 7e2b f71e 5f76 e8bf 0c1f 74a5 d339 e8bf
000006d0: 3112 5556 7226 d5bf 21d7 3395 c6ab e8bf
000006e0: c1fb ab78 1e6a efbf 7da9 358f b204 e5bf
000006f0: ce22 3854 09e7 e4bf 053c 1f38 ba4a e5bf
00000700: 35d4 f8cd 19eb ecbf 6f5c 0845 146f d23f
00000710: 9ce1 55d8 951d b33f aae0 5744 defe c3bf
00000720: d914 3814 48c4 f6bf 5684 655a 0a00 0cc0
00000730: 2ae5 dfb5 8b1b d7bf b7bf 5aaa 67a7 d1bf
00000740: 306b e5d5 4d24 57bf 1973 7727 8465 fdbf
00000750: 6ba2 a28d 61e7 b13f 2c2c 2964 15f9 e1bf
00000760: fe0a dd5a 46cf dcbf a9c4 3f1b 674f ccbf
00000770: 74be 034c 6676 0dc0 c4ab 545b 16cd d4bf
00000780: 548d ca8a 1b55 00c0 4671 ba4b 862e c7bf
00000790: c15c c564 a16d 7dbf b96b 67d2 6500 a0bf
000007a0: 09b2 4df4 5676 d83f c874 57b8 4663 a43f
000007b0: 8d03 4ccb c30a f1bf 168e 4f0f 62ac d13f
000007c0: 8942 0823 7792 9c3f 8aaa 160b 6be2 d8bf
000007d0: 4be1 702b 7350 fbbf c361 0772 c515 06c0
000007e0: f559 744c 728f 7ebf 9cd9 beb8 88dc 74bf
000007f0: 9c94 f944 a5a7 d6bf 82a0 c06a b67f c4bf

0.bias f8 [32]
0.0038407498540011602 -0.001505725478713315 -0.047818561689853704 -0.07323517308060296 0.0035185888445646712 0.04216318490304192 0.44353405149504616 0.0018444314740784981
0.016173399483099572 0.7666702113799402 0.22301996073068397 0.002683654792732951 -0.0019253290371359574 -0.03953752440946021 0.664664933386102 -0.3540260449318659
0.32719617236891685 0.01334635501928736 0.0014562644384106195 -0.0007709176944128201 0.01641325820600782 -0.003864675703487425 0.016098391187846617 -0.003984212042784981
0.6486384100418385 0.028090590774582484 0.24914174639549336 0.06403294356596566 -0.02503409166392996 -0.21268938986366354 -0.027498402773254767 0.0065355971194307055
00000000: d34d 7be0 a276 6f3f 305e 056c 78ab 58bf
00000010: 4709 33ad ac7b a8bf 944f 4c51 8abf b2bf
00000020: e0c6 7e00 04d3 6c3f 9ded 81b8 6996 a53f
00000030: c159 75a5 dc62 dc3f 5ba9 1837 1b38 5e3f
00000040: 5a56 6177 c28f 903f 4c37 96f7 8f88 e83f
00000050: 58c4 d806 eb8b cc3f 547e 3132 08fc 653f
00000060: 600c e84f 6a8b 5fbf 9d5b 9b2c 433e a4bf
00000070: 591f f664 ef44 e53f a788 3adb 5ca8 d6bf
00000080: 2adb ec36 c8f0 d43f 7410 a172 5555 8b3f
00000090: e28b c908 04dc 573f 3057 8824 ed42 49bf
000000a0: 23c8 dc1c a3ce 903f 8e2b 32f8 cfa8 6fbf
000000b0: a018 aebe 187c 903f 7c13 c9c6 bf51 70bf
000000c0: 6ee4 c156 a5c1 e43f b100 cfa2 c7c3 9c3f
000000d0: d421 6b72 e0e3 cf3f ef80 7b86 7664 b03f
000000e0: 7434 ed73 89a2 99bf 2ad7 d5ea 6739 cbbf
000000f0: 7fd8 6992 8a28 9cbf d05f 34fe 11c5 7a3f

3.weight f8 [64, 32, 9]
-0.2789008453153927 -0.09479741276331138 -0.08661026647189789 -0.15097428767578439 -0.012413112329188113 -0.17147060624037078 0.022579155575371376 0.03933968879569131
-0.16535933303522127 -0.162834478328716 -0.1666304012242237 -0.3167133675475266 -0.19055954667681177 -0.19483269253011895 -0.3732650120623886 0.010941661021109066
0.06852698295578578 -0.4047794780076785 -0.34601549089877587 -0.09634958345505198 -0.19540894802528316 -0.25764460619427026 -0.1468012170147363 -0.6294510977430032
0.005000299597286375 0.05960605912891483 -0.1824245439916677 -0.0763919293801583 -0.010462681495762858 0.003570157370447564 -0.023336721759492234 0.17324685481864613
0.09602425453964825 0.1638399148422363 0.11398167781626425 0.026874947311426034 -0.24970429038040776 -0.18688970111920428 -0.25526261092883185 -0.18617117344100872
-0.09924947023340021 -0.3354771733168007 -0.08694050942990185 0.01673021782015114 -0.1915960186129237 -0.1160266009166383 -0.0665348800696651 -0.21086960945118557
-0.1398240602823152 -0.12580033191957485 -0.48885794074557654 -0.11580548750902493 0.007740809329705958 -0.2329614477911978 -0.7542048665764078 -0.63315989475116
-0.5786372863536755 -0.553714166337009 -0.522222004523591 -0.691741272270825 -0.02267882136835516 -0.020690911057991743 -0.4811829954189482 -0.2820319102808039
-0.2516659996966483 -0.12289346124590984 -0.2976789704930099 -0.1511842124317795 -0.7455120021794098 0.03852463632256308 0.14917081540726798 -0.1405640507410322
-0.24221585115586433 -0.16142672201435068 -0.21969019370899587 -0.22356708157132027 -0.11820510585484469 -0.5295258360779718 -0.08407048943291226 0.03173771528259203
-0.2015948540952015 -0.8331241988607448 -0.5210223318599593 -0.6408261147946349 -0.6676584224080127 -0.6722539297541218 -0.6563383543819732 -0.5946461787651155
-0.09199717648057228 -0.3308340632579408 -0.37951802205844143 -0.19496943754087143 -0.27099299295849055 -0.2613784821684404 -0.12615222576734192 -0.5590922635806757
-0.0465166147170917 0.04345858535275689 -0.06108081830324758 -0.08020894563647453 -0.08533950301392686 -0.24124627445108654 -0.053025674821435685 -0.09969608192756696
-0.19560245075462263 -0.012550459955841156 0.09234630048818511 -0.1308430216767031 -0.1807050478551938 -0.2111998404866582 -0.3480548800777467 -0.36224802310057025
-0.4306215489926885 -0.3431529857705736 -0.026653552923035034 -0.003016565897421211 -0.31593772371476 -0.3449093631859159 -0.16487020301193492 -0.22266695164653513
-0.34270801038605503 -0.10818958836721125 -0.9233522321781144 0.1182295314639881 0.10400173570751618 -0.14078798655286004 -0.7256441957688468 -0.7898235166204576
-0.7330646699182498 -0.6975908812763294 -0.8043581989635323 -0.7309918512130259 -0.4160087918891284 0.15821870196871476 -0.6542913846668518 0.028747965724504134
-0.029174450246965564 -0.007837619618047027 0.13772135428254248 -0.054491608245571845 0.0027113673198592603 0.05334410842529773 0.09299759770296863 -0.11552190061146833
-0.3363154190297112 -0.28005867324868283 -0.3278523978451206 0.04112230978524819 -0.1805803819789516 -0.6719381616747693 -0.06604685890409857 -0.08695850977952312
-0.1651368860851438 -0.33357152867068773 -0.40782802401340956 -0.30476632052119895 0.09071922883441344 -0.23867079904491043 -0.7051962933062272 -0.0807193793372826
0.057758788753376214 0.01667490367721587 -0.18305437595895052 -0.14493275454460214 -0.2975823757032266 -0.30152579463945167 -0.21937438192236208 -0.7504973091272822
-0.012362900712187456 -0.12755420749419605 0.02482796146703796 -0.585930782332682 -0.29687250241634056 -0.4336353902226278 -0.2874159998589896 -0.27262258668967077
-0.5630736693170144 0.020619418350788093 0.06439562159427148 -0.11127997413649253 -0.16509775501065688 -0.15011411603876898 -0.24018273181733946 -0.046418399774897014
-0.31616727822284707 -0.30497120538322053 -0.07473853028035989 -0.06131871950076983 -0.1656063566516267 -0.401160347061167 -0.1792190475145102 -0.1249873092527039
-0.21416979403507402 -0.06304291293787255 -0.2735524569162195 -0.04094124138035063 -0.09066539423390757 -0.09321486351011532 -0.18937792830439806 -0.1307163039946202
-0.1532302901786059 0.016637300243659465 -0.021226170892875196 -0.32760201768015274 0.04981339807248496 -0.05535307219546868 -0.2142322368321769 -0.17166795920539926
-0.3866005318006628 -0.41666488745256236 -0.34391166401383494 -0.009745093493329797 -0.2633518316690889 0.10901136101195459 -0.13727582779590972 -0.20269954360384285
-0.78316496081019 -0.507974244193892 -0.602611716543006 -0.6449198707603018 -0.6565911962513268 -0.7319483611106564 -0.46781995549977984 -0.054028226595305734
-0.46424247232970384 -0.3277226185066648 -0.07808721827518232 -0.1698030286722546 -0.1947578353182763 -0.07575415365030616 -0.4300775302176562 -0.02366390334605469
-0.0229169799142421 -0.25439679297402684 -0.20685768296477572 -0.30590034766331786 -0.373946288429155 -0.22284015049430972 -0.182896159806539 -0.5694603897591349
-0.021962736254130324 -0.020729625939140087 -0.18759614859114265 -0.41904815836529125 -0.08901616699908173 -0.05505108612117043 -0.1284633166323821 -0.11900541594238005
-0.1870846839609439 0.001276798055535058 -0.013768637875210323 -0.20397706153306489 -0.34341228470810903 0.08847855819650596 -0.21736957640384813 -0.18800046548322874
00000000: 1c35 5dee 82d9 d1bf 8457 90ab a444 b8bf
00000010: 2ba1 fe25 172c b6bf a55c 0d1e 2053 c3bf
00000020: d9a7 f6bb 0b6c 89bf 378b 03b3 bff2 c5bf
00000030: bfef 117b fd1e 973f 55e7 9fe9 5424 a43f
00000040: 42c1 bc9f 7e2a c5bf 94a1 8a9b c2d7 c4bf
00000050: d181 e31d 2554 c5bf 5fa6 f424 0845 d4bf
00000060: 6170 7556 4164 c8bf d1e2 4d15 47f0 c8bf
00000070: e422 e3ee 92e3 d7bf 8924 ffe1 9468 863f
00000080: 534b b0fe fb8a b13f b3a2 082f e8e7 d9bf
00000090: c974 5428 1e25 d6bf 2a34 ecc5 5daa b8bf
000000a0: 2fa3 8e10 2903 c9bf 9717 66cd 3f7d d0bf
000000b0: 6eaf 0bdd 61ca c2bf 9699 e7a0 7624 e4bf
000000c0: c247 d9b3 317b 743f 934a 3475 af84 ae3f
000000d0: 5a49 37fd af59 c7bf 23ba 5de6 6b8e b3bf
000000e0: e576 d256 756d 85bf 5c83 b9a4 293f 6d3f
000000f0: 8bf0 02e3 94e5 97bf 695c caf3 f32c c63f
00000100: 98dd dea8 0b95 b83f 2a6f 03d2 b4f8 c43f
00000110: 7a66 903a e72d bd3f 001f 232f 1b85 9b3f
00000120: 1468 6d68 4ff6 cfbf be12 2271 00ec c7bf
00000130: 8c2d 75fd 3856 d0bf b78b b1fe 74d4 c7bf
00000140: 453b cccc 6968 b9bf cccf fc3f 7578 d5bf
00000150: 31f2 b2b4 bb41 b6bf faec 91e9 b921 913f
00000160: 8e3f fee4 3786 c8bf 582b 6758 ebb3 bdbf
00000170: 4647 f10d 6e08 b1bf cb14 287e c6fd cabf
00000180: 04a1 0d3b c1e5 c1bf 90d3 b5ab 391a c0bf
00000190: 1a19 f9d0 7249 dfbf f570 8cad 6da5 bdbf
000001a0: d089 a6ae d3b4 7f3f 0dfa be43 aed1 cdbf
000001b0: 3ac0 8d3e 7222 e8bf 850a 238a d842 e4bf
000001c0: c053 a457 3284 e2bf bdfa 77c5 06b8 e1bf
000001d0: bcc5 d5eb 0ab6 e0bf c14a b697 be22 e6bf
000001e0: 960b 5bf0 1d39 97bf ec29 4689 ff2f 95bf
000001f0: 09ce 2dc3 b3cb debf c667 c591 cf0c d2bf
00000200: 8395 8db5 4b1b d0bf 6184 f124 f275 bfbf
00000210: 015d be18 2c0d d3bf 0173 0818 015a c3bf
00000220: 7d5a 84fc 3bdb e7bf dfff 304a 80b9 a33f
00000230: 298f d87e 0718 c33f c187 76b8 00fe c1bf
00000240: 51c4 a4d3 ed00 cfbf 7345 e07d a1a9 c4bf
00000250: 8fb3 9dea ce1e ccbf 5ace e79b d89d ccbf
00000260: 09e5 dd97 b042 bebf 38f1 8a2a e0f1 e0bf
00000270: 6e4e acc2 a485 b5bf 0c82 6002 ed3f a03f
00000280: 78bd b034 dccd c9bf 839e 7314 f4a8 eabf
00000290: b75f 7a06 37ac e0bf 01e7 aec4 a581 e4bf
000002a0: 1686 2432 755d e5bf 8dd8 5cac 1a83 e5bf
000002b0: 06cb e54a b900 e5bf ef99 4f6c 5707 e3bf
000002c0: 31f3 4e80 208d b7bf 251f 86a2 622c d5bf
000002d0: 82f3 3ef5 054a d8bf 3e91 fa2e c2f4 c8bf
000002e0: 86eb 8cfe f257 d1bf 18a9 32d0 6cba d0bf
000002f0: fe81 fe91 c125 c0bf d4d1 7075 15e4 e1bf
00000300: e46f dc95 06d1 a7bf 9a1a a425 3440 a63f
00000310: d9fc 0c2a fc45 afbf f1f4 5ace 9288 b4bf
00000320: 0570 8046 cfd8 b5bf 0e4e 866d 28e1 cebf
00000330: dbac 6966 2e26 abbf 9011 6bb3 ae85 b9bf
00000340: 5218 8148 8009 c9bf 4813 7b38 0eb4 89bf
00000350: 25db 80d4 01a4 b73f ee70 81d1 76bf c0bf
00000360: 544d 61cf 5721 c7bf 31c2 e7ab 9808 cbbf
00000370: 7b6a c9f9 8746 d6bf 8c7c 1055 122f d7bf
00000380: e717 78af 4d8f dbbf 1233 daf0 37f6 d5bf
00000390: 18ae 81a8 114b 9bbf 6c59 057c 32b6 68bf
000003a0: 6f5d bbdb 5238 d4bf b8ee bdb8 fe12 d6bf
000003b0: c1b4 0281 771a c5bf 9f66 9cc5 5980 ccbf
000003c0: 86dc 2b94 edee d5bf 3f0c ce17 50b2 bbbf
000003d0: 5f98 fcfa 198c edbf d229 0f63 4a44 be3f
000003e0: eb4c 9795 db9f ba3f 3705 f53a 5705 c2bf
000003f0: 5b80 2b2d 7a38 e7bf f7e3 aff7 3b46 e9bf
00000400: 83dc e409 4475 e7bf 9a3a a21c aa52 e6bf
00000410: af2b da67 4dbd e9bf 3947 d305 4964 e7bf
00000420: 24c9 0057 e39f dabf 1b1d 49ab 8240 c43f
00000430: 9f5b 667c f4ef e4bf 27fe 7352 1b70 9d3f
00000440: 4c0b c236 e8df 9dbf 2406 817f 2b0d 80bf
00000450: 535b 4d74 daa0 c13f 0d71 a4f6 52e6 abbf
00000460: 696d eb3e 2636 663f c6ea 3d42 eb4f ab3f
00000470: 0da6 bdc8 b0ce b73f c417 19e1 d792 bdbf
00000480: 9ee1 771b 3186 d5bf 8e1c a436 7bec d1bf
00000490: 033d aa9f 88fb d4bf 3bc6 53bf fb0d a53f
000004a0: 620b 7309 421d c7bf d67a aa75 8480 e5bf
000004b0: 2123 ff6a 72e8 b0bf 9fa8 9cb3 e942 b6bf
000004c0: 0dab 8c9a 3423 c5bf f01b a165 3c59 d5bf
000004d0: d4e9 61b6 da19 dabf 33e4 e398 4a81 d3bf
000004e0: 324f f618 6039 b73f e93b 34c6 c38c cebf
000004f0: 6857 20d1 f790 e6bf 3a34 6876 06aa b4bf
00000500: 8a30 8159 8f92 ad3f 1493 d4d7 3913 913f
00000510: a212 1167 536e c7bf 8eb2 7110 288d c2bf
00000520: d9b9 e0f2 960b d3bf 6d1e b8d8 324c d3bf
00000530: b6e7 f7b1 7514 ccbf 7801 ceee 1204 e8bf
00000540: efb8 f071 b851 89bf 82cf d33e b253 c0bf
00000550: 4cee 1b4a 806c 993f 84d5 7ae9 f1bf e2bf
00000560: 686e 3d86 f5ff d2bf 993d d9a6 aec0 dbbf
00000570: c074 ef13 0665 d2bf 78ea 7e01 a672 d1bf
00000580: c891 5e12 b304 e2bf 68ad eabd 411d 953f
00000590: c8c3 c040 3b7c b03f a3af 9d29 d87c bcbf
000005a0: 1ef7 3459 ec21 c5bf 9bf8 8679 f036 c3bf
000005b0: ae15 1cc9 4ebe cebf 1d82 ee09 27c4 a7bf
000005c0: d813 02ae 153c d4bf aced 55f2 a584 d3bf
000005d0: f524 4e77 1022 b3bf dfdc c6cd 2a65 afbf
000005e0: 9c0a eace 9632 c5bf 2a1a c572 9cac d9bf
000005f0: 5b92 f255 a6f0 c6bf 64c8 a715 2bff bfbf
00000600: 3afa 9572 ea69 cbbf 970f 5091 9423 b0bf
00000610: e784 0c2a e281 d1bf 148f 9219 40f6 a4bf
00000620: 9413 1de7 d835 b7bf b0ec 46e6 eddc b7bf
00000630: 5d68 5334 893d c8bf 60fe 5ad5 4fbb c0bf
00000640: 146f 89d6 0c9d c3bf f5d0 c251 5e09 913f
00000650: cd81 3737 50bc 95bf 3a8d 0274 6ef7 d4bf
00000660: ae76 3f47 2481 a93f 9d15 a0e5 3c57 acbf
00000670: 5eb8 7841 f66b cbbf cd74 4737 37f9 c5bf
00000680: b2cd 2c28 10be d8bf 8604 4034 a3aa dabf
00000690: 49c0 6911 a602 d6bf 5c71 cd4e 3cf5 83bf
000006a0: 5911 17a4 c1da d0bf d554 7026 2be8 bb3f
000006b0: db16 751b 4192 c1bf 22a8 5803 0ff2 c9bf
000006c0: 42b1 c1f6 af0f e9bf 1bbd c033 5341 e0bf
000006d0: e2a2 d75d 9848 e3bf e797 2eff 2ea3 e4bf
000006e0: ffb5 578a cb02 e5bf 1b98 2af8 1e6c e7bf
000006f0: 2a6a 521c c3f0 ddbf 744f 9374 96a9 abbf
00000700: 307f 040f 26b6 ddbf ab51 294a 68f9 d4bf
00000710: db3e ba20 86fd b3bf dc5c 740b 1bbc c5bf
00000720: cd76 aa22 d3ed c8bf 62d7 76cc 9f64 b3bf
00000730: cfdf c1e7 6386 dbbf d537 deab 593b 98bf
00000740: 77df 047d 8c77 97bf 72f7 817c 0948 d0bf
00000750: 4149 a103 507a cabf 7e22 430d df93 d3bf
00000760: 2ae2 d069 bcee d7bf 74ec 4dab 0686 ccbf
00000770: fe6e 7730 2469 c7bf b340 ccfe 0439 e2bf
00000780: 74c6 c447 667d 96bf 4420 dea5 253a 95bf
00000790: 52fa 868d 2603 c8bf 6930 e85d afd1 dabf
000007a0: 658a 1376 c3c9 b6bf 87d9 ffec a72f acbf
000007b0: b1fc d567 7c71 c0bf 5bf7 8491 2377 bebf
000007c0: 90ed 9813 64f2 c7bf 3f7c 1879 47eb 543f
000007d0: 4172 134b bb32 8cbf be97 359c eb1b cabf
000007e0: 0a6c f784 77fa d5bf f0e9 d9e1 87a6 b63f
000007f0: 2863 e62a c4d2 cbbf 260e 7135 6610 c8bf

3.bias f8 [64]
-0.6824014712851415 0.29344743922756705 -0.6950298838824399 -0.2168849729326944 -0.5446887196319169 0.14782820957714785 0.0466887769688561 -0.13608944825903485
-0.2843178159067763 0.20746317100203837 -0.03715349353089786 -0.6278880785059997 0.02512970336444372 -0.012732879513395247 0.13872799162486452 0.004178619257883021
-0.15615418564620265 -0.010057983608841168 0.3448977037140844 -0.7374260528536565 -0.056248163452887114 -0.06286214092355083 0.04760762248854055 -1.6082714231807973
-0.019021252775051626 0.12898640708827633 0.008320311923055409 -0.05233368235789833 0.08015305439902067 0.24557509805465108 -0.2713433782725802 -0.07407157613720117
-0.015623625839743974 -1.475500750500971 -0.07190957546791187 -0.023833027050839475 -0.0925804997413602 -0.45553005796316554 -0.004071983848430948 -0.09685296339266344
-0.0861726419964531 -0.4578489851159681 0.09997681117438613 -0.08946277654124078 -0.10327790453622158 -0.009825180193203229 -0.18859944964611414 -0.04351846620303613
0.05834288662536457 0.054656936330752574 0.03561877649199482 0.16863121144884063 -0.16209219338295208 -0.17098199439016507 -0.1060085965612345 -0.056967895034071875
-0.42184413392681297 -1.9842493697265389 -0.10314499015298385 -0.02371596322869472 -0.2167422409413483 -0.029398823824838643 0.20446574852515756 -0.02303421609500569
00000000: d32e 3d9c 3bd6 e5bf 45f3 a4c4 d7c7 d23f
00000010: 7791 a04f af3d e6bf b5b0 de04 e3c2 cbbf
00000020: db36 aa09 176e e1bf d5b0 c7e6 08ec c23f
00000030: 91cb 5764 97e7 a73f ee36 cd08 616b c1bf
00000040: 1c58 3f5a 4332 d2bf cc02 4a37 278e ca3f
00000050: f871 4b5f c805 a3bf da68 57bd a817 e4bf
00000060: f611 6fd8 99bb 993f 2164 c028 b213 8abf
00000070: 69c6 88bd d6c1 c13f 2775 e190 991d 713f
00000080: 2cf2 3d40 dcfc c3bf d235 4fb5 4799 84bf
00000090: 29b8 7ad1 cd12 d63f be31 8785 fe98 e7bf
000000a0: 25fd fa2c 8fcc acbf 7256 6cb7 bb17 b0bf
000000b0: 4fd7 41bb 0660 a83f 4872 dad0 7abb f9bf
000000c0: a124 64aa 4e7a 93bf e34d 0968 a082 c03f
000000d0: 51fb d05c 3d0a 813f 9ab0 69fc 7acb aabf
000000e0: 497c 511b e984 b43f fda8 6d3b 016f cf3f
000000f0: 4fae ea9d b05d d1bf 488c 12d5 5af6 b2bf
00000100: 828f 3690 47ff 8fbf 8400 caac a69b f7bf
00000110: a767 e77a aa68 b2bf e7fd fd5e af67 98bf
00000120: 42f0 a20a 5bb3 b7bf 73fe 528b 6727 ddbf
00000130: 4c74 57d7 c8ad 70bf f6cb 4a16 5bcb b8bf
00000140: 5547 2f07 690f b6bf a71c 65d4 654d ddbf
00000150: fd33 5a8e 1498 b93f 5f38 7453 08e7 b6bf
00000160: 53ea 61b6 6b70 babf 055f db5c 391f 84bf
00000170: 4207 23da 0624 c8bf 216e 3a6a 0d48 a6bf
00000180: df35 056c 1edf ad3f c78c 1474 fefb ab3f
00000190: 9b34 50d0 9f3c a23f 10fa 2021 b595 c53f
000001a0: cb22 c2de 6fbf c4bf 9d28 0eed bce2 c5bf
000001b0: cf4a 531f 6123 bbbf f4c4 2f5c e52a adbf
000001c0: 2268 ce89 7eff dabf 7658 6144 7cbf ffbf
000001d0: f90b 74c7 b567 babf 7b6e d759 ff48 98bf
000001e0: b49e 40b2 35be cbbf 8b64 79ab b91a 9ebf
000001f0: c9aa 8803 ef2b ca3f c7a7 4413 4896 97bf

7.weight f8 [1, 128]
0.014890804478969445 -0.004509982331053107 -0.3317788654586287 0.32351110815849643 -0.01861550174911569 0.18363890513176845 0.13161667229905905 -0.26961818283134686
-0.23936583479188991 0.07130421511211056 0.6653237930462315 -0.6122218660917007 0.0365193866986959 0.034628766464760194 0.34526957680106385 -0.280530351282004
0.4475483742527568 -0.17230323133309144 0.39665670410503207 -0.04433529565985226 -0.03775668912418479 0.03622399899588067 -0.04092260291616349 0.10232328703644297
0.6649143862080527 0.8070879002553948 0.09500711324506264 -0.0062282117948084985 0.9638299844431933 -1.2133129414915282 0.3895109823600077 0.18446178351596387
0.3385917698478038 -0.185714386425047 -0.35514684389182183 0.14407693654011738 -0.5189566777823119 0.5348903402822459 -0.042651376028126006 0.07533934983127417
-0.3839381976881299 0.014698580059227065 -0.0739930382204344 0.036442498197564094 0.054692516022520433 0.11325820290409913 -0.015733180880757456 -0.25092430814565087
-0.6766270749232713 -0.07242753766188653 0.42546976142333415 0.02561314904810572 -0.36162731865657316 -0.032502031095265116 -0.044772000145865895 -0.010069574447675608
0.3222131918999871 -0.2130695203723728 0.18369438136429955 -0.010383424105708135 0.48904337000572246 -0.3424567692146186 -0.05629892180108132 -0.010175185342342684
0.8555432493279997 -0.8114138888510661 -0.037015508712418814 -0.14040148233377195 -0.0005034529454400248 -0.012414022838666357 -0.3404516917306416 -0.15584260470603084
0.5715719765893441 0.058435681934416034 0.46502471180799276 -0.23619539030906908 -0.19052077598017647 0.03344684667298139 0.44036911414604335 -0.0608056949625503
0.01130011190872414 0.006887680363452443 -0.31187920314820844 0.4524693921242989 -0.0640903720248102 1.0958879130501138 -0.31279716219594766 0.14767068484310503
0.07783896947173034 0.05400194930029875 0.576984301578115 0.15554878773828748 -0.025382294945067857 -0.014595598813737532 0.46763272265011324 -0.007615341647656467
-0.42602526484820025 0.08567103504791541 0.43234507843299913 -0.9169225108853378 0.2820550053116537 0.2553230717085708 -0.3121841574826348 0.3793123967439897
0.01803980505918967 0.013774414102878997 -0.292702902914437 0.035736874152757225 0.7032460423398736 -0.5767533184566294 -0.1628680832450607 0.08907488139968277
-0.0027249833131936184 0.008994789904624734 0.012184790012600394 -0.6238053551631578 -0.14336677149202615 0.14975828517372738 -0.005783801773990673 0.00191849637055703
-0.02727745612985613 0.013362613971717514 -0.39175943084781156 -0.059251078751948925 0.19703059465721687 -0.04148974840484526 0.007224850005470878 0.06384811922989507
00000000: da86 fcf1 117f 8e3f 4bea e029 0f79 72bf
00000010: d985 296c dd3b d5bf d3bd 5bef 67b4 d43f
00000020: 0f26 d82c f10f 93bf 7237 e8c9 7a81 c73f
00000030: d8ff 90ab d0d8 c03f b0b9 6a9f 6c41 d1bf
00000040: f9fe 1a28 8aa3 cebf ed34 f937 fe40 b23f
00000050: aa4b 8c1f 554a e53f 7a51 984f 5297 e3bf
00000060: bded 1447 abb2 a23f 3e16 ef96 dcba a13f
00000070: 6084 2a91 e518 d63f 8ea9 1293 35f4 d1bf
00000080: abc9 b2ef a1a4 dc3f 580e c943 080e c6bf
00000090: 5eb2 f7cc d262 d93f edc9 d5a9 1db3 a6bf
000000a0: c9ba fc41 d854 a3bf ad08 09b6 f38b a23f
000000b0: 155d 62b2 cef3 a4bf 8ed4 70e3 db31 ba3f
000000c0: 78e9 ec88 fa46 e53f f003 1301 aad3 e93f
000000d0: aa60 46dc 6252 b83f 154c 8adf c082 79bf
000000e0: 79ce c2fa b1d7 ee3f 9750 b8d4 ba69 f3bf
000000f0: fad1 aa78 bfed d83f 000d c897 719c c73f
00000100: 983a 8cd0 7cab d53f f0cf 0b30 7dc5 c7bf
00000110: 62c0 f2d3 b9ba d6bf 1a1a 46f1 1c71 c23f
00000120: f5b4 e308 4b9b e0bf 81ac ce58 d21d e13f
00000130: 6624 57b2 66d6 a5bf dd91 a08b 7049 b33f
00000140: 675d b084 7192 d8bf 3555 3705 4a1a 8e3f
00000150: 74d7 492f 35f1 b2bf f4da e253 97a8 a23f
00000160: 3d2c 4e4f a800 ac3f 0e12 7a55 7dfe bc3f
00000170: f92e 61e5 5b1c 90bf a372 50d4 240f d0bf
00000180: 6346 ccd2 eda6 e5bf ac6d 9671 9c8a b2bf
00000190: 5602 b085 e53a db3f 7968 0956 553a 9a3f
000001a0: fa16 bee8 e624 d7bf 8829 3731 1ba4 a0bf
000001b0: 2e56 ce08 5bec a6bf abcd 7f67 5b9f 84bf
000001c0: c036 6314 249f d43f 240a e3ae dc45 cbbf
000001d0: 4a95 3528 4c83 c73f 7ed8 a297 e743 85bf
000001e0: 5d03 2090 7c4c df3f d184 04cc cfea d5bf
000001f0: d114 df57 36d3 acbf 1f74 3542 bad6 84bf
00000200: b6ac 853c 9c60 eb3f 1556 8442 1af7 e9bf
00000210: 57b2 ba5e b2f3 a2bf 057c 77ff acf8 c1bf
00000220: 3252 c6f7 447f 40bf 51b9 d4f0 856c 89bf
00000230: 7276 76e4 f5c9 d5bf 0097 4485 a6f2 c3bf
00000240: a85c 5850 514a e23f 1cd2 a71d 48eb ad3f
00000250: 9204 4302 f7c2 dd3f c3f4 6b8a a63b cebf
00000260: 248e 051b fc62 c8bf a3c4 3af1 f11f a13f
00000270: 713f dbef 012f dc3f 32a6 8c8e ec21 afbf
00000280: 787f b658 8324 873f 8153 809e 4136 7c3f
00000290: fbbd 7430 d4f5 d3bf ed59 672e 42f5 dc3f
000002a0: bbc4 d503 3a68 b0bf 631c aac3 c188 f13f
000002b0: ea71 7a63 de04 d4bf ce51 fd7c dfe6 c23f
000002c0: c344 3c34 41ed b33f 3c7f 54bc 24a6 ab3f
000002d0: 41ab 32c8 a776 e23f 9f5a 22ce 05e9 c33f
000002e0: e8f7 befa d0fd 99bf cd76 901c 4ce4 8dbf
000002f0: 5296 94cc b1ed dd3f af5c 31b5 4331 7fbf
00000300: 8ebc f278 ff43 dbbf c9c9 be75 89ee b53f
00000310: cb33 1db1 8aab db3f d6ff a6e0 6d57 edbf
00000320: 6b25 df6f 300d d23f c8c3 b994 3657 d03f
00000330: 19e7 ad42 d3fa d3bf 67e6 be80 a746 d83f
00000340: bf90 05d3 0679 923f 6156 bf90 c235 8c3f
00000350: a48d ddf4 a4bb d2bf f8a5 7e83 1a4c a23f
00000360: 9e84 1cd8 fd80 e63f aa2e 1460 c374 e2bf
00000370: 52c4 8c81 dcd8 c4bf 27b8 8186 9ccd b63f
00000380: 3343 cb46 b452 66bf ed4b cc43 dc6b 823f
00000390: 70e7 e6d4 56f4 883f 8bda efa5 36f6 e3bf
000003a0: 0018 72a5 d759 c2bf 5927 908c 472b c33f
000003b0: 3511 7477 c1b0 77bf 2881 d1ca c16e 5f3f
000003c0: c8b4 fb17 9fee 9bbf 6415 fbaf db5d 8b3f
000003d0: e704 d925 9612 d9bf 2314 fc4a 2856 aebf
000003e0: 699d 2e6c 4c38 c93f 9841 09f1 243e a5bf
000003f0: 5f3e dfe7 cd97 7d3f e7e5 00b0 5958 b03f

7.bias f8 [1]
-0.03805960705881215
00000000: bd7f 3b7f 8c7c a3bf
