models/run1/run1_16.pt (torch, 153992 bytes, 6 tensors)

0.weight f8 [32, 1, 9]
000000 a9 f1 79 2b 6a 5b c5 3f d2 c8 8c d2 78 fb bc 3f
       0.16685225603931755 0.11321215763453843
000010 1b 6c b6 c1 e1 14 d2 bf 0b e9 39 a9 cb 02 ea bf
       -0.28252452771420317 -0.8128412537764985
000020 a4 40 b9 f8 6a 1e b2 3f 65 de 6d 90 c9 a4 d4 bf
       0.07077663967470699 -0.32255782226955027
000030 85 b3 72 6d ad de a7 3f 8b b6 d2 ad 39 45 e6 bf
       0.04662076912914074 -0.6959503550512677
000040 15 cc 12 df 05 bb dd bf 16 9a 94 c4 3d 71 c8 bf
       -0.46453997406496345 -0.1909558496347052
000050 99 ce 30 dd fe 45 c5 bf d0 12 5a de 3c 21 6e bf
       -0.16619859505009485 -0.00367795837775229
000060 1b 61 82 ba 84 c9 b0 bf 1d a9 6c 0f 60 83 e4 bf
       -0.06557492783975187 -0.6410370160349746
000070 1d 9b 0d a7 d5 80 e0 bf 93 68 53 07 19 af b2 3f
       -0.5157268774754332 0.07298427990773097
000080 6d c7 36 97 72 8a b3 bf 54 67 4f d8 96 21 ad bf
       -0.0763312930273778 -0.05689689054970751
000090 9e 7f d3 f1 f8 1c ba 3f da 99 9f 5c e0 48 b2 3f
       0.10200458435019619 0.07142450581850515
0000a0 72 9a 9c cc 73 a5 e5 bf c0 2c d4 75 61 ce a9 bf
       -0.6764468189547428 -0.05040268481578769
0000b0 0c ed c7 5e eb 00 7e 3f 02 33 db 20 01 41 d0 bf
       0.007325095572464645 -0.2539675541745937
0000c0 30 52 75 c6 03 8c e8 bf e3 ed ab fb ef cc e8 bf
       -0.7670916439188371 -0.7750167766056929
0000d0 e2 ab 09 3b 9a 4e 50 bf 7b 8e cb 1d 9b a1 f3 bf
       -0.0009953027876246014 -1.2269545711395995
0000e0 e8 00 a5 dc 69 04 ed bf 29 6f 04 95 d5 c3 f3 bf
       -0.9067887601341029 -1.2353111096371754
0000f0 4e cc 32 8d c2 d9 81 bf 82 fc 59 35 a6 60 74 bf
       -0.008716125425371282 -0.004974984408931184
000100 42 26 44 db e6 ae 61 bf cd 4e 87 e9 20 71 e6 bf
       -0.002158594981783308 -0.7013096390823762
000110 80 b5 5b a9 87 f0 d3 bf a1 47 6c 7c 3d a6 6e bf
       -0.31155578173532916 -0.003741378869912063
000120 6c a7 6a 8a 0a e3 c1 3f 8b 80 2b af 25 93 f1 bf
       0.13974124678253064 -1.0984246103835484
000130 15 11 d0 72 33 76 d9 bf 86 4c ba ee 68 a5 c8 3f
       -0.39783941471275003 0.19254790932300042
000140 2a 10 ef 7f 9c af a8 bf d5 0a e8 7b b0 73 c4 3f
       -0.04821480809872043 0.15978056001775678
000150 42 0e 9d 88 5f 5e ca bf 5b fc a5 28 0b f0 c0 3f
       -0.20600504084187504 0.1323255489805629
000160 05 cd ee 9f 30 37 e6 bf 93 98 86 66 a6 c0 56 bf
       -0.6942370532691774 -0.0013887047772214486
000170 0d af dd 0f 9f b6 c4 bf 5c a7 14 bb 32 58 e1 bf
       -0.16182316088394835 -0.5420163778228289
000180 e3 f0 ca be 5f 05 fd bf ee 99 22 86 6c 04 da bf
       -1.813812012943395 -0.4065200147546467
000190 b2 4d 2d 77 7d 53 f1 bf 75 91 b2 e7 4c b6 c9 bf
       -1.082883325133349 -0.20087586701732688
0001a0 65 0b 7d b7 d5 1d c2 3f 4d d2 b5 28 57 44 a2 3f
       0.14153548678776953 0.03567764636946844
0001b0 dd 93 72 c0 25 30 ea bf 87 73 2f e4 a1 a5 dd bf
       -0.8183773764363839 -0.4632343986866591
0001c0 ea a2 32 71 95 04 a0 3f b7 be 74 89 74 28 cd bf
       0.031284971302118894 -0.22779709541054213
0001d0 4d 4a 07 21 03 9b f1 bf 73 4d 6e 1e 67 59 d8 bf
       -1.100344780938616 -0.380456714360853
0001e0 03 4d db 71 65 9f f6 bf 6e 4c 68 78 e0 07 e4 bf
       -1.4139151046300078 -0.6259615279872273
0001f0 4f de 26 49 dd 70 c3 3f ed bc 38 ae 38 02 bf 3f
       0.1518818480669659 0.12112764600236732
000200 f8 14 30 6a 2e bb 7d 3f ae 85 cb 6a 8d 22 cf bf
       0.007258588130757852 -0.24324195589637782
000210 13 b9 b3 8d 8f d9 b5 3f cd cd 59 f5 d9 26 f7 bf
       0.0853509636833432 -1.4469852050796022
000220 63 47 f2 d1 a1 77 ae 3f 68 7b 9c 3c 30 a6 d5 bf
       0.0595064705641011 -0.33826833647792975
000230 ba 56 84 bb 47 89 a5 3f b2 1f 00 8e 30 dc e8 bf
       0.042062989845516666 -0.7768786214301058
000240 b4 91 18 1e bd 17 8b bf a5 f3 f1 d9 37 47 ca 3f
       -0.013228871804195609 0.20529840604640728
000250 3b f0 36 03 57 fa f4 bf 40 1e 5f 1b fd 6a ea bf
       -1.3111181378908572 -0.8255601439095201
000260 ad 47 b0 0b e3 90 cd 3f 4e e2 bc d2 9c 21 a8 bf
       0.2309840972016536 -0.047131443714935814
000270 72 92 fc 02 dd c3 a8 3f 24 2f 5a 6c 1c 8e e4 bf
       0.048369318594528546 -0.6423475376372818
000280 3a 30 30 cc d6 c5 a6 3f 43 a2 8a 11 e7 95 ef bf
       0.04447814219028641 -0.9870486586197064
000290 5c 1f e4 71 07 55 e8 bf f6 ee f1 74 0f 25 8c 3f
       -0.7603795265613189 0.013742562061671997
0002a0 6e c4 79 07 95 61 dd bf fb 65 6c 93 d6 58 d5 bf
       -0.459080941486781 -0.33354725262469714
0002b0 98 23 40 95 24 03 d4 bf 3d ab 83 a2 09 94 d1 bf
       -0.31269182753799774 -0.27466050024547767
0002c0 83 5f 62 98 67 34 d5 bf 3e 62 7f 05 56 88 f6 bf
       -0.33132352715755803 -1.40828516147134
0002d0 10 1d c0 ab 0a 52 de bf e3 80 83 66 19 1d cf 3f
       -0.4737574269533562 0.24307553773451848
0002e0 c0 3b 63 b2 dd be b1 bf 2a 0a 93 cb a3 4f e7 bf
       -0.06931863408247718 -0.728471658331107
0002f0 6b 15 d8 bf c1 49 b3 3f 92 8e c1 f1 7d 15 e8 bf
       0.07534418996518404 -0.7526235315130683
000300 92 b5 e0 33 1c b0 a5 3f c9 be 97 15 ab fb d9 bf
       0.04235923894189421 -0.40598561390559645
000310 89 e6 7b 46 09 fe be 3f 4f 2d e9 c0 71 c0 80 3f
       0.12106378527450991 0.008179558467552054
000320 97 7e 03 55 2b b5 75 bf 97 11 a8 b5 32 0b d8 bf
       -0.005299729600863798 -0.3756834768285215
000330 17 11 c9 d6 2d a0 de bf bb 54 4e 9f 63 db e9 bf
       -0.47852655387056714 -0.8080309020466737
000340 79 e4 93 c1 84 19 e2 bf 9a c7 25 8c 1a 10 94 3f
       -0.565615060883956 0.019592680744103676
000350 4b e2 e0 87 07 1f c8 bf 0c ef 32 00 47 a9 b1 bf
       -0.18844694266023718 -0.06898921732766555
000360 55 ab ac cc f8 e3 97 bf b5 b0 84 7e 89 88 eb bf
       -0.02333058118089622 -0.8604171248494114
000370 e6 35 02 9b 3d ca b2 3f 5f b8 6a ec f1 dc e4 bf
       0.07339844736471654 -0.6519708268658738
000380 53 20 b8 7f 76 b7 e8 bf 10 11 da d1 1c be b2 3f
       -0.7723953718677968 0.0732133877118637
000390 b5 25 2e 9b e9 bd da bf c6 b9 8b 59 61 9e d0 bf
       -0.4178413405830626 -0.25966676468570105
0003a0 17 4a d9 f2 63 61 e7 bf e0 0a 49 d3 40 c8 b4 3f
       -0.7306384795322768 0.08118062170346318
0003b0 48 ba 8c 7e c4 49 d3 bf ec b6 7d 67 46 a5 ca bf
       -0.30137741430636256 -0.20816879323267956
0003c0 60 65 90 10 a8 e8 ea bf 97 29 83 a6 42 fc ab bf
       -0.8409004519955197 -0.05465896875974179
0003d0 00 0f 4d 7f fb 5b 9a bf ab 68 5a fb e0 c4 e3 bf
       -0.025741510052525562 -0.617783060955181
0003e0 f9 90 3c 26 81 f3 a6 3f be d4 2c 54 10 79 c8 bf
       0.044826541822006356 -0.1911945734988531
0003f0 07 35 10 75 89 0a d3 bf 6e 6b b7 8d e0 39 e5 bf
       -0.29751812393153937 -0.6633150833034571
000400 98 de 6f b5 a2 dd dc bf 7a 1f f7 f4 37 42 e9 bf
       -0.45102756231742935 -0.7893333229521737
000410 74 e1 07 78 dd dd e1 bf a6 fc d7 ba e8 01 ca bf
       -0.5583331436492203 -0.20318326113917812
000420 38 32 45 ec c0 5f dc bf 5d 8f 07 05 67 4d 87 3f
       -0.4433443362547993 0.011378102150906672
000430 bc 79 c7 5f a5 12 ba bf 9b 03 08 49 9e ac a6 3f
       -0.10184701526984602 0.04428572312827513
000440 69 42 ea 90 c5 21 df bf a6 3c e8 ae 57 55 ed bf
       -0.48643626357901454 -0.9166677871852655
000450 4b 67 15 72 71 7c f0 bf be 77 4b 21 94 bd df bf
       -1.0303816276923097 -0.49594596148915204
000460 7b b4 e5 99 a5 42 7c 3f 31 27 0d 04 f3 50 87 bf
       0.006899496917282306 -0.011384867249620708
000470 e2 92 14 07 e1 20 d7 bf 09 f3 50 6d 13 f5 78 bf
       -0.3613817757744028 -0.0060930975787954
000480 ee 1f 69 7c 5f a5 a3 3f b4 70 7c 8c c5 66 90 3f
       0.03837107080158818 0.016017042827215902
000490 89 ea 61 00 79 f4 b8 bf 41 0d 9b b7 5d 89 a7 bf
       -0.09748035678232204 -0.04596989504127658
0004a0 b0 7d 34 4b 4c c3 fe bf ee 11 3f 3d df d2 a6 bf
       -1.9226801812836634 -0.04457757589947052
0004b0 d1 19 4e de df b8 d4 bf 49 ff c3 15 e4 ae e3 bf
       -0.32378384313088043 -0.6150989937886858
0004c0 ff f8 bc 15 a2 45 c2 3f c4 dc a5 98 c5 05 c8 bf
       0.1427500349181585 -0.18767614320288406
0004d0 ef 26 15 6f a5 ba a4 3f e7 13 14 eb 97 63 e9 bf
       0.04048649769772605 -0.7934074012160836
0004e0 07 ce 68 95 0d 57 de bf 5c 21 11 5c e9 04 e9 bf
       -0.47406329718361956 -0.7818495557958545
0004f0 ed a7 a3 6c 38 db bf 3f 21 8f d4 85 05 c8 f4 bf
       0.12443878795934867 -1.2988333919283337
000500 c1 e0 2c e7 79 26 e5 bf 16 07 b7 2d 9b 45 c9 3f
       -0.6609467997687021 0.1974367116181887
000510 93 02 e0 7b 06 bd 3b bf 92 d9 38 42 49 a4 a8 bf
       -0.00042325409219760266 -0.048128403981922876
000520 6e ff a6 74 0c 7e 9d 3f 54 ff d2 22 17 29 ab 3f
       0.02880114995946264 0.05304786968326761
000530 1e 6a af 26 8a 53 f4 bf b5 14 39 7a 5b ea 8a 3f
       -1.2703954230443126 0.013142313640069106
000540 61 a4 13 6e 94 63 c3 bf aa 4e 96 75 58 4b a2 3f
       -0.1514764344676989 0.03573109088315836
000550 bc 57 a0 c3 9c 8b e1 bf 00 81 3d dc b3 7a 91 bf
       -0.5482925244166306 -0.01706963569392972
000560 d5 e9 96 e4 ed a4 97 3f b4 26 c5 f1 32 88 e1 bf
       0.023090092732425866 -0.5478758546898548
000570 31 6a ab f7 15 20 d0 bf ae 65 73 e7 c4 ff fb bf
       -0.2519583624504405 -1.7499436417623246
000580 6c 59 c9 c7 8b c7 ee bf c8 e3 9b bf cc 68 f3 bf
       -0.9618586446838839 -1.2130858883594886
000590 8a 0d c4 6c 82 54 de bf a2 98 92 04 7c aa a9 3f
       -0.4739080488363575 0.050128818090614105
0005a0 ac 4a 58 b2 81 e9 73 bf 9f e3 2a c3 b3 b3 02 c0
       -0.00486136114843087 -2.3377452132667282
0005b0 c8 e3 f7 fa 9b 47 e4 bf 90 30 79 6b f7 71 01 c0
       -0.6337413694119443 -2.180647697101513
0005c0 54 f1 e1 f2 db ef be 3f 37 9e 81 30 17 e7 ce 3f
       0.12084746055365275 0.24142732494805028
0005d0 60 d3 a1 26 b2 80 a1 3f df 2f ae d1 13 0d a4 3f
       0.03418499681075704 0.03916227278304495
0005e0 05 66 03 f9 1a da b9 bf 6f 3a 14 63 44 3d 69 bf
       -0.10098427371431036 -0.0030809722599152638
0005f0 a1 21 17 55 3e ff 60 3f 79 26 25 6e ec e8 cf 3f
       0.0020748345784548793 0.24929576280765156
000600 bc b7 5a 22 0d b3 eb bf d0 6f 02 dc 50 48 d3 3f
       -0.86560684881055 0.30128880963615945
000610 ce 04 06 35 89 92 d1 bf a4 88 38 4d 6d 25 b5 3f
       -0.2745688455398295 0.08260234008096973
000620 bd 8b a1 76 b2 a7 e2 bf 8e 04 f4 e0 9d 6b e5 bf
       -0.5829708401691885 -0.6693868058793144
000630 76 38 a4 c7 fd 43 bc 3f 70 82 29 f2 83 05 c5 3f
       0.11041246532497148 0.16423081707309306
000640 be 21 0d 57 34 98 d6 bf b6 86 b1 66 56 b6 dc bf
       -0.3530398225889505 -0.44862899807604195
000650 91 51 75 9a ea b6 cc 3f 4b 64 04 f9 94 eb c6 3f
       0.22433216611774445 0.17906438979187764
000660 a6 78 d4 d0 01 cc a8 bf 63 e7 39 1e 1e 91 9a 3f
       -0.04843145059770508 0.02594420489774708
000670 2f 90 60 76 e6 1c dd bf 23 d6 d8 b8 dc 9e cc bf
       -0.4548889308955521 -0.22359808946355128
000680 40 58 5e c1 b1 d2 f7 bf 3b 6f ac d8 40 1c e1 bf
       -1.488939051957928 -0.5346988899141033
000690 de ab 7a 26 8f 13 c2 3f 82 7a df 1f f7 bd 81 bf
       0.14122189883104758 -0.008663111362634316
0006a0 c4 5a ce 9d 25 53 b4 3f 0f 1e d8 79 44 af da bf
       0.07939372160613362 -0.416947478283391
0006b0 b2 07 9e 15 ec d8 cd bf b2 b8 03 fc 3d b4 b7 3f
       -0.23318244033367602 0.09259402659128815
0006c0 9e 90 9f 2b 7f 53 db bf 3a 81 45 1c 62 93 e7 bf
       -0.42697123775566037 -0.736741118638782
0006d0 77 56 20 03 7c c2 91 3f ed 9b 09 9d e2 60 de bf
       0.017343461695495024 -0.4746634038514788
0006e0 33 51 cc 37 ae c5 e5 bf 01 e7 a2 aa 96 a5 c9 bf
       -0.6803809251601137 -0.20036586124279412
0006f0 8a 24 68 6e ef af c2 bf 36 b0 00 1b ce 7b c0 bf
       -0.14599411860425376 -0.12877823179712927
000700 10 c0 24 ee 34 13 ea bf 6f 14 b5 d4 ea f9 d2 3f
       -0.8148445750466653 0.2965037419529101
000710 58 30 39 19 58 26 c6 3f 5c ab c4 65 32 8a db bf
       0.17304517013178855 -0.4303098672705141
000720 14 0b 23 d8 37 ef c3 bf 8a 12 b9 4a f2 02 f2 bf
       -0.1557378583293817 -1.1257193487992105
000730 a1 e2 b9 4e 33 09 b2 3f 6b c6 cd 92 30 10 e9 bf
       0.07045288726829792 -0.7832262866269962
000740 cb 59 1b 7e ad 35 af bf 4e f6 09 51 6c 43 6e 3f
       -0.060956403392697554 0.0036942592199114338
000750 83 d6 1a 67 3f 7c b1 3f 35 98 fd 4c 72 cd c5 bf
       0.0683021189423361 -0.17033222922617744
000760 aa 4f d0 4c 13 68 b6 bf 5e fc a3 9f 7c 88 bc bf
       -0.08752556443533757 -0.11145762345766871
000770 52 4c 11 61 d5 55 fa bf 77 d4 b6 c6 f3 03 c5 bf
       -1.6459554473592743 -0.16418311312523645
000780 21 d8 89 6b ab f0 f6 bf 26 4a a7 4c e3 87 c2 3f
       -1.4337572289200653 0.14477196925015895
000790 17 d7 b9 1f 46 c7 cc 3f ac bb 5e 71 4f 7f 91 bf
       0.2248313574706848 -0.017087212843474184
0007a0 e8 34 38 36 c2 8e c9 3f a1 53 fc f3 0e 1a d9 3f
       0.1996691479438717 0.39221547915195215
0007b0 41 76 fe ed f6 26 d4 bf 70 8a 82 6a 7b 18 db 3f
       -0.3148782085571363 0.42336926843032696
0007c0 09 04 54 f4 85 e1 b9 3f cd f6 b2 f1 28 9d b8 3f
       0.10109746184390657 0.0961480703435555
0007d0 63 3b e8 75 b1 c3 e9 bf bf 73 78 f2 90 93 df bf
       -0.8051383307336945 -0.493381726062406
0007e0 8a 9f 34 46 bd 99 61 3f b0 6a 8d 4e 77 62 86 3f
       0.002148503948450957 0.010929996571282657
0007f0 8b 08 cd bd 63 b2 d4 bf 6c 66 c1 6a b6 7f c4 bf
       -0.3233880380177047 -0.1601474782244624

0.bias f8 [32]
000000 5c 98 90 38 7b bc 6c bf 2b 32 e8 9c 74 99 6d bf
       -0.0035078436526588107 -0.003613212356191183
000010 b6 76 a9 d9 1c 71 62 bf 94 4f 4c 51 8a bf b2 bf
       -0.0022512019616403823 -0.07323517308060296
000020 25 46 58 c7 87 35 60 3f 73 ef bd d6 ef 09 66 3f
       0.001978650276904375 0.002690285144067711
000030 3a 6b 99 7d 1a e1 c4 3f f6 0d 26 18 d8 6c 71 3f
       0.1631196130063815 0.004254192465285458
000040 b8 ad c5 25 dc c2 84 3f 85 53 6a 8b 28 75 cf 3f
       0.010137290861812129 0.24576288993253229
000050 e0 5e b3 da d8 23 62 3f 05 58 87 fd 2c 9d 53 3f
       0.0022143588481461224 0.001197141586194218
000060 bc 22 17 cd ac 46 6b bf 9d 55 7f 4c 79 68 84 3f
       -0.003329598905768753 0.00996489300443209
000070 04 66 f1 1c 6e 04 b8 3f 3a bd fd fe 61 c6 a6 bf
       0.09381759840598397 -0.044482290627338064
000080 73 65 6a 9d 57 32 55 3f 16 8b 09 aa ca 89 58 3f
       0.0012937408079437245 0.001497695841089002
000090 6e 86 08 73 77 04 74 bf ee da 63 90 4e c7 a2 3f
       -0.00488707218076599 0.03667684090208022
0000a0 13 2c 11 8b d4 68 44 bf 2b c7 04 57 f5 8f 80 3f
       -0.0006228483017677332 0.00808707877931488
0000b0 4b d7 ee bc 8d da 7e 3f fe 14 00 45 01 cb 7a bf
       0.007532647766245247 -0.006541256865607579
0000c0 e3 26 48 69 65 b8 bd 3f 65 0b 2c d1 f4 23 5a 3f
       0.11609491176946167 0.0015954867164402417
0000d0 a6 9d c7 ca 2a f5 6c bf ac b2 2e b5 1a 87 7d 3f
       -0.003534873560272894 0.0072089236518137305
0000e0 bb 2c cb e2 52 fb 8b bf be 91 45 89 ca 6b 72 3f
       -0.01366295580500886 0.0044973289080627015
0000f0 cc 42 a4 b9 87 94 58 bf b9 26 79 6d 54 d1 6a 3f
       -0.0015002561036149718 0.0032736443497796944

3.weight f8 [64, 32, 9]
000000 31 16 3d 1c fb 47 be bf b7 ef 93 85 99 99 8d bf
       -0.11828584136409216 -0.014453124417279513
000010 b7 b0 5a 4e 36 0b 93 3f 0c e7 12 c0 55 68 a4 bf
       0.01859745839344448 -0.03985851258899062
000020 fb 40 a9 81 5c 56 b7 3f e4 98 4c 2e 50 9b aa bf
       0.09116151967578283 -0.05196619572807196
000030 98 af b3 ac 9f 47 b7 3f 11 7d 63 9f 91 59 bb 3f
       0.09093664137225088 0.10683546201061157
000040 b8 85 b6 91 84 f1 a3 bf 13 fe 3b c4 8d a8 bb bf
       -0.03895200995180964 -0.10804067650678233
000050 19 ba 3b e6 c6 b6 ba bf 41 ea f8 17 02 e7 ce bf
       -0.1043514549344099 -0.24142481012843756
000060 d0 7f 97 32 fa 60 c0 bf 53 ae 7f e0 bd a0 c0 bf
       -0.12795951338102762 -0.12990544759610376
000070 60 69 d8 6e 76 52 cb bf 59 ef 2b d2 68 59 b1 3f
       -0.21345405971880904 0.06777053004401291
000080 ed 80 ef 40 aa 8b b4 3f 55 05 ec 1a cb c1 d7 bf
       0.08025611958828778 -0.37120320920083333
000090 15 c5 e0 8a 40 a9 cc bf 9d af 62 c2 5e 2d b2 bf
       -0.22391516476776788 -0.07100479360332064
0000a0 ef 09 59 71 01 42 c6 bf 76 57 83 80 95 b9 cd bf
       -0.17388933214722566 -0.2322260739808219
0000b0 5c c4 f0 79 f9 d5 bd bf 41 99 9f a6 37 17 e4 bf
       -0.11654624201834579 -0.6278341535915289
0000c0 5a 84 9d 79 ed 33 a5 3f a9 21 3c f4 b5 f2 bb 3f
       0.04141180142938401 0.10917222225919566
0000d0 bb 0a fd e5 05 61 c4 bf 23 ba 5d e6 6b 8e b3 bf
       -0.1592109082212881 -0.0763919293801583
0000e0 e5 76 d2 56 75 6d 85 bf 5c 83 b9 a4 29 3f 6d 3f
       -0.010462681495762858 0.003570157370447564
0000f0 8b f0 02 e3 94 e5 97 bf 69 5c ca f3 f3 2c c6 3f
       -0.023336721759492234 0.17324685481864613
000100 98 dd de a8 0b 95 b8 3f 2a 6f 03 d2 b4 f8 c4 3f
       0.09602425453964825 0.1638399148422363
000110 7a 66 90 3a e7 2d bd 3f 00 1f 23 2f 1b 85 9b 3f
       0.11398167781626425 0.026874947311426034
000120 ff d2 3c 50 1a 56 b9 bf 8e 6e be 0a 45 b3 b7 bf
       -0.09897007426190994 -0.0925791884641802
000130 a1 3e 3c 6f 89 79 c0 bf 7e 9b c8 78 85 19 ae bf
       -0.12870901042378072 -0.05878846263322311
000140 4f 95 19 f1 38 94 91 3f f6 9d 69 f8 58 39 c9 bf
       0.01716698619420259 -0.197062608046721
000150 8b c6 e8 a4 19 38 96 bf 84 84 df 22 e1 39 b4 3f
       -0.02169838017488827 0.07900817014116696
000160 6b 17 3d d3 c8 00 b0 bf 12 b3 2b 60 f3 fa 90 bf
       -0.06251197011178326 -0.016582300896447917
000170 82 59 ab 08 7c c4 a0 bf 08 7d a4 a0 99 18 c4 bf
       -0.032749057825344444 -0.1570007357013099
000180 91 b4 6c e2 ab 1a b9 bf 5e 78 18 5d 87 3d 95 3f
       -0.09806322362847399 0.020742526108840635
000190 ae 96 ad fc 00 7b d5 bf 50 7d 17 a1 66 4f ae bf
       -0.3356325595435504 -0.0591995307584009
0001a0 d5 5c 60 e5 b4 c1 af 3f 0d e9 d2 5d 7b 2d b9 bf
       0.06202473926549038 -0.09835024872419158
0001b0 14 77 2c b6 ff 8e e2 bf 60 36 ba 44 53 cf de bf
       -0.5799559171752855 -0.4814041300931873
0001c0 61 56 78 6f ce 42 db bf 74 f2 5c b0 0b b8 d9 bf
       -0.4259525383543857 -0.40185825560528277
0001d0 bb c9 b2 e8 1b a6 d6 bf fd 4e ed 89 91 70 e2 bf
       -0.35388848995640004 -0.5762412732969718
0001e0 a5 16 49 fd eb d3 74 3f 99 24 03 33 cb 3f ad 3f
       0.005084916909771008 0.05712733266552412
0001f0 dd b0 e3 a4 b5 fa d4 bf 90 7a 4e 62 a8 08 c1 bf
       -0.3278020963905542 -0.13307671356320272
000200 54 2a 0a 2f 60 7b bd bf c1 f2 02 93 93 ad 8d 3f
       -0.11516381405287152 0.014491227077422566
000210 cd 0c 00 d8 e8 ef c3 bf f1 6a 5d 3b 87 65 90 bf
       -0.1557589583099798 -0.016012299536082023
000220 64 02 c0 e0 ea 8a e3 bf 03 ef e7 47 ea 86 b4 3f
       -0.6107077016495848 0.08018364196317056
000230 56 6f 1e 31 27 ad c6 3f ed 54 9a 87 f4 89 ae bf
       0.17715921305068133 -0.059646264603694245
000240 c2 a6 f3 fd 73 39 b1 bf 78 65 4c 44 5d 09 b5 bf
       -0.06728291463846417 -0.08217413823549247
000250 10 f9 0e f8 e4 db c0 bf 88 50 2a 4c 6c 52 c1 bf
       -0.13171064483862738 -0.13532785147674908
000260 52 b6 e4 0b 5d 28 aa 3f 6a 7a a4 fc 13 48 d1 bf
       0.05108919878180686 -0.27002429649465987
000270 51 49 a2 90 30 76 a1 bf 7a 89 ab 54 dd 4b a9 3f
       -0.03410484090376776 0.04940692575998447
000280 97 3f 1a 3d 84 b7 c2 bf 64 37 f1 4f 4d 1a e5 bf
       -0.1462254808761798 -0.6594606934902285
000290 2f 9c 58 2a 0a 90 d7 bf 37 06 40 e4 f4 34 df bf
       -0.3681664861237008 -0.48760721483276676
0002a0 a3 1d 0a 69 0d 73 e0 bf 28 12 d0 98 2a 9c e0 bf
       -0.5140444804718992 -0.5190632805466224
0002b0 6f d7 43 29 9e 5c e2 bf 34 bd 6d 0f f7 dc e0 bf
       -0.5738058858830594 -0.5269732762662103
0002c0 88 07 18 4d 96 27 97 bf 24 dd bf e1 76 a2 c6 bf
       -0.022611950354992 -0.1768330194752049
0002d0 be af 53 ec a0 f6 cc bf a3 92 04 f8 55 98 b7 bf
       -0.22627650775336677 -0.09216821007846447
0002e0 a3 34 07 4c 9a de c5 bf 2e 90 5c 37 24 39 c4 bf
       -0.1708557959777056 -0.1579938192672911
0002f0 57 72 85 f7 ef bd a6 3f 70 98 b6 22 81 c4 dd bf
       0.044417857136725906 -0.46511867895095005
000300 19 64 5e a9 cf fc 7d 3f 53 b3 d3 63 de 24 b7 3f
       0.007321177652465338 0.09040632188016433
000310 60 e2 52 b1 74 1b 87 3f 4b 42 55 5e 38 cb a2 3f
       0.011282836591236023 0.036706697001709
000320 cc b7 de 67 fa 78 72 bf b8 3b 02 61 ab 33 c4 bf
       -0.004509905002050684 -0.15782682644609536
000330 b1 0b c3 bb 61 ba 99 3f e6 85 85 04 d2 89 a4 bf
       0.025125052533222895 -0.0401139860648632
000340 c0 56 1c 5e 42 22 b2 bf 0a 4b 43 4f cb 3a 90 3f
       -0.07083525464653473 0.015849281990834498
000350 08 5e ee 9f 2c 2b c4 3f 13 e7 c5 f3 6b 6d a6 bf
       0.15756757554184753 -0.043803571231320636
000360 b4 b9 a6 72 6f 40 ad bf bb ac 4c 21 1e 72 ba bf
       -0.05713222765494966 -0.10330379784561476
000370 bc 98 f5 5a b5 2a cd bf 4e 78 24 ba fb 6f cf bf
       -0.2278658575189122 -0.24560495938289012
000380 37 1e 89 98 c9 4f d4 bf ac 6c 55 a9 79 1e c8 bf
       -0.31736984153801323 -0.18843003051992946
000390 f7 ef 56 38 b6 a0 a7 3f 4d 12 64 56 10 34 b1 3f
       0.04614800870646712 0.06720068082001625
0003a0 d2 b5 94 8a 93 98 cd bf aa f3 c0 de 6f f7 cb bf
       -0.23121876017232396 -0.21848867775579822
0003b0 e9 3e d0 72 65 dc be bf 10 4f e6 7e 7e dd c5 bf
       -0.12055048039496409 -0.17082196422835993
0003c0 cd 08 9b 60 2d 29 d2 bf f7 3a bf f0 77 c0 ad bf
       -0.2837632602132885 -0.05810904325300286
0003d0 48 09 29 cb 8d fe e9 bf b9 b3 8d 37 30 97 c3 3f
       -0.81232347182985 0.15305140221189875
0003e0 c7 e8 33 07 a4 af c4 3f ad 02 71 a9 cc 71 bb bf
       0.16161012984941278 -0.10720519196275786
0003f0 17 d4 5b b8 0d 58 e2 bf 83 b5 a8 2a 26 5c e4 bf
       -0.5732487297779042 -0.6362486680206277
000400 8e c9 e4 c9 85 8b e2 bf b7 31 c5 9d d3 69 e1 bf
       -0.5795315688358629 -0.5441682893229459
000410 40 2e 01 0f 0b d4 e4 bf 88 b9 89 e2 8f 6d e2 bf
       -0.6508841794070079 -0.5758742737360061
000420 e4 ea 76 4f 12 9f d0 bf 47 19 49 ab 82 40 c4 3f
       -0.2597089553852767 0.15821870196868756
000430 73 be 32 e3 c5 fa df bf f2 79 06 b9 b2 bb a4 3f
       -0.49968096911741283 0.0404945231305084
000440 f5 fd e6 12 00 c9 9d bf 68 0c 80 7f 2b 0d 80 bf
       -0.029087067750650026 -0.007837619617936123
000450 1b 48 4d 74 da a0 c1 3f 49 ab 0e 2c c5 b3 ab bf
       0.13772135428240592 -0.05410591280754901
000460 f8 83 2e da aa 83 64 3f 8d 87 1f 9d fd 63 ba 3f
       0.0025041901548807886 0.10308823667540264
000470 36 0f be 21 03 59 c5 3f 6d dc e5 85 bd b6 ba bf
       0.1667789377935322 -0.10435089606277055
000480 3e f7 3b a8 68 97 c4 bf 22 84 7c 9e c0 ae c5 bf
       -0.16087063040316169 -0.1693955205783207
000490 1b a6 ab fd ae 97 ca bf 0e b2 6d 89 30 70 c2 3f
       -0.20775401483778996 0.1440487547910298
0004a0 f2 63 b7 38 5a 6c 61 3f 0f fe 1a ff 73 bc e0 bf
       0.0021268617763152637 -0.5230045301941021
0004b0 d3 7c d8 ce 33 4a 7f bf 82 f1 58 d2 30 b6 8d bf
       -0.007639124274219716 -0.014507657450956616
0004c0 b1 54 ff fd de 8d b1 bf f4 4e 23 33 ce a8 c9 bf
       -0.06857103062732751 -0.20046403405159874
0004d0 4c 33 ac cf 5f 28 d5 bf 0a bd dc 7c 5f 79 c9 bf
       -0.3305892494252489 -0.19901650997915282
0004e0 db 14 4a 72 e7 62 c7 3f 2f 9b 20 c5 70 c0 b6 bf
       0.1827058132222764 -0.0888739091175068
0004f0 7f 12 eb 1a 8d 6f e1 bf 17 7b c7 51 bc 7c 93 bf
       -0.5448670888659563 -0.019030516139419165
000500 6a 20 2a 2b 50 55 b8 3f 52 33 01 01 8b 96 be 3f
       0.09505177549192614 0.11948460363892124
000510 0d ae 0d 51 ed 55 ab bf bf 45 c2 e4 96 e7 94 bf
       -0.053389946121424094 -0.02041469355805758
000520 a0 56 d3 92 1d a1 c4 bf 0f 20 d4 fc 67 71 c6 bf
       -0.1611668555184922 -0.17533588261744668
000530 58 20 21 de 15 8f ba bf 48 7e 7a 8b 6e 2b e3 bf
       -0.10374581025200891 -0.599051735323834
000540 50 d8 b1 ce 09 85 a7 3f 06 2b 40 5c ee 32 a5 bf
       0.045936876755988565 -0.041404198418680635
000550 32 98 c8 89 e8 80 c4 3f e3 a0 6e a3 6b fc e0 bf
       0.16018397071565144 -0.5308130447420151
000560 04 fe a7 4c 7c 14 d0 bf d1 9f 18 cf 08 a6 d8 bf
       -0.2512503384204765 -0.3851339361594884
000570 de dc b6 76 1a d4 ce bf eb 68 5a 3e a7 8a ca bf
       -0.24084788128468565 -0.20735636276805933
000580 3d a9 fa 09 4b 4e e2 bf fa 36 8f f9 83 ae a4 3f
       -0.572057265749471 0.04039394780521195
000590 1f ee c7 12 8e 53 bb 3f 00 3a c7 1c e1 c6 be bf
       0.10674369772453261 -0.12022215797990299
0005a0 01 eb 92 57 33 53 a6 bf 80 32 ed 38 7a 20 94 bf
       -0.043603519859479085 -0.019655141567727075
0005b0 76 90 0d df 9c 67 b7 bf 61 f3 df 9e 44 b0 b6 3f
       -0.09142475553159266 0.0886271369817684
0005c0 d3 ad 1d 00 e7 e5 c6 bf 90 11 10 2d ff f5 c2 bf
       -0.17889106279049702 -0.148132225993447
0005d0 fb 12 6c dc 93 90 5e 3f d8 28 5b 6c 99 20 67 bf
       0.001865524669200257 -0.002823161749664665
0005e0 d4 b9 69 6a 71 3b 95 bf ac 57 ed 58 57 69 cf bf
       -0.02073456966393812 -0.24540225832123264
0005f0 69 e2 21 16 f3 ac a8 bf 61 90 0b 56 bb d5 95 3f
       -0.04819450040026114 0.021323134543209558
000600 4a 7f 38 78 66 3b b2 bf ae 80 ce 01 7a 5e b4 3f
       -0.07121887621951575 0.07956659835918131
000610 07 9b ea 9b 29 e2 b9 bf 05 b8 94 1c 41 fa 8c 3f
       -0.10110721642068309 0.014149197277756551
000620 57 6d 0b 4e 3c d4 a0 bf b7 16 36 0e 70 e8 a3 3f
       -0.03286922886555981 0.038882734045768634
000630 a8 92 26 7e 21 9d 9d bf d9 84 70 cf 80 f3 b7 bf
       -0.028919719051958254 -0.09355931343499736
000640 d0 49 33 f5 f4 e5 b8 bf 6e 02 28 94 24 41 b2 3f
       -0.09725886331879185 0.0713065015515981
000650 f9 ff e6 17 d3 87 97 3f 42 60 4e e1 6d dd c4 bf
       0.022979067167170773 -0.1630074834945408
000660 d4 45 5a 34 da 7c ba 3f 20 7e df 54 02 44 87 3f
       0.10346759584560711 0.011360185828322378
000670 59 e8 38 01 28 82 b9 bf 00 a2 00 f5 0e 68 b4 bf
       -0.09964227704850383 -0.07971280557161009
000680 8a a5 01 e7 dc 79 d2 bf dc 69 7d 24 b5 ac d3 bf
       -0.2886879211351575 -0.30741623462168177
000690 ae 2d 39 e6 12 fc ce bf df 07 bb 28 df 03 c1 3f
       -0.24206768266081496 0.13293065537260326
0006a0 b2 8a a9 7a 92 53 c1 bf 21 27 1f 2a b8 ef c2 3f
       -0.13536292065972116 0.1479406552955931
0006b0 98 50 2e 15 d5 49 b7 bf 4c 59 08 31 be 4e c1 bf
       -0.09097034232246626 -0.13521554369135413
0006c0 6c 21 11 35 53 5d e3 bf a7 8f 4e 5d 7a aa d6 bf
       -0.605142215391465 -0.3541551505279536
0006d0 f9 44 17 ef fa ae dc bf 8a f6 44 cb bd 5b df bf
       -0.4481799445030244 -0.48997444963956893
0006e0 16 8e 64 ef 23 12 e0 bf de 62 28 86 5f ba e3 bf
       -0.5022144008293619 -0.6165006275433276
0006f0 20 75 86 c2 e7 b2 d9 bf 19 db 0f 44 90 88 23 bf
       -0.40154451367000554 -0.00014902840669580515
000700 88 62 6c c5 d0 c8 d3 bf e5 c8 58 ef 75 d8 c3 bf
       -0.30913180617930225 -0.15504335581642362
000710 9c 6e 7f db c4 19 93 3f 15 aa 71 32 12 b8 a7 bf
       0.018652988335687057 -0.04632622590800765
000720 41 e5 11 6d 49 78 a9 bf c7 78 fb c3 2c e8 ab 3f
       -0.04974584061069232 0.054505728648778944
000730 3d a7 52 1a 0a 7b d3 bf 05 09 dd b8 b5 23 87 bf
       -0.3043847329196188 -0.011298579887470081
000740 72 ff ee 5d 94 5f a8 3f e2 07 f5 3a 83 d3 c0 bf
       0.04760421415949069 -0.13145485285536923
000750 8b 97 a6 a1 5d 25 a5 bf aa 77 38 c9 b5 18 c5 bf
       -0.041300703032262374 -0.1648165924570411
000760 79 c4 6b 2f 38 76 cc bf d5 7a cb 4a af a6 b5 bf
       -0.22235777202107324 -0.08457465721174214
000770 2c 5f cb f7 76 3e 59 3f 28 86 af f5 b8 a0 d8 bf
       0.0015407716556889535 -0.38480972283113823
000780 7d 8a f3 f0 49 15 a5 3f b1 e3 63 76 e3 0d a9 3f
       0.0411780459051174 0.04893408603852068
000790 aa 04 55 d7 72 b3 b2 bf 46 fc 0f 5b 54 00 d1 bf
       -0.0730506683076039 -0.2656451119691535
0007a0 e9 fa b8 89 a6 30 8d bf 86 5a c5 15 88 ac a4 3f
       -0.014252949789008667 0.040378811509687515
0007b0 91 61 0c 1e 64 b9 a1 bf 44 1e b0 22 2d d9 9b bf
       -0.034617546718609955 -0.027195649377999467
0007c0 8d 97 9c 5a b4 b2 98 bf 8a 76 1c ab 10 cb b1 3f
       -0.024119203596590522 0.06950477769393096
0007d0 dc b3 66 22 d6 f9 a9 3f df 27 af df 2b e7 bc bf
       0.05073422594009688 -0.1129023953536996
0007e0 4e 0d 3a 9f 32 df d4 bf ea d8 60 94 9f 40 ba 3f
       -0.3261229090641863 0.10254857418553667
0007f0 58 25 3a 47 65 12 cb bf 44 8a 2d 5d 89 16 c7 bf
       -0.21149888971221276 -0.18037526178075514

3.bias f8 [64]
000000 62 22 7b d9 ba fc e0 bf 80 1b 0c 55 73 86 a4 3f
       -0.5308508155513432 0.04008827603507026
000010 fe d6 36 ca 8d 8a d4 bf 17 2d ae c2 a3 49 c3 bf
       -0.32095665690881947 -0.15068480497243605
000020 eb a3 47 79 0f 21 a5 bf a4 0a 95 00 d0 9e c0 3f
       -0.041267856173199245 0.1298465731470816
000030 19 a1 b9 47 c0 e6 99 3f 33 4f 7f 47 01 94 c0 3f
       0.025294308068994107 0.12951675406531535
000040 1d 79 3e 7d a0 2b a5 3f bd 74 7a 9a 58 4a be 3f
       0.041348471916750486 0.11832193156665745
000050 f8 71 4b 5f c8 05 a3 bf 18 12 87 3c 01 70 e6 bf
       -0.03715349353089786 -0.7011724645786357
000060 46 b8 c8 81 c7 23 a4 3f 0d 97 f9 64 31 c9 a3 3f
       0.03933547457960222 0.03864435536961084
000070 d2 1e 48 c5 0b 7f b0 3f d9 53 e4 21 9e 7f a5 3f
       0.06443856779525994 0.041989270817942966
000080 48 83 e0 5c 56 04 c2 3f 4b 6b 8d 69 61 c7 b3 bf
       0.14075736556062624 -0.07726105524981823
000090 c7 53 4b 6c b8 f4 95 3f 2f 26 52 87 f0 5b cf bf
       0.02144134675002698 -0.24499327285256942
0000a0 73 cd 3d 46 3a 95 b5 bf 10 2a 0c 7b 5f 45 a8 bf
       -0.08430828299406361 -0.04740427376789935
0000b0 c7 5b 84 a5 fa 11 a6 3f 77 63 64 94 8e 84 aa bf
       0.043105919556345955 -0.0517925792830231
0000c0 dd 64 4c d4 10 1a 94 3f b4 7b 78 6f 22 9e a5 3f
       0.01963068290487945 0.04222209559178883
0000d0 cd f8 5e 55 de b3 b3 bf be 94 f2 a6 92 ad a2 bf
       -0.07696332535030877 -0.036480505828231355
0000e0 9d 50 dd e9 f8 37 7c 3f db d5 3d e8 e7 df be 3f
       0.006889316862572906 0.12060403270682889
0000f0 a4 8b 6a 33 50 8a ad 3f 89 0e dd 76 65 3e ae bf
       0.0576958716167362 -0.05906979633303162
000100 1f 7f 84 1e 84 81 be 3f 5e 6e ce ef ae 8a bf bf
       0.11916375870759709 -0.12320988993308776
000110 31 3b 42 ff 4a 41 a0 bf 4d a5 84 c1 b0 7c b1 bf
       -0.031748145732413476 -0.06830887531818526
000120 88 6d 59 80 d9 9e 82 bf ed 3d 9f 01 f6 c4 bf bf
       -0.009092044095430976 -0.12409913577652505
000130 e1 96 a2 23 b9 42 8f bf 7f f6 58 2d f4 da 94 bf
       -0.015263983154294393 -0.020366492526810106
000140 96 97 c7 fe 98 25 b2 bf ec 66 3a 1e 6c a1 c1 bf
       -0.07088619442182983 -0.1377387187574678
000150 39 35 e6 8e 8e ac b2 3f 08 bb 0c 28 d2 5d be bf
       0.07294550884963237 -0.11861909368301948
000160 92 91 90 e8 ef 60 ba bf 84 4d 90 64 25 6d a3 3f
       -0.10304164340829505 0.03794209339698809
000170 61 cc e4 bc eb e3 b2 bf 6a 79 bb c5 b9 b5 9c 3f
       -0.07379029618896162 0.0280369784294349
000180 e2 6d f2 f9 09 ee b6 3f 06 db 31 00 f9 79 c9 3f
       0.08956968643399635 0.19903481015690988
000190 d5 c7 8e 7c 4c 33 82 bf b9 ab ab 4c 2e 7a 71 3f
       -0.008886907149506055 0.004266911370659204
0001a0 f2 c9 28 50 b3 d0 b6 bf c9 c3 fa d3 b0 f4 b6 bf
       -0.08912201601996353 -0.08967118430406552
0001b0 0b 3c 32 6c 6c 63 9a bf 0f 36 6a 05 25 03 c0 3f
       -0.025769895652555202 0.1250959659995918
0001c0 22 68 ce 89 7e ff da bf 93 36 47 be 3c c5 e3 bf
       -0.42184413392681297 -0.6178268162127146
0001d0 3c ee 86 8e 39 57 c3 bf f8 00 13 ab ce bb 87 bf
       -0.15109939059571953 -0.011588682742854392
0001e0 c6 9c e5 70 13 d4 c9 bf 1f 34 0a d8 09 bb b4 bf
       -0.20178454411072816 -0.08097898029718963
0001f0 8b 7b 7a 06 3d 67 bc 3f ba a5 28 29 fa e8 93 bf
       0.11095029266514993 -0.0194434249516797

7.weight f8 [1, 128]
000000 da 86 fc f1 11 7f 8e 3f fc a0 60 7b ff 17 8d bf
       0.014890804478969445 -0.014205928757363477
000010 94 f8 a4 a3 00 2d b5 bf 19 3a d2 aa b6 54 d2 3f
       -0.08271793360924767 0.28642050439603534
000020 bf 67 41 14 23 02 c1 bf 33 02 5b a3 05 9b ae 3f
       -0.1328777169135815 0.05977647418103906
000030 cd a4 7a bf e5 32 d2 3f 58 3a b7 cd 60 e1 ce bf
       0.2843565339959014 -0.2412529949637754
000040 b5 f4 21 ae 46 6a e0 bf 5f 75 41 e4 61 da c8 3f
       -0.5129731560733918 0.19416450162217821
000050 e6 e9 14 d1 bf c0 d1 3f d4 90 35 6b 8a 77 c0 bf
       0.27738948267110997 -0.12864809260202625
000060 15 ac a1 de e9 42 c8 3f 95 b1 45 0d d7 d1 a8 3f
       0.18954203959160112 0.048475952501436805
000070 43 bf 02 0d 7b d2 c9 3f e6 39 83 cc e5 28 d2 bf
       0.20173586020745846 -0.2837461945718175
000080 6e dd 26 e8 71 16 e0 3f 58 0f f9 fd eb e3 b9 bf
       0.5027398618903314 -0.10113406134138125
000090 6c de 3a 1a 9b c3 d2 3f 02 c2 c8 2c 55 07 c5 bf
       0.29318883477706126 -0.16428627669075985
0000a0 c9 ba fc 41 d8 54 a3 bf ad 08 09 b6 f3 8b a2 3f
       -0.03775668912418479 0.03622399899588067
0000b0 15 5d 62 b2 ce f3 a4 bf d6 4c 73 d0 89 94 b1 3f
       -0.04092260291616349 0.06867276515122298
0000c0 02 2d 3f c7 bb ff db 3f 5a d3 ea 9f 36 4e 89 3f
       0.4374837346810666 0.01235621142891723
0000d0 33 a3 f1 3a 9a 89 d6 3f 16 05 01 80 57 e0 a2 3f
       0.35214858776321306 0.036867842078672705
0000e0 bf 9d e6 83 a1 f2 de 3f a4 21 5b 2e 41 a1 c6 bf
       0.48355901604596946 -0.17679610026813208
0000f0 43 2a b8 ab 5a 6d d9 3f ce f6 01 0c 74 55 6b bf
       0.3972994496295181 -0.0033366457501518903
000100 c7 13 c4 cf d0 18 df 3f 60 aa bf cc 08 71 c9 bf
       0.48588962831155097 -0.19876203534598158
000110 6c 6e fa f5 1d 2e db bf c2 d5 82 48 08 a4 c5 3f
       -0.4246897604113886 0.16906837025241656
000120 ef 64 93 d8 5e 4d d0 bf ee 84 22 5b 81 fd d2 3f
       -0.2547223200795789 0.2967227354038887
000130 e8 38 d9 45 3c f4 ac bf 80 ba 10 f8 0c 82 b2 3f
       -0.05655086853640673 0.07229691559107643
000140 a3 f3 a2 cc e6 8b d2 bf 47 03 15 46 82 72 c4 bf
       -0.28978891357456343 -0.15974453374840378
000150 74 d7 49 2f 35 f1 b2 bf 45 0f a5 4a c0 44 aa 3f
       -0.0739930382204344 0.05130577956381769
000160 15 57 3a 3c 7c 1d d0 3f 43 55 81 60 fd 0a a7 3f
       0.25179963952665335 0.045005720167561346
000170 a2 ae c7 b2 39 90 98 3f a2 70 a5 8e eb a3 ab 3f
       0.02398767617880416 0.05398498646056395
000180 2f 12 92 2e 4a 30 e1 bf ce 80 a8 7d 19 02 b5 bf
       -0.5371447476941905 -0.08206328695132756
000190 fe 4c 54 c9 ab 4a dd 3f 4c 68 d3 57 3c dd c8 bf
       0.4576825586420482 -0.19425157822007788
0001a0 25 b2 57 81 e2 43 d6 bf 42 9e 53 bd 56 77 be bf
       -0.3478933585272748 -0.11900846597893014
0001b0 2e 56 ce 08 5b ec a6 bf be bb d8 1c 75 2a 91 3f
       -0.044772000145865895 0.016763524900109898
0001c0 6b ed 1f f4 e9 37 d2 3f 3a e1 a3 3c 39 24 c3 bf
       0.2846627124815401 -0.14954295597977724
0001d0 06 64 c0 3f 3f be d8 3f c5 80 59 57 d3 0a c7 bf
       0.38661175943121895 -0.18001786961668223
0001e0 9b 07 54 90 af 18 d5 3f c8 27 8b 66 d1 b7 cf bf
       0.3296317014174918 -0.2477971792889646
0001f0 d1 14 df 57 36 d3 ac bf c9 bc a6 f1 f6 a0 84 3f
       -0.05629892180108132 0.010072640657055836
000200 0f 58 bc 92 13 38 d7 3f 0b 08 5b b2 97 c3 bb bf
       0.3627976353612902 -0.10845325569519575
000210 5d d6 a1 3f a2 0d 94 bf b8 96 5a 6b 23 7f 96 3f
       -0.01958325875644672 0.021969369342193373
000220 d8 6b 1e 28 6d dc 88 bf 78 4b 55 09 28 d6 ae bf
       -0.01213917998011553 -0.06022763360910849
000230 84 3c 64 a9 7e 28 d8 bf 63 7f 4e 36 ea 9d c5 bf
       -0.37747160474913977 -0.1688816800278757
000240 a1 ee 13 11 82 40 d9 3f 07 68 9f 94 dc 1b 6f bf
       0.3945622603202797 -0.0037974651540766432
000250 bb cd ce 85 87 a4 df 3f 29 ef 6b 4b d3 cb c6 bf
       0.4944170767514284 -0.17809525664039796
000260 d1 47 7e 01 3a 04 d7 bf d6 39 10 63 58 46 92 bf
       -0.35963297029331637 -0.017846470877026586
000270 55 2e 6c 6d a1 f5 d8 3f fa 0e 54 02 80 ab ab 3f
       0.3899921005802061 0.0540428164331654
000280 78 7f b6 58 83 24 87 3f e3 7f 9b a0 60 9b 98 3f
       0.01130011190872414 0.024030217936228736
000290 6d 25 63 80 7f 74 cb bf 6a 54 64 8c 00 5a cb 3f
       -0.2144927384272636 0.21368414740632896
0002a0 ba 55 89 71 37 f9 c4 3f f1 20 ef 64 b2 d8 ea 3f
       0.16385548633358643 0.8389522525185652
0002b0 08 3e 10 d0 4c fc c5 bf 49 f6 ef 15 8b 6f bf 3f
       -0.1717620864805982 0.12279576573924901
0002c0 c3 44 3c 34 41 ed b3 3f db 4f ca c7 57 ab ab 3f
       0.07783896947173034 0.05404161752554134
0002d0 35 a3 0a b1 7e 95 da 3f dc 75 10 e5 24 58 85 bf
       0.4153744439050116 -0.010422027817237493
0002e0 00 21 3f b7 10 d7 47 bf 72 25 53 90 b9 7c a9 3f
       -0.0007275420780326336 0.04977970015313361
0002f0 d2 1d 9e 62 cd 79 dc 3f 80 3c 4e d8 b8 d7 b4 3f
       0.44493422155980256 0.08141665726565073
000300 c7 b2 23 e6 03 11 d9 bf c2 f1 70 f6 dd 04 99 bf
       -0.3916635272460493 -0.0244326287904515
000310 7e 75 7a 22 78 8d e0 3f 36 e9 a2 2a 3f a0 cb bf
       0.5172691987424256 -0.2158278425393491
000320 65 83 04 77 82 f4 d1 3f 23 17 0a 13 46 1f b9 3f
       0.2805486833840887 0.09813344921903115
000330 d2 f0 33 0d f1 33 6e bf a6 cf c0 6d 36 57 d6 3f
       -0.0036868770636130166 0.3490730354126249
000340 15 ec d8 cd a0 9f b2 bf cb c4 b8 1a 49 72 ac bf
       -0.0727482321316731 -0.055559429656918256
000350 f1 0d 07 d7 f3 2f cb bf 71 0b 48 85 10 89 c1 3f
       -0.2124008941592446 0.13699537761575756
000360 7e c2 23 fb 67 43 da 3f cb 20 f1 58 35 f0 c5 bf
       0.41036414647445685 -0.17139307825914893
000370 3c 6d c4 40 5c 12 bf bf 6e 62 49 4e 2b bd c2 3f
       -0.12137390691025457 0.1463979847201417
000380 33 43 cb 46 b4 52 66 bf ed 4b cc 43 dc 6b 82 3f
       -0.0027249833131936184 0.008994789904624734
000390 70 e7 e6 d4 56 f4 88 3f 9e 10 76 2f 14 e8 cb bf
       0.012184790012600394 -0.21801998441163034
0003a0 08 cd e0 e1 83 69 d0 bf df 33 ed e9 ad 19 97 3f
       -0.2564401346055125 0.022558896448845785
0003b0 7b 81 a7 85 44 fe 90 bf da d4 35 ab 4d eb 83 3f
       -0.01659495416413524 0.009726149356291836
0003c0 c8 b4 fb 17 9f ee 9b bf 0f fb aa c8 0d 01 9d 3f
       -0.02727745612985613 0.028324332592769837
0003d0 31 c8 4f 45 5a e9 ce bf 72 79 c3 e8 97 a9 ca bf
       -0.241496356814936 -0.20830057969483168
0003e0 71 ce e8 40 8a a4 d9 3f ba 27 d9 03 bd 6a c1 bf
       0.4006677278405056 -0.13606989562896193
0003f0 5f 3e df e7 cd 97 7d 3f 12 0d a8 63 7e c3 b0 3f
       0.007224850005470878 0.06548299725550447

7.bias f8 [1]
000000 74 05 c0 53 e4 d9 9c 3f
       0.028174941646289267
